3tier-app/learnt_model/real_sim_jvm/model_3tier.tflite (tflite, 148092 bytes, 48 tensors)

dense_9/bias f4 [40]
00000000: e6bf 8cbd ed02 37bd 15f4 7a3d 9303 01bd
00000010: 0219 113c 67c5 8f3b 8be3 2b3c ff79 df3c
00000020: a086 613c c27c 153c 9b2a 1cbc bbae 0abd
00000030: 9287 8cbc f9d6 693e f49d a7bc abf1 c03a
00000040: b74a 85bd 693b 383c 1605 f0bc 0fc9 d039
00000050: 8745 143e 427b 41bd b264 b5bc f46a 83bc
00000060: bcea 463c f4a7 1f3c 2d48 f7bc ff25 2fba
00000070: 7b39 27bd daf6 82bc b6f5 55bd ff2b 05bd
00000080: e133 3abd 8819 43bd 7ebf 01bc b0c1 2a3c
00000090: 41fd 95bc 5656 12bd c91e 25bd 245c abbc
-0.06872539 -0.044680525 0.06126793 -0.03149755 0.00885606 0.004387546 0.010491262 0.027279852
0.013765007 0.009123983 -0.009531642 -0.033858042 -0.017154489 0.22835912 -0.02046106 0.001472046
-0.06508391 0.011244633 -0.0292993 0.00039822652 0.14479648 -0.04723669 -0.022142742 -0.01604221
0.012140926 0.009744633 -0.030185783 -0.0006681382 -0.040826302 -0.015986849 -0.05223628 -0.03251266
-0.04545963 -0.04763177 -0.00791919 0.010422155 -0.018309237 -0.035726868 -0.040312562 -0.02091796

dense_8/bias f4 [40]
00000000: 40ac 35bd 9668 7c3d a03e 9a3b c999 2abb
00000010: 40e8 0fbd b174 33bd 077a f33d 6186 36bd
00000020: e030 983d b9af 943d 3456 f63a f76b c7bc
00000030: 42a5 40bd cc52 20bd 7317 2abd 55e0 a7bc
00000040: 9343 55bc 81db cdbc 4693 b3bc 45ae c3bc
00000050: 911f 853b 08ff 03b7 36c0 50ba f385 a5bb
00000060: ef23 7b3d 9f65 0bbd f4c6 b1bc e1c4 1cbd
00000070: ebd5 b03d d14d ac3e e78d 63bd f87a 28bd
00000080: 9d22 d1bc 8e8c bcbc 4502 4cbd b46c 19bd
00000090: 1d03 f3bc bad4 3fbd 90a9 81bc cd4d 5fbc
-0.044353724 0.06162318 0.0047071725 -0.0026031605 -0.0351336 -0.043812457 0.11888509 -0.044561747
0.07431197 0.07260079 0.0018794001 -0.024343474 -0.047032602 -0.03914146 -0.04152627 -0.020492712
-0.013016599 -0.025129082 -0.021920811 -0.02388681 0.004062601 -7.867588e-06 -0.0007963212 -0.0050513684
0.061313566 -0.03403246 -0.021701314 -0.038273696 0.086345516 0.3365312 -0.05555525 -0.041132897
-0.0255292 -0.02301624 -0.049806852 -0.037457183 -0.02966457 -0.04683373 -0.015827924 -0.013629389

dense_7/bias f4 [40]
00000000: 18b5 2ebb 6232 6dbd 8f4c 923d 4350 613b
00000010: a528 ccbc 6397 883b 10e4 aabc 158c 9a3c
00000020: 4281 7d3d 70c7 393d 25c1 37bc f447 893d
00000030: 2c1e e43c c5b0 c7bc aca5 57bd 9fa4 1cbd
00000040: 92ff 0a3c c684 35bd d583 1d3c 8f1b 973c
00000050: 0c7e 4bbc a31e bb3e 9d55 0d3e 1a32 903d
00000060: efaa 19bc 0847 50bd cef0 0bbd d717 89bd
00000070: 2b07 39bc 2c04 103d 66e3 29bc 1203 a2bc
00000080: 72d4 7dbc 9f58 60bd 39a9 4fbd ce14 3b3e
00000090: 55bb 5f3b a30b 19ba 8a51 c3bc a8bd 813e
-0.0026658233 -0.057909377 0.07143509 0.0034380115 -0.024921725 0.0041684373 -0.020860702 0.018865624
0.061890848 0.045356214 -0.011215483 0.06703177 0.027846418 -0.024376282 -0.05264823 -0.038242932
0.008483784 -0.044316076 0.009613951 0.018445758 -0.012420189 0.3654681 0.1380219 0.07040806
-0.009379133 -0.05084899 -0.034165196 -0.06694 -0.011293213 0.03516023 -0.010369157 -0.019776855
-0.015492545 -0.054772016 -0.050698493 0.18269655 0.0034138758 -0.0005838221 -0.023842592 0.2534001

dense_6/bias f4 [36]
00000000: 42d0 acba b4c4 68bc fc0f 8a3e a4a4 b5bb
00000010: 083f 5239 44f6 fd3a d06a a1bb 5549 7939
00000020: c893 44bc 4130 0dbc 945b 793c d427 e3ba
00000030: 4680 213c 2ef6 943b 8318 1ebe e7ad 2f3c
00000040: 2605 b63b 1756 7a3b 79c4 b33a 38aa 27bb
00000050: f927 81bb 8431 af3a f85b 77ba 6600 98ba
00000060: 1712 c73b 221e 0bba d321 973e 6551 b13b
00000070: 2220 133b afd7 8dbb 3903 a73b b193 9e3b
00000080: 8aa8 bbbb 04b0 9b3b 0799 caba cc85 01bb
-0.0013184624 -0.014207054 0.2696532 -0.0055433083 0.00020050642 0.0019375761 -0.004926063 0.00023773809
-0.011998124 -0.008617462 0.015219588 -0.0017330595 0.009857243 0.0045459485 -0.15439038 0.010722614
0.005554813 0.0038198286 0.001371517 -0.0025583636 -0.0039415327 0.0013366197 -0.00094360067 -0.0011596798
0.0060751545 -0.00053069193 0.29517993 0.0054113143 0.0022449573 -0.00432869 0.0050968197 0.0048393835
-0.0057268785 0.0047512073 -0.0015456983 -0.0019763587

dense_5/bias f4 [40]
00000000: c5ae 30bd c592 393c bd40 dbbb ef51 95bd
00000010: 3442 a3bc 9271 a9bc 92cf 55bc bde2 2dbd
00000020: c8f0 e0bb 6cad debc 2249 0fbd 9cd4 5fbd
00000030: fbee 6cbd 84cd 0b3d 47c1 babc 8deb 45bd
00000040: b746 8abc 34cf 79bd a260 9fbc 2a5e 85bd
00000050: 3217 0abd 574f e2bb 73f3 e7bc bae6 f2ba
00000060: bdd3 3bbd a589 47bb c2ab 46bd 1b4b d6bc
00000070: 40d6 1cbd 4071 9fbd 5e3b bbbc 78d2 91bc
00000080: faed e5bc 36e1 52bd 459a 28bd 2bdb 87bb
00000090: d7c7 833e 0d18 dfba 68d0 4a3c 6fdf 68bd
-0.043135423 0.0113264965 -0.006691067 -0.07291018 -0.019929029 -0.020684037 -0.013049977 -0.042452563
-0.006864641 -0.027182303 -0.034981854 -0.05464612 -0.057845097 0.03413154 -0.02279724 -0.04832034
-0.016879423 -0.06098862 -0.019455258 -0.06512101 -0.033713527 -0.0069064307 -0.028314328 -0.0018531897
-0.045856226 -0.0030447033 -0.048503645 -0.02615886 -0.038290262 -0.077852726 -0.022855457 -0.017800555
-0.028067578 -0.05148431 -0.041162748 -0.004146 0.25738403 -0.0017020717 0.0123787895 -0.056853708

dense_4/bias f4 [40]
00000000: 8369 4cbd a7bf 3dbc 3b24 903c b10c 83bd
00000010: c773 433d 15ce 24bd fa31 26bd 24d3 22bd
00000020: 875a 6fbb 9bf6 31bd 9360 a8ba 52cd 2abd
00000030: 5cc2 1cbd d78e 06bc eded 3ebb a9e6 2dbd
00000040: fd0b 91bc a4db 74bd 0a49 febc 0965 10bc
00000050: 124d 86bc 6ea9 143b 49d9 42ba 9e0d a7bc
00000060: 9fc4 223d 40e7 eabc 8d27 e8bc 3c9e 91bc
00000070: 87ac 48bd 5e7b 813b 79b7 e43a 8f39 4c3b
00000080: 00e5 68bd 5e37 5d3d 45c1 34bd 6dbb debb
00000090: e583 1bbd 326d eb3c 72d1 d1bc a57a 993c
-0.04990531 -0.011581338 0.017595401 -0.06398905 0.047717836 -0.040235598 -0.040575005 -0.03975214
-0.0036522464 -0.043448072 -0.0012846164 -0.041699715 -0.038271293 -0.008212767 -0.0029133514 -0.042456303
-0.017705912 -0.059779778 -0.031040687 -0.008813151 -0.016394172 0.0022683996 -0.00074328907 -0.020392235
0.039738294 -0.028674722 -0.028339172 -0.017775647 -0.04899266 0.003951474 0.0017449699 0.0031162237
-0.056859016 0.05400788 -0.04412963 -0.0067972452 -0.03796758 0.028738592 -0.025612567 0.01873524

dense_3/bias f4 [40]
00000000: ae78 ec3c dfde 33bd 577c c3bc 3fe1 09bd
00000010: 7627 2ebd 8f5c 89bc c86d 67bd a45a 61bc
00000020: 3ca9 bcbb f60a 3dbc e69d 49bd 485f 02bd
00000030: 710c fa3b 2b78 e7bb 1e01 17bc 910e 7cbc
00000040: e9a7 c9ba b697 2e3d 8f45 86bd f993 293d
00000050: 5065 31bd fa97 49bd 0f03 43bd d8dc 8f3c
00000060: 3b9b edbc 562e f43b 82f1 be3c f318 843c
00000070: 386b a2bc 5c00 083c b719 133c e54f f8bc
00000080: 8260 29bd 6eed adbc 15aa 393c 3989 14bd
00000090: 7f8c 54bc fe94 ac3c ef38 a4bc 76a3 42bd
0.028866138 -0.04391372 -0.023863 -0.033662077 -0.0425181 -0.016767768 -0.05650118 -0.013754521
-0.005757479 -0.011538258 -0.04922285 -0.03182915 0.0076308777 -0.0070638857 -0.009216575 -0.015384332
-0.0015385124 0.04262515 -0.06556236 0.041400883 -0.04330951 -0.0492172 -0.04761034 0.017561361
-0.029004684 0.0074518127 0.02330852 0.016125178 -0.019826517 0.008300867 0.008978299 -0.030311534
-0.041351803 -0.02123138 0.011332055 -0.03626368 -0.01297295 0.021067139 -0.02004668 -0.04751917

dense_22/bias f4 [45]
00000000: 5390 88bb 6e4a ddbb 0f2d 8f3e 2185 27bb
00000010: 4e43 f3ba dff7 b03b 4a92 763c a38c dbbc
00000020: 0011 b03b 80af 7abc d72a ec3b d0fb d63a
00000030: 64f0 9b3e 47da c4bd 2c3e b83d 14b5 9abc
00000040: 8713 db3b c3ba cabc 97f6 0ebb c4bd 1bbb
00000050: ea4f c2ba 0833 cc38 f8b2 60bb 7f2f b2b9
00000060: 13e0 2c3c 7900 9cbb fde6 dabb 5760 7fbd
00000070: 660b 2b3e bc64 b4bc 5dd4 9f3c c51f d4bc
00000080: 5ba0 edbc 84e4 d13b 9995 79bb caa0 893b
00000090: 2ae8 cabb 4e4e 103c 1437 9439 b240 843c
000000a0: 5755 27bc f5a3 13bc 5cb9 4dbc f5f3 6fbd
000000b0: 3584 0a3e
-0.0041675954 -0.0067532575 0.27964064 -0.0025561529 -0.0018559487 0.0054006423 0.0150495265 -0.02680046
0.0053731203 -0.0153006315 0.0072072553 0.001640195 0.3045684 -0.096119456 0.08996233 -0.018885173
0.0066856775 -0.024747258 -0.002181446 -0.0023764232 -0.0014824842 9.736983e-05 -0.0034286361 -0.00033986193
0.01055147 -0.0047607985 -0.006680368 -0.062347736 0.16703567 -0.02202069 0.019510442 -0.025894055
-0.029007128 0.006405415 -0.0038083552 0.0042000758 -0.006192227 0.008807732 0.00028269796 0.01614413
-0.010213218 -0.009011258 -0.0125564 -0.058582265 0.13526995

dense_21/bias f4 [40]
00000000: 2869 66bb 019e 88bd 77f7 683c b9db 22bc
00000010: 27dc cabc edf0 683d 0d79 603c 5543 20bd
00000020: 4a01 823c 8abb f53c 7546 853c 724e db3c
00000030: d672 7b3c f197 cc3d 2c8f 5abc 4cd2 fabc
00000040: f980 b8bc 3a42 cfbb 46ca 25bd a964 d4bc
00000050: dcf9 96bc 6f8b 9abc c586 c4bc 3782 afbb
00000060: 979f 573e 9768 c33c 21a1 0f3c 6ca1 583b
00000070: 64f1 2bbd 615d ae3a 7c1b a4bc bdda 94bc
00000080: f048 53bd 2d11 49bb cd6e 5fbd b12d fdbc
00000090: 78af 29bc 5308 343c 228d e7bc 7dfd 0fbd
-0.0035157893 -0.06670762 0.0142191565 -0.009940081 -0.02476318 0.05687039 0.013700736 -0.039126713
0.015869755 0.029996652 0.016268948 0.026770804 0.015347203 0.09989918 -0.013339799 -0.030617855
-0.022522436 -0.0063250335 -0.040476106 -0.025926905 -0.01842969 -0.018865315 -0.023990044 -0.005356099
0.21056972 0.023853583 0.0087664435 0.00330552 -0.041978255 0.0013302976 -0.020032637 -0.018170709
-0.05158323 -0.0030680404 -0.054549027 -0.030905576 -0.010356776 0.010988313 -0.02826554 -0.035153855

dense_20/bias f4 [40]
00000000: 982a f3bc ae9d ba3b 7db4 1bbd d04a 7a3c
00000010: 4566 68bd 5d66 fbbc 3ed6 853d 850a 4abd
00000020: 156a e0bb f239 7e3c 82d4 25bd cd1b 583d
00000030: 32bb 04bd 6c5f 783e 6db5 1b3d 59ba cebb
00000040: 43f3 f0bc d8c9 233d 67f5 21bd 97c4 6d3c
00000050: f215 e1bc 0464 c73b dabe 483e 4603 193e
00000060: 961f 2f3e 4909 983d 1472 763b d0ac 2abd
00000070: 0b77 63bd 0e67 55bc 7616 31bd d48c 4fbd
00000080: 6700 233e d29e f13d 219f fbbc aaf5 3dbd
00000090: ddc9 a73c d2d7 f2bc f4ab 0abd 83f3 e2bc
-0.029683396 0.0056950664 -0.038013924 0.015276626 -0.056738157 -0.030688459 0.06535004 -0.04932644
-0.0068485835 0.015516745 -0.040485866 0.052760888 -0.032405086 0.2425515 0.038014818 -0.0063088355
-0.029412871 0.039987415 -0.039540675 0.014512203 -0.027476285 0.006084921 0.19604054 0.14942655
0.17101893 0.07423646 0.0037604617 -0.041668713 -0.05553345 -0.013025058 -0.04323431 -0.050671414
0.15918122 0.11797871 -0.030715527 -0.04637686 0.020481998 -0.029643927 -0.033855394 -0.027704006

dense_2/bias f4 [40]
00000000: 854e a03c 7b1e 033d cff7 ccbc a5d1 f83c
00000010: 178a 3b3d e1fe 873d a91a 363d cb20 e13d
00000020: 010f 81bb 5b16 d93d aa51 883d 8469 53bd
00000030: 4891 4abc d05e 21bc 2b54 4e3d 3693 313d
00000040: c418 b5bc 30bc a9bd a082 6339 441e abbd
00000050: 98d1 f1bb d836 28bd c657 863d dcc1 b1bd
00000060: 508c 3dbb dd23 4a3b d32e d43d 628d 22bc
00000070: 6666 b53d 81f2 603d af16 393d 0db4 a1bd
00000080: ed18 65bc b502 4f3d be9a 23bd 8905 673d
00000090: e512 7e3d 2f87 26bd 5c91 19bb cb67 623d
0.019568691 0.03201149 -0.025020508 0.030373404 0.04578599 0.06640411 0.04445902 0.10992583
-0.003938556 0.10599967 0.06656201 -0.0516143 -0.012363739 -0.009849265 0.050373238 0.043353282
-0.022106536 -0.08287847 0.00021697069 -0.08355382 -0.007379722 -0.041067928 0.0655971 -0.08679554
-0.0028922744 0.003084413 0.103604935 -0.009921404 0.088574216 0.05491877 0.04518765 -0.0789567
-0.013982994 0.05053969 -0.039942496 0.056401763 0.062029738 -0.040656265 -0.0023432588 0.055274766

dense_19/bias f4 [40]
00000000: 7b7f b3bd fbce d6bc 9950 94bd 62ea a23c
00000010: 0141 98bd ff87 22bd 785b 903c 71d3 84bc
00000020: a561 8abb 85e0 473d 0cc2 debc 118c 7cbc
00000030: 98d1 dfbc 7395 853d 2445 093c b075 0b3d
00000040: afea cabc 21c0 cdbc c1cb 91bd d3bd c1bd
00000050: 7d9d 143d 54a9 ec3d 062f d4bc 8c77 40bd
00000060: 75f7 27bc 333d 5b3c 21b8 86bd b8bf ea3b
00000070: 9fe8 153c ed21 3c3d f62b 1c3e 7c26 813e
00000080: 587e 16bd 8c66 57bd 3db7 0d3e e415 e23e
00000090: c5ea d8bc d6aa 8bbc 811e f73d 2df9 a3b8
-0.08764549 -0.026221743 -0.07241935 0.019887153 -0.074342735 -0.039680477 0.01762174 -0.016214104
-0.004223066 0.048798103 -0.027192138 -0.015414254 -0.027321622 0.06522646 0.008378301 0.034047782
-0.024770109 -0.025116028 -0.07118941 -0.09460034 0.036283005 0.11555734 -0.025901329 -0.04698901
-0.010251869 0.01338129 -0.065780886 0.007163968 0.0091496995 0.04593079 0.15251145 0.25224674
-0.036741585 -0.05258803 0.13839431 0.44157326 -0.026479134 -0.017049234 0.12066365 -7.818858e-05

dense_18/bias f4 [45]
00000000: 36aa 613b 8361 ff3a c0e8 c73e 95da 1cbc
00000010: 7ba1 073c b728 d53a edb5 903b 0cad 743b
00000020: cd96 563b d88b 90bb 2a24 013c 6321 6ebb
00000030: 8402 f93e ec79 83bd 80e8 403e 5803 5239
00000040: bb86 f73a e8ee c7bd e7c4 7a3b 92dd aaba
00000050: fda3 a43b f4db 56bb c524 6fbb c204 133b
00000060: 0911 313b dcac 82bb 1026 d9b9 2365 04be
00000070: cdf1 443e eaec b3bd 5d5f e6b8 eb1a 51bc
00000080: aed5 58bd fa13 813b 61c7 37bc 241e e13a
00000090: 440a 2e3b 9fbb ccba 31d6 61bb 2ac2 313b
000000a0: 1589 3dbb 15c6 b1bb c13a 893e e810 fbbd
000000b0: 81b6 b33e
0.003443373 0.0019484017 0.39044762 -0.009573598 0.008278246 0.0016262744 0.0044162185 0.003733459
0.0032743693 -0.004411202 0.007882157 -0.0036335818 0.48634732 -0.06419739 0.18838692 0.00020028406
0.0018884757 -0.097623646 0.0038264336 -0.0013036004 0.0050244317 -0.003278491 -0.0036490422 0.0022433256
0.002701821 -0.0039878916 -0.00041417824 -0.12929206 0.19232865 -0.08785422 -0.000109850174 -0.012762765
-0.052938156 0.003939149 -0.011216969 0.001717512 0.0026556412 -0.001561988 -0.0034459943 0.0027123787
-0.0028920819 -0.0054252245 0.26802638 -0.12259084 0.35100177

dense_17/bias f4 [40]
00000000: 14a4 9a3c b568 6ebd 294c 7fbd 1803 c13d
00000010: 3dc8 a7bc 6680 853c 496d febc cf22 103c
00000020: eda4 5abd 7dc3 5cbd 9d2f 0bbd c222 54b9
00000030: 483c 0e3c 787e fcbc f1f2 cdbc 1c0b 8b3b
00000040: fb58 303c a9dc 8fbd b62a eabc 151d 223c
00000050: eaf9 6fbd 9230 ceba a562 16bd 1c88 3abd
00000060: 8c92 8abc 7b74 3b3e 8429 14bd f600 6ebb
00000070: 7c9e 0ebd a3ef 1dbd 7a03 8bbc d0eb 26bc
00000080: 7595 d53b 70a8 fcbc 7210 e53b bac8 a7bc
00000090: 623a 593c df9e 34bd 8454 43bd 3e5d 45bc
0.018877067 -0.058205325 -0.06232849 0.09424418 -0.020481223 0.016296577 -0.03105797 0.0087973615
-0.05337994 -0.05389737 -0.033980954 -0.00020230844 0.008681364 -0.030822024 -0.025140258 0.0042432677
0.010763402 -0.070245095 -0.02858482 0.009894629 -0.058587946 -0.0015731028 -0.03671517 -0.04553996
-0.016915582 0.18306153 -0.036172405 -0.003631649 -0.03481911 -0.038558614 -0.016969431 -0.010188058
0.006518061 -0.030842036 0.006990486 -0.020481456 0.013258548 -0.044096824 -0.047688022 -0.012046156

dense_16/bias f4 [40]
00000000: c6e1 a23d a092 ac3d b19c 8d3c 03bf 66bd
00000010: d44a 4abd f770 56bc 995f 003e d5aa 17bd
00000020: a7ec 5abd 3c67 af3c 1c9d 94bb 2ec1 0abd
00000030: 9c70 cfbb 6484 a5bc 71a4 51bd 69a0 723d
00000040: 4169 1dbd 7b7f 2e3c f544 4c3c 3107 433d
00000050: 9f6f 6abc cadc 6fbd b59b bc3d e6a6 3bbd
00000060: d48d b73d 4ed3 54bc 87be 81bb 84c4 cfbb
00000070: f294 4ebd d9f3 5cbd 6b78 81bd 241f 09bd
00000080: c709 7ebc e8ca 92bc b659 d7bb f961 8cbb
00000090: 3d9e 5dbc 9cf6 223d 97c5 99bc 8c7c e2bc
0.07953219 0.08426404 0.01728663 -0.056334507 -0.049387768 -0.013088456 0.12536468 -0.037028152
-0.053448346 0.02141153 -0.0045353305 -0.033875637 -0.0063305628 -0.02020473 -0.051182214 0.05923501
-0.038430456 0.010650511 0.0124676125 0.04761428 -0.014308839 -0.05856017 0.09209386 -0.045813464
0.089625984 -0.012989832 -0.00395948 -0.006340565 -0.050435014 -0.05394349 -0.06321796 -0.033476964
-0.015505261 -0.017919019 -0.0065719737 -0.00428414 -0.0135264965 0.039785966 -0.018770976 -0.02764728

dense_15/bias f4 [40]
00000000: 5f90 9ebc b07d 7dbd e923 073e 6ead b6bc
00000010: 23c2 2cbd a52f d13d 226f 263d 083e 183c
00000020: 1899 a83b 185b b3bc 4fbc 45bd 60dd d2bb
00000030: 4eb8 66bd 5d24 273e 3bf8 913c 56ae db3c
00000040: d8a1 1c3c fa73 15bd d8f2 1f3d 04a1 793d
00000050: 3bb3 93ba 6c4d 9fbc d0e4 573d c048 cebc
00000060: f4e7 e83d b3e0 dabc 9ee4 41bb 8a28 53bd
00000070: ce75 6f3d 3faa 24bd 5a4f efbc 1e65 0abc
00000080: b10c a6bd d5ec 7dbb 32ed 1fbd 8378 80bd
00000090: f179 a7bc 228b 67bc f320 e93d c3b7 8bbc
-0.01935595 -0.061887443 0.13197292 -0.022299495 -0.04217733 0.102141656 0.04063333 0.009292133
0.0051452033 -0.021894023 -0.04827529 -0.0064350814 -0.05632811 0.16322465 0.01781856 0.026816528
0.009560071 -0.036487557 0.039049953 0.060944572 -0.0011268625 -0.019446097 0.052708447 -0.025181174
0.113723665 -0.026718473 -0.002958573 -0.051552333 0.058461957 -0.04020142 -0.029212642 -0.00844696
-0.081078894 -0.00387459 -0.039044566 -0.06272986 -0.020443888 -0.014132293 0.11383238 -0.017055398

dense_14/bias f4 [45]
00000000: 2090 36bc eb10 b83b 51c4 ad3e 40f7 5cb8
00000010: 186e 1f3c f677 a7bb d8d9 1f3a befd f2bb
00000020: ecd3 223c a3e0 b0bb 0388 86bb e620 1f3b
00000030: bfa6 843e f3b8 b1bd b729 f03d d37c 023c
00000040: 38b6 543b 4656 12be 188f 133b 98c7 303b
00000050: feb7 8a3a da6e 3dba 8609 cb3a aab4 ebba
00000060: 7a11 883b b690 f23a 60e3 6c3b 4f3e 9abd
00000070: 50e2 143e 3229 5ebc 4cca 323c 9a5b 53bc
00000080: 9ff1 d8bb 3e2d 6e3c 7fe7 5abc 2f4a 45bb
00000090: f67f a1bb 7008 6b3c ff03 37bb d343 543c
000000a0: 88b5 8438 d99f 4fbc 35cc 273e d479 2b3b
000000b0: a738 4f3e
-0.0111427605 0.005617251 0.3393884 -5.2682357e-05 0.009730838 -0.005110736 0.000609783 -0.0074155023
0.009938221 -0.0053978725 -0.0041055693 0.0024281084 0.25908467 -0.086778544 0.117267065 0.007964331
0.0032457244 -0.14290723 0.002251571 0.0026974436 0.0010583398 -0.0007226296 0.0015490509 -0.0017982919
0.004152474 0.0018506262 0.0036146268 -0.07531416 0.14539456 -0.013559626 0.010912489 -0.0129002575
-0.0066206004 0.014537154 -0.013360857 -0.0030104031 -0.004928584 0.014345273 -0.0027925966 0.012955624
6.328063e-05 -0.012672388 0.16386493 0.0026165145 0.20236455

dense_13/bias f4 [40]
00000000: cec2 bd3d f461 223b c596 e6bc 27c6 3cbd
00000010: 16c4 513a 28d0 5dbd 490f 1fbd 27a8 52bc
00000020: fd24 57bd 66a0 9cbc bb91 dc3d dc5b 84bd
00000030: f30c 40bd 0627 f8bc 504b 4abd 8673 38bd
00000040: 35a3 2d3d 34bd 63bc 6e61 62bd 6678 53bd
00000050: 5cd3 61bd e91c 26bc 046c f9bb 1f44 833c
00000060: dcaa 6e3c b5ad dabc e867 06bd d221 3a3c
00000070: 4559 7b3c 261d e9bc 84f6 373d f452 05bd
00000080: 4aae e83b 694d 48bd 42c0 1cbd 8fd6 a6bc
00000090: a9b4 b83e 1792 15bc 8152 5abd ded6 13bd
0.09265672 0.0024777623 -0.028148064 -0.04608741 0.00080019364 -0.05415359 -0.038832936 -0.012857473
-0.05252551 -0.019119453 0.107699834 -0.06462833 -0.04688735 -0.030292045 -0.04938823 -0.045032047
0.042391974 -0.01390009 -0.055268697 -0.051628493 -0.05513321 -0.010138729 -0.0076117534 0.016023694
0.014567103 -0.026694158 -0.032813936 0.011360602 0.015341108 -0.028456282 0.04491283 -0.032549813
0.007100855 -0.04890195 -0.03826929 -0.020365981 0.36075333 -0.009129069 -0.053301338 -0.036093585

dense_12/bias f4 [40]
00000000: 1fb2 643c 5c66 023c 57ad 41bb 02e5 103e
00000010: 44e6 9f3d 1b13 76bd d930 88bc 5321 3cbd
00000020: e3fb 54bd 13a6 29bd 60d8 94bc 59e4 213d
00000030: 11c6 e3bd 7b7f cdbc 7151 abbc 34ec ec3d
00000040: f5ce 3e3c 46b6 dbbd a41b d43b e510 9f3d
00000050: c2de 3abd f51a 5d3c 565a 823d a816 b03d
00000060: 1ff0 dfbc c5f3 3f3d 1a32 30bd b4e4 543c
00000070: bd02 a63b 45b5 bdbc f3ed a0bd 0931 cabb
00000080: 98f6 69bd 2226 58bd be16 b0bc a29d e73c
00000090: 00a2 8dbd 61f5 1fbd 0b16 2dbd a5e9 83bc
0.013958483 0.007958975 -0.0029552781 0.1414986 0.078075916 -0.060076814 -0.016624855 -0.045930218
-0.05199803 -0.041418146 -0.018169582 0.03952441 -0.111217625 -0.025085201 -0.020912858 0.1156849
0.011646022 -0.10728125 0.0064730216 0.07766894 -0.045622595 0.013495197 0.063648865 0.08598071
-0.027336178 0.046863336 -0.04301653 0.01299398 0.0050662444 -0.023157725 -0.07857885 -0.006170396
-0.057119936 -0.05277074 -0.02149522 0.028273407 -0.06915665 -0.03905237 -0.04225735 -0.016102621

dense_11/bias f4 [40]
00000000: 3c27 4dbc 24ae 933d a41c d9bc 0fe4 d0bc
00000010: da8c 55bd 82b6 82bc 5639 43bb 1990 4cbd
00000020: 93e8 c53d a7ec 283d 701d 6abc 48ff 123d
00000030: 6454 7f3b bcc9 b93c 0b8e 23bd 8e3e a7bd
00000040: 78a9 013d 7678 79bd 45d8 01bd 904e 263d
00000050: 6101 4a3e e0aa 5dbd ef42 65bd 5948 9a3d
00000060: d327 b4bd 653b 8a3d 5aa8 92bb cc56 1cbd
00000070: df3c 3fbc 1ede 27b9 7fe5 85bd 8693 10bd
00000080: 9ea6 14bc 1a1d 8ebc 4508 383c 3328 0bbc
00000090: faaa 61bd 71f4 be3e 9f72 13bd db71 fc3d
-0.012521561 0.07210949 -0.026502915 -0.025499372 -0.05213628 -0.015956167 -0.0029788814 -0.04994211
0.09663501 0.041241314 -0.014289245 0.035887986 0.0038960213 0.022679202 -0.039930385 -0.08166228
0.03165576 -0.060905896 -0.03170039 0.040602267 0.19727089 -0.054118037 -0.055972036 0.075333305
-0.08796658 0.0674961 -0.0044756355 -0.038168713 -0.011672228 -0.00016009106 -0.065379135 -0.03529694
-0.009072928 -0.017347861 0.01123244 -0.008493471 -0.055094697 0.3729587 -0.035997983 0.12326404

dense_10/bias f4 [45]
00000000: 0cee a6bb e526 a83c cc82 6f3e 98a8 f639
00000010: fcc5 04bc 0fbf e23b 441b 213c 4407 a939
00000020: 9638 26bb bb72 3dbd 8d58 9d3c e0b4 b23c
00000030: 4ce8 653e 2b9f 04bd 2a95 ab3c 88d4 733b
00000040: 72e8 dd3b b5ee c4bd d7c6 8ab9 bc05 20ba
00000050: 8bc8 0bbb 05be 93ba 823d 93ba 4a3a 9eba
00000060: 0e93 183a 1818 9f3a e7d0 16bb e8f6 803d
00000070: afc4 3a3e a150 33bc b06f 263b 4507 fcbb
00000080: bb1e a83c aba7 a43b 572b bfbb 42a9 0cbc
00000090: b477 673b c384 f83b 7de6 9abb 0344 cb3b
000000a0: fde2 acbb 9b10 40ba 9bcc c23d 68af 40bc
000000b0: 0ba2 543e
-0.0050942954 0.020526359 0.23389739 0.00047046388 -0.008103844 0.0069197486 0.009833161 0.00032239605
-0.0025363318 -0.046251994 0.019207263 0.021814764 0.22451895 -0.032378357 0.02094515 0.0037205536
0.0067720944 -0.09615842 -0.00026469558 -0.000610437 -0.002132925 -0.001127184 -0.0011233541 -0.0012071815
0.00058202527 0.0012137918 -0.00230127 0.06297094 0.18239091 -0.010944516 0.002539616 -0.0076912963
0.020522466 0.0050248704 -0.005834024 -0.008585276 0.0035319151 0.007584186 -0.0047271834 0.006203176
-0.0052760825 -0.0007326693 0.09511682 -0.01176057 0.2076494

dense_1/bias f4 [40]
00000000: 9f4b 663d 4a16 07bc 6f83 febc 89d1 5a3d
00000010: 133d 5abc eae6 5dbd 99e3 b1bc 0479 11bd
00000020: 9d65 b1bd abc1 93bd fc83 8dbd 5a5c 773d
00000030: eebc 823d eed0 a9bc dc10 933d df33 183d
00000040: d94f 973d 452f 883d 7d95 33bd 3b33 7dbd
00000050: 0913 cd3d b904 89bc 8929 4f3c a2fd 933c
00000060: d1f7 06bd b657 34bd acb5 7a3d 8aa1 9cbc
00000070: c2cf 073d 214e 7c3b 9bf8 d4bc 7c1d 52bc
00000080: 3dcd 23bd 74c7 143b e82b e4bc 9ba5 72bd
00000090: 71af 00be 8451 123d 8797 bebc afcf 6dbd
0.05622446 -0.00824506 -0.031068532 0.053422485 -0.013320225 -0.054175295 -0.021714972 -0.0355158
-0.08661959 -0.072146736 -0.0690994 0.060390808 0.06383692 -0.020729508 0.0718095 0.037158843
0.073882766 0.06649641 -0.043843735 -0.061816435 0.10013396 -0.016725885 0.01264418 0.018065277
-0.03295118 -0.04402896 0.061208412 -0.019119997 0.033157118 0.0038498717 -0.02599745 -0.012824412
-0.039990652 0.002270189 -0.027852967 -0.059239965 -0.12566926 0.03572227 -0.023265613 -0.05805939

dense/bias f4 [40]
00000000: 2dbb 403d 3b07 8cbd 348d 5abd 846c 403d
00000010: e0ff 34bd ff8c 253d bf98 483d c33f 513d
00000020: 366d ac3d dbb6 04bc 9c43 4ebd 81cf ae3d
00000030: 2535 52bd 602c e73c bbd5 b1ba 698c c33c
00000040: 0502 413b 71fb 3dbd 9f54 96bc 6318 8cbc
00000050: b435 f03c d7b0 bc3c f724 a13b ac49 de3c
00000060: 3dee acbd 1e12 99bd 05d3 b73d 6408 22bd
00000070: 988e 2cbc 4b42 0cbe 0585 883b 48ce 8ebd
00000080: 94ab 1e3e 4fe1 f9bc ca87 29be 6c48 3ebd
00000090: e4bd 64bc 5792 86bd 2d5e b7bb 2091 6b3d
0.047053505 -0.068373166 -0.053357318 0.04697849 -0.044189334 0.040417667 0.048973795 0.0510862
0.08419268 -0.008100237 -0.050357446 0.08535672 -0.051320214 0.028219402 -0.0013567725 0.023870664
0.0029450667 -0.04638237 -0.018350897 -0.017101472 0.029322483 0.023033543 0.0049177366 0.027134739
-0.08443878 -0.07474159 0.08975796 -0.039558783 -0.010532044 -0.13697164 0.004166248 -0.06972939
0.1549514 -0.030502943 -0.16555706 -0.046455786 -0.013961289 -0.06570881 -0.0055959434 0.05751145

bias/bias f4 [15]
00000000: 7d40 17bd d667 5cbd 147c e23c 0da5 2d3c
00000010: f011 46bd 8f94 243d df94 46bd fd3e e2bc
00000020: 49e5 893d bef1 8a3c 4b5a f4bc ba73 d63d
00000030: f883 8dba 1206 5cbd 6daf 863d
-0.036926735 -0.053809963 0.027647056 0.010598433 -0.04835695 0.04018074 -0.04848182 -0.027617926
0.06733186 0.016960975 -0.029828211 0.10471292 -0.0010796776 -0.053716727 0.065764286

model/dense_11/MatMul f4 [40, 15]
00000000: 97ad abbc dcd1 39b8 db28 22ba 91df 92b9
00000010: 7db5 f3b9 fece d13d 8eb3 b139 4d7e 84b9
00000020: 670a c9b9 bcca 32ba 5272 f739 b385 cd38
00000030: c43e 6fba 76a1 a839 8367 f138 fc44 2539
00000040: 6228 cb38 d795 cf37 5689 2bb8 fefd db38
00000050: 815a d03d 0abf 14b8 edbb 8e38 be62 2cb9
00000060: 2f7a 5cb9 cd11 b037 eb29 8a37 de01 79b8
00000070: 74f0 8b38 25e0 ae38 8bc7 5438 d72f d638
00000080: a6f7 9b38 e3bb 1ab9 034e 17b9 ba6b 7d37
00000090: 66f3 6838 a4df 0cb8 ecf3 30b8 40d1 23b5
000000a0: 6107 90b8 3035 d537 e0d4 c936 e06d c1b6
000000b0: 622c 7438 d91a a3b8 98de c136 6147 a4b8
000000c0: fc56 0fb7 e683 55b8 3672 9b38 89f7 bc38
000000d0: cf0d 41b8 2849 9738 2c6a 8c38 2682 bcb8
000000e0: 507e e737 401b 7735 c876 fb38 16ef 84b8
000000f0: 8017 da34 bba0 a238 ff54 0439 da23 e938
00000100: 7092 3cb8 944a cd36 4069 1838 a8ec 23b7
00000110: b8f5 6b38 f389 6638 c291 8838 5a77 8838
00000120: 49ab 55b8 988e 0a37 94d0 b9b8 4972 f438
00000130: 7566 8b38 f0bd 71b6 4869 0939 dceb 1238
00000140: c88c d339 af6a b1b8 49d3 1538 247c deb6
00000150: 6ada 6a38 f460 4938 fd99 1339 c0f8 4ab8
00000160: 821f 86b7 2e72 68b7 3088 6a37 a0c8 f436
00000170: f65e e038 a249 e337 ae50 6ab8 4cf7 bab5
00000180: 122c 3439 8833 3f38 fca9 a9b8 b136 c5b7
00000190: 44c2 b337 bde2 2f38 5247 ff38 9058 a538
000001a0: 2e68 f7b8 308f 553d 78a3 61ba ffd4 513e
000001b0: 5fb7 d039 4509 8639 3d17 f4b9 2990 f4b9
000001c0: 921c b93b 3583 5fbb 6634 dd38 5c48 fdb9
000001d0: a41b beb7 33b4 72b9 3e78 1e39 20a6 da38
000001e0: b1cd 82b8 39ee e239 18e2 a738 6edf a7b7
000001f0: 3a6f d7b7 e557 ef37 75c6 e138 0893 6938
00000200: 4a00 7438 a293 11b9 f9ab a7b6 e1c3 fa38
00000210: 74e3 60b8 aa0f 6038 0010 bd38 bb99 35bc
00000220: 735d adbb 41e4 94ba 4ec6 193a 4d5c 2abb
00000230: e218 803e b4a6 7e3b a119 fabb c135 d83b
00000240: a09d d9bb d463 2f3b 710e 6c3b 7830 f03b
00000250: 87b6 a93a 8c9d 0fbc dc5f 4c36 4317 10b8
00000260: 36f7 0839 f49e bab8 9347 5a38 57c6 9eb7
00000270: 14f5 f7b8 20ba 8636 945f 1d38 e0d9 83b8
00000280: ca73 9d38 7e90 7b38 f54c a4b8 ee2c 0eb8
00000290: e01b c1b8 6ee2 9637 3ddf 1c38 cc25 51b8
000002a0: a821 ad37 3cb4 2339 099a 3937 ca5e 7338
000002b0: d238 8938 3865 b937 36e0 4db8 b097 4b38
000002c0: d4c7 c0b6 ec73 bcb7 9457 7638 d29d de37
000002d0: 3985 3438 9fcf 6339 a668 eeb8 00dc a2b1
000002e0: 5123 3e39 6e48 72b8 7ca1 53b8 3725 0739
000002f0: e5db c3b7 6e18 1038 55f2 24b9 2ff1 1eb8
00000300: 3bf0 c5b7 24d0 8fb8 c89f a8b6 7c53 543e
00000310: 6894 663a c61d a63e 9aa1 903b 8a59 24bb
00000320: 975c abb9 328c 77b9 19e8 123c 5aa3 ebbb
00000330: 9563 143b 0ea7 00bb 9c21 453a 6bde 50bb
00000340: 3a85 183a bcce 6738 c5c9 0638 e8fb b4b7
00000350: 7e7c 5d38 a6ee 4238 c1c0 b638 4027 ff38
00000360: 2897 a7b7 4ae4 d4b8 50dd cf36 7004 24b8
00000370: 88a1 79b8 d27e 4b37 a8ce 60b5 184a 7eb7
00000380: e078 1a38 591f acbd 80b4 b6be bbb7 c2bd
00000390: da4a 1dbc 0aa3 02bc bec8 cd3e 7cfe 94bd
000003a0: 7120 1abd 6bb3 113c 602f 1739 b0b0 3dbb
000003b0: 9d1b 9d3b c216 9a3c f337 00bb 5c50 44bc
000003c0: b420 7cbd e5ec 6fbb 539f 53bc d66b 3539
000003d0: 20a4 d4bb 5b34 a43e 2f5d 433b cc6f 05bc
000003e0: 2c64 c53b 9959 b6bb 7884 4f3a 25a1 ac3b
000003f0: 02d6 2f3c f367 0a3b d888 65bc e84a 4eb8
-0.020956798 -4.4302884e-05 -0.00061858975 -0.0002801386 -0.0004648379 0.10244559 0.0003389385 -0.00025271103
-0.00038345458 -0.0006820371 0.00047196687 9.800065e-05 -0.0009126479 0.00032163755 0.00011511056 0.00015761325
9.687316e-05 2.4746098e-05 -4.089748e-05 0.000104900435 0.10173512 -3.546387e-05 6.8060916e-05 -0.00016439983
-0.00021026352 2.0989124e-05 1.6470402e-05 -5.9367965e-05 6.6728244e-05 8.338717e-05 5.0730578e-05 0.00010213226
7.437104e-05 -0.00014756578 -0.00014429544 1.5105057e-05 5.5539793e-05 -3.3586883e-05 -4.218884e-05 -6.102673e-07
-6.8678295e-05 2.5416346e-05 6.0150487e-06 -5.7646394e-06 5.8215468e-05 -7.7774464e-05 5.7777615e-06 -7.833425e-05
-8.543717e-06 -5.0905997e-05 7.4122494e-05 9.0106456e-05 -4.6027646e-05 7.2138675e-05 6.695496e-05 -8.9887806e-05
2.7596165e-05 9.2054324e-07 0.000119907374 -6.338784e-05 4.0622763e-07 7.7547e-05 0.00012620164 0.00011116984
-4.4959073e-05 6.118158e-06 3.6337646e-05 -9.770658e-06 5.625721e-05 5.496475e-05 6.512135e-05 6.507216e-05
-5.094268e-05 8.258641e-06 -8.860338e-05 0.00011656114 6.6471206e-05 -3.6022357e-06 0.00013104558 3.5028774e-05
0.00040349946 -8.459889e-05 3.5721143e-05 -6.6305674e-06 5.599336e-05 4.801243e-05 0.00014076378 -4.839222e-05
-1.5988717e-05 -1.3854862e-05 1.39791955e-05 7.2951225e-06 0.0001069884 2.7094797e-05 -5.5865086e-05 -1.3930053e-06
0.00017182555 4.558594e-05 -8.09021e-05 -2.3509698e-05 2.1428925e-05 4.1934418e-05 0.00012172632 7.884309e-05
-0.00011797283 0.052138507 -0.00086074276 0.20491408 0.00039809474 0.00025565378 -0.0004655662 -0.00046646714
0.005649158 -0.0034105305 0.00010547861 -0.00048309832 -2.2662636e-05 -0.00023146048 0.00015112848 0.00010425993
-6.237196e-05 0.0004328357 8.005294e-05 -2.0011994e-05 -2.5681791e-05 2.853195e-05 0.000107658016 5.5688462e-05
5.8174403e-05 -0.00013883275 -4.997008e-06 0.00011957414 -5.3617594e-05 5.342035e-05 9.0152025e-05 -0.0110840155
-0.005290681 -0.0011359529 0.00058660365 -0.0025994957 0.25018984 0.0038856687 -0.0076324497 0.006598205
-0.006641105 0.0026762383 0.003601935 0.0073299967 0.0012948074 -0.008765589 3.0454166e-06 -3.435394e-05
0.00013062064 -8.8987785e-05 5.204191e-05 -1.8927427e-05 -0.00011823527 4.015179e-06 3.752073e-05 -6.287149e-05
7.507911e-05 5.9977632e-05 -7.834464e-05 -3.3897282e-05 -9.208149e-05 1.7986833e-05 3.7401205e-05 -4.9864684e-05
2.063888e-05 0.00015612034 1.1062723e-05 5.8023994e-05 6.543253e-05 2.2100852e-05 -4.908462e-05 4.854024e-05
-5.745309e-06 -2.2465327e-05 5.8732534e-05 2.6537953e-05 4.3039418e-05 0.00021725752 -0.00011368217 -4.7398316e-09
0.00018132968 -5.776475e-05 -5.0456714e-05 0.00012888467 -2.3348208e-05 3.4355027e-05 -0.00015730535 -3.7894755e-05
-2.3596096e-05 -6.8575406e-05 -5.025391e-06 0.20734972 0.0008795918 0.3244459 0.0044137957 -0.0025077784
-0.00032684646 -0.00023607982 0.008966469 -0.007191104 0.0022642363 -0.0019630822 0.0007519962 -0.0031870853
0.0005818192 5.5267228e-05 3.2136002e-05 -2.1574975e-05 5.280645e-05 4.6475463e-05 8.7143395e-05 0.000121666584
-1.9978339e-05 -0.0001015147 6.194845e-06 -3.910478e-05 -5.9516664e-05 1.21292705e-05 -8.3747227e-07 -1.5156831e-05
3.6829035e-05 -0.084044166 -0.35684586 -0.095077 -0.009600366 -0.007973442 0.40192217 -0.072751015
-0.037628595 0.008892874 0.00014418131 -0.0028944425 0.0047945515 0.01880968 -0.0019564598 -0.01198205
-0.061554626 -0.0036609706 -0.012916404 0.00017301677 -0.006489292 0.32071194 0.002981018 -0.00814433
0.0060239043 -0.00556488 0.0007916163 0.0052682334 0.010732176 0.0021119087 -0.014009677 -4.918399e-05

model/dense_12/MatMul f4 [40, 40]
00000000: 86e5 9438 d397 1ab9 b6c7 12b8 8021 1836
00000010: e8bb 3337 5999 3c38 fa93 0fb8 3f7b aa38
00000020: 3b2d 9838 bd9b 43b8 ef82 bc38 28bc b536
00000030: fa71 f238 5ae9 74b7 2278 5d38 40db 4db8
00000040: 18d4 a638 3093 f636 c887 8e38 0d48 3039
00000050: f0a9 91b7 cae1 8a37 fd71 9bb8 5a77 85b7
00000060: cca1 0bb8 593c bab8 8c37 1db8 00e0 f2b7
00000070: bfe7 33b8 e0ad 8838 6a26 0db7 809a 95b8
00000080: fa41 b139 6c18 4cb7 8c84 2539 5c30 98b7
00000090: 08cb c637 e8a9 ebb8 f2f1 89b7 adcb 1db8
000000a0: bc13 3639 4dfb 2db8 6453 ce38 7869 3e38
000000b0: cc3e c937 02ec feb8 1e88 3d39 d003 e137
000000c0: 825d a5b7 d409 da37 04df ceb7 accc 5738
000000d0: 04c8 1038 2907 2538 573b a6b8 20ec 3037
000000e0: b837 52b8 d208 8d37 7fab 9a38 a0ba 40b7
000000f0: 4dbd 11b9 d1de d237 ea77 d538 16d7 96b7
00000100: c0fd dcb8 c42c 0038 68ca a9b6 ecf3 94b8
00000110: 0fea 1139 d0ba bcb7 0ba5 1e38 ac88 6bb8
00000120: cc5e 5a37 74d5 bfb7 0a45 8138 76b1 d9b8
00000130: 7811 dd37 788b 1db8 8079 0c35 18b3 1b39
00000140: 4977 25b8 bf8b 67b9 d10e 15b8 fc6b 6237
00000150: 08ed 4637 f204 a737 b0d3 ebb6 9d90 8f38
00000160: 0089 4d37 b336 aab8 a03a 2739 e344 deb8
00000170: b90c e837 88d3 ab38 59ac 4638 0091 6337
00000180: 5870 f4b7 d121 37b8 aee7 76b8 3415 17b8
00000190: d8a3 40b7 7c62 bf35 0953 0c38 2e00 1238
000001a0: 4880 5ab7 9c2f b638 9c1c 0538 b519 dd38
000001b0: b67f b8b7 08b6 09b8 82af 25b6 4c11 1238
000001c0: a2cb a238 0691 d038 9ce8 f037 1826 5e38
000001d0: 7040 54b8 346f 85b8 b76d 9638 8629 bc37
000001e0: d2ea c139 affa 8b38 802d 7ab6 0b43 9db8
000001f0: c6f8 aab8 064d b637 9476 ba36 c6bd 81b9
00000200: 4f8e a037 de26 61ba 1fd9 bcb8 dc90 5838
00000210: 7237 4138 28ca 4839 f76f d038 b00f 5bbd
00000220: cd11 33bb 6706 2038 7bd8 9039 a8a1 fdb7
00000230: f3cc 0239 d074 0d3a 4b98 0139 7472 bd3d
00000240: ab81 b0b7 8e94 72b8 ba09 5138 f084 fa36
00000250: 8c9d 7537 44cf c7b8 d0d2 f938 372f d937
00000260: 992e 9438 238d 0937 f29e 9938 0871 1539
00000270: 27e6 b8b8 426d c63d 763d 7238 408b d73a
00000280: 3834 94b8 6224 a937 5035 30b8 0699 bd38
00000290: 2ab7 89b7 6a9b 2537 28e5 44b7 47a5 38b9
000002a0: 2091 4836 c0db 22b8 8061 44b7 c863 9437
000002b0: 38dd 3ab7 27e2 d0b7 686c a636 48b9 1b37
000002c0: a703 8638 00d2 4235 5e00 51b7 2064 aab8
000002d0: 84c2 87b8 8037 8c35 b054 8a38 cf65 8cb8
000002e0: 490a c038 4f74 05b9 f855 ef36 6778 8ab7
000002f0: 6090 3d38 aaa0 44b7 5393 4438 3006 8d38
00000300: 2f0b 44b8 40dc b138 d4c7 4cb8 60ef c9b7
00000310: 7d04 1d38 422f 263c b5a0 4a39 cc24 6838
00000320: 356d 09b9 a399 c537 22d4 b538 2821 4e38
00000330: 47e4 5db7 5670 9738 c0a8 8436 7418 8b38
00000340: b358 3e38 f825 b738 0031 07b6 a2be 8737
00000350: ce62 2ab8 1c10 5f38 7287 8eb8 2c71 10b9
00000360: c20c 24b8 4c20 a137 6f8f 1038 e2ce c438
00000370: a06f 8bb8 f24d 9e36 74c8 a138 789c d6b6
00000380: 12ec c737 4624 b3b8 3e76 9038 fd32 6db8
00000390: cc34 7639 f29e 6538 9428 f337 f5e2 e2b8
000003a0: 6c88 0638 8c12 0037 4b83 a838 8008 94b5
000003b0: b08e 9bb8 a622 a137 7251 8338 52f0 aa38
000003c0: 923a 0f38 88e3 1338 2c96 9f38 c00c 6838
000003d0: 522c 3037 063d ddb7 e40c 7cb8 220e 86b9
000003e0: 784d b1b8 10d1 a238 1511 56b9 c41b 9e38
000003f0: f0c4 d0b8 76a2 76b8 06d7 1039 86a6 9fb8
7.099942e-05 -0.00014743143 -3.4995108e-05 2.2669265e-06 1.0712982e-05 4.496551e-05 -3.423167e-05 8.129188e-05
7.2563496e-05 -4.6636666e-05 8.988927e-05 5.4161246e-06 0.00011560689 -1.4597865e-05 5.280239e-05 -4.908e-05
7.9550024e-05 7.348506e-06 6.796379e-05 0.00016811509 -1.736448e-05 1.6556023e-05 -7.412208e-05 -1.5910413e-05
-3.3290868e-05 -8.880412e-05 -3.748345e-05 -2.8952956e-05 -4.2892756e-05 6.517372e-05 -8.413199e-06 -7.1336515e-05
0.00033809227 -1.2165034e-05 0.00015785004 -1.8142331e-05 2.3697983e-05 -0.00011237321 -1.6444337e-05 -3.7621405e-05
0.00017364224 -4.1480456e-05 9.838378e-05 4.5397755e-05 2.399031e-05 -0.00012155624 0.00018075152 2.6823865e-05
-1.9713076e-05 2.5992202e-05 -2.4660963e-05 5.145061e-05 3.4518554e-05 3.9345734e-05 -7.92655e-05 1.0545395e-05
-5.0119794e-05 1.6812617e-05 7.375236e-05 -1.1487544e-05 -0.00013898798 2.5137708e-05 0.00010178967 -1.798155e-05
-0.00010537682 3.055927e-05 -5.0601557e-06 -7.102624e-05 0.00013915471 -2.2498338e-05 3.7823844e-05 -5.615565e-05
1.3015884e-05 -2.2868371e-05 6.164059e-05 -0.00010380421 2.6353388e-05 -3.7561607e-05 5.233087e-07 0.0001484867
-3.945016e-05 -0.00022081936 -3.5538167e-05 1.3495792e-05 1.1856908e-05 1.9910254e-05 -7.0281894e-06 6.845708e-05
1.225085e-05 -8.11642e-05 0.000159482 -0.00010598616 2.766248e-05 8.193316e-05 4.736739e-05 1.3564015e-05
-2.913938e-05 -4.3662094e-05 -5.886674e-05 -3.6020952e-05 -1.148224e-05 1.4259272e-06 3.3455934e-05 3.480928e-05
-1.302368e-05 8.687304e-05 3.1736316e-05 0.000105428895 -2.199398e-05 -3.2832875e-05 -2.4689075e-06 3.482522e-05
7.7626915e-05 9.9452256e-05 2.8718547e-05 5.2964402e-05 -5.060475e-05 -6.3626474e-05 7.172993e-05 2.2430682e-05
0.00036986783 6.67473e-05 -3.7279387e-06 -7.498831e-05 -8.152569e-05 2.1731958e-05 5.5570363e-06 -0.0002474619
1.9139754e-05 -0.00085888605 -9.0049805e-05 5.1633324e-05 4.6066423e-05 0.00019148795 9.939068e-05 -0.053481758
-0.0027323843 3.8152935e-05 0.0002762711 -3.0235227e-05 0.00012474116 0.00053961296 0.00012359132 0.09250346
-2.1041216e-05 -5.783565e-05 4.983854e-05 7.4660566e-06 1.463982e-05 -9.527666e-05 0.00011912512 2.5890402e-05
7.0658694e-05 8.198697e-06 7.3252144e-05 0.00014251855 -8.816673e-05 0.09688808 5.7754536e-05 0.0016444698
-7.0669164e-05 2.0163312e-05 -4.201132e-05 9.040725e-05 -1.6416965e-05 9.8709515e-06 -1.1735865e-05 -0.00017609178
2.9886796e-06 -3.8828468e-05 -1.1705211e-05 1.768944e-05 -1.113797e-05 -2.4900843e-05 4.9598057e-06 9.281859e-06
6.390298e-05 7.257622e-07 -1.2457456e-05 -8.1248814e-05 -6.473533e-05 1.0446965e-06 6.596127e-05 -6.6946835e-05
9.157189e-05 -0.00012727197 7.132763e-06 -1.6506949e-05 4.519557e-05 -1.1719918e-05 4.6867248e-05 6.7245564e-05
-4.6740457e-05 8.4810425e-05 -4.8823495e-05 -2.4072535e-05 3.7435897e-05 0.010143103 0.00019324089 5.534738e-05
-0.00013106021 2.3555773e-05 8.6702654e-05 4.9145106e-05 -1.32257765e-05 7.221165e-05 3.9535516e-06 6.632591e-05
4.5382138e-05 8.733192e-05 -2.014509e-06 1.6182024e-05 -4.0623177e-05 5.3182346e-05 -6.796316e-05 -0.0001377507
-3.911253e-05 1.9207735e-05 3.446586e-05 9.384543e-05 -6.648828e-05 4.717841e-06 7.7144156e-05 -6.3959124e-06
2.3832577e-05 -8.5421416e-05 6.8884794e-05 -5.655269e-05 0.00023480057 5.4745884e-05 2.8986753e-05 -0.00010818794
3.2075142e-05 7.633713e-06 8.0353195e-05 -1.1029333e-06 -7.4175536e-05 1.920883e-05 6.261737e-05 8.150995e-05
3.4148405e-05 3.5259436e-05 7.6096825e-05 5.5324985e-05 1.0500737e-05 -2.637367e-05 -6.0093487e-05 -0.00025569
-8.4544474e-05 7.763703e-05 -0.00020414994 7.539199e-05 -9.954895e-05 -5.8802274e-05 0.00013813013 -7.612728e-05

model/dense_13/MatMul f4 [40, 40]
00000000: c864 f339 5e12 40b8 a155 9138 0684 c63d
00000010: efad 36b9 3db9 20b8 da6a 2037 6f64 cbb9
00000020: cc9b d3b7 88a6 32b8 99e2 7938 4ab5 483e
00000030: cba3 27bd 6a96 96b7 ac4a c739 c818 593a
00000040: 3645 e538 2006 61ba 1735 ee38 1890 a239
00000050: 6868 bbb8 288b d5b6 2c91 5fb9 e08d e637
00000060: df92 33be 891c c939 5667 6ab8 a5ca 8638
00000070: be78 8bb9 2f73 3139 449e b1bb 91e2 5c39
00000080: 8082 8435 24d8 77b9 7607 c5b8 bbbd c939
00000090: faa0 eebc 7b84 1738 4681 92b8 80d0 35b6
000000a0: 3253 1739 74dd ad37 adc4 a538 5e0d 9fb8
000000b0: 3e57 63b9 f2e9 cb37 ca89 91b7 98cc 6439
000000c0: 7cfa 6436 59c6 37b9 238c 1eb9 5610 77bd
000000d0: 8d6a 9aba 1659 e4b8 c4b3 2037 15e1 4539
000000e0: ca6a 7539 426a 7db9 26ab 00b9 411d 1038
000000f0: 9d77 ab38 b9cf 6f38 1f40 35b8 6869 bd38
00000100: fafb 3c3d 676f 1d39 5e4a 1db8 2e08 62b7
00000110: 3dc0 2239 0906 d5b8 d5c1 133d 3f75 04b9
00000120: 9efd 3b38 be59 82b9 a837 c9b9 a928 7038
00000130: 43be da39 3fe8 a236 0612 0ab9 b842 da36
00000140: 3a1a 8fb8 78a7 5739 866e 30b9 f077 1737
00000150: 58d3 a4b9 3a2c d838 3455 2ab9 1cd7 29b9
00000160: 9ce8 d3b8 a9c7 8738 d49e 07b9 7430 ffb7
00000170: 0206 db38 1618 cab8 3217 80b8 8808 42b9
00000180: 50fb 9839 0097 14b6 0906 5eb9 0030 38b9
00000190: 9101 0c3a 784e 2bb7 e0c1 00b9 ec1a 78b8
000001a0: e072 84b7 1a3a 0639 97f3 6339 0e9a c2b8
000001b0: 6db1 6839 fd78 08b9 d8ff 8239 117c b138
000001c0: cb27 1ab9 7013 50b6 9035 7a38 5a91 d5b8
000001d0: 4ed8 a438 3fd5 3d38 b96a 97b8 b474 b639
000001e0: 7841 0b39 4279 b939 de01 57b7 7911 63ba
000001f0: 6c36 983a c813 71b8 059f edb8 f00c 05b8
00000200: 3c34 b738 93df 8b3a c476 7639 a63a 093a
00000210: d952 ad3e 627e 0838 50a5 5bb9 c29b 1e3b
00000220: 4cb4 c2b8 3efe 4f3e cdec 33b9 3e6b f53a
00000230: 566e 0339 4a72 4fb8 d8db 4bb8 5438 e239
00000240: 0398 783e 9c6e a5ba e0b1 a537 b2e8 7438
00000250: 1e19 a4b8 2c19 7eb9 24ae 863e 3909 86b9
00000260: 9ed4 5db8 3f67 9138 31e9 d538 c3ba 033a
00000270: 6b5d a23b d3f2 9438 fb90 0a3b a400 02b7
00000280: 433d 86b8 6e4f cbb7 980e 2938 6e92 4ab9
00000290: 4234 8d39 7ce0 8ab9 cb36 5939 94b4 d3b8
000002a0: 2f10 4739 243e 60b9 d27e acb9 b063 0c38
000002b0: 923f c437 e276 d339 cee3 9f39 0d49 83b9
000002c0: 57d7 f6b8 c8a3 1db6 0c09 15b8 0230 e0b6
000002d0: bc50 07b8 5cec 38b5 2098 0c37 3e2f ab37
000002e0: 2de1 9f38 7991 2bb9 ad5c 21b9 58b9 a4b6
000002f0: 4afd ceb9 7291 b9b9 23ac 0a3c 7a4c d938
00000300: 1093 1738 4883 6438 b82e a4b9 cba1 dcb8
00000310: 8420 36b8 270f 5737 c126 9439 7874 1139
00000320: 906a 15b7 9004 3e39 f88b a837 50e2 b338
00000330: c6b1 c8b7 879d 6b38 305b ad39 2344 d8b8
00000340: cc46 18b8 2075 7638 e302 2139 6398 ddb7
00000350: a056 41b8 6060 9b35 2a6d acb8 00cd 8439
00000360: 34d5 b038 fc3d 69b8 f63f 01b9 daff c0b6
00000370: ac32 3fb8 f747 a1b7 4081 8e35 30cb 9636
00000380: e514 bab7 96fa feb8 9c0f 6938 6081 9b35
00000390: 307f 45b7 f4bd 8238 56de 6838 c4a8 75b9
000003a0: a74e d9b8 a2b0 bf39 e23c 96b7 126d d9b7
000003b0: 9832 4038 6c8f c837 550c bd3b 2022 f037
000003c0: a85b 9739 4f1f 64b9 11d7 1539 202c 2a36
000003d0: b89a 4bb6 f4a2 8638 48ac 0939 13fd 6bb9
000003e0: 5184 1e39 0e7e a2b8 85f7 c5b8 7766 72b8
000003f0: 3c80 9038 ffb5 e637 e196 31b9 d66c 5d39
0.0004642366 -4.5793473e-05 6.9300884e-05 0.0969315 -0.00017421668 -3.831949e-05 9.5616215e-06 -0.00038794006
-2.5225709e-05 -4.25936e-05 5.957726e-05 0.19600406 -0.04092769 -1.7951435e-05 0.00038011873 0.0008281586
0.000109324625 -0.00085839815 0.00011358613 0.00031006406 -8.936302e-05 -6.3640946e-06 -0.00021321018 2.7484202e-05
-0.17536496 0.00038358968 -5.5886187e-05 6.4273634e-05 -0.00026602106 0.00016922945 -0.005420478 0.00021065238
9.872747e-07 -0.00023636274 -9.395082e-05 0.00038479068 -0.029129494 3.6124587e-05 -6.9859016e-05 -2.7092465e-06
0.00014431475 2.072633e-05 7.904447e-05 -7.584201e-05 -0.00021680907 2.4308425e-05 -1.734951e-05 0.00021819992
3.4120449e-06 -0.0001752613 -0.00015120259 -0.060318314 -0.0011781022 -0.00010888481 9.578598e-06 0.00018871234
0.00023404803 -0.00024167544 -0.00012270789 3.435952e-05 8.176195e-05 5.7175497e-05 -4.321348e-05 9.031856e-05
0.04613874 0.00015014187 -3.7500977e-05 -1.3472554e-05 0.00015521138 -0.000101577556 0.036073525 -0.00012632179
4.4820474e-05 -0.00024862395 -0.00038379175 5.7258327e-05 0.00041721956 4.8550132e-06 -0.0001316742 6.5046734e-06
-6.8236564e-05 0.00020566385 -0.00016825841 9.0282265e-06 -0.0003143798 0.000103079205 -0.00016244204 -0.0001619723
-0.00010104591 6.474491e-05 -0.00012933771 -3.0420932e-05 0.00010443853 -9.636597e-05 -6.107836e-05 -0.0001850446
0.00029178942 -2.2141612e-06 -0.00021173818 -0.00017565489 0.00053408096 -1.0210664e-05 -0.00012279255 -5.915288e-05
-1.5789119e-05 0.0001280088 0.00021739151 -9.279336e-05 0.0002219134 -0.00013015042 0.0002498615 8.463127e-05
-0.00014701409 -3.100573e-06 5.965453e-05 -0.00010183705 7.860419e-05 4.5259712e-05 -7.22012e-05 0.00034800696
0.00013280462 0.00035376294 -1.2815433e-05 -0.00086619664 0.0011612899 -5.74773e-05 -0.0001133066 -3.172172e-05
8.7358494e-05 0.0010671489 0.00023504632 0.00052348746 0.3385227 3.254263e-05 -0.00020947051 0.0024201726
-9.284224e-05 0.2031183 -0.00017158985 0.0018723977 0.00012534237 -4.9459086e-05 -4.8603717e-05 0.00043148047
0.24276738 -0.0012621465 1.9752362e-05 5.8390848e-05 -7.824808e-05 -0.00024232705 0.26304734 -0.00025565343
-5.288852e-05 6.93337e-05 0.00010200067 0.0005025083 0.004954984 7.1024195e-05 0.0021143544 -7.748753e-06
-6.401029e-05 -2.4236473e-05 4.030633e-05 -0.0001931877 0.0002693255 -0.00026488665 0.00020715145 -0.00010094899
0.00018984148 -0.00021385454 -0.00032900885 3.3471442e-05 2.3394623e-05 0.0004033363 0.0003049657 -0.00025040694
-0.00011770304 -2.3490156e-06 -3.5532794e-05 -6.681309e-06 -3.2261698e-05 -6.888929e-07 8.38007e-06 2.0406787e-05
7.623653e-05 -0.00016362024 -0.00015388681 -4.9091577e-06 -0.00039480097 -0.00035394315 0.008463892 0.00010361611
3.6138168e-05 5.44817e-05 -0.00031315326 -0.00010520554 -4.3422464e-05 1.2818527e-05 0.00028257634 0.00013871666
-8.905903e-06 0.00018121512 2.0092339e-05 8.577539e-05 -2.392464e-05 5.6175075e-05 0.0003306507 -0.00010312374
-3.630556e-05 5.876005e-05 0.00015355232 -2.6416214e-05 -4.609546e-05 1.1576449e-06 -8.2219325e-05 0.0002532974
8.432046e-05 -5.5609256e-05 -0.00012326226 -5.751831e-06 -4.558514e-05 -1.9226207e-05 1.0617441e-06 4.4940025e-06
-2.2182658e-05 -0.00012158339 5.5566066e-05 1.1586053e-06 -1.1771728e-05 6.2342646e-05 5.5520177e-05 -0.00023427891
-0.000103620165 0.0003656196 -1.7909744e-05 -2.5919206e-05 4.5823486e-05 2.3908644e-05 0.0057692924 2.862612e-05
0.00028869254 -0.00021755438 0.00014289866 2.5357658e-06 -3.0339415e-06 6.41997e-05 0.00013129518 -0.00022505624
0.00015117346 -7.7482415e-05 -9.439796e-05 -5.7792724e-05 6.8903406e-05 2.7502885e-05 -0.00016936242 0.00021116747
