3tier-app/learnt_model/real_sim_jvm/model_3tier.tflite (tflite, 148092 bytes, 48 tensors)

dense_9/bias f4 [40]
00000000: 035b 44bd 3a01 babd 7a04 d4ba 5295 06bd
00000010: f2f1 0abc 1b0a 5dbd 03e9 65bd 7958 82bd
00000020: 4ba0 90bd d6b9 623d 8665 59bc 3a4a 1dbd
00000030: 46c4 e5bc d18b 11bd 8e44 b73c dc3a 79bd
00000040: 3991 553a ac50 0e3c eae9 b5bb 739d c3bc
00000050: c47c 02bd 72da 0b3d d871 7bbd 9de6 ecbc
00000060: 0308 ff3d edc5 cf3b 3e36 34bc bb77 2fbd
00000070: b6a1 32bd 7f84 a33d 0683 15bd 2b83 93bc
00000080: 1f14 13bd 65ac 04bd 567a 63bd 7e2a 72bb
00000090: 1b97 66bc ea75 bcba bcf3 8dba d40b 49bc
-0.047938358 -0.09082265 -0.001617565 -0.032857247 -0.008480536 -0.053964715 -0.05613042 -0.06364531
-0.070618235 0.05535301 -0.013268834 -0.038400866 -0.028047692 -0.03553373 0.022371557 -0.06084715
0.0008146945 0.008686226 -0.0055515664 -0.023878789 -0.031857267 0.034143873 -0.061387867 -0.028918559
0.124527 0.0063407333 -0.0109992605 -0.042838793 -0.04361125 0.07984256 -0.036501907 -0.018006882
-0.03590786 -0.03239097 -0.05553659 -0.0036951597 -0.014074112 -0.0014378403 -0.0010830085 -0.012270886

dense_8/bias f4 [40]
00000000: 7adf b6bc dcb1 2ebc de0e 203c 0508 edbc
00000010: 6e2f 1dbd 8ff9 333e 6e98 39bd 14b7 143d
00000020: 3412 b3bc f9d0 b73d 5dab a03d bec5 2ebd
00000030: 858d 083c 68f5 97bc 2875 e63c 45fd cbbc
00000040: 9c1a 85bd a4ad 8dbc ff60 cd3b f997 4d3c
00000050: c139 573e 6568 c93b 146e a6bb 73b7 9ebd
00000060: 3d7a 053c 4650 5abd d1e5 33bd 11f2 26bd
00000070: 5356 3ebd edc1 bb3c b1da f23b 4799 493c
00000080: 60d3 c53c 4b1d 553c 66f8 b0ba d024 5dba
00000090: df73 bbbc da11 a7bc 014e 9a3c 4c4f 9d3e
-0.022323359 -0.010662522 0.00976917 -0.028934488 -0.03837531 0.17575668 -0.045311384 0.03630741
-0.021859266 0.08975405 0.07845185 -0.04266905 0.008334522 -0.018549636 0.028132036 -0.024901042
-0.06499216 -0.017294712 0.0062676664 0.01254844 0.21018125 0.006146478 -0.0050790403 -0.07749834
0.00814682 -0.05329921 -0.043920342 -0.040758196 -0.046469044 0.02291962 0.007411324 0.012304611
0.024148643 0.013007472 -0.0013501763 -0.00084359664 -0.0228824 -0.020394254 0.018836023 0.3072456

dense_7/bias f4 [40]
00000000: bd8e 20bd 3d87 143d 08b5 823c f20d 453e
00000010: 618b 99bd 0325 e3bc 78a9 06bd 37cc c33e
00000020: 7bd9 3dbd 5f14 663b 96d5 7f3c bf2a 833d
00000030: 3186 213d 666b 623e 52a2 5bbd 97da c9bc
00000040: 218d 00be dfe3 233c e8aa af3c 7a6a d53d
00000050: ab7f c53d 1a08 073d d364 993c d4e5 a23d
00000060: 7e33 9abc d62d ee3d 0225 21bd fcf2 cebc
00000070: 6c88 31bd 1bd1 e93c 3367 953e 5ba5 b0bd
00000080: b248 d8bc a303 24bd 1642 713e 9c82 b33e
00000090: 9694 f83d 0b94 d13c b35c b03c 76a0 4dbb
-0.039198626 0.036261786 0.015955463 0.19243601 -0.074972875 -0.02772761 -0.03287646 0.3824174
-0.046349984 0.0035107357 0.015614888 0.064046375 0.039434616 0.22111282 -0.053621598 -0.024640365
-0.12553836 0.010003059 0.0214438 0.104206994 0.09643491 0.03296671 0.018724835 0.079539925
-0.018823382 0.11629836 -0.039341934 -0.025262348 -0.043342993 0.028542092 0.29180297 -0.08625289
-0.026401851 -0.04004253 0.23560366 0.35060585 0.121377155 0.025583288 0.021528577 -0.003137616

dense_6/bias f4 [36]
00000000: d27a c23c afd2 433d f57f b93e 4394 023b
00000010: 27ee f6bb c31a b63b c9e9 573b ee9f 11bb
00000020: 22a3 d53b c2db 843b dc30 febb acf4 a93b
00000030: f0af 0e3d 5f88 88bc 2d74 03be fe05 c53b
00000040: a584 223c dba8 163b 40fb e837 70cc 7abb
00000050: 303d d2bb 0e2b 30bb 0d2f f03b 6e51 463b
00000060: a7e3 b9bd 28ec f33d 3c6c 9fbd e485 ecbb
00000070: c132 123c 4927 abb9 5620 28bc c912 c53b
00000080: d2b1 5d3b cc8b 4e3b 16f0 4b3c 1f49 8abc
0.023740206 0.047808345 0.36230436 0.0019924797 -0.007535714 0.0055573895 0.0032945743 -0.002222057
0.006519691 0.0040545175 -0.0077572893 0.005186638 0.034835756 -0.01666659 -0.12837286 0.006012677
0.00991932 0.002298883 2.7773553e-05 -0.0038268827 -0.0064159855 -0.0026881131 0.0073298276 0.0030260938
-0.09076624 0.119102776 -0.07784316 -0.0072181094 0.0089232335 -0.0003264493 -0.010261616 0.0060142023
0.0033827913 0.003151643 0.012447378 -0.01688057

dense_5/bias f4 [40]
00000000: 79ff ecbc d67a 98bc d9b9 72bd 64f8 f83d
00000010: 1583 54bd 2e70 4e3b ee8d c43d 6c4d 05bb
00000020: b195 6e3b d146 b639 f653 a6bc 926b 0f3c
00000030: 012f 0ebd 4565 103c bc68 eabc e576 46bd
00000040: 75f2 44bd e298 613c 9eef c33c 0748 adbc
00000050: fa3d 403c 416c 74bc 4504 0abd d503 b1bc
00000060: 5f5e bbbc b08c 42bc 6647 6a3c 3492 4ebd
00000070: aa20 9abc 8c38 21bd d6db 70bd 1da8 8dbc
00000080: fc7e a73e da06 1a3c 7c4a ca3c fc58 07bd
00000090: c7f6 193c 30f0 0bbd a435 3cbd ea67 0dbd
-0.028930413 -0.01861326 -0.05925927 0.12156752 -0.051882822 0.003149997 0.095973834 -0.0020340336
0.003640514 0.00034766507 -0.020303708 0.008753674 -0.034712795 0.008813207 -0.028614394 -0.04845323
-0.048082788 0.01376936 0.02391797 -0.02115251 0.011733526 -0.014918388 -0.033695478 -0.021608273
-0.022872148 -0.011874363 0.014299249 -0.0504324 -0.018814404 -0.039360568 -0.058803402 -0.017292077
0.3271407 0.009401048 0.02469372 -0.033043846 0.009397215 -0.034164608 -0.045949593 -0.03452293

dense_4/bias f4 [40]
00000000: 9221 29bd 1ba9 5c3c c398 3dbd a0b6 06bd
00000010: a13e d53c a7c7 5a3d 53af dcbc 0b6a 44bd
00000020: 57fd a3bd 16ba 0dbd b4c8 22bd bb79 8939
00000030: c11a 5bbb fbd3 0cbd fc2d 26bb 27ed 4eba
00000040: fcc1 7ebd 9c60 a4bc 65e0 a63b 7421 61ba
00000050: af25 34bb a347 1abc 15ab 71bc a0d2 da3d
00000060: 6dd6 7fbc 266f a73e 8e4a 0b3c b067 223e
00000070: 2588 eeba 0cfc 92bc bebf c93a ac7c 863e
00000080: 4b46 23bc 2091 d6bb f4fd 5fbd 9a94 bfbc
00000090: 350d 953c 0a39 28bc ab8f 9fbc 15eb ff3d
-0.04129178 0.013468052 -0.046288263 -0.03288901 0.02603084 0.05341306 -0.02693907 -0.047952693
-0.08007305 -0.034601294 -0.039742187 0.00026221373 -0.0033432695 -0.034381848 -0.0025356999 -0.0007893615
-0.062196717 -0.020065598 0.005092668 -0.0008588054 -0.0027488281 -0.009416494 -0.014750262 0.10684705
-0.015615088 0.32701987 0.008501662 0.15859866 -0.0018198533 -0.017942451 0.0015392227 0.26266992
-0.00996549 -0.006548062 -0.054685548 -0.023386288 0.018194774 -0.010267505 -0.019477686 0.1249601

dense_3/bias f4 [40]
00000000: 298c 06bd de6c 8dbc 6b02 c43d 3b29 d93d
00000010: ba60 093d 3c9b 543c 2b90 053c 3a0b 1c3e
00000020: 8a7f 3e3d 6425 833c 1dc8 adbb 371c a0bd
00000030: 5eb0 4c3d f4e5 363c c0c5 81bd 2696 b7bc
00000040: 4e1e 63bc dcf2 e63d d193 973d 0025 a13c
00000050: f24f 43bd ee42 8b3c 50b0 ecbc 4a24 2bbd
00000060: fb5c 1e3d 3f2b 22bc c022 b3bc ce8a fe3c
00000070: f0a4 a63c 35de ad3d 734d a53e 4f87 77bc
00000080: 4425 0ebc 31ee d23d 7699 473c dcad ca3c
00000090: 8b0a 89bb 58d3 a93d fb0f 543c d1cf be3c
-0.03284851 -0.017263826 0.09570774 0.10603567 0.03353951 0.012976464 0.008152048 0.15238658
0.04650835 0.01600904 -0.0053033964 -0.078178816 0.049972884 0.011163224 -0.06336546 -0.022410464
-0.013862206 0.112767905 0.074012406 0.019670963 -0.047683664 0.016999688 -0.028892666 -0.041782655
0.03866289 -0.009898006 -0.021867156 0.031072047 0.02034232 0.08489648 0.32285652 -0.015107944
-0.008675877 0.10299338 0.012182584 0.024741106 -0.004182165 0.08292264 0.012943263 0.023292454

dense_22/bias f4 [45]
00000000: a676 d5bb dadc f93c ed68 e93c 4aff 7dbb
00000010: 866f 79bb f016 083b c47b bd3a 00a8 fbb5
00000020: c046 06bb 8ba9 cc3a 62e8 9ebb b740 0a3b
00000030: 4380 053f f6a2 4cbe 7c43 963d 677e 033c
00000040: c067 753c 766b e6bb 1ada b1bb 66f1 03bc
00000050: f385 bcba b46c d03a 926b 823a 980f 98bb
00000060: 4af5 883b 1dc9 f3b9 5d24 84ba ced4 89be
00000070: ec89 983e d4e7 bcbd ee70 873c cc78 853d
00000080: 9b23 c7bd e5d2 8dbb 24b7 433c 3b46 c5bb
00000090: 37d6 d33b 7b50 7bbb 8b70 fbbb cec9 b63b
000000a0: 6ef3 6dbb 91f0 883a 534e f23c ab60 28bd
000000b0: 93a1 1b3f
-0.006514388 0.030500818 0.028492415 -0.00387569 -0.0038060858 0.0020765625 0.0014456441 -1.8749852e-06
-0.0020488948 0.0015614493 -0.0048494795 0.0021095702 0.52148837 -0.1998404 0.073370904 0.008025742
0.014978349 -0.0070318533 -0.005427611 -0.008053159 -0.0014383182 0.0015901537 0.0009950271 -0.004640531
0.0041796314 -0.00046498413 -0.0010081638 -0.2692017 0.29792726 -0.09223905 0.016533341 0.06517181
-0.09723588 -0.004328119 0.01194552 -0.006020335 0.0064647454 -0.003834753 -0.0076733283 0.005578256
-0.0036308425 0.0010447671 0.029578364 -0.041107815 0.6079342

dense_21/bias f4 [40]
00000000: 01c5 283e 4485 70bc a6af 3bbb 4478 94bb
00000010: 2ffc 3c3c 569b c83b 9af2 abbb 5838 91bd
00000020: 0afe 39bd dd0e f03d c393 25bb 0fe4 e1bb
00000030: 1bd7 1d3d ff52 0dbd 73a5 8ebb 2901 e8bc
00000040: f326 c3bc 8357 433c ddb2 03bd b47c 8ebb
00000050: 00fa 86bd 07fd 25bc 8719 b13c d841 cd3c
00000060: 4308 3a3e a712 7fbc 5fb2 3dbd 9ce1 133e
00000070: 0e48 693a ab1a 86bc a6b1 37bc e993 0fbd
00000080: eb9a bd3d 6e8a 11bd 8626 253c 6734 e5bc
00000090: a571 20bd b1da 20bd d7d5 2d3a 25a1 463c
0.16481401 -0.0146802105 -0.002863863 -0.0045309383 0.011534735 0.006122033 -0.005247426 -0.07090825
-0.045408286 0.11721585 -0.0025265075 -0.006893642 0.03853522 -0.03450298 -0.004353219 -0.028320866
-0.023822283 0.01192272 -0.032153 -0.004348362 -0.065906525 -0.010131127 0.021618618 0.02505581
0.18167214 -0.015568412 -0.046312686 0.14441532 0.00088989816 -0.016370138 -0.011211788 -0.035053167
0.09258064 -0.035532407 0.0100799855 -0.027979089 -0.03917088 -0.03927106 0.0006631291 0.012123381

dense_20/bias f4 [40]
00000000: 1a44 92bd 8b16 91bd 4b92 383d 4b71 26bd
00000010: aa40 e63d 3b6e 783c 0db7 2f3e 97dc 9a3c
00000020: 7b8d b4bc abb6 6a3d d351 2b3b 6850 b8bc
00000030: 6a8c 65bd b721 c53c 0aab d83d 5ada 14bd
00000040: 0862 fdbc 1d19 073e 2030 df3c 2e4e 93bd
00000050: a48c 3abd ef72 acbc 5a44 39b8 86b3 90bc
00000060: 7bae adba c2be 43bc efe5 173d 9076 093d
00000070: 3c3f 2c3a 2963 b9b9 7214 113d e6de e1bc
00000080: ec8b 5bbd 9197 17bc 7a29 88bd a318 15bc
00000090: fefa 0bbd 1b47 403d e88e 783b 8ab9 acbc
-0.071418956 -0.07084378 0.04506139 -0.04063539 0.112428024 0.015163 0.17159672 0.018904014
-0.02204012 0.057303112 0.00261413 -0.022499278 -0.056042112 0.024063928 0.10579498 -0.03634105
-0.030930534 0.13193174 0.027244627 -0.07192646 -0.04554428 -0.021050898 -4.4171094e-05 -0.017663728
-0.0013250852 -0.011947336 0.037084516 0.033560336 0.0006570702 -0.0003535983 0.03541989 -0.027572107
-0.053600237 -0.009252445 -0.06648536 -0.009100112 -0.03417491 0.04694281 0.0037926976 -0.021084566

dense_2/bias f4 [40]
00000000: 74c5 c7bd d753 883d b8e2 6ebd 45a2 c7bc
00000010: ac13 22bd ca6f 32be 7616 2dbd 32f8 26be
00000020: c1f1 91bc de6a 993c 79ff 673e 6592 8e3c
00000030: 82a1 f13c bf92 00bd c086 bd3d a90a 913c
00000040: 8ec4 ad3d 698e 983d dcc4 57bc ea9b 393e
00000050: 96c0 27bd f5a4 b33d 2d04 3f3e 6b36 98bd
00000060: db1f e6bb 340d 08bd 3e33 63bd bba5 9dbd
00000070: dc9a 3e3c b1a0 3dbd dc1e c3bd 6aef 803c
00000080: 926e 7b3d 5f04 15bd cca7 a5bd 3771 99bd
00000090: e7f5 bbbd 7c45 803d 94eb adbc 6902 8cbc
-0.09754458 0.06656616 -0.058321685 -0.024369368 -0.03956954 -0.17425457 -0.04225775 -0.16305616
-0.017815473 0.018727716 0.22656049 0.01740379 0.029495958 -0.031389948 0.09254217 0.017705278
0.084847555 0.074490376 -0.0131694935 0.18125883 -0.04095515 0.087716974 0.18653937 -0.074322544
-0.0070228404 -0.033215716 -0.05546879 -0.07697626 0.011633601 -0.046295825 -0.0952737 0.015739162
0.061384745 -0.03638112 -0.08088645 -0.07492297 -0.091777615 0.06263253 -0.021230496 -0.017090993

dense_19/bias f4 [40]
00000000: 454a 6cbd 0a37 bc3d 0547 583e cf61 4d3d
00000010: 1e75 5e3c 7f80 e2bc 0302 8abd 9e6d b03e
00000020: 527e 38bc 99ed 503d e886 a73d 855c 113e
00000030: 676f 293d eb57 cfbc d9c3 8f3c 1c6f 3e3e
00000040: 2a7a ff3d e6c3 8f3d 1fce f5bb 69c5 aebd
00000050: c627 ad3e 791e eebc dec5 da3d 33d9 ed3d
00000060: 5287 f9bc 6706 083d b88a 423d bebd d93d
00000070: 6ead a0bd dfc9 b4bc 1171 da3d ab6f c4bc
00000080: ef19 b7bc bf7b eabc ec12 7d3c 1b47 a6bd
00000090: 3c30 d63c e1a8 1dbd b1db 763d e67d 8a3d
-0.057688016 0.09190185 0.21120842 0.050142106 0.013577728 -0.027649162 -0.06738665 0.3445863
-0.011260586 0.05100784 0.08180028 0.1419545 0.041366007 -0.025310477 0.017549442 0.18597072
0.12474473 0.070197865 -0.007501378 -0.08533747 0.33819407 -0.029067265 0.106822714 0.11613693
-0.030460034 0.03320923 0.047495574 0.106318936 -0.07845579 -0.022068916 0.10666097 -0.023979029
-0.022351233 -0.02862346 0.015446406 -0.08119031 0.026146047 -0.038491134 0.060268108 0.067622945

dense_18/bias f4 [45]
00000000: b5f2 333c 48ee 133c d41e 853e cabf a93b
00000010: 279c fd3b 098a 82bb 1eee 02bc 12fc 8cbb
00000020: de7a 063c 741d 563b 640d ddba b4e6 f53b
00000030: 4a24 e23e 00ae 8abd cc3b 933d 9a3a 0e3c
00000040: d067 99bb cf72 c2bd 260d 63ba cb76 7eba
00000050: 1071 b1b8 87cb 123b 09ea dcba 85f3 fabb
00000060: c2b2 253b 17cf d63b a883 ceba 986b 3cbe
00000070: 73e4 3b3e bb78 98bd 9970 78bc 1b28 1a3e
00000080: daa1 a6bd c9a8 c83b 3290 24bc 33eb 61bb
00000090: 0e8f 5f3c e05d b7bb a6e0 56bb 9113 96ba
000000a0: 4743 e8ba cc7c 9e3b 1baf 15bc 029d e23b
000000b0: c6a7 ac3e
0.010983159 0.009028979 0.26000082 0.0051803337 0.007739562 -0.00398374 -0.007991342 -0.00430251
0.008208005 0.0032671364 -0.0016864953 0.0075043086 0.4416831 -0.06771469 0.0718914 0.008680964
-0.004681565 -0.09494554 -0.0008661322 -0.00097070326 -8.461077e-05 0.0022399144 -0.0016854416 -0.0076584243
0.002528355 0.0065554488 -0.0015755789 -0.18400419 0.18348865 -0.074449025 -0.015163564 0.15054362
-0.081363395 0.0061236364 -0.0100441445 -0.0034472465 0.013644947 -0.0055959076 -0.003278771 -0.0011449923
-0.0017720246 0.0048366543 -0.009135987 0.0069156894 0.3372175

dense_17/bias f4 [40]
00000000: 74b2 09bd b2df 39bc ecac e63b eda4 d03d
00000010: 1d54 76bd abed c63d 91fa 27bd cfa9 87bc
00000020: 350d 1f3e 3e26 7fbd a408 61bb 9c90 12bd
00000030: 6e71 713d 718c 873c 8359 aabc a029 cdbc
00000040: 5bff 47bd 6489 383c 3db4 e53c 64fd 17bd
00000050: 00a0 94bc 99d8 eabc 5efb 74bc fe08 a23b
00000060: 655b ebbc 493f dd3d d8ea eabc b853 ed3b
00000070: dac2 6f3e d0a2 703d c30b c1bc ccae 12bd
00000080: 4f30 b33d 568f fa3b caef 45bc 866c 1b3c
00000090: 1111 d53b 5956 34bd bd75 96bc 4071 acbd
-0.03361745 -0.011344837 0.007039657 0.10187707 -0.06013881 0.097133 -0.041010443 -0.016560463
0.15532382 -0.06229233 -0.0034337426 -0.03578244 0.058946066 0.01654646 -0.020794636 -0.025044262
-0.04882751 0.011263225 0.028040046 -0.037106887 -0.0181427 -0.028667735 -0.014952509 0.0049449196
-0.028730104 0.10803086 -0.028676435 0.007242646 0.23414174 0.05874902 -0.023565179 -0.03581123
0.087494485 0.0076464815 -0.012081096 0.009486323 0.0065022786 -0.04402766 -0.018366689 -0.08420038

dense_16/bias f4 [40]
00000000: 0814 60bd f7ed 15bd e377 a3bc 3790 36ba
00000010: b7b8 fb3a 540f 34bd 0737 593e b6c2 d7ba
00000020: 8320 433c 4628 41bd c0e5 873c a5a2 2cbc
00000030: 76cd c83c 0abf b43c 6aad 23bd 2786 c9bc
00000040: 0c9e 8bbd 76ed ffbb 589d 89bd 34e5 22bc
00000050: 53e8 05bc b192 e3bc ca5b b7bc 395f 9dbc
00000060: 2e10 8abc a383 32bd 230c 013d 138a 3a3c
00000070: 99a0 c1bc 0ebd 0a3e b39b 8cbc 07f3 4abc
00000080: 310b 423d fa5d 313d 47e9 1f3d 046e 513e
00000090: 9e47 143c 1522 273e 2384 6d3c 26a1 f2bb
-0.054706603 -0.036603894 -0.019954627 -0.0006964239 0.001920483 -0.04395993 0.21212398 -0.0016461227
0.011909607 -0.04715755 0.016589046 -0.010536824 0.024512034 0.02206375 -0.039960302 -0.024600102
-0.068172544 -0.00781029 -0.06719464 -0.009942342 -0.008173066 -0.027779909 -0.022382636 -0.019210445
-0.016853418 -0.04358257 0.031505715 0.0113854585 -0.02363615 0.13548681 -0.017164087 -0.012387044
0.047373954 0.043302514 0.03904083 0.20452124 0.009050278 0.16321595 0.014496836 -0.0074044643

dense_15/bias f4 [40]
00000000: ec3b 2f3e a307 f83c 889a 3c3e 2ce9 c53b
00000010: 3358 343e 7e21 4ebd 748e 3e3e 7da6 f83d
00000020: 7504 5cbd 618e c9bc 0efc 4b3e 73d2 373e
00000030: 15c1 833d 8c48 813e fd34 4abd a6fb 92bc
00000040: 4353 8c3e 0b00 253d cf5d 303d 581e 033e
00000050: f14c 923c e554 20bd 0f24 ce3d af2d aa3d
00000060: 264b dabc 44cb c7bc 59ee a03d fdf3 9cbc
00000070: 81bd 483e 2652 ebbc 1302 ac3c 0653 3dbb
00000080: 623d 773d 9214 b5bc 3cf9 a63b bad8 58bd
00000090: 4fbf 4d3e 5f22 eb3d 1197 a5bd df40 52bd
0.17112702 0.030277079 0.18418324 0.006039759 0.1761177 -0.05032491 0.18609029 0.1214113
-0.053715188 -0.024604024 0.1992037 0.17951374 0.06433312 0.2525066 -0.04936694 -0.017942261
0.27407274 0.040283244 0.043058213 0.12804544 0.017858954 -0.03914346 0.100654714 0.08309495
-0.026647162 -0.024388917 0.07857961 -0.019159311 0.1960354 -0.028725695 0.020997083 -0.0028888597
0.060361274 -0.022104535 0.005095629 -0.05294106 0.2009251 0.11481165 -0.08085454 -0.051331397

dense_14/bias f4 [45]
00000000: 2d50 cc3b 8609 423d 3684 a13e 0f68 63bb
00000010: f79c 2abb 2897 073c 9330 91bb 24d7 a5bb
00000020: 2271 123c a9f1 223c 3727 8dbb 68b1 8339
00000030: e84b a83e b085 1cbe f0f9 17bd 63ba e23c
00000040: 1fa5 8ebc a63c 01be acab 49bb 74c8 f2bb
00000050: 8676 99bb 7560 763b 5659 913b 780e 14bb
00000060: c11f 3abb 9027 683b bdfe 9f3b b073 c5bd
00000070: 856e 533e dad2 24bc d2ba 14bd da07 293e
00000080: 52dc edbc 8322 06bc 540d 513c a05b 13bb
00000090: 42d7 acbb ba6c 69bb ac52 a63a 44f9 873b
000000a0: bf7f 8a3b 669d 1c3a 9611 41bd f281 efbc
000000b0: cac6 943e
0.0062351436 0.047372364 0.3154618 -0.0034699475 -0.00260335 0.008275785 -0.0044308393 -0.005061047
0.008938106 0.009945312 -0.0043076533 0.00025118445 0.32870412 -0.15285373 -0.037103593 0.027676767
-0.01741272 -0.12620792 -0.003077249 -0.00740915 -0.0046833185 0.0037594114 0.0044356985 -0.0022591632
-0.0028400274 0.0035423972 0.004882662 -0.09641206 0.20647629 -0.010060037 -0.03631098 0.16506901
-0.029035721 -0.008186939 0.012759525 -0.0022485033 -0.005274684 -0.0035617785 0.0012689433 0.004149588
0.0042266543 0.0005974382 -0.047135912 -0.029236767 0.29057914

dense_13/bias f4 [40]
00000000: d7cf 51bd 288c e9bc c433 9fbc beab 64bc
00000010: 9c36 5ebd ae91 32bc eb0d cfbc d2c1 743e
00000020: 343a 843d 2fe2 d83b 6c5c 53bb e7ac 1c3e
00000030: 1a46 b3bb da3b 0cbd 9af0 e7bb f0e5 30bd
00000040: 7968 8c3c 1b88 d53d c84b 42bd ffcc b23b
00000050: 0642 76bd b4a6 c3bc 25c6 21bd aff7 b9b9
00000060: 2661 14bd 3cfa efbc 0613 fc3a cb5a d63b
00000070: 62d5 98bb cfee 8bbc d42b 6cba c465 04bd
00000080: bc24 43bd c439 4abd 5e8a 253e 3009 1bbd
00000090: e77a d9bc 49f5 5abc 1bb6 573b 6b9e 6bbd
-0.051223602 -0.028509215 -0.019433863 -0.013956962 -0.0542513 -0.010898991 -0.025275191 0.23902062
0.06456414 0.00661876 -0.0032251133 0.15300332 -0.0054710032 -0.034236766 -0.0070782425 -0.043188035
0.01713966 0.10426351 -0.047435552 0.0054565663 -0.06012156 -0.023883201 -0.039495606 -0.00035470488
-0.03622546 -0.029294126 0.0019231744 0.006541585 -0.004664109 -0.017081646 -0.00090092164 -0.032323614
-0.047642455 -0.049371496 0.16166064 -0.03785056 -0.026547862 -0.013364145 0.003291494 -0.057524126

dense_12/bias f4 [40]
00000000: 8169 87bc 7d0e 2bbd 75a9 5bbd f2a7 36bc
00000010: 5d00 a9bc ed58 cdbc 0af0 983d 1f92 95bc
00000020: e45c f13b b448 e53a 14c0 abbc 21c9 e93b
00000030: 92e3 3c3e 190e 71bd 1fd8 493c 5451 3abc
00000040: f2d1 5b3d 1503 3ebd 9020 a03b c77f 963d
00000050: 2dc7 5dbc ffcb 32bd 7666 253e 408c ca3d
00000060: 863e 413d 272f 303e ca04 4f3b 7e9f e43b
00000070: d0b1 5ebc a49c 8c3c 188d a43d 937f 84ba
00000080: 0b84 a93b ce45 7bba ba1f c9bc 0bf7 a63b
00000090: 88f5 063d d7aa 863d cb28 883e 6cd7 b3bb
-0.0165298 -0.041761864 -0.053628404 -0.01114844 -0.020630056 -0.025066817 0.07467659 -0.018258153
0.0073658098 0.0017492981 -0.020965613 0.007134572 0.18446186 -0.058851335 0.012319594 -0.011371929
0.053667016 -0.046389658 0.0048866943 0.0734859 -0.013536257 -0.043651577 0.16152367 0.09890032
0.047178768 0.17205487 0.0031588548 0.0069770208 -0.0135921985 0.017164536 0.08034724 -0.0010108821
0.0051732115 -0.0009585292 -0.024551261 0.005095368 0.032949 0.06575554 0.26593623 -0.005488327

dense_11/bias f4 [40]
00000000: 3712 3f3e 283e b8bc 45db b2bd bb3a 48bd
00000010: a735 383d 4f43 713e 64eb c63d d3e9 403e
00000020: f522 693b c7f5 1abc 8754 3fbd 88d2 e63d
00000030: 3519 b73b 7b1b c43c ed74 0e3d 943d 33bd
00000040: f9fd 22bd 6283 c63d 47a3 023e a14d d63d
00000050: 342e ebbc e3cb 633e 3c9b b0bd 4f90 81bb
00000060: 02a7 89bd 6ddf e6bd e09c 123e 549e 683c
00000070: f7f6 973d 6706 ae3c 0a05 d93d d24b bc3c
00000080: cbf1 d3bc beff f2bc 9f57 b33d 4463 373e
00000090: 4db7 2b3c 21f0 96bb 5d4b 2f3c 6e39 11bd
0.18659292 -0.022490576 -0.087332286 -0.048884135 0.04497304 0.23560832 0.09712866 0.18839197
0.0035573815 -0.009458012 -0.04671147 0.112706244 0.0055877217 0.023938885 0.034779478 -0.043759897
-0.03979299 0.09693028 0.12757598 0.10464025 -0.028708555 0.22245745 -0.086233586 -0.0039539705
-0.06721307 -0.11273084 0.14317656 0.014197905 0.07420152 0.021243287 0.10596664 0.022985373
-0.025872132 -0.029662963 0.08756947 0.1790896 0.010480714 -0.0046062623 0.01069912 -0.03545516

dense_10/bias f4 [45]
00000000: 8223 a4bc 030d ad3d bfe5 b43d 225b 2abb
00000010: 6c48 493b e659 e0ba 7c6c b3bb d4a0 11bc
00000020: 0b18 513c 0487 dc3b 0739 87bc 5e9c 453c
00000030: 545d b63e 7067 9dbd b5ea 033e aed3 8b3c
00000040: d800 8bbd 580e 00bd 30be bd38 ccc3 01bc
00000050: 5853 85bb ef62 4a3b 3849 4a3b 3532 b8bb
00000060: fac1 453b 918e c33b 86d9 9c39 04f3 6abd
00000070: 8dd3 433e 0c25 9abc 2462 2ebc 56b2 3b3e
00000080: 281e 68bd 09d1 6dbb 96b1 9ebb ab55 aa3b
00000090: c24f 5fbc 7dd8 b9bc 2953 883c a4ee 04bc
000000a0: 1f90 5f3c 0771 30bc efc7 dd3c 32c5 ab3a
000000b0: fe27 6f3e
-0.020036463 0.084497474 0.08832883 -0.002599426 0.0030713333 -0.0017116636 -0.005475579 -0.008888442
0.01276208 0.0067299623 -0.016506685 0.012061207 0.3561808 -0.07685745 0.12882502 0.01706871
-0.0678727 -0.03126368 9.0476475e-05 -0.007920217 -0.0040687732 0.0030881723 0.0030866396 -0.0056212195
0.0030175433 0.005967923 0.00029916706 -0.057360664 0.19123669 -0.018816493 -0.010643516 0.18329749
-0.056669384 -0.0036287925 -0.0048429472 0.0051982007 -0.013629856 -0.022686237 0.016641216 -0.008113537
0.013645201 -0.010769135 0.027072875 0.0013105033 0.233551

dense_1/bias f4 [40]
00000000: f5ec d2bc c6ca bfbc 7ecf cbbc 8c86 973d
00000010: 2aa1 07bd 1dde 14bd e113 3fbd 4c54 fc3d
00000020: 31e6 1ebd 8d84 493d 1bdc 653d cb41 ac3c
00000030: fcf5 66bd 46dc 62bc 7cfd 7fbd c579 90bc
00000040: 0ac9 5dbd 8bb2 ae3d 67f1 68bd 6c3c 643c
00000050: 0044 1ebd 2f5d 57bd 40b5 073d dd2f 10bd
00000060: a87b 92bd 9ccf 093c 2780 1f3d af57 7ebd
00000070: 42bc e7bc a121 bfbc bc39 263d ce2b 21bd
00000080: b1ac 19bd 8f89 f03d 04b3 153d 122c 0a3d
00000090: 2391 72bc 2713 b33d d0f7 e63d 174b 07bd
-0.025747756 -0.02341212 -0.024879213 0.0739871 -0.033112682 -0.036344636 -0.046649817 0.12320766
-0.038793746 0.049198676 0.056118112 0.021027466 -0.056386933 -0.013846463 -0.0624976 -0.01763619
-0.054146804 0.08530148 -0.056870844 0.013930421 -0.03863907 -0.0525791 0.033131838 -0.035201896
-0.07152492 0.008411314 0.038940575 -0.06209534 -0.02828801 -0.023331465 0.040582404 -0.039348416
-0.037518207 0.11744987 0.036547676 0.033733435 -0.014805111 0.087438874 0.11277735 -0.033030596

dense/bias f4 [40]
00000000: 03d8 f33c f6fa f73d ad3d ecbd babd c9bd
00000010: 4a9f eb3b 5e3e a43d 2451 b0be 6246 b73b
00000020: aa41 b439 a7b2 49bd e024 1cbd 6a50 0cbd
00000030: 3b94 d03d c4c0 b03c 10f2 b53d 73ac 2b3e
00000040: 353b b5bd 390d a3bd 408a 75bd 3fba dc3d
00000050: 8faa c4bd 26f5 053d 581b 4b3d c814 993c
00000060: 90cf a8bd 0682 0f3d 8840 4fbd 5dc1 863c
00000070: af8a c83d f2b6 5ebc 9e6d 5f3d 9be9 2ebd
00000080: 72c2 89bd 48ff 4ebd 9df3 e43d ad74 4e3d
00000090: b70c 353d e0fe e13d 1f3b 8c3d 25c9 6d3b
0.029766088 0.12108414 -0.11535201 -0.098506406 0.0071906196 0.08019708 -0.34436905 0.005593107
0.000343812 -0.04924264 -0.038121104 -0.034256376 0.10184523 0.021576293 0.088840604 0.16765003
-0.088491835 -0.079615064 -0.0599463 0.10777711 -0.09602844 0.032704495 0.049586624 0.018686667
-0.082427144 0.03503611 -0.05059865 0.016449625 0.09792077 -0.013593422 0.0545479 -0.042703252
-0.067265406 -0.050536424 0.11179278 0.05040424 0.04420158 0.11034942 0.06847214 0.0036283222

bias/bias f4 [15]
00000000: 031a 2bbd 6cf5 e9bc 6ac9 a5bc 876d 4a3e
00000010: f486 d1bd b3a9 873d 1128 3f3e a1f9 26be
00000020: 260b c43d cdb6 0c3e f7bc d1bd 4683 143d
00000030: 73e8 9e3d 59ec 2dbd 727d 9a3b
-0.041772854 -0.02855941 -0.020237643 0.19768344 -0.102308184 0.066241644 0.18667628 -0.16306163
0.09572439 0.13741608 -0.1024112 0.036258005 0.0775918 -0.042461727 0.0047146613

model/dense_11/MatMul f4 [40, 15]
00000000: ec39 a23b 152a 053c 3a5d 08bc 0e2c 7dbb
00000010: 895d fe3b fafd aabe 29ef 0bbc 652c ae3a
00000020: 15b7 013c 1b11 163c 3b46 9dbb 4fd5 11bc
00000030: 1e11 213b bd53 12bb 7da4 c3b9 1b9c 1fbe
00000040: 4a92 5abe 904d 2c39 5648 2abc 4ed1 11bf
00000050: 17f7 b23d fc59 593c c450 31bd b8b1 a4bb
00000060: acdf 2a3b 4bd0 803b 0bb1 16bc a22e 26ba
00000070: 8532 e33c d705 90bb 5576 c2ba 37f3 7b3a
00000080: bf19 213a 31fc bfbd 5fca 2ebe 5f9b a3ba
00000090: 907b 343b 5c15 09bb ce2c 753a 2fd0 563a
000000a0: 225e 0e3b 2cae 74bb 837d 9039 60bb 1b3b
000000b0: 1572 a3bb 8749 a1b8 b941 adb7 68fa 9337
000000c0: f23a bcb8 7056 72b6 a0bd 14b7 4937 6d38
000000d0: 06ad 3e38 c8d2 0f38 4c74 b238 a4e4 fdb7
000000e0: ae3d 27b8 509b 2837 60c7 a1b8 423b 8cb8
000000f0: a619 1ab7 b6ee 1db8 57af 9b37 083f 0337
00000100: 00d7 c634 5e02 23b8 00a1 c337 30cc 3cb7
00000110: d8e2 6637 2069 c5b6 6951 59b8 74a0 5738
00000120: 5e0b de38 e9bf 4138 343e 93b8 f8dc 5c3e
00000130: 4d2f a83c 4312 ccbb 68ff e3bb 7634 063c
00000140: a3f4 0dbf b813 2abc 13d4 283a 522c 263c
00000150: 4824 c53b bb41 25bb e3f5 8f3b 8572 723c
00000160: ce20 feba 26af f6bb 03a9 b1ba 074d f33d
00000170: 1254 96be 8ea9 e639 9908 573e fe4d 85bd
00000180: 9077 13bc 2b22 52bb b73f af3c 9ae5 df3b
00000190: c4f4 dfbc e6a6 583c f810 61bb 7326 adbc
000001a0: e0ea 833d bdd4 ce3d 31a6 793b 2e5f 12ba
000001b0: f32e c83a 79b5 c138 6e7f 08bb cbbe dcba
000001c0: 603e 8738 8ed2 95b9 9ab1 27ba a339 bbba
000001d0: 6f59 173b e0e1 50b8 5fc8 dfba 1b93 d93a
000001e0: a2e5 1b38 bf85 17b8 cef7 b138 cf66 29b7
000001f0: 00c8 61b6 76da 09b9 e000 efb5 9847 d037
00000200: fd41 ba37 e5af beb8 cc57 1cb8 f74d 9eb8
00000210: e841 8fb8 9a7e b938 6c66 9bb7 441d c7b8
00000220: 4618 a2b7 2e1b 4638 f980 4b38 a4af 01b8
00000230: 3488 f6b7 9c9f f337 2866 9937 0f90 60b8
00000240: 9217 f337 6ab9 36b7 5078 dcb6 81be 6238
00000250: ce3e a038 789c 3fb8 b874 5937 7cb9 fdb8
00000260: 519d 8438 b83d eb37 0430 86b7 cf92 4938
00000270: 6070 c9b7 c638 f437 67bd 91b8 2424 62b8
00000280: 4489 7d38 d779 1739 ecd6 a737 e38c 6eb8
00000290: cff2 0f38 55d3 20b7 a81b 7838 068c ecb7
000002a0: 476a 1e39 200a 0437 7250 af37 9e5d ebb8
000002b0: f017 f038 21ea 5a38 60fe 1cb8 c5ee acb8
000002c0: 0615 d637 b96b 33b9 0cec 9838 d199 93b8
000002d0: 504e 5cb7 1bed b637 80b9 5534 6a95 89b7
000002e0: 023c 5bb8 5074 2438 809f d535 a09d efb6
000002f0: c5d2 1c38 741f af37 9876 ce35 9201 fc37
00000300: f6ce 88b8 0cac 9eb8 003a e7b5 dc97 5d37
00000310: f4c3 88b8 4cbc bd37 eac3 07b9 e6e1 14b8
00000320: 04fa 9236 0b3e b2b8 8112 28b8 2ead a838
00000330: 10f8 4c36 90bc c4b6 5640 9738 40ec e336
00000340: 586d 9836 fbfb 38b9 8440 f137 2004 87b8
00000350: 8c6c 3a38 7554 1bb8 7415 16b8 f515 92b8
00000360: c6ed 07b8 06ff 5fb8 81d7 a937 f0b4 95b6
00000370: d0d6 e7b8 2ead a438 80ba b338 d6e4 2c38
00000380: 00f5 efb4 8f76 2bbd a9f7 13be ba72 62be
00000390: 23ca bdbd fb4a a8be f5ff cb3e 6e2f 053c
000003a0: 820d d2bb d6f8 52bb 3b29 6f3b e0a6 6d3a
000003b0: 4e4e b2bb 4550 8fbb 4e65 223c 2c6f c8bb
000003c0: bca5 ca38 2035 1fb7 5c3f 2f38 aff5 14b8
000003d0: 5928 9038 2908 e537 3277 af37 70ab f136
000003e0: d390 b5b8 d0d3 b438 0a48 7e38 b4a3 d837
000003f0: 106d 50b6 580e ccb7 8671 4538 e6b3 4e38
0.0049507525 0.008127709 -0.008323008 -0.0038630995 0.007762615 -0.33396894 -0.008540907 0.0013288377
0.007917185 0.009159352 -0.004799632 -0.008900954 0.0024576853 -0.0022327744 -0.00037315852 -0.15586893
-0.21344867 0.00016432093 -0.010393223 -0.5696 0.08738535 0.013266083 -0.043289915 -0.0050260685
0.002607326 0.0039310805 -0.009197484 -0.00063393463 0.02773405 -0.0043952274 -0.0014836291 0.0009611132
0.0006145499 -0.093742736 -0.17069386 -0.0012482217 0.002753947 -0.0020917272 0.0009352685 0.0008194474
0.0021723588 -0.003733526 0.00027559334 0.0023762807 -0.004987965 -7.690774e-05 -2.0653812e-05 1.764037e-05
-8.975518e-05 -3.6111123e-06 -8.865638e-06 5.655669e-05 4.546067e-05 3.4290162e-05 8.5093634e-05 -3.026642e-05
-3.9873346e-05 1.0049742e-05 -7.714215e-05 -6.686758e-05 -9.185087e-06 -3.7654034e-05 1.8559089e-05 7.822884e-06
3.7036807e-07 -3.8864433e-05 2.3320783e-05 -1.1253214e-05 1.37618845e-05 -5.8832957e-06 -5.181265e-05 5.1409428e-05
0.00010587902 4.6193516e-05 -7.0210925e-05 0.21568668 0.020530367 -0.006227763 -0.006957937 0.008191219
-0.5545141 -0.010380678 0.0006440293 0.010142403 0.006016288 -0.002521618 0.0043933257 0.014797811
-0.0019388439 -0.0075282035 -0.0013554398 0.11879926 -0.29361016 0.00043995347 0.20999373 -0.065090165
-0.009000674 -0.0032063823 0.021392686 0.0068327906 -0.027338393 0.013223385 -0.003434239 -0.021136498
0.06441283 0.1009917 0.0038093443 -0.0005583641 0.0015272781 9.236759e-05 -0.0020827907 -0.0016841529
6.44892e-05 -0.0002857637 -0.0006397009 -0.0014284145 0.0023094078 -4.9801427e-05 -0.0017073265 0.0016599627
3.7168742e-05 -3.6125766e-05 8.486175e-05 -1.0097122e-05 -3.3644028e-06 -0.00013146721 -1.7807142e-06 2.482887e-05
2.2203656e-05 -9.092669e-05 -3.7275066e-05 -7.548549e-05 -6.831047e-05 8.845069e-05 -1.8525134e-05 -9.4945106e-05
-1.9323208e-05 4.723219e-05 4.8519087e-05 -3.0919575e-05 -2.938891e-05 2.9042181e-05 1.8286592e-05 -5.3539927e-05
2.8978833e-05 -1.0891215e-05 -6.570517e-06 5.406002e-05 7.641093e-05 -4.568367e-05 1.2961384e-05 -0.00012098529
6.323553e-05 2.8042923e-05 -1.5996404e-05 4.805886e-05 -2.4013396e-05 2.9113504e-05 -6.949418e-05 -5.3916257e-05
6.044774e-05 0.00014445871 2.0008032e-05 -5.6874833e-05 3.431999e-05 -9.585948e-06 5.9153565e-05 -2.8198596e-05
0.00015107646 7.8701705e-06 2.0899086e-05 -0.00011223111 0.000114485505 5.21933e-05 -3.7430204e-05 -8.2460734e-05
2.5520578e-05 -0.000171109 7.291892e-05 -7.038157e-05 -1.3131255e-05 2.1806502e-05 1.9904655e-07 -1.6401249e-05
-5.2269555e-05 3.920897e-05 1.5916157e-06 -7.141105e-06 3.7389593e-05 2.0876272e-05 1.5382711e-06 3.0041472e-05
-6.523535e-05 -7.566073e-05 -1.7227721e-06 1.3207984e-05 -6.5214845e-05 2.2618238e-05 -0.00012947587 -3.5496334e-05
4.3802447e-06 -8.499258e-05 -4.0071554e-05 8.0431215e-05 3.054276e-06 -5.8632068e-06 7.2122246e-05 6.7926303e-06
4.5426823e-06 -0.00017641477 2.8759481e-05 -6.43807e-05 4.4446948e-05 -3.7033537e-05 -3.5782767e-05 -6.965912e-05
-3.2407952e-05 -5.3404852e-05 2.0246722e-05 -4.46161e-06 -0.0001105495 7.8523866e-05 8.5701235e-05 4.1221116e-05
-4.469548e-07 -0.041861113 -0.14449944 -0.22114077 -0.0926707 -0.32869706 0.39843717 0.008128984
-0.0064103017 -0.0032191775 0.003649308 0.0009065699 -0.0054414636 -0.0043735825 0.009911848 -0.0061167683
9.662981e-05 -9.489508e-06 4.178226e-05 -3.551476e-05 6.8739704e-05 2.7302727e-05 2.091713e-05 7.2023176e-06
-8.657728e-05 8.622522e-05 6.062541e-05 2.5825437e-05 -3.1057898e-06 -2.4325374e-05 4.7074187e-05 4.928177e-05

model/dense_12/MatMul f4 [40, 40]
00000000: 106f 40b7 ac8e bd37 3bf9 2038 7ab8 36b8
00000010: 384e 03b8 7bfd a0b9 da97 e938 5d8e 9eb7
00000020: cc3e 8a38 fcc4 22b8 a3a7 9337 1c29 0039
00000030: 734f e338 4783 2fb8 eef3 ee37 3a1b 9338
00000040: d365 ffb8 462e bf37 481a c1b7 5652 9fb7
00000050: 110b 6ab9 0241 2db9 b741 edb7 7c95 18b9
00000060: 5970 1938 a11b f6b7 56ba c137 fdf5 d4b8
00000070: 45ef 9cb7 9204 5538 0f0e 4639 8baa 8fb7
00000080: 06f5 a238 e244 8838 d7a9 deb8 98c9 97b8
00000090: 9c36 3737 e4eb 91b7 92a5 1038 6e7c 2638
000000a0: 728d 87b8 8358 af38 88a7 6938 099a d9b8
000000b0: 54f7 53b8 8dcd 7937 5f32 033a 5716 e3b8
000000c0: a22b 19b8 1880 ddb7 b313 85b8 a0d6 2438
000000d0: 7810 76b8 c8b9 26b8 0080 eab2 6379 3bb8
000000e0: ad09 ab37 8464 1237 c05d e534 7a40 a638
000000f0: 3a68 bf38 28f3 6c38 c2f6 2bb8 17f2 3339
00000100: 5ee9 8db8 4687 8fb8 3ac1 c038 226a 2738
00000110: 0cf4 8db8 13c9 15b9 8c5b 4c39 31f1 5939
00000120: 145e 5638 e365 dbb7 b87c 8db7 527e 8338
00000130: 0054 30b3 2cc1 8d37 69fe 18b9 0682 4239
00000140: 843f 1eb8 c875 edb8 9a35 1738 a615 fb38
00000150: f66a acb9 28c7 00b9 c0ae 4bb6 047b 6938
00000160: 4f49 16b9 2474 2b39 fa61 b6b7 5ad8 9db7
00000170: 698b 6038 aed1 f2b8 ae7c 0bb8 3c91 99b8
00000180: a4d1 d5b8 b031 ce36 111e 0239 b877 d5b6
00000190: 7025 80b6 a801 acb8 6a6f 55b8 a45c 1fb8
000001a0: 8b6f 2139 d5bf 2ab9 8389 8ab8 0c3d 8eb8
000001b0: c04b 4e37 409c e3b7 507d c438 c4ef df36
000001c0: 8cba 60b8 e371 a7b9 c6a4 a637 8920 a7b9
000001d0: d49f e837 b850 23b8 c0c2 0ab9 70a3 0db6
000001e0: 2003 1837 b02f 7ab8 c048 dab5 a2e7 0ab9
000001f0: f028 bf37 c711 c637 931d 28b8 3ef7 dd37
00000200: 4678 5438 dc5d 7b38 fab3 5f39 30e4 32b8
00000210: 4f56 8538 5462 2539 8373 19b8 9a59 1fb8
00000220: 040c 96b8 2cbb 1b39 2ce5 40b9 e587 adb8
00000230: 6a88 1c38 946e a8b8 345d 5a39 7a54 f838
00000240: 481c 0738 ec78 beb8 bcb2 12b9 d66e 3c38
00000250: b03a 9038 24a8 c038 508b 3b38 1b9f 5f38
00000260: 9236 36b8 782f 0f39 809c f7b4 5076 ef36
00000270: 3a90 34b9 017c 5539 c06b f336 63dd 2e37
00000280: 10fc 6839 79dc 72ba 40d2 08b6 6dd6 01ba
00000290: d813 bbb9 5820 5eb8 404a c339 9e9e 9539
000002a0: 62d3 173a 1608 c1b8 ceda a1b8 c7e9 0539
000002b0: ece8 51b9 bb44 01b9 f622 92b8 5508 ecb8
000002c0: 62b3 8739 2002 b2b6 f1c3 bcb9 4a33 8db9
000002d0: 76c4 c2b8 8fbf 7a3a a526 0f3a 80f6 35b9
000002e0: 2e09 d338 c014 2b37 029f 2cb9 6e04 07b9
000002f0: 6d97 3aba cc6e f3b9 2f88 26b9 609e 5037
00000300: 603a 753a 5316 7539 df73 12ba e015 3138
00000310: b038 efb9 668a b4b9 1e62 1739 7c13 3ab8
00000320: 49e4 72b9 c0a4 7338 fbf4 e1b8 88a9 1837
00000330: d001 56b7 5d42 8838 fc9f 9db8 e657 be38
00000340: 2792 8e38 9ece 24b9 7ed8 25b8 e429 ba38
00000350: 5dda ec38 c18f bd38 d821 21b8 28a0 79b9
00000360: 02ef 2838 c5d2 46b9 5624 2eb7 c250 d8b8
00000370: 49a3 7a38 51fd 5939 065c d638 20c9 ea36
00000380: c93c 77b8 d4bf 9138 0697 a0b8 6452 c4b7
00000390: 2387 6d39 00da 24b9 5e87 78b9 d690 b237
000003a0: cd1c 81b9 74a4 21b8 4019 3e37 da15 5739
000003b0: 78a5 c539 120b 9eb8 1eee 2138 fcd6 c538
000003c0: 3cf4 93b8 ff82 9139 ecad 27b8 dc6e d338
000003d0: 9c18 2538 5efb d638 2a47 3239 8ada 6b38
000003e0: 3288 1c38 7d0e c938 b37f 2539 0579 19b9
000003f0: 26f3 3db8 80ab 17b6 c014 7fb6 48ce 6bb8
-1.1469951e-05 2.2596992e-05 3.8379087e-05 -4.356399e-05 -3.130568e-05 -0.00030706436 0.0001113859 -1.890136e-05
6.5920496e-05 -3.8807266e-05 1.7601827e-05 0.00012222346 0.00010839002 -4.1845513e-05 2.84854e-05 7.0145776e-05
-0.00012178314 2.2790522e-05 -2.3019631e-05 -1.8992618e-05 -0.00022320102 -0.00016522783 -2.8283202e-05 -0.00014551537
3.6582675e-05 -2.9338351e-05 2.3094162e-05 -0.00010154767 -1.8708068e-05 5.0787414e-05 0.00018887989 -1.7126344e-05
7.770401e-05 6.497816e-05 -0.0001061742 -7.237791e-05 1.0920365e-05 -1.7395192e-05 3.4486475e-05 3.969337e-05
-6.463648e-05 8.361137e-05 5.5707555e-05 -0.000103760576 -5.0536662e-05 1.4889415e-05 0.00050047593 -0.000108283646
-3.651868e-05 -2.6404901e-05 -6.3456035e-05 3.9300532e-05 -5.8666308e-05 -3.9750506e-05 -2.7299393e-08 -4.4697324e-05
2.0389294e-05 8.725681e-06 4.2722786e-07 7.9275065e-05 9.1270034e-05 5.649324e-05 -4.0999388e-05 0.00017160956
-6.766872e-05 -6.843968e-05 9.191265e-05 3.9914747e-05 -6.768861e-05 -0.00014284653 0.0001948906 0.00020784583
5.1109193e-05 -2.615428e-05 -1.6866587e-05 6.270096e-05 -4.105459e-08 1.6898462e-05 -0.00014590625 0.00018549719
-3.772929e-05 -0.00011322979 3.6051126e-05 0.00011972645 -0.0003288609 -0.00012281223 -3.0351075e-06 5.5666096e-05
-0.00014332424 0.00016351097 -2.1741715e-05 -1.8816605e-05 5.3535598e-05 -0.00011578515 -3.32563e-05 -7.3226605e-05
-0.0001019568 6.145063e-06 0.00012408967 -6.3618318e-06 -3.8190556e-06 -8.2019076e-05 -5.088692e-05 -3.7994832e-05
0.0001539571 -0.00016283926 -6.605966e-05 -6.7824585e-05 1.2296194e-05 -2.7133268e-05 9.3693496e-05 6.6738303e-06
-5.3579497e-05 -0.00031937574 1.986547e-05 -0.00031876963 2.7730981e-05 -3.8937404e-05 -0.00013233256 -2.110577e-06
9.060634e-06 -5.9649057e-05 -1.6263439e-06 -0.00013246996 2.2788037e-05 2.3611718e-05 -4.0081864e-05 2.6460384e-05
5.0656752e-05 5.9930477e-05 0.00021333984 -4.2651023e-05 6.3580104e-05 0.00015772256 -3.658562e-05 -3.7992002e-05
-7.1547955e-05 0.00014851679 -0.0001839592 -8.274595e-05 3.7320344e-05 -8.031461e-05 0.00020824821 0.000118412965
3.2212847e-05 -9.0824295e-05 -0.00013990229 4.4925917e-05 6.8773865e-05 9.186592e-05 4.471402e-05 5.331552e-05
-4.3443004e-05 0.00013655226 -4.6121204e-07 7.1365284e-06 -0.00017219866 0.00020359458 7.254508e-06 1.0422754e-05
0.00022219145 -0.00092644204 -2.038796e-06 -0.00049529114 -0.00035682204 -5.2959047e-05 0.0003724862 0.00028537674
0.00057916914 -9.204463e-05 -7.717834e-05 0.00012770957 -0.00020018563 -0.00012328003 -6.9683345e-05 -0.00011254909
0.00025882857 -5.3050608e-06 -0.00036004142 -0.0002693183 -9.2872346e-05 0.00095652876 0.00054607756 -0.00017353334
0.00010062974 1.01972255e-05 -0.00016462433 -0.00012876253 -0.0007117901 -0.00046431122 -0.00015881726 1.2434641e-05
0.0009354707 0.00023373337 -0.0005586724 4.222046e-05 -0.00045627868 -0.0003443539 0.00014437034 -4.4364002e-05
-0.00023163961 5.808915e-05 -0.00010774467 9.099378e-06 -1.2755816e-05 6.4973465e-05 -7.516143e-05 9.0762784e-05
6.798311e-05 -0.0001571723 -3.954069e-05 8.876974e-05 0.0001129403 9.0389985e-05 -3.841691e-05 -0.00023806153
4.0276915e-05 -0.00018961269 -1.0379668e-05 -0.00010314725 5.9756716e-05 0.000207891 0.00010221456 6.9971575e-06
-5.8946e-05 6.9498696e-05 -7.657525e-05 -2.3403387e-05 0.00022652424 -0.0001572147 -0.00023701551 2.1286698e-05
-0.00024626256 -3.853855e-05 1.13307615e-05 0.00020512138 0.00037698052 -7.536089e-05 3.8607155e-05 9.433736e-05
-7.0549984e-05 0.00027754155 -3.997788e-05 0.00010081913 3.9361985e-05 0.00010251136 0.00017001914 5.6231896e-05
3.732014e-05 9.5871255e-05 0.00015783198 -0.000146363 -4.528756e-05 -2.260058e-06 -3.801004e-06 -5.622048e-05

model/dense_13/MatMul f4 [40, 40]
00000000: a2cc 6238 b0e2 05b5 63c5 9cb8 89f9 1438
00000010: 688c 3bb8 16b7 d737 fafc 3fb8 e60a 3fba
00000020: 67e4 14b9 738f 0bb9 bf8a 86b8 6079 aa34
00000030: 0da5 3f39 262f 5f38 7817 7eb8 9d04 fbb9
00000040: 3bf4 6339 6e32 e8b8 3987 d1b8 0832 5ab7
00000050: 0238 c4b8 b38b 2a38 9205 2439 b0ba 7338
00000060: 3062 dc36 7306 1cb8 6402 85b8 90b3 5138
00000070: a03f edb6 7bf8 1eb8 1c3d 3437 b4d3 8937
00000080: da02 55b7 c4a8 9ab8 b183 9f38 e691 edb9
00000090: 777e f538 bbcb f538 b8af f5b7 0ab6 4eb7
000000a0: be12 9f39 86b6 7d38 a6e1 4439 a8d8 6fb9
000000b0: 5066 a836 8514 013a 5050 1939 acb8 9b39
000000c0: 363d 18b9 e44d ddb7 3053 e5b6 f14b 0738
000000d0: 5133 22ba 705c 48b7 b820 2739 104e 2f37
000000e0: 9035 7db7 d7e0 e1b8 3316 10b9 dc0f fc37
000000f0: aa5c 8d39 9234 7b37 e46c 9337 5c35 9fb6
00000100: 6867 f037 24ed 3ab8 7e6a 7038 6818 99b9
00000110: 08d3 3c39 3bf6 bc37 9600 7538 7da1 3eb9
00000120: 1455 c638 1ce7 5239 79f5 a6b8 825f 8db9
00000130: 1654 ccb9 77ad 1938 2839 e339 ec49 3738
00000140: a276 0338 6ecc f138 e02e 94b8 2eae fe39
00000150: 5e32 71ba c118 df39 f871 11b8 92aa bab9
00000160: 07b2 04b9 5b89 45b9 d2b9 2839 b5f9 2339
00000170: 2815 a3b9 9c74 ec38 43da c8b8 6009 a737
00000180: 08be 8639 194b 50b8 cc24 1db9 4162 a0b9
00000190: 6ebf 6739 e288 7539 e066 0a38 5281 6439
000001a0: d7d3 2a39 c6d8 90b8 b197 c9b9 cffc 81ba
000001b0: cce2 f137 1a82 93b8 f49b 1e38 c41b dd37
000001c0: e08c cbb8 0ff8 8639 8857 52b9 4a8b c2b8
000001d0: 88f1 c339 aa98 afb8 829e 7939 f080 c438
000001e0: 92a2 0838 dfd7 81b7 cea8 eeb7 6e12 c638
000001f0: ced1 9039 5863 9837 0040 89b8 6c2f 10b9
00000200: 6bf3 3e38 1a60 a138 b650 0638 b0ff d935
00000210: 6eb6 2638 85cb 6239 000b 0137 e774 2b38
00000220: d8e8 f2b8 e07b 3ab6 a2d9 8eb8 c501 b2b8
00000230: fc8b f737 cc53 7ab7 cabe dcb8 2c66 2eb8
00000240: 8c85 c8b7 31c4 a638 44a3 8438 18c9 7738
00000250: 7eb4 d4b7 fc99 6db7 862d a237 c67b 4b39
00000260: b281 41b8 ed7f 70b8 e228 3eb8 b807 3b38
00000270: 9ad6 bb38 0412 ac38 a6e5 5838 2829 d036
00000280: 8aac 0f3a f251 c137 a040 7138 909d 90b7
00000290: 6404 6638 4ae9 4638 70f8 a0b6 97d9 9b39
000002a0: 1f7c e6b8 59c0 80b9 a821 03b7 0aef 60b9
000002b0: 9178 93b8 0e48 19b9 9c0b 6239 363a 5d38
000002c0: 83af 0239 b8bd 96b6 aa95 7db8 f6da d037
000002d0: 54d3 48b8 691c 3438 c66c 64b8 74eb 1bb9
000002e0: 15da 05b8 1fc7 aab8 6013 b635 18a6 2539
000002f0: 761e 07ba 0a37 3eb7 c945 a638 4edb 26b9
00000300: f824 9938 e00e 36b9 a83a c2b8 c857 82b9
00000310: 7a00 70b9 4b71 5f38 3a63 8138 eb62 e938
00000320: 45f7 2939 b875 da37 a21a aab8 052b 2c39
00000330: 18e6 89b9 4e42 8eb8 c2d9 8b38 7055 8eb7
00000340: e5c8 5339 08e4 2637 cfdb da38 b11a 8a37
00000350: 0096 7e38 2e7a 3a39 6e45 a6b7 d454 6439
00000360: 491f 05b9 8418 4b38 f415 f638 e23d ed39
00000370: 6686 9039 3848 6e37 ec1e 7437 936b 05b9
00000380: 70fb 9bb8 c031 3437 8a84 b438 2694 ac39
00000390: d781 deb8 5a3a 2ab8 3c3e 7bb7 cca0 8bb8
000003a0: b074 f4b7 78af 98b9 fcaf 3439 1bf4 45b8
000003b0: d722 f639 a8a3 2237 6c17 d1b8 5eb5 0a38
000003c0: f89d 5b39 4064 ed36 1efd d4b8 d8a2 2f38
000003d0: 6fa7 c639 eb97 a0b9 69f7 fc38 0061 f2b5
000003e0: 2c2c 04b9 d0e8 4539 c2ce ae39 b38a f439
000003f0: bcea e7b8 0383 eeb8 1f3d 5839 6020 89b9
5.4073178e-05 -4.9876235e-07 -7.475426e-05 3.5518347e-05 -4.4715038e-05 2.5715253e-05 -4.577355e-05 -0.0007287696
-0.00014199466 -0.00013309512 -6.4154614e-05 3.175328e-07 0.00018276666 5.3211254e-05 -6.0580176e-05 -0.00047877888
0.0002173939 -0.00011072015 -9.991084e-05 -1.3005461e-05 -9.3564406e-05 4.0661263e-05 0.00015642334 5.810958e-05
6.5679415e-06 -3.7199305e-05 -6.3423795e-05 4.9996714e-05 -7.0705573e-06 -3.790155e-05 1.0743064e-05 1.6430255e-05
-1.2696453e-05 -7.374727e-05 7.60624e-05 -0.00045312865 0.00011706066 0.00011720458 -2.9288101e-05 -1.2320941e-05
0.00030340807 6.048989e-05 0.00018776077 -0.00022873527 5.018701e-06 0.0004924017 0.00014621136 0.00029701495
-0.00014518652 -2.6381524e-05 -6.834416e-06 3.2257234e-05 -0.00061874563 -1.1942451e-05 0.0001593855 1.0448988e-05
-1.5092446e-05 -0.00010770716 -0.0001374118 3.0048126e-05 0.00026962656 1.4973006e-05 1.7574472e-05 -4.744781e-06
2.8658382e-05 -4.456671e-05 5.7319638e-05 -0.00029200618 0.00018007692 2.2526006e-05 5.8413098e-05 -0.00018179971
9.457223e-05 0.00020113256 -7.96122e-05 -0.00026964775 -0.0003897256 3.6639594e-05 0.000433394 4.3699445e-05
3.134332e-05 0.000115298535 -7.065921e-05 0.0004857643 -0.00092009257 0.00042552318 -3.4676836e-05 -0.0003560377
-0.00012654821 -0.00018838553 0.00016090952 0.00015637914 -0.00031105545 0.00011275077 -9.5773976e-05 1.9912317e-05
0.00025700056 -4.9661005e-05 -0.00014986395 -0.00030590783 0.0002210119 0.00023416014 3.2997574e-05 0.0002179195
0.0001629138 -6.906832e-05 -0.00038450726 -0.0009917262 2.883505e-05 -7.0337395e-05 3.7815378e-05 2.6358182e-05
-9.706034e-05 0.0002574329 -0.00020059769 -9.2765855e-05 0.00037373253 -8.373086e-05 0.00023805539 9.370025e-05
3.2576332e-05 -1.5478521e-05 -2.8450417e-05 9.4448085e-05 0.00027622137 1.8166073e-05 -6.54459e-05 -0.00013750576
4.552623e-05 7.6949786e-05 3.2023258e-05 1.6242175e-06 3.9747385e-05 0.00021628856 7.69156e-06 4.087845e-05
-0.0001158283 -2.7788265e-06 -6.811625e-05 -8.488031e-05 2.950988e-05 -1.4920672e-05 -0.00010525955 -4.1579988e-05
-2.3904046e-05 7.95204e-05 6.324661e-05 5.9076672e-05 -2.5356418e-05 -1.4162153e-05 1.9333103e-05 0.00019405698
-4.6135574e-05 -5.73396e-05 -4.5337605e-05 4.4591463e-05 8.9568275e-05 8.204955e-05 5.171229e-05 6.2036743e-06
0.00054807274 2.3045552e-05 5.7519064e-05 -1.7239508e-05 5.4840362e-05 4.7424146e-05 -4.7972935e-06 0.0002972602
-0.00010990374 -0.00024557373 -7.816045e-06 -0.00021451354 -7.0319635e-05 -0.0001461806 0.00021557364 5.274472e-05
0.0001246315 -4.4924345e-06 -6.0459286e-05 2.4897494e-05 -4.788053e-05 4.2941803e-05 -5.446074e-05 -0.00014869665
-3.1912776e-05 -8.143321e-05 1.3565696e-06 0.00015797501 -0.00051543803 -1.1337697e-05 7.928495e-05 -0.00015912691
7.3024945e-05 -0.00017362414 -9.2615664e-05 -0.00024860934 -0.00022888361 5.3272855e-05 6.169682e-05 0.00011128731
0.00016209211 2.6042442e-05 -8.1111924e-05 0.00016419224 -0.0002630211 -6.783438e-05 6.668597e-05 -1.6967504e-05
0.00020197367 9.947464e-06 0.000104359926 1.6463311e-05 6.0698017e-05 0.00017783858 -1.9821073e-05 0.00021775375
-0.00012695523 4.8421804e-05 0.00011734283 0.0004525027 0.00027565955 1.420272e-05 1.4550733e-05 -0.00012723943
-7.43781e-05 1.0740419e-05 8.607756e-05 0.00032916776 -0.000106099695 -4.0585503e-05 -1.4975256e-05 -6.657987e-05
-2.9141404e-05 -0.00029122434 0.00017231697 -4.71958e-05 0.00046946734 9.694057e-06 -9.970259e-05 3.3070675e-05
0.00020944315 7.074821e-06 -0.000101560945 4.187491e-05 0.0003789025 -0.00030630766 0.0001206238 -1.8058636e-06
-0.00012604956 0.00018874113 0.00033341913 0.00046642646 -0.00011058661 -0.00011373127 0.00020622135 -0.00026154798
