3tier-app/learnt_model/real_sim_jvm/model_3tier.tflite (tflite, 148092 bytes, 48 tensors)

dense_9/bias f4 [40]
000000 20 35 17 ba 45 ab dd 3b ae c5 d7 bc a1 29 a2 3d
       -0.0005768109 0.0067648017 -0.026339378 0.07918096
000010 51 ba ab bc 2d 8c 6d bc 00 01 75 bc 41 4a 34 bc
       -0.020962866 -0.014498753 -0.014953852 -0.011004032
000020 46 ef fc bc d7 ad ed 3d 20 08 e7 3c ce 3e 10 3e
       -0.030875813 0.11605423 0.028202116 0.14086458
000030 57 5d 0c 3c 65 d8 d9 bb 4f b1 df bc 66 c0 ff bc
       0.008567176 -0.0066481107 -0.027306227 -0.031219672
000040 42 03 88 bc 3c 55 4d bd a0 62 6b 3d f6 09 6d bc
       -0.016603116 -0.050130114 0.057467103 -0.014467707
000050 97 b6 00 bb b3 a5 26 bd 7e 7d 0b bc 26 75 d3 bc
       -0.0019640082 -0.040685367 -0.008513806 -0.025812697
000060 ac 4a 58 3e 9f e2 1e bd f9 a6 07 bd 3c 6c df bc
       0.21122235 -0.03879034 -0.033118222 -0.02727329
000070 f4 23 1d bc ef ad 6a bb 14 53 0d bd ca 63 03 bd
       -0.009591091 -0.003580924 -0.034503058 -0.03207759
000080 13 c2 8c bc 37 db b5 3b ca da 42 bd 38 6b 0b bd
       -0.017182386 0.005549814 -0.047571935 -0.0340378
000090 88 2a c5 3b 1c b6 12 bb 41 4d 8c 3b 98 8c 70 bc
       0.006017033 -0.0022386378 0.0042816703 -0.014681958

dense_8/bias f4 [40]
000000 1d 02 15 3a 73 a8 90 ba dd 8d 5b bc db bd 05 bd
       0.0005684214 -0.001103653 -0.013400522 -0.032651763
000010 4f 7a 53 bd 53 d7 ab 3d 05 a3 a0 3c 63 5b a5 bc
       -0.051630314 0.08390679 0.019608984 -0.020185178
000020 d5 b9 14 3e 0a a2 83 3d dc c8 4e bc 67 a7 d8 bc
       0.14524014 0.06427391 -0.012621131 -0.026447011
000030 6f f3 81 bd b5 18 36 3e 94 05 94 3c 54 dc 17 bd
       -0.063452594 0.17782862 0.018069066 -0.037075356
000040 4a bd c9 3d 80 61 e3 3c 48 33 70 3c e1 70 2d ba
       0.09850557 0.027756453 0.014660664 -0.00066162465
000050 74 a7 c9 bc 9e b1 7a ba e3 82 12 3c 56 83 f9 bc
       -0.02461598 -0.000956321 0.008942339 -0.030458134
000060 b4 91 ee 3d 31 e0 2b bc ad 73 45 bc ba 2b 67 3d
       0.116488844 -0.010490463 -0.012051505 0.056438185
000070 29 46 04 3d eb 55 00 3c e1 95 41 bd 48 75 8f bd
       0.032293472 0.007832984 -0.047262076 -0.070047915
000080 1e c7 91 3e 57 88 07 3d 07 cf 0b bd d2 93 06 3e
       0.28472227 0.03308901 -0.034132984 0.13142326
000090 86 f8 45 bd 32 46 9c bc e1 a0 a3 3e 10 98 3b bd
       -0.048332714 -0.01907644 0.31958678 -0.045799315

dense_7/bias f4 [40]
000000 df cb 1e 3a fc 2b 10 3c 25 2f fb bc 07 d0 65 3c
       0.0006057601 0.008799549 -0.030662129 0.014026648
000010 d8 6c 74 bb d5 31 29 bd 75 2f a9 bc 1a c3 3a bc
       -0.0037296321 -0.04130729 -0.020652512 -0.011399055
000020 f5 08 33 3e d4 1a 66 3c 44 37 dd bc 25 a3 c4 3c
       0.17483886 0.014044482 -0.027003892 0.024003575
000030 60 47 d7 3c 38 5c da 3e ad f2 46 bd b3 f8 5c 3d
       0.026279151 0.42648482 -0.048571277 0.053948116
000040 b5 fd a2 ba 78 b0 34 3d c2 a9 f3 bc 34 71 4a bd
       -0.001243523 0.044113606 -0.029744033 -0.049424365
000050 07 e6 0b 3e 4e 49 b2 bb c1 76 e4 3b 29 18 07 3e
       0.13661967 -0.0054408675 0.0069721644 0.1319281
000060 2a ea 8f 3c ee fe 6f 3d c1 de 0b bc 27 61 ae 3d
       0.017567713 0.05859273 -0.008536995 0.08514624
000070 4b cb 2b 3d 4c a2 fb bd cf 72 4b 3d 08 4f 66 3d
       0.041941922 -0.12286815 0.049670037 0.056227714
000080 d7 de a1 3e 27 14 22 3e 5d b3 64 bd 00 31 68 bd
       0.31615326 0.15828 -0.055835117 -0.056687355
000090 2c 53 5d 3d 9f 44 22 3e 03 63 0c bd 6a 69 db bd
       0.054034397 0.1584649 -0.034274112 -0.107134655

dense_6/bias f4 [36]
000000 55 96 a6 3e ab 59 96 3b b2 00 6f bb ee 7a d9 3b
       0.3253657 0.004588326 -0.003646892 0.006636969
000010 8a 5b 01 bb 78 41 61 ba 88 9a 57 3b 86 a1 1e bc
       -0.00197384 -0.00085928245 0.0032898504 -0.009682065
000020 c6 eb 3f bb 9f d0 b5 3b ac 6c 38 bb 70 70 18 bb
       -0.002928482 0.005548551 -0.0028140945 -0.0023260377
000030 42 08 ec 3e 32 7e 81 bc 46 84 0f ba 02 8d 5d bb
       0.4610005 -0.015807245 -0.00054747274 -0.003380597
000040 46 12 4e b9 0c c6 a9 3b a3 10 3b 3b e6 8e e5 3a
       -0.00019652498 0.0051810797 0.0028543852 0.00175139
000050 a7 b2 36 3b b3 de 98 ba da 02 64 3b 19 36 31 bb
       0.0027877481 -0.0011663049 0.0034791739 -0.0027040301
000060 b6 2c 38 3e e0 fc c8 ba ed d2 69 bd 8e e4 02 3a
       0.17985806 -0.0015334152 -0.05708592 0.0004993164
000070 c7 1c df 3b 8d 2c 9b 3b 10 eb 47 3b f0 79 a3 3b
       0.0068088504 0.0047355355 0.0030505098 0.0049889013
000080 7a e8 45 bb bd a5 3a bc 1e 3a c8 3a 62 a2 c4 ba
       -0.0030198381 -0.011392054 0.0015276109 -0.0015002007

dense_5/bias f4 [40]
000000 c2 ca 2c bd 1c a9 70 bc df ef ca bc 5d 23 b7 3c
       -0.042185552 -0.014688756 -0.024772583 0.02235573
000010 86 8c 5a bd f8 3f 3a 3c a4 b0 58 bd c7 db 78 3c
       -0.05335667 0.01136779 -0.052902833 0.015189118
000020 be 2d 75 bc d1 8b 3e bc 0e bf 3c 3e 1c 45 9f 3c
       -0.014964519 -0.0116300145 0.18432257 0.019442134
000030 61 f9 ff bb 46 72 f9 3b ed 0c 5c bd b1 4f 40 3d
       -0.0078117107 0.0076124994 -0.053723264 0.046951
000040 c0 58 1f 3c d1 2b 03 bd 3e 32 91 3d 6c 77 25 bd
       0.0097257495 -0.03202421 0.07089661 -0.040397093
000050 17 6a e5 bc d1 99 05 3d d8 16 48 3c 9d 6a 0b 3b
       -0.02800469 0.032617394 0.012212478 0.0021273263
000060 17 98 19 3e e7 79 d3 bb 57 f3 1e bc 49 dc 4d 3c
       0.14999424 -0.006453741 -0.009701571 0.012564727
000070 d7 12 47 bc 6b c9 ed ba ad d2 bb bc 06 fb 0c bc
       -0.012150488 -0.0018141692 -0.022927606 -0.0086047705
000080 a1 09 e4 bc 9d b2 fe bc 53 ad 7d bd b3 3e 5a bc
       -0.027836623 -0.031091029 -0.061932873 -0.013320613
000090 6c 32 c7 bc b7 8e 80 3c 57 a9 20 bd a0 25 93 3d
       -0.024316035 0.015693052 -0.039223995 0.07184911

dense_4/bias f4 [40]
000000 e3 b6 84 bd 6c 18 35 bd 12 42 47 bd 54 ce 00 3c
       -0.064801954 -0.044212744 -0.048646994 0.007861692
000010 66 53 13 bc 25 4c 51 3a 7f a7 09 3e ba bf 32 3d
       -0.008992052 0.00079840637 0.13442801 0.043639876
000020 6a d6 09 bd 7d 0c b0 3c 5d e2 a1 bc e5 60 c5 bc
       -0.033651747 0.02149033 -0.019761259 -0.024094054
000030 b4 06 0b 3e 00 01 a8 bb 55 04 1c 3c 16 64 18 3e
       0.13576776 -0.0051270723 0.009522517 0.1488193
000040 67 d3 27 bd b5 37 5b 3c ce 27 7d bd d2 4e 1f bd
       -0.040973093 0.013379981 -0.06180554 -0.03889353
000050 6a e3 9f bc 98 f7 02 bd 72 0a 7f 3c 22 42 61 3c
       -0.01951762 -0.031974405 0.015566455 0.013748677
000060 49 7e f8 3c 55 14 55 bd 0c 61 bb 3c 14 b2 a3 bc
       0.030333655 -0.052021343 0.022873424 -0.019982375
000070 10 ab f5 3c d9 27 b4 3d c9 43 11 3d dd 5e 74 3d
       0.029988796 0.08796663 0.035465036 0.05966078
000080 61 a3 7f bc 27 c4 11 3c f3 43 3b bc a9 bf 71 3e
       -0.015602917 0.008896864 -0.011429775 0.23608269
000090 2b c0 19 3e 41 ef e1 3a 7c 11 84 bd 90 3b 98 3e
       0.15014713 0.0017237441 -0.064486474 0.29732943

dense_3/bias f4 [40]
000000 d7 89 80 bd e7 7c 31 3e e5 0a 52 3d f6 06 8c 39
       -0.06276291 0.17332803 0.05127992 0.00026708067
000010 da c8 e5 3d cb 3c ff 3d 13 b5 17 bd 3c d6 b3 3d
       0.1121995 0.12462767 -0.03703792 0.08781096
000020 f9 f5 87 3d 57 fd 07 3e 20 03 92 3d ae 71 ca bb
       0.066387124 0.13280235 0.07129502 -0.0061781025
000030 21 5a aa ba 53 48 a8 3e c0 de 4d bc ca f1 36 bc
       -0.0012996831 0.3286768 -0.012565315 -0.011166045
000040 a6 19 92 bb d7 f0 04 3e 85 b2 c4 3d 0e fe 3d 3d
       -0.004458624 0.12982498 0.096043624 0.046384864
000050 41 84 a7 bd 6c 4d 1b bd 99 72 5e bc 42 de fb 3a
       -0.08179522 -0.037915632 -0.013577127 0.0019216018
000060 e2 0f 52 3e e5 5c da 3c 11 54 b1 3d 8a 3c 3c 3e
       0.20513871 0.026655624 0.086586125 0.18382469
000070 89 72 89 bd 4b 93 95 bc 37 b1 1f 3e cd 5f 45 3d
       -0.06711299 -0.018258711 0.15594946 0.048187066
000080 3c 80 1e 3e 0d 6a 40 3d 4e fc 88 3e 1b 07 e7 3c
       0.15478605 0.046976138 0.26754993 0.02820163
000090 1c 0f db bb b9 7c 78 3d be ae d5 bc 5d 73 4c bd
       -0.006685151 0.06066582 -0.0260843 -0.049914706

dense_22/bias f4 [45]
000000 50 39 26 3e e5 81 f8 ba 4f 10 09 bd 69 12 02 3b
       0.162328 -0.001895961 -0.03346282 0.00198474
000010 08 70 5f 3a 91 35 63 bb 38 f5 6b b9 6b f4 b8 3b
       0.0008523469 -0.003466938 -0.00022502698 0.0056443713
000020 5b a1 22 3c 72 a4 a5 ba db d3 95 bb 4f bb b7 3a
       0.009926165 -0.001263751 -0.0045723743 0.0014017614
000030 03 98 41 3f a5 23 5d be ef 04 7b 3d 19 08 ae 3e
       0.75622576 -0.21595629 0.061284002 0.33990553
000040 93 df 42 bb 51 aa a5 3b 04 25 c3 bb 7c fd 9c 3a
       -0.0029735311 0.0050557037 -0.0059553403 0.00119774
000050 ec 66 21 3a 07 0a 9c 3a bb 6b 15 bb ba 34 ed bb
       0.0006156999 0.0011904844 -0.0022799808 -0.0072389515
000060 3c 65 32 bb 48 7a 17 3b 01 28 55 bb 09 a1 8c be
       -0.0027220985 0.0023113657 -0.0032525065 -0.2746661
000070 40 8c ca 3e bb 60 5b bb ae 1e 28 3d 92 06 90 3c
       0.39560127 -0.0033474404 0.041044883 0.017581258
000080 e0 d2 24 bc 00 4e 0a b9 56 6a e7 3a 7f b9 cd bb
       -0.010060042 -0.00013189763 0.0017655592 -0.0062782164
000090 94 7d 01 bc 80 90 18 3c a8 88 f4 3a 71 f6 8f 3b
       -0.007903475 0.009311795 0.0018656449 0.004393392
0000a0 96 bb 36 bc a4 c5 55 3b 0c bb 3b bc 46 ed 6c bd
       -0.011153122 0.0032619024 -0.01145817 -0.05784347
0000b0 a8 71 e5 3e
       0.44813275

dense_21/bias f4 [40]
000000 d6 5e d7 bb 63 7c 9e bb bf aa 12 bc 2b 76 2d bd
       -0.0065725846 -0.0048366054 -0.008951842 -0.042349022
000010 47 52 98 bc 17 19 a3 3c 49 9c 7d bc 7c 48 ac 3c
       -0.01859392 0.019909425 -0.015479156 0.021030657
000020 e7 39 ba bc f3 9f 87 3a d7 b0 2d bd 58 ed 21 bc
       -0.022732688 0.0010347351 -0.042404976 -0.009883247
000030 a1 93 7d bd 08 82 85 bc c0 87 22 bc 69 c9 dc 3c
       -0.061908368 -0.016297355 -0.009920061 0.026951509
000040 a7 a3 2a bc f3 26 1c 3e 19 6d 83 3c 99 50 88 bc
       -0.010414994 0.15249233 0.016043233 -0.016639994
000050 e1 64 25 bd 96 b9 b8 bc cd 50 3f bd b9 92 a8 bc
       -0.04037941 -0.022549432 -0.046707917 -0.020577775
000060 3f 67 a8 bc 0b 17 b1 bc 3c 63 5a 3c 26 6a 07 3c
       -0.020557044 -0.021617433 0.013329323 0.008265054
000070 b7 ee 73 bc d7 b8 b1 bc d8 dd 23 bd 61 73 51 3c
       -0.014888457 -0.021694584 -0.04000649 0.012783856
000080 8d 1b 04 bd f5 e9 82 bd cf 38 7e bc 03 b6 c2 bc
       -0.032252837 -0.0639228 -0.015516474 -0.02376843
000090 dd 88 d1 b9 f6 e4 f9 bb 5c 68 d6 3c bb 54 73 3e
       -0.00039965558 -0.007626171 0.02617281 0.23762791

dense_20/bias f4 [40]
000000 50 40 9f 3d 7d 20 1b 3e c2 42 16 3e e7 c1 a4 bc
       0.077759385 0.15149112 0.14673904 -0.020111991
000010 6e 9a 69 bc d0 fd 24 3c 75 af 77 3d d2 20 aa 3b
       -0.01425801 0.010070279 0.060470063 0.005191901
000020 29 fd e9 bc 56 be ad 3c 65 5b 18 bd 64 55 3f 3c
       -0.028563099 0.021208923 -0.037196536 0.011678074
000030 aa 8b df 3c e1 9f b1 3c 5c fb 13 bd f8 49 1a 3e
       0.027288277 0.021682682 -0.036128387 0.1506728
000040 bd 50 ab 3d f5 71 65 3c 25 36 17 bd 47 19 15 3e
       0.08365009 0.01400422 -0.03691687 0.14560424
000050 ed 3f 98 3d 44 b5 05 bd b7 f0 33 3e 8e 2b 2e bd
       0.07434068 -0.03264357 0.17572294 -0.042522006
000060 58 4f e9 ba d1 24 15 bc 5e 58 f8 3c 1e a0 ba b9
       -0.0017800136 -0.009103016 0.030315574 -0.0003559598
000070 42 2d bb 3c 3e f8 20 bc 5a f7 7a 3c 0e cf 0f 3c
       0.022848729 -0.009824811 0.015317762 0.008777393
000080 75 0a aa bc 5a 5e 0a bd e3 5e 67 bd 4a 48 2a bc
       -0.02075694 -0.033781387 -0.056486975 -0.010393212
000090 fb 07 44 3d a8 b1 f2 ba 03 b1 16 bd cb 01 32 ba
       0.047859173 -0.001851608 -0.036789905 -0.00067904283

dense_2/bias f4 [40]
000000 4c 30 97 3d c1 22 1b 3e 6d 64 25 3e 46 fb ea bc
       0.07382259 0.15149976 0.1615159 -0.02868427
000010 74 33 1f 3e 34 48 a3 3d 1b 43 9d bd 24 dd a7 bc
       0.15546972 0.07972756 -0.07678815 -0.02049119
000020 89 31 c7 3c b9 5f 16 3d c1 59 eb 3d af ff 5f bd
       0.024315612 0.036712382 0.114917286 -0.0546872
000030 62 18 3b bc 9c 8f 7f bb 3e 59 7d bc c7 56 4e bd
       -0.0114193875 -0.003899551 -0.0154631715 -0.050375726
000040 5d e3 18 bd 9b ac 6d bd 62 d2 4e 3c a8 19 af bc
       -0.037326206 -0.058025938 0.012623401 -0.021374539
000050 2b 17 b2 bd 8a ed ae 3c f8 9f c7 bc 50 a8 dc 3b
       -0.08695825 0.021353502 -0.024368271 0.0067339316
000060 49 8a f7 3d 03 60 65 bd 48 ea 86 3d ee f7 81 3d
       0.12086923 -0.055999767 0.06587654 0.06346117
000070 b3 e7 39 bc f4 ad 96 3b 3e 1b 5c 3d 6b 49 50 3e
       -0.011346745 0.0045983735 0.053736918 0.20340507
000080 07 e0 a9 3d 9b b7 a3 bc 03 6b 90 bd d8 77 f3 bc
       0.08294683 -0.01998501 -0.07051661 -0.029720232
000090 c7 cf e8 3d 0f 72 54 bd cd 5b 69 3e 5c a2 ca bd
       0.113677554 -0.051866587 0.22788925 -0.09894249

dense_19/bias f4 [40]
000000 46 81 d4 3d 9b 43 c1 3d a3 72 e8 3b c5 fb b9 bc
       0.103762195 0.09436723 0.007093744 -0.02270306
000010 fd bb 5e 3e 35 77 3a 3e 63 0f 9c bd 51 8d 12 3e
       0.217514 0.18209536 -0.07620122 0.1431172
000020 76 23 5c bd 57 77 5b 3d 17 8f 9d bc 47 1a 2b 3d
       -0.053744756 0.05358061 -0.01923327 0.041773107
000030 79 e3 9c 3d cc 49 63 bd 6d c0 24 3c 2b 7a 21 3e
       0.076605745 -0.0554903 0.0100556435 0.1576926
000040 d4 e1 3b 3d ef 27 53 3e 82 a6 bc 3d db bf 81 3d
       0.045869663 0.20620702 0.09211446 0.06335422
000050 e0 1e 21 3c e1 be 91 3c 66 c5 0d 3c 52 f7 4d bc
       0.009834021 0.017791213 0.0086530205 -0.012571173
000060 3d 39 52 3e 1a 41 63 3d 18 ee 1d bd 56 16 6d 3b
       0.20529647 0.055482008 -0.038557142 0.0036176643
000070 23 e2 86 3e 1a f6 7c 3d 93 de f9 ba 4a db 05 3c
       0.26344404 0.06175814 -0.0019063525 0.008169958
000080 d7 4f d1 3d b0 0d b2 3c 45 b9 01 3e 4a ae a9 3e
       0.10220306 0.021735042 0.12668331 0.33140785
000090 1b 3e 83 3b 61 00 d8 3c 56 b0 4f 3d 38 6f d6 3e
       0.0040052063 0.026367368 0.050705276 0.41881728

dense_18/bias f4 [45]
000000 b8 71 08 3e 65 2b 04 3e 2d a0 c1 3d 1f a5 df bb
       0.1332463 0.12907179 0.09454379 -0.006825104
000010 82 46 d4 3a ff f6 4b bb 9c 34 2a 3b 64 6b 34 bb
       0.0016195329 -0.0031122563 0.00259713 -0.002752983
000020 5a c7 41 3b 6f 44 6e 3b c4 43 73 3b 92 f8 ac bb
       0.0029568286 0.0036356708 0.003711925 -0.0052786553
000030 e3 40 f2 3e f5 e0 cc bd 23 e5 15 3c e6 5f 9e 3e
       0.4731513 -0.10003845 0.009148869 0.3093254
000040 c3 d9 87 bd fb 75 04 bd 21 88 84 ba b8 a1 f0 38
       -0.066333316 -0.032339077 -0.001011137 0.00011474214
000050 9a 94 0c 3c f6 5c 83 3b 3a c2 db 3b cd ab 75 3b
       0.008580351 0.0040088845 0.006706503 0.0037486434
000060 7a 0e 68 bb b7 7d 7b ba f0 7b 4e b8 dc b7 a3 bd
       -0.003540902 -0.0009593623 -4.9229653e-05 -0.07994053
000070 74 df 88 3e 28 1c 68 3c 5c 7b ed 3d cc 8a 94 3d
       0.2673298 0.014166869 0.115957946 0.07253036
000080 12 51 f9 bc dd 99 8b bb 69 c5 15 3a 50 ab e5 bb
       -0.030434165 -0.0042602853 0.00057133153 -0.0070089474
000090 9e 86 b5 3a 07 5a b2 3b 4c cc 78 39 2e 4b 98 bb
       0.0013849323 0.005442861 0.0002372723 -0.004647634
0000a0 43 eb fe 3b 55 e2 62 bb cf c4 d0 bd a1 2e f3 3d
       0.00777951 -0.0034619768 -0.10193788 0.11874128
0000b0 ef 68 63 3e
       0.22207998

dense_17/bias f4 [40]
000000 5d f1 35 3c 24 90 18 3c b4 11 35 bd fa 7b 36 bc
       0.011104909 0.00931171 -0.044206336 -0.011137957
000010 5c bf ce 3d 88 d8 2a bc 4a 66 0b 3c 33 e3 1e 3e
       0.10095093 -0.010427602 0.008508274 0.15516357
000020 96 64 18 bd 26 31 33 bd 77 c0 ac 3d b6 98 4f bd
       -0.0372053 -0.043748043 0.08435147 -0.050682746
000030 1b c7 34 bd d3 fd c4 bc d8 ce 15 bc 5e 41 5a bc
       -0.044135194 -0.024046814 -0.009143554 -0.013321249
000040 53 a7 64 bc 5c 0a 8a bc fe 0d d4 3b cc c4 49 bb
       -0.013955909 -0.016850643 0.0064713946 -0.0030787466
000050 e5 5c 06 bd 22 1e 10 bd 06 06 5a bd 3e c3 11 3e
       -0.032803435 -0.035184987 -0.0532284 0.14234635
000060 d2 63 28 bc 53 d9 c0 bc 7e fd a7 bd dc 85 17 bd
       -0.010277705 -0.023541128 -0.08202647 -0.036992893
000070 a2 4a b4 3d bb c4 39 3d 17 6e e1 bb f1 b0 95 bb
       0.088032976 0.045353632 -0.006879579 -0.004568212
000080 cc 9c 4f bd c5 50 0b bd 75 13 1d bd 6f 63 c3 bc
       -0.050686643 -0.034012575 -0.038348634 -0.023851125
000090 2b 79 0d bd d4 b6 4d 3e e2 f8 14 bd 2f 18 e3 bc
       -0.034539383 0.20089275 -0.036370166 -0.027721493

dense_16/bias f4 [40]
000000 3b 9f 08 3d 67 64 69 bd 2b 24 38 3c c3 8b cf bc
       0.03335498 -0.056980517 0.011239092 -0.025335198
000010 f9 74 16 bd dc a9 1e bd 4c 52 d4 bc fe 82 5f bd
       -0.036732648 -0.03873621 -0.025918148 -0.054568283
000020 a9 52 39 3d f6 b1 4e bd 05 7c 91 3d 3b fb fd bc
       0.045244846 -0.050462686 0.07103733 -0.031003585
000030 4f 35 54 3d a8 9c 55 bd 5a 5c 46 bd 45 f7 90 3d
       0.05180865 -0.052151352 -0.048427917 0.07078413
000040 b0 33 60 3d 7e 6f bb 3c 86 3c c5 3b 6a 23 4d bc
       0.054736793 0.022880312 0.006019178 -0.01252065
000050 db 37 57 3c 58 82 b8 3c 09 81 80 3e 42 5c a8 bc
       0.013135876 0.02252309 0.25098446 -0.020551804
000060 5f 52 bc bc 82 56 14 ba a6 28 c9 3c 03 c2 e8 3c
       -0.022988496 -0.00056586426 0.024555515 0.028412824
000070 ce 47 0b 3a e2 a3 65 3c 1e 4b ad 3c 1c 31 27 3e
       0.0005313129 0.0140161235 0.021153983 0.16327327
000080 c5 29 09 bd 20 ee 36 bd 4e 83 06 bd 18 f9 35 3c
       -0.0334871 -0.044660687 -0.032840066 0.011106752
000090 6b d2 bb 3d 58 c8 37 bd 5e 17 d4 bc 78 77 f0 3b
       0.091709934 -0.044868797 -0.025890049 0.0073384605

dense_15/bias f4 [40]
000000 75 d7 ed 3d 68 c0 8b bd fa 7a 1f 3c 89 2c c7 bb
       0.11613361 -0.06823808 0.00973391 -0.006078307
000010 31 de 8d 3d 30 a1 40 3e 15 64 09 3c 37 a3 ce 3c
       0.06927145 0.18811488 0.008385678 0.025224311
000020 4f 2a 04 bd e1 d3 33 bd e8 d5 58 3e 11 cd 15 bc
       -0.03226691 -0.043903235 0.21175349 -0.00914313
000030 28 c7 a1 bd 3b 0d c2 3c 31 13 0b 3e 56 b3 d4 3c
       -0.07899314 0.02368795 0.1358154 0.02596442
000040 bb 2e 26 bd d9 d3 38 3a 64 f2 dd bb a0 80 f2 ba
       -0.04057191 0.0007050611 -0.00677328 -0.0018501468
000050 3f 8e 4d ba 00 27 bc 3c 8e 19 3a 3e 8c 29 e2 3d
       -0.0007841326 0.022967815 0.18173811 0.11043081
000060 fb 1e 79 3d ba cf 34 bd d4 c0 82 bb c1 f7 82 bd
       0.06082056 -0.044143416 -0.003990272 -0.063949116
000070 c1 64 77 3e f7 5d 0e 3e f7 f3 d1 3d f3 f4 0e bc
       0.24159528 0.13903032 0.10251611 -0.008725393
000080 9f 09 8e 3e dd 2a 79 3d 1a 5f 0b 3e ce 46 7b 3e
       0.27741715 0.060831893 0.13610497 0.24538729
000090 e4 48 97 3d 78 26 5d 3d ae aa 12 bc 50 90 9c bc
       0.0738695 0.053991765 -0.008951826 -0.019111782

dense_14/bias f4 [45]
000000 5b 5b 48 3e 39 8a c7 3d 55 51 a8 3d 9d 35 be 3b
       0.195661 0.09743161 0.08218638 0.005804731
000010 49 63 e9 3b a4 89 6e bc 9b 9f 93 bb d6 4c f1 3a
       0.0071224314 -0.014559183 -0.0045051104 0.001840974
000020 ca 30 d4 3b 29 b4 29 3b 24 a9 d4 bb c6 c2 cb 3b
       0.0064755427 0.0025894737 -0.0064898897 0.006218287
000030 10 b9 1a 3f d8 7c 42 be ec 15 11 3e 8b 78 a5 3e
       0.6043863 -0.18992937 0.14168519 0.3231853
000040 ae 60 6a bd 12 64 91 bb 5f b1 49 bb cc 9e 29 bb
       -0.057221107 -0.004436978 -0.0030775887 -0.0025882004
000050 ef b4 df 3b 60 98 3b 3b 62 f3 69 bb 76 4e e3 ba
       0.006826989 0.0028624758 -0.0035698046 -0.0017342109
000060 4b 92 05 ba 19 b3 9f 3b 01 52 b2 bb 5c f2 64 be
       -0.0005095347 0.004873645 -0.0054419045 -0.22358078
000070 61 ef c5 3e 95 a4 a3 bd 7a 79 06 3e de 02 1e 3d
       0.38659194 -0.07990376 0.13132277 0.038576953
000080 41 ea c9 bd b8 ea 90 ba cf c9 ce ba ba 8e 10 bb
       -0.098591335 -0.001105628 -0.0015776696 -0.0022057728
000090 f3 24 cf bb d6 51 79 3a 76 4a 8b 39 cc 9f 66 3c
       -0.0063215434 0.00095107907 0.00026567624 0.0140761845
0000a0 e4 af c9 bb ba 46 66 bb c2 ed 5e 3d 45 37 5a bd
       -0.006155001 -0.003513737 0.054425962 -0.053275365
0000b0 74 b5 d6 3e
       0.41935313

dense_13/bias f4 [40]
000000 68 65 10 3c c9 ef 40 3e 83 75 1b bd 84 4e cf bb
       0.00881324 0.18841471 -0.037953865 -0.0063264985
000010 d9 8a 38 bc a1 af 07 bc 25 53 42 3c 29 23 fe bc
       -0.011263573 -0.008281619 0.0118606435 -0.031022625
000020 36 8e d7 3c 10 98 95 3d b1 ea 77 bc b7 51 0f bd
       0.026312929 0.07304394 -0.015131638 -0.03499004
000030 89 de 4a bd 08 79 20 bc 1c 73 a8 bc 83 f1 0b bc
       -0.049528632 -0.009794481 -0.0205627 -0.008541468
000040 74 38 21 3c 10 ff 4c bb 6b 24 9a bc 60 77 06 3c
       0.00984012 -0.0031279959 -0.018816194 0.008207172
000050 a6 bd 36 3e f4 05 52 bd 6f 79 0c bd 23 ef 13 bb
       0.17845783 -0.05127521 -0.034295496 -0.0022572957
000060 db 7c 39 bd 9e 1c 36 3e f7 72 77 bd 56 8f 44 bb
       -0.045285087 0.17784354 -0.060412373 -0.0029992661
000070 59 79 3d 3e 39 36 6a bc 76 29 59 bd f0 31 47 bc
       0.18503322 -0.014295154 -0.053018056 -0.012157902
000080 3d aa 34 3a 2c 54 01 3c 9d 81 1a 3c a1 9b 2b bd
       0.00068918226 0.007893603 0.009430316 -0.041896466
000090 00 86 5b bd 10 61 f8 3b ab 5f 50 bc 9a e5 4c bd
       -0.05359459 0.00757993 -0.0127181215 -0.050023653

dense_12/bias f4 [40]
000000 30 5b fb 3b f4 d7 32 3e 2a 30 3c bd b3 ca ee bb
       0.0076707825 0.17465192 -0.04594437 -0.007287347
000010 62 8e 94 bd 48 bb f6 ba e4 48 9f bd e3 80 eb 3d
       -0.0725372 -0.0018824125 -0.07777575 0.114991926
000020 5b 8c 00 3d 33 e6 e3 bc cd 7f 4e bb 0e 96 cc bc
       0.031383853 -0.027819728 -0.003150928 -0.024973895
000030 b6 d3 85 bd f5 8b a1 bd d4 a5 b9 3c 1d bd 95 3c
       -0.06534521 -0.07888023 0.02266208 0.018278653
000040 bd d4 24 bd 4b 55 f7 bc b2 fc f5 bc 64 40 9a 3c
       -0.040241946 -0.030192038 -0.030027721 0.018829532
000050 1d b7 f7 3d 31 44 ee bc 9d eb 6b bd c2 fd 6b 3e
       0.12095473 -0.02908525 -0.057597745 0.2304602
000060 e3 7a 43 bd 88 b2 24 3d 8c 16 ba bb 56 1c 0b bd
       -0.047724616 0.040209323 -0.0056789573 -0.03396257
000070 ec fc bf 3d 99 89 92 bd b1 bf 01 bd 54 a0 33 bd
       0.09374413 -0.07155151 -0.03167695 -0.043854073
000080 c6 44 4e bd 52 eb 47 bc 82 ed 08 bc 0b 8d 9b bc
       -0.050358556 -0.012202101 -0.0083574075 -0.018988153
000090 4c 3c 4d bd f0 58 65 bd 66 6c 77 3d 1e 53 15 bd
       -0.05010633 -0.05599302 0.06040611 -0.03645622

dense_11/bias f4 [40]
000000 14 41 a0 bc 0f 1e 36 3e dd 6f 5d 3e 85 4c 26 3d
       -0.019562282 0.17784904 0.21624704 0.04060032
000010 39 ad 02 3d a4 df 09 bc 54 cb ff 3d 2f fa 03 bd
       0.03190348 -0.0084151365 0.12489954 -0.032221016
000020 fc fa 8b 3e 7a 83 af 3d c8 b5 7f 3c 1b b4 ac bc
       0.27339923 0.08569999 0.015607305 -0.021081975
000030 d0 8c 4c 3e 8d 1b 22 bd ab ac 4b 3d e6 f0 1f bd
       0.1997559 -0.039577056 0.049725216 -0.039048098
000040 c4 8d 1c 3e 52 9c 33 3e 7d 6b ab 3e 0d 52 5a 3d
       0.15288454 0.175401 0.33480445 0.053300906
000050 00 a4 d6 3d e5 4d e1 3c 08 32 e0 3d ff ee 8e 3d
       0.10480499 0.027502963 0.10947043 0.06979179
000060 74 c7 2c bd e4 8a 99 3e 3a 2b b3 3b c3 b8 9c 3d
       -0.0421824 0.29988778 0.0054677995 0.07652428
000070 4a c8 1a 3e 8b 80 06 3e 3a 69 d4 bc e9 6c 46 bc
       0.15115467 0.13134973 -0.025929082 -0.012110927
000080 9d 67 5c bb 9b 8c 37 bc 85 50 50 bd 34 af c6 3d
       -0.0033631094 -0.011202957 -0.05085804 0.09701386
000090 53 39 92 3d 8c 1f 31 3e b9 4e a6 3c c1 07 05 3d
       0.0713984 0.1729719 0.02030121 0.032478098

dense_10/bias f4 [45]
000000 cc e8 51 3e 59 84 33 3e fb 7b c1 3d 30 17 8f bb
       0.20498961 0.17530955 0.094474755 -0.004366778
000010 f0 f4 9e 3b fb 65 80 bb f7 2b 09 bb 4d c1 eb bb
       0.004850976 -0.003918407 -0.0020930746 -0.007194674
000020 ee 8d df bb 9a 62 93 3b 9b b9 00 3b ed 07 c9 ba
       -0.0068223393 0.004497838 0.001964188 -0.0015337445
000030 ad e4 b2 3e 02 64 00 ba a8 00 7a 3d 96 af aa 3e
       0.3494009 -0.0004897715 0.061035782 0.33337086
000040 87 f3 fc bd 44 b6 84 bc 44 ae 35 ba 39 ec ab bb
       -0.12351137 -0.016200192 -0.00069305697 -0.005246666
000050 a9 74 54 3b cd c7 2d bb 93 5f 81 bb e8 5f 8c 38
       0.0032418168 -0.0026516796 -0.003948161 6.693584e-05
000060 cf 7e 10 3a 2a f1 14 39 a1 60 bc 3a 3c f3 a5 bc
       0.000551206 0.0001420422 0.0014372059 -0.020257585
000070 4e 7a 81 3e 9c 0a 82 bc ff 9d e0 3d 9c f1 b7 3d
       0.25288624 -0.0158742 0.10967635 0.0898163
000080 bb 72 4c bd 92 f2 9b 3b 5e 2d 2d 3c 73 9b 6e bc
       -0.049914103 0.0047591412 0.010569898 -0.014563429
000090 0d 0d 1a 3c 0f c5 24 ba 1e 1b 45 3a 91 ef 4f 3a
       0.009402526 -0.00062854675 0.00075189944 0.00079321215
0000a0 e4 be 04 3c 15 59 60 ba 81 a7 c6 bd 15 9f 97 3d
       0.0081021525 -0.0008558196 -0.096999176 0.07403389
0000b0 bf c1 93 3e
       0.28858754

dense_1/bias f4 [40]
000000 bb 99 d8 bc cc 8d cb 3c 70 6a 91 bd 71 86 35 bc
       -0.026440492 0.024847887 -0.071003795 -0.011079417
000010 8d 9b 6f bd e3 41 18 bd 3d 07 17 bc 21 a9 aa bc
       -0.058497954 -0.03717221 -0.009218034 -0.0208326
000020 6a c9 f0 3d e2 0b 4a bb 9f 22 e8 bc 1b 71 31 bd
       0.11757167 -0.0030829837 -0.028336821 -0.043320756
000030 61 a9 a5 3c 75 17 11 bc 24 20 d8 3d 19 f5 aa bc
       0.020222368 -0.00885569 0.10553005 -0.020868825
000040 46 28 4b bd 68 37 c9 bb e9 7b 0e bd 3b 20 29 bd
       -0.049598955 -0.006140638 -0.03478614 -0.041290503
000050 a3 b8 8d bc 00 c5 56 bd 9c f5 e4 bc 81 6e 94 bd
       -0.017299956 -0.052433968 -0.027949147 -0.072476394
000060 00 5d 29 3c c7 43 08 3e 8c 89 00 3d 34 9b c4 3c
       0.010337114 0.13307105 0.031381175 0.023999788
000070 2b 72 08 bd fd 66 e5 3c d2 e7 04 bd ac 77 82 bd
       -0.033312004 0.02800321 -0.032447644 -0.06370482
000080 9a 6e 13 bd b6 e9 56 bd f0 06 4a bd bc db de bc
       -0.03599415 -0.052468978 -0.049323022 -0.027204387
000090 62 3f 20 bd 3b 6c 8f bd af bb 81 3d 6c 58 c0 ba
       -0.039122947 -0.07003065 0.06334626 -0.0014674789

dense/bias f4 [40]
000000 99 79 8d bd 54 00 db 3a 9c f4 a3 bd 23 ec 02 3c
       -0.069079585 0.0016708472 -0.0800564 0.00799087
000010 27 1a 5e 3e 3e 60 2e be 75 89 33 bd e8 1e 0b bd
       0.21689664 -0.17028901 -0.04383226 -0.03396502
000020 eb 9c bb 3b a2 21 15 3c 8a 16 da 3c d4 5c 02 bd
       0.005725493 0.009102257 0.026622076 -0.03182681
000030 c7 25 55 bd bb 6b 02 be 46 ac c5 bc cb 20 0e 3e
       -0.05203798 -0.12736408 -0.024129998 0.13879697
000040 6b e3 a2 bd 22 46 17 bd 82 46 38 bd 06 fc 0f 3d
       -0.07953533 -0.03693212 -0.044989116 0.035152458
000050 3e a6 fa bc a3 52 d0 3d 3d ae 0f 3e 73 f6 18 3e
       -0.030596849 0.10172012 0.1403131 0.14937763
000060 0d 8f 57 bc d6 39 4d 3d 86 f4 1e 3e 73 1a 55 bd
       -0.013156665 0.050103985 0.15522966 -0.052027177
000070 10 a7 ec 3b 31 cb 96 3d ca ba f7 3d e6 49 d5 bd
       0.007222064 0.073629744 0.12096174 -0.10414486
000080 aa dd 06 3d d2 9c bd bd cd 7d e4 bc 5f 96 9e bc
       0.03292624 -0.09258427 -0.027892018 -0.019358812
000090 42 fc 03 bd 67 97 48 bd 70 b5 e8 3d 36 e5 38 bd
       -0.032222994 -0.048972514 0.113627315 -0.045140468

bias/bias f4 [15]
000000 08 99 5e 3d 8a 24 79 3d 0f a9 e3 3b 68 45 68 3e
       0.05434516 0.060825862 0.0069476436 0.22682726
000010 21 ba 8e bd 8e 2b 75 bc c5 0b 1f 3e dd e2 07 be
       -0.06969095 -0.0149639975 0.15531833 -0.13270135
000020 53 ce 21 bc 96 49 65 3e 52 82 1d be 76 99 2a bd
       -0.009875852 0.22391352 -0.15381745 -0.041650258
000030 59 ef 97 3d 5f e5 12 bd 62 e3 c9 bc
       0.07418699 -0.035863277 -0.024644557

model/dense_11/MatMul f4 [40, 15]
000000 f3 81 61 38 9b 60 d4 37 90 e7 70 b8 4a 36 23 b8
       5.3765205e-05 2.5317355e-05 -5.743612e-05 -3.891279e-05
000010 58 6b f8 b6 c0 74 8c b4 ee 65 61 b8 83 0c d8 37
       -7.4034724e-06 -2.616198e-07 -5.373911e-05 2.5755033e-05
000020 24 07 12 38 c2 19 2d b8 8c 78 0f b7 ba 8d 29 b8
       3.4815763e-05 -4.1270403e-05 -8.551531e-06 -4.0424733e-05
000030 4e ef aa 38 2e 6d c1 b7 f6 4a 98 b8 4b dc 96 3b
       8.150806e-05 -2.3058234e-05 -7.2618874e-05 0.0046038977
000040 19 b5 32 3c 94 90 95 3d 34 24 5b 3a 09 04 c8 b9
       0.010907435 0.07302967 0.00083595817 -0.0003814998
000050 16 4e 38 be 81 bc ac ba 60 d5 33 38 e0 59 71 3a
       -0.17998537 -0.0013178737 4.2875647e-05 0.0009206813
000060 51 fd cc b9 e5 d2 4f 3a 84 bc 0f ba 89 51 56 3a
       -0.00039098648 0.0007927849 -0.0005483108 0.0008175602
000070 ac 84 52 3a d1 40 fa ba 37 cd e9 3a 04 5a 11 3a
       0.0008030634 -0.0019092803 0.0017837648 0.00055447244
000080 cd c7 f3 39 dc eb 17 3a d6 90 8a 39 8e 6b 5d be
       0.00046497435 0.00057953387 0.00026429322 -0.2162306
000090 f1 75 4c ba 17 9f be b9 3a 6a 88 3a 46 a9 a0 39
       -0.0007799557 -0.00036358155 0.0010407635 0.00030643697
0000a0 9e b9 01 b9 5a 90 da b9 20 1a 8f 3a 60 0e 10 3a
       -0.00012371546 -0.0004168775 0.001091782 0.0005495306
0000b0 f7 74 f5 ba 7e de 2a b8 94 59 e1 37 9c a6 77 b8
       -0.0018726875 -4.073837e-05 2.6863803e-05 -5.9044556e-05
0000c0 74 4d 5b 38 99 7d aa 37 32 1d 26 b8 b4 b8 63 38
       5.2285803e-05 2.0324065e-05 -3.9604674e-05 5.4293036e-05
0000d0 a9 ef 47 b8 6a 80 44 37 42 c8 95 37 0f 25 db b7
       -4.7668498e-05 1.1712409e-05 1.7855436e-05 -2.6124091e-05
0000e0 60 2d 61 38 2e 20 1e b9 b4 5a 4a 38 52 a8 da b8
       5.368644e-05 -0.00015080042 4.8245027e-05 -0.00010426402
0000f0 fc b9 ca b7 5e 81 4c b8 29 c6 b0 38 14 10 0b 37
       -2.4166882e-05 -4.8757873e-05 8.429244e-05 8.288789e-06
000100 4a d1 59 b7 64 dc c5 37 5c 70 05 37 bd 7a 58 38
       -1.2982937e-05 2.3586857e-05 7.9535785e-06 5.1612722e-05
000110 d0 de cb b7 a8 6e 20 39 0a 68 77 38 ec a4 ad 37
       -2.4303241e-05 0.00015300012 5.8986283e-05 2.0700005e-05
000120 88 76 bc 38 8c 71 32 b8 fd 0d 12 38 4e ec 3d b9
       8.986617e-05 -4.2544256e-05 3.482214e-05 -0.00018112475
000130 9c 59 2e b9 28 f6 5b b8 82 3f 74 b8 0c c4 de 37
       -0.00016627315 -5.244292e-05 -5.823328e-05 2.6555754e-05
000140 22 09 89 b8 ec fc c2 b7 a7 3b 35 b9 7b 63 33 38
       -6.53437e-05 -2.3244378e-05 -0.00017283727 4.2769574e-05
000150 20 7e 00 b8 fd c7 23 b8 ea a7 fc b8 60 43 48 36
       -3.063504e-05 -3.9048482e-05 -0.00012047573 2.984154e-06
000160 d0 64 bc 38 12 dc 46 38 48 a3 0e b9 e5 e3 40 b9
       8.9833164e-05 4.7411835e-05 -0.00013603002 -0.00018395444
000170 aa b0 d2 b8 8d 11 2d b9 2a 07 a3 b7 24 8d 09 38
       -0.000100464866 -0.00016505104 -1.943445e-05 3.2794793e-05
000180 28 24 dd 38 77 52 85 39 64 e4 97 b9 36 28 89 37
       0.00010544836 0.00025429178 -0.0002897113 1.6350397e-05
000190 a0 42 03 38 8a a9 f7 b7 2d 88 6e b8 74 92 ac b8
       3.1294883e-05 -2.9523642e-05 -5.6870445e-05 -8.228878e-05
0001a0 0e c8 a4 b7 03 d3 41 b8 e4 75 bd 36 60 af fc b7
       -1.9643481e-05 -4.6211306e-05 5.646363e-06 -3.0122406e-05
0001b0 ef 19 88 b8 a8 7d 08 37 a0 6d 43 38 e0 6e b4 38
       -6.489816e-05 8.135488e-06 4.659372e-05 8.603721e-05
0001c0 8d 69 ba b8 28 4f 19 38 dc 95 e2 b7 8c bd ab 37
       -8.8888315e-05 3.6551763e-05 -2.7011083e-05 2.0473053e-05
0001d0 d5 76 bc b8 c4 19 a9 37 98 eb a7 b5 bc 8d f2 37
       -8.986673e-05 2.0158368e-05 -1.2511036e-06 2.8914648e-05
0001e0 cf f7 95 3a 10 be 29 39 78 3b f8 ba 3b df 8e 3a
       0.001144165 0.000161879 -0.0018938622 0.0010900268
0001f0 e8 08 ed bd 54 49 5f 3e 89 ea 74 3b 28 0c 7d ba
       -0.11573964 0.21805316 0.003737124 -0.00096529955
000200 ee 1f c2 bb 9d 81 44 b9 f6 32 08 3b 8e e4 9c 39
       -0.0059242165 -0.00018740301 0.0020782328 0.00029924925
000210 1a 2b ec 3a 7e 48 58 bb 7a e3 1f 3a 80 2e 34 b4
       0.0018018216 -0.0033002193 0.00060992653 -1.6780723e-07
000220 a8 9b ef 37 10 19 c1 b6 fd 79 88 38 8f 49 b4 37
       2.8563503e-05 -5.754766e-06 6.5077074e-05 2.1491926e-05
000230 8b 09 0e b7 c6 33 15 38 16 df e9 b8 66 e5 d8 37
       -8.466081e-06 3.5572586e-05 -0.00011151859 2.5856029e-05
000240 32 57 16 38 b6 62 12 37 86 d7 d8 b6 36 b2 32 38
       3.5843994e-05 8.725261e-06 -6.462392e-06 4.260448e-05
000250 9c 50 d8 37 91 aa 9f 38 80 c1 3e 36 17 0f fb 37
       2.5786743e-05 7.613481e-05 2.8424838e-06 2.9928558e-05
000260 ae 4b 7a b8 3a 82 da b7 fc cb 63 37 8d 27 61 b8
       -5.9675127e-05 -2.6048267e-05 1.3577748e-05 -5.3681015e-05
000270 40 73 5f 35 da ab c9 38 68 8f 6c 38 b0 5b 88 37
       8.3241684e-07 9.616437e-05 5.6400342e-05 1.6255159e-05
000280 0a 31 32 b7 31 b3 dc 37 d8 ba 03 39 72 f6 96 38
       -1.0621045e-05 2.6309486e-05 0.00012562738 7.1984614e-05
000290 49 0c ce b7 e8 af 27 b8 e4 18 b2 b7 40 e6 ab 35
       -2.4562834e-05 -3.9979728e-05 -2.1230844e-05 1.2807504e-06
0002a0 c0 bb 80 38 38 76 6b b8 de a0 ca b7 76 82 42 b7
       6.138487e-05 -5.6138466e-05 -2.4155186e-05 -1.1593676e-05
0002b0 b2 42 54 b8 a5 b6 dd 38 45 72 cb 38 38 3d f3 37
       -5.0606854e-05 0.000105721214 9.701079e-05 2.8996365e-05
0002c0 2d a9 83 38 e2 1d 39 37 a8 10 a2 38 04 e5 b2 37
       6.278078e-05 1.1033817e-05 7.7278644e-05 2.1325897e-05
0002d0 bb 39 8e 3a f9 5e 37 3a 5b bf 65 ba f1 45 46 3a
       0.0010850945 0.0006995048 -0.0008764171 0.00075635227
0002e0 9e a2 e5 bc 00 56 e3 3c 0a c6 35 3a 78 ba 35 39
       -0.028031643 0.027750969 0.0006934112 0.0001733097
0002f0 db 5c f7 ba 06 59 19 39 9e d0 14 3a cf 77 7f 3a
       -0.0018872278 0.00014624381 0.00056768383 0.0009745331
000300 b8 c3 58 ba 90 39 1b 3a 88 ab e8 39 8a 71 27 b8
       -0.00082689105 0.0005921358 0.0004437829 -3.9921644e-05
000310 1e 15 c1 b7 98 24 56 37 30 1a 09 b5 4d 36 c2 b7
       -2.3017226e-05 1.2763914e-05 -5.1074585e-07 -2.3151888e-05
000320 0f 70 a3 b8 1d 1a 2d 38 2c 2a 8d 38 9c 31 93 38
       -7.793318e-05 4.1270734e-05 6.731259e-05 7.018747e-05
000330 6a 01 09 b8 61 ff 27 38 80 9b 1e 35 97 66 37 b8
       -3.2664662e-05 4.0053743e-05 5.908587e-07 -4.3726144e-05
000340 f5 7f 8d b8 28 89 27 39 34 f7 e1 36 1d ef fd b7
       -6.747238e-05 0.00015977456 6.7343008e-06 -3.0271296e-05
000350 ad 71 47 b8 10 14 ed b6 c6 aa 99 38 f9 63 63 b8
       -4.7551166e-05 -7.065486e-06 7.3274176e-05 -5.4214124e-05
000360 59 d5 9c b7 66 05 81 b8 e8 2c 84 38 50 45 fa b7
       -1.8695997e-05 -6.152205e-05 6.302615e-05 -2.9834599e-05
000370 b8 30 96 b8 90 92 0f 38 6f f5 a5 b8 48 bc f6 b6
       -7.161632e-05 3.4230354e-05 -7.913529e-05 -7.35329e-06
000380 48 43 2f 38 45 85 0b 39 6b 83 91 37 0c e4 5f 37
       4.1785912e-05 0.0001330572 1.7346543e-05 1.3344932e-05
000390 a6 80 4c b7 40 9b 6b b8 30 d6 70 b6 95 f8 14 b8
       -1.2189301e-05 -5.6172954e-05 -3.588746e-06 -3.551746e-05
0003a0 c0 2e 58 b4 95 0c 1a b8 bb 44 0f b8 9b ed 64 38
       -2.0133575e-07 -3.672818e-05 -3.4157867e-05 5.4580723e-05
0003b0 12 5d b0 38 61 0f 2a b8 04 f3 a6 38 ec cb 81 38
       8.40967e-05 -4.054548e-05 7.960762e-05 6.189183e-05
0003c0 9d 11 bb 3b 2e a6 a1 3a b6 5e d5 3d e2 cf e0 3a
       0.005708887 0.0012332851 0.10418455 0.0017151798
0003d0 e4 ec 46 b8 e6 96 80 be e5 67 5b bb 82 c6 8e 3a
       -4.74275e-05 -0.25115126 -0.0033478674 0.00108929
0003e0 cb 05 1b 3b 19 5d 9c 3a 33 76 36 3a d3 d7 94 ba
       0.0023654576 0.0011929601 0.0006960362 -0.0011355825
0003f0 76 90 3f bb 50 69 2d 3b ec d3 1a bb 94 02 7f 3b
       -0.0029230393 0.0026460476 -0.002362485 0.0038911449

model/dense_12/MatMul f4 [40, 40]
000000 81 c3 df 38 08 19 02 b8 0c f6 73 36 9e de bf b7
       0.00010669884 -3.1017727e-05 3.635304e-06 -2.2872639e-05
000010 28 97 a8 38 e8 3e b6 b7 12 8e 20 b8 16 b1 d6 38
       8.039019e-05 -2.1725384e-05 -3.8279286e-05 0.000102373
000020 11 f3 f3 b8 d6 7c b0 b8 42 e4 b3 39 48 18 07 b7
       -0.000116324176 -8.4155865e-05 0.00034311606 -8.0522805e-06
000030 79 b4 f2 38 7c 88 25 38 4f 83 62 38 a6 e3 34 b8
       0.00011573075 3.9466177e-05 5.400489e-05 -4.312736e-05
000040 88 aa cf 38 b0 eb ee 36 13 93 70 b8 6e 7e cb b7
       9.902293e-05 7.1203904e-06 -5.7357433e-05 -2.425836e-05
000050 3a fc 1e 38 e7 14 85 38 ae 79 2c b9 3a a0 89 38
       3.790504e-05 6.3458276e-05 -0.00016448527 6.5625136e-05
000060 12 a2 fb b7 98 8e 20 b8 3c 3d 81 38 30 6a 24 b6
       -2.9997002e-05 -3.8279773e-05 6.162605e-05 -2.4499714e-06
000070 01 34 9f b7 7a 6b a2 38 aa 36 dc b7 c0 be 26 38
       -1.8978493e-05 7.744781e-05 -2.6251499e-05 3.9755134e-05
000080 8b 83 ac 38 49 b2 66 38 f9 b2 4f 38 37 68 08 38
       8.226101e-05 5.5002314e-05 4.9519327e-05 3.2521984e-05
000090 a4 c0 ca b7 6d 2f cf 38 45 de 85 b8 24 00 96 b8
       -2.4169982e-05 9.879363e-05 -6.383335e-05 -7.1525836e-05
0000a0 7f 8e 8a 37 30 f3 a6 38 0a d8 8e 3d e3 05 86 b9
       1.6517237e-05 7.960794e-05 0.069748 -0.00025562858
0000b0 80 25 de b5 b2 f4 be 37 8a 49 1b b9 46 94 c3 37
       -1.6551203e-06 2.276371e-05 -0.00014809347 2.3314857e-05
0000c0 97 8c 04 bb 84 b9 10 ba 19 c6 17 b8 1b 09 ed 38
       -0.00202254 -0.0005520808 -3.61857e-05 0.00011302737
0000d0 68 ca 89 ba 65 ef a4 b8 9d 78 17 b8 22 2a b3 38
       -0.0010512592 -7.86472e-05 -3.6113535e-05 8.543233e-05
0000e0 50 cd db 38 5e 0c 83 3d d4 f1 61 bd 4e 13 96 b9
       0.00010480976 0.06398843 -0.055162266 -0.00028624613
0000f0 0f 52 4c ba 85 e0 af b9 81 a8 4b bb 48 8f ee b9
       -0.000779421 -0.0003354588 -0.0031075778 -0.0004550165
000100 2a 53 bf 38 03 d1 a1 3a 70 ba 8a b5 06 50 82 ba
       9.12308e-05 0.0012345616 -1.0336062e-06 -0.0009942062
000110 75 ac ac b9 52 26 35 ba d9 ed a5 38 26 e7 9b 37
       -0.00032934887 -0.0006910312 7.912116e-05 1.8585077e-05
000120 61 a7 b6 b7 71 23 90 b8 01 53 f9 38 2b 26 48 ba
       -2.1774033e-05 -6.8730566e-05 0.00011888706 -0.0007635082
000130 43 f0 9a b9 37 9f 28 bb 00 16 36 37 60 17 fe b8
       -0.00029552178 -0.0025729665 1.0853168e-05 -0.00012116018
000140 87 86 21 38 7a 29 4a 38 68 4e aa b8 48 6b 35 b7
       3.851068e-05 4.819918e-05 -8.120836e-05 -1.0813419e-05
000150 28 8c 03 b9 2c f3 85 37 30 26 33 b7 18 48 98 b7
       -0.00012545346 1.5968071e-05 -1.0678123e-05 -1.8153383e-05
000160 e0 71 5b b8 e6 cc 0e b8 9a 57 b0 38 d4 58 b5 b8
       -5.2319723e-05 -3.4046265e-05 8.408651e-05 -8.647298e-05
000170 42 b6 10 38 ac f9 10 38 6e 36 fe 37 25 5b 1a 39
       3.4502016e-05 3.45648e-05 3.0304505e-05 0.00014720538
000180 34 7f ed 35 e3 44 39 b8 73 3c 93 38 e4 f2 bc 38
       1.7694897e-06 -4.4171593e-05 7.020766e-05 9.0097805e-05
000190 17 0a 58 38 3d ff 01 39 36 ad 82 38 f7 e0 00 b9
       5.150781e-05 0.00012397482 6.231146e-05 -0.00012290837
0001a0 22 9a 60 39 84 c8 1d 37 0c c8 d7 38 96 a0 20 b8
       0.00021419724 9.404615e-06 0.000102892605 -3.829653e-05
0001b0 c9 12 00 b9 c2 c9 ef 38 76 08 f3 38 ba 23 27 b8
       -0.00012214029 0.000114339884 0.00011588719 -3.9849176e-05
0001c0 a4 e5 b6 37 6c 09 71 b7 da e5 fb 38 22 95 3d 39
       2.1803025e-05 -1.4366913e-05 0.00012011426 0.00018080001
0001d0 4f 27 31 39 2d c6 79 37 4a 8c d2 b6 cd d0 b3 b8
       0.00016894679 1.4887698e-05 -6.2748195e-06 -8.574277e-05
0001e0 a8 45 45 38 9c d1 25 38 de 1d 62 37 f7 5e fc 38
       4.7033333e-05 3.953428e-05 1.3477604e-05 0.00012033985
0001f0 d0 32 5c 38 50 5e eb b8 30 90 73 37 02 ee 8a b8
       5.249941e-05 -0.0001122324 1.45175e-05 -6.624685e-05
000200 27 ca 91 38 98 1f 33 39 d9 66 e9 39 e8 c2 ae 39
       6.9517926e-05 0.0001708254 0.0004451785 0.00033333083
000210 18 57 20 b7 66 9b 57 b9 b8 4b 54 b8 40 6b 1f 36
       -9.557021e-06 -0.00020561888 -5.0615257e-05 2.3755274e-06
000220 a4 9f bc b9 65 dd 6d b8 4e b0 fa b8 c0 0c e7 35
       -0.00035977096 -5.6711393e-05 -0.00011953768 1.7214552e-06
000230 80 d4 0a b6 78 04 be b7 5e db 9c b8 c0 a6 44 b9
       -2.0687294e-06 -2.2651846e-05 -7.47952e-05 -0.00018754136
000240 05 21 94 b8 98 b1 4f b8 82 4b ab 38 42 43 93 b8
       -7.06334e-05 -4.9518043e-05 8.16798e-05 -7.022034e-05
000250 e4 a2 59 b8 28 20 06 b8 1c 80 3f 39 2c d8 42 38
       -5.1888535e-05 -3.1978037e-05 0.00018262904 4.645453e-05
000260 58 63 f4 b8 96 7b 73 b9 1e 89 b4 39 70 14 4d b6
       -0.00011653331 -0.00023220325 0.00034434436 -3.0559277e-06
000270 c1 ff 69 b9 20 51 5b 38 7f 4e b1 b9 04 46 5a 37
       -0.00022315887 5.2289222e-05 -0.00033818555 1.3010114e-05
000280 de 19 d6 b7 48 99 81 b6 30 4b 64 b6 b2 1c e7 37
       -2.5522833e-05 -3.862344e-06 -3.4018412e-06 2.7550708e-05
000290 20 ef f7 37 3e fb 69 b8 a7 4b 89 b7 00 6a 6a b6
       2.9556046e-05 -5.5785516e-05 -1.6366901e-05 -3.4930417e-06
0002a0 28 1f 01 b8 ee f9 ce b7 00 fe 80 b7 26 8c 14 37
       -3.0785013e-05 -2.4673496e-05 -1.5377067e-05 8.854118e-06
0002b0 fe 83 3d b8 b7 33 ef 38 72 18 08 b8 f0 12 33 36
       -4.518404e-05 0.00011406041 -3.2447693e-05 2.6684102e-06
0002c0 44 79 51 b8 40 06 e0 36 a3 bd e5 b8 3d 55 90 38
       -4.994242e-05 6.676448e-06 -0.000109548935 6.882332e-05
0002d0 fe 8c 8d 38 c9 10 26 b8 39 ee 96 b8 28 2b 16 b9
       6.749666e-05 -3.9593117e-05 -7.19693e-05 -0.00014321192
0002e0 c0 01 bd b5 25 c4 7c b9 75 b5 81 b8 47 63 01 b8
       -1.4082107e-06 -0.00024105662 -6.184998e-05 -3.0848456e-05
0002f0 f0 40 c1 36 fc dc 96 b6 65 ea 62 38 f0 3e 81 b5
       5.759408e-06 -4.4960743e-06 5.4100896e-05 -9.629566e-07
000300 e6 d2 31 38 fb e7 43 38 fc f4 83 38 d0 3e 7e 37
       4.2396503e-05 4.670767e-05 6.292199e-05 1.5154204e-05
000310 d4 47 21 b9 58 53 b1 b7 44 db a1 36 be 1b 36 38
       -0.00015380915 -2.1138854e-05 4.8237e-06 4.341802e-05
000320 22 d0 e4 37 08 5a 5c b7 ac 17 22 37 28 b4 a9 b8
       2.7276637e-05 -1.3133984e-05 9.661464e-06 -8.092105e-05
000330 0e 2b d7 b7 1b 08 20 b8 04 8f 6f 38 64 87 6d b8
       -2.5650046e-05 -3.815452e-05 5.7115234e-05 -5.6631296e-05
000340 28 ba ea 36 9d 22 09 b8 30 41 4d 37 a7 80 8c 38
       6.995415e-06 -3.269558e-05 1.223413e-05 6.6996836e-05
000350 f8 69 e6 b7 9e a1 f7 37 70 3c d0 37 4c 98 45 37
       -2.7467482e-05 2.9519953e-05 2.4823676e-05 1.1777574e-05
000360 ee 02 d4 38 2b 92 d3 37 7b 35 9f 39 c7 2d b4 b8
       0.000101094935 2.5221225e-05 0.0003036669 -8.5915955e-05
000370 78 83 e9 35 4a 53 e7 b7 e0 f0 f3 b7 d4 d0 3f b8
       1.7398115e-06 -2.757613e-05 -2.9080024e-05 -4.5732435e-05
000380 c2 6a f3 36 16 1e 97 37 84 8e 17 36 73 57 09 b8
       7.2543926e-06 1.8014613e-05 2.2583708e-06 -3.274479e-05
000390 1d d6 54 b8 d9 02 23 b8 de 54 30 b8 82 e2 e8 37
       -5.0744147e-05 -3.886488e-05 -4.204071e-05 2.7762031e-05
0003a0 8b 29 8b 39 65 45 2e 38 8e b2 bc 38 90 e0 aa b5
       0.00026543098 4.154946e-05 8.997797e-05 -1.2731343e-06
0003b0 00 f2 35 b9 99 94 03 39 a3 20 63 38 a4 9d 10 38
       -0.00017351657 0.0001254849 5.4151413e-05 3.447909e-05
0003c0 c0 a1 f1 37 28 77 c4 37 08 8a d2 b7 22 4f 2c 38
       2.880476e-05 2.3420507e-05 -2.5098227e-05 4.1081694e-05
0003d0 b6 2e d4 38 41 b6 0c 38 74 a3 0b 38 de 13 33 b8
       0.00010117648 3.354834e-05 3.329241e-05 -4.269543e-05
0003e0 bd d8 fe 37 be d2 83 37 ca e8 2a b9 de 7f 23 38
       3.0380086e-05 1.5714551e-05 -0.00016299184 3.8981314e-05
0003f0 c7 3f 17 b8 be 17 36 38 8c 56 6b 37 21 a4 2d b8
       -3.6060603e-05 4.3414293e-05 1.4027242e-05 -4.139927e-05

model/dense_13/MatMul f4 [40, 40]
000000 89 3a 15 38 b0 3f f7 36 f7 d3 e6 b7 0a 9e a3 38
       3.5578883e-05 7.368588e-06 -2.751684e-05 7.801883e-05
000010 a6 e0 47 b8 f2 f9 2f 38 32 75 95 b8 7a 05 2b 38
       -4.7654517e-05 4.195603e-05 -7.126703e-05 4.0774677e-05
000020 7c cb 3b b8 f8 c8 43 39 4a 3a b6 b8 43 84 ac 39
       -4.4773784e-05 0.00018671516 -8.6892935e-05 0.0003290494
000030 d6 fc 6f b8 d4 42 e6 38 ce 63 53 b8 e0 26 c2 b7
       -5.7217512e-05 0.00010979702 -5.039927e-05 -2.3144705e-05
000040 4c 2f c3 b8 c0 0a 11 37 c4 ee 2b 38 af 81 ff 37
       -9.307134e-05 8.645176e-06 4.0991945e-05 3.0458757e-05
000050 f0 dd 54 b7 3c b4 32 38 9f fe df b8 f0 02 19 b7
       -1.26878585e-05 4.2606363e-05 -0.000106808955 -9.120195e-06
000060 5f 64 59 39 f1 8d c2 37 f8 d4 bc 37 c0 c7 82 36
       0.00020732124 2.3192699e-05 2.2510518e-05 3.897556e-06
000070 f9 8e 12 37 dc e3 4f b9 cb ad 7d 38 a6 90 9f 38
       8.735567e-06 -0.00019825943 6.0481758e-05 7.608654e-05
000080 9e f3 27 b9 b0 1f 27 38 05 bb 91 b7 dc cd 70 b7
       -0.00016017116 3.9845414e-05 -1.7372435e-05 -1.4353045e-05
000090 1c 5a 10 39 4e e5 0a 39 db df 7a b7 8b d3 fc 38
       0.00013766479 0.00013246128 -1.4953282e-05 0.00012055699
0000a0 36 0c eb b8 7a 57 0e bb 78 68 31 37 9e 04 e0 39
       -0.00011207948 -0.002171962 1.0574346e-05 0.0004272805
0000b0 e0 42 a6 b5 4f 03 0d b9 c3 a0 b6 b8 c6 70 84 be
       -1.2387427e-06 -0.0001344804 -8.7083805e-05 -0.2586729
0000c0 9e 9e 09 3a d6 35 a3 b8 86 46 1b 39 3d ad 2e 39
       0.0005249771 -7.7824734e-05 0.00014808224 0.0001665847
0000d0 e6 6d 07 39 5a e2 3b 38 ce 66 fe b7 c2 f3 2e ba
       0.00012915544 4.479508e-05 -3.0327032e-05 -0.0006673896
0000e0 86 a3 b6 b9 20 e2 a7 38 7c b3 0d b9 f2 4f cf b9
       -0.0003483558 8.0052996e-05 -0.00013513671 -0.0003954168
0000f0 23 57 fe bd af c7 af 38 43 a8 9f 3b e7 73 4f 3e
       -0.12418964 8.381844e-05 0.0048723533 0.20259057
000100 73 f6 bd 38 24 8d 14 3a 6f 8e a7 b7 a1 3c 22 39
       9.058127e-05 0.00056667835 -1.9974277e-05 0.0001547211
000110 96 27 0c bd e2 bf 14 39 dc f4 4e b8 30 df 0a 37
       -0.03421744 0.00014185862 -4.934227e-05 8.277406e-06
000120 3c ce 30 39 30 03 d4 37 96 8e 1f 37 80 6a 04 b8
       0.00016861496 2.5273854e-05 9.510337e-06 -3.157044e-05
000130 0e 0c b2 b8 28 39 30 39 40 b6 f9 39 66 60 e3 b8
       -8.489947e-05 0.0001680596 0.00047628768 -0.00010842159
000140 dc e0 a3 37 c8 0e db 38 0c 1b 1d 38 28 54 d7 37
       1.9535823e-05 0.00010445487 3.7456906e-05 2.5669186e-05
000150 b0 1d 0d b9 cd 41 2c b9 4e 23 ce 37 bb 11 48 37
       -0.00013457867 -0.00016427711 2.4573554e-05 1.1925057e-05
000160 80 b2 09 37 d2 a1 d9 b8 22 1f b3 b9 a4 0e 2b b9
       8.207397e-06 -0.00010377508 -0.00034164736 -0.00016313285
000170 d7 bf 09 b9 52 14 4a 39 2a a4 e6 b6 08 17 a7 b8
       -0.00013136804 0.00019271791 -6.8736454e-06 -7.9674704e-05
000180 0e a2 43 39 3a f1 9c 39 00 3a fe b4 e0 75 37 b8
       0.00018657019 0.00029934366 -4.7353387e-07 -4.374038e-05
000190 0e cd 8d 37 ae 32 c8 39 20 32 1f b6 fb 32 95 b8
       1.6903996e-05 0.00038184732 -2.3722023e-06 -7.1143695e-05
0001a0 65 67 db b8 38 fa c3 37 9b 5a b3 b8 58 96 ac b8
       -0.000104619925 2.3362329e-05 -8.552262e-05 -8.229603e-05
0001b0 36 e3 8f 37 c6 2d 80 39 15 5c 80 39 f8 bf 4c 38
       1.7152732e-05 0.00024448166 0.0002448267 4.8816175e-05
0001c0 3c 41 70 39 8e a3 40 b8 80 db ea b6 20 80 3a b9
       0.00022912485 -4.592869e-05 -6.9992966e-06 -0.00017786073
0001d0 3d 65 00 b9 f0 52 a5 b7 6c 53 5a 38 7f f5 34 38
       -0.00012244745 -1.9708154e-05 5.2052943e-05 4.314398e-05
0001e0 82 af b8 37 d3 45 ba 36 d4 17 84 36 64 f1 0d b9
       2.2016236e-05 5.5513606e-06 3.9366805e-06 -0.00013536733
0001f0 dd 44 b4 38 fd d7 52 38 81 c3 00 38 ac f9 5f 38
       8.5958956e-05 5.0269056e-05 3.0699655e-05 5.339987e-05
000200 cd 09 8a 39 b2 7e 92 b8 94 a6 52 b9 42 e6 18 39
       0.00026328713 -6.985421e-05 -0.00020089216 0.00014581627
000210 15 c9 f4 b8 de 59 49 39 90 c9 a5 38 cb 06 31 39
       -0.00011672281 0.00019202332 7.905357e-05 0.00016882566
000220 e5 47 1c b8 d8 92 46 39 56 f4 3d 39 68 6c 81 b8
       -3.7260255e-05 0.00018937455 0.00018115467 -6.1713916e-05
000230 a4 44 65 b8 f8 09 ad b8 b1 23 9f b7 90 25 8f 36
       -5.466178e-05 -8.25114e-05 -1.8970897e-05 4.266105e-06
000240 b0 17 95 38 42 ac 75 38 b4 e9 39 38 7e 01 3c 38
       7.109286e-05 5.857298e-05 4.432509e-05 4.4824083e-05
000250 25 e2 20 38 7a cc 81 b8 cc 9a 8e 38 94 fd a8 b7
       3.8357586e-05 -6.189286e-05 6.799921e-05 -2.0145242e-05
000260 6e 64 14 b9 ae 64 59 b9 7c 7d 1f 39 a3 6e 7b 38
       -0.00014151793 -0.00020732239 0.00015210168 5.9946102e-05
000270 12 99 db b8 d4 52 4b 37 24 d1 a8 38 c2 1a 9c b8
       -0.00010471245 1.2119028e-05 8.04982e-05 -7.443644e-05
000280 7e 2c d7 b7 e7 ad ce b8 40 a1 d1 b8 91 3d 9c 39
       -2.5650716e-05 -9.855237e-05 -9.995932e-05 0.0002980051
000290 0c 3f 01 39 28 8a 86 b6 e3 d3 98 38 f3 f2 a1 37
       0.00012325885 -4.0095947e-06 7.287392e-05 1.9305828e-05
0002a0 70 86 5d 36 98 43 02 39 04 aa d4 b8 c8 d9 7d 39
       3.300982e-06 0.00012422947 -0.000101406156 0.0002420909
0002b0 49 4b 1a b9 d6 f8 98 b9 47 cf 1b 38 b0 63 6c 38
       -0.0001471463 -0.00029177096 3.7147922e-05 5.6359626e-05
0002c0 2e a6 fa 38 d0 2c 0b 38 de 85 14 39 94 9f 98 36
       0.00011951882 3.3181917e-05 0.0001416425 4.5485303e-06
0002d0 10 22 0d 36 f6 76 27 38 f6 ed b2 b8 82 5f 29 b8
       2.1030464e-06 3.9926694e-05 -8.532025e-05 -4.038169e-05
0002e0 98 68 32 b8 ba eb 9a 38 41 1f 0e 39 b5 f5 ef b8
       -4.2535918e-05 7.3872e-05 0.00013553818 -0.000114421746
0002f0 25 dc 53 b8 22 fe b2 39 bc 35 7e 39 0a b6 27 b8
       -5.0511346e-05 0.0003414015 0.00024243345 -3.998544e-05
000300 dc 68 fe 39 c5 c7 87 38 f8 62 9c b6 3b 76 ab b8
       0.00048524782 6.4745116e-05 -4.6606838e-06 -8.1759375e-05
000310 63 f9 49 39 6c b6 a4 b8 b7 11 cf 37 fb a8 a1 b9
       0.00019261758 -7.854108e-05 2.4684572e-05 -0.00030834213
000320 8b 13 e4 b9 7d 43 0e 39 0f a1 20 39 3b d4 88 39
       -0.0004350211 0.00013567317 0.00015318788 0.00026098065
000330 e0 ec c1 b7 92 3e 25 b9 50 14 4c 38 29 fb 75 38
       -2.3117696e-05 -0.00015758935 4.8656308e-05 5.8646463e-05
000340 c6 07 2f 39 44 66 9e b9 1f eb 8b 39 f8 57 57 39
       0.00016692196 -0.00030212302 0.00026687325 0.00020536769
000350 d1 36 8e b8 68 e9 50 b8 9c 56 0d 38 b6 a7 a1 b8
       -6.781298e-05 -4.980844e-05 3.369768e-05 -7.708317e-05
000360 60 d4 3c b9 f7 bb 82 39 69 93 46 39 4f 87 58 b8
       -0.00018008193 0.00024935577 0.00018937666 -5.162443e-05
000370 b8 2e db b8 2a 20 9b b8 90 3e 08 38 bc e6 93 38
       -0.00010451436 -7.396967e-05 3.2483193e-05 7.052484e-05
000380 eb d7 2f 39 f9 c1 92 38 2a 17 d4 38 fb 34 00 39
       0.00016769736 6.997953e-05 0.000101132624 0.00012226768
000390 3e f6 88 38 dd c3 9f b9 ec ba 10 3a ce 81 10 38
       6.5308515e-05 -0.00030472773 0.00055210176 3.4453165e-05
0003a0 fe 97 45 b8 3e de 00 b8 ac 44 33 38 3d 61 1f b9
       -4.7110014e-05 -3.0724557e-05 4.274088e-05 -0.00015199646
0003b0 32 e4 24 b9 64 d7 d1 b7 97 56 77 39 e4 7c 0b 39
       -0.00015725268 -2.501504e-05 0.00023588013 0.00013302598
0003c0 88 89 c6 37 90 99 6a 36 60 85 af 38 00 5f ab b8
       2.3667482e-05 3.4958102e-06 8.369493e-05 -8.1716105e-05
0003d0 60 e8 d7 b5 2a 80 ed b8 64 fb 78 b8 e5 8d 9f b7
       -1.6086378e-06 -0.00011324913 -5.9361933e-05 -1.9020352e-05
0003e0 44 20 ff 37 fe 1f 46 38 a9 be 2b b8 a6 a0 8c 38
       3.0413394e-05 4.7236674e-05 -4.0947143e-05 6.705643e-05
0003f0 4a 2f cb 37 a2 59 82 39 88 4f b5 b7 c8 0f d1 b7
       2.4221506e-05 0.00024862314 -2.1613916e-05 -2.492209e-05
