3tier-app/learnt_model/real_sim_jvm/model_3tier.tflite (tflite, 148092 bytes, 48 tensors)

dense_9/bias f4 [40]
0	0x3cc448df	0.023960529
1	0xbcfd40ae	-0.03091463
2	0xbd30db0d	-0.043177653
3	0xbc8ab589	-0.016932266
4	0x3d3dd2ac	0.04634349
5	0x3c85ecb9	0.01634823
6	0x3c1ea976	0.009683957
7	0x3bfea152	0.0077706957
8	0xbc0de416	-0.008660337
9	0x3c28f218	0.010311626
10	0xbc9800b0	-0.018555015
11	0xbd61b4b1	-0.05510396
12	0x3cf9cb0f	0.030492334
13	0xbcd5cc9d	-0.026098544
14	0x3adc6b9d	0.0016816739
15	0xbcd165a1	-0.025561156
16	0xbd26329d	-0.040575612
17	0x3a6cf5c1	0.0009039306
18	0x3e25743b	0.1615762
19	0x3e17f20d	0.14838429
20	0x3e3a7a1d	0.18210645
21	0xbca4ede5	-0.020132968
22	0xbce86bbf	-0.02837169
23	0x3c278862	0.010225387
24	0x3e7a1819	0.24423255
25	0xbc814359	-0.015779184
26	0x3ce30457	0.02771203
27	0xbbcecd6a	-0.0063111084
28	0xba053d86	-0.0005082715
29	0xbcbbb3f5	-0.022912959
30	0xbca115f6	-0.019663792
31	0xbd1d9464	-0.038471594
32	0xbc556331	-0.013024137
33	0xbd524f11	-0.051344935
34	0xba399cc8	-0.0007080552
35	0xbbc1ecff	-0.0059181447
36	0xbc91f902	-0.017818931
37	0x3c176c44	0.009242121
38	0xbd551040	-0.05201745
39	0x3c122435	0.008919765

dense_8/bias f4 [40]
0	0x3c58785a	0.013212288
1	0x3df0cd18	0.117578685
2	0x3e04cc49	0.12968554
3	0xbd59af9a	-0.053145982
4	0xbcd9b84a	-0.026577134
5	0x3c5fb5e8	0.01365421
6	0xbc0bcc7a	-0.008532638
7	0xbd16783e	-0.036735766
8	0xbaa423b3	-0.0012522846
9	0x3ae67924	0.001758371
10	0xbd01de6c	-0.03170626
11	0xbc4d288e	-0.012521876
12	0x3dbe8e3d	0.093044735
13	0xbd548da0	-0.051892877
14	0xbc6a1b77	-0.014288775
15	0xbd740e56	-0.059583984
16	0xbd369400	-0.044574738
17	0x3c40e697	0.011773727
18	0xbc9e8cda	-0.019354273
19	0x3d1149d4	0.0354708
20	0xbca3db20	-0.020001948
21	0xbccad84a	-0.024761338
22	0x3cfd974d	0.030955935
23	0xbcaa47b3	-0.020786142
24	0x3d078c93	0.033093046
25	0xbc95fa7e	-0.01830792
26	0x3c92caf5	0.017919043
27	0xbd4c62ba	-0.04989884
28	0x3d0ccc1c	0.03437434
29	0x3d89dc87	0.067315154
30	0x3cb9a908	0.022663608
31	0xbd1143ec	-0.035465166
32	0x3d8352da	0.06412287
33	0xbcd94dc9	-0.026526349
34	0x3e1b1c19	0.15147437
35	0x3d492a4b	0.0491126
36	0x3c5eba7d	0.013594267
37	0x3d0c983e	0.034324877
38	0x3ccc9ac1	0.024976136
39	0x3daeb94d	0.08531437

dense_7/bias f4 [40]
0	0x3bfc5a83	0.0077012195
1	0x3bca45c2	0.0061728666
2	0x3cef80f5	0.029236296
3	0x3d65cc01	0.056102756
4	0xbc71d8ca	-0.014761159
5	0x3e4286f3	0.18996792
6	0x3d208e4a	0.039198197
7	0x3e52c036	0.20581135
8	0x3e70f410	0.23530602
9	0xbcf18da1	-0.02948648
10	0x3e4e5925	0.20151193
11	0x3d4ce579	0.05002353
12	0x3d3b984d	0.045799542
13	0x3dd424b9	0.10358567
14	0x3e10e3b7	0.14149366
15	0x3e66bfcf	0.22534107
16	0x3d7c83c1	0.061649088
17	0x3ce38b7e	0.027776476
18	0x3ea912cd	0.33022156
19	0x3b8ce70d	0.0043000043
20	0x3abad6fc	0.0014254744
21	0x3d9cef19	0.07662792
22	0x3d7eed62	0.062238105
23	0xbd4ac2c0	-0.049502134
24	0x3bc00879	0.005860385
25	0x3e1f8337	0.15577398
26	0xbcb35a8a	-0.021893758
27	0x3ce9e4b1	0.028551431
28	0xbbd64d17	-0.0065399515
29	0x3dbde179	0.09271521
30	0xbda7e75b	-0.081984244
31	0x3d452d33	0.04813881
32	0x3cce47c1	0.0251807
33	0xbd4f98bd	-0.050682772
34	0xbc84b409	-0.016199129
35	0x3cdf971a	0.02729373
36	0x3d3c0fe4	0.045913592
37	0xbd5ca92a	-0.053872265
38	0xbbd89274	-0.0066092554
39	0x3d46cf5a	0.04853759

dense_6/bias f4 [36]
0	0x3e1f3a46	0.15549573
1	0x3de6edde	0.11275838
2	0x3d98b0ed	0.07455621
3	0x37b1c300	2.1190848e-05
4	0x3c67aeb3	0.014140773
5	0xb7c56d00	-2.3534987e-05
6	0xbc0d2adc	-0.0086161755
7	0xbc7a3755	-0.015271981
8	0x3c813138	0.01577054
9	0x3c0588b8	0.008150272
10	0x3c16663f	0.009179651
11	0xbca8fde7	-0.020628883
12	0x3f1f39de	0.62197673
13	0xbc535262	-0.01289806
14	0x3d1b16ff	0.037863728
15	0xba8a3e0a	-0.0010547054
16	0xbaa35437	-0.0012461011
17	0x3a2c7d4a	0.0006579949
18	0x3afca00c	0.0019273772
19	0xb99402d5	-0.0002823087
20	0xba328122	-0.00068094034
21	0xbbc92d2f	-0.0061394195
22	0xbc1c5272	-0.009541141
23	0xbb43bf26	-0.0029868572
24	0x3e2da675	0.1695803
25	0x3d835b8f	0.06413948
26	0xbea56b36	-0.32308358
27	0x3c3f3bf7	0.011672012
28	0xbc443300	-0.01197505
29	0xbba0d691	-0.004908391
30	0x3bc84ed8	0.0061129145
31	0x3a2bbb4f	0.00065510435
32	0xba84ac76	-0.0010122198
33	0xbc13ce6e	-0.009021385
34	0x3c5dfc8a	0.01354898
35	0xb8ac1ccc	-8.206963e-05

dense_5/bias f4 [40]
0	0xbd9c7798	-0.07639998
1	0xbd2361ac	-0.03988807
2	0x3df7e7b6	0.12104742
3	0xbd56e3d4	-0.052463368
4	0x3c2e6273	0.010643589
5	0xbd9e8631	-0.07740439
6	0x3bd0b4fb	0.006369231
7	0xbc8cfb0d	-0.017209554
8	0xbcec392b	-0.028835854
9	0xbd6fdb6f	-0.058558878
10	0xbbc7bd0c	-0.006095534
11	0xbc8e14c2	-0.017343882
12	0xbd2b1038	-0.041763514
13	0x3d051c7e	0.032497875
14	0x3b8ee545	0.004360827
15	0xbcfa5062	-0.030555908
16	0x3c299158	0.010349594
17	0xbb1e1e4a	-0.002412694
18	0xbc54933f	-0.012974559
19	0xbb1bcfd0	-0.002377499
20	0x3c56ce0c	0.013110649
21	0xbd46236c	-0.048373625
22	0x3caf79d8	0.021420404
23	0xbd93134c	-0.07181415
24	0xbd001072	-0.031265683
25	0x3d2340c9	0.039856706
26	0xbaeef5ae	-0.0018231177
27	0xbd28f334	-0.04124756
28	0x3d9b5e4a	0.075863436
29	0xbcd571d4	-0.026055254
30	0xbd2df3da	-0.042468883
31	0x3c8f2117	0.017471833
32	0xbb0ba330	-0.0021306984
33	0x3d83fbea	0.06444533
34	0xbd24fc89	-0.0402799
35	0x3d32b83c	0.04363273
36	0x3c47d063	0.012195679
37	0xbc1b76a3	-0.009488734
38	0xbc0a8380	-0.008454204
39	0x3c5d8c11	0.013522164

dense_4/bias f4 [40]
0	0xbce2564f	-0.027629046
1	0xbc09ee7a	-0.008418674
2	0xbcee058f	-0.029055385
3	0xbafa7385	-0.0019107914
4	0x3d0d721f	0.034532662
5	0xbc96da67	-0.01841469
6	0x3cb49b49	0.022046702
7	0x3c5b69ca	0.013391921
8	0xbd2e7da3	-0.042600285
9	0xbd0a5eed	-0.033781935
10	0xbcdbaf8c	-0.026817106
11	0xb9545cf3	-0.00020252522
12	0x3cce85ea	0.02521034
13	0xba3266d0	-0.00068054814
14	0xba9ab6a6	-0.0011803701
15	0x3d539bb0	0.051662147
16	0xbda10ec0	-0.078641415
17	0x3d368abf	0.044565912
18	0xbd0aa6e2	-0.033850558
19	0x3b8bf0e5	0.00427066
20	0x3b1c3e45	0.0023840826
21	0xbc412be7	-0.011790252
22	0xbd0419d3	-0.03225119
23	0xbaf63bb5	-0.0018786105
24	0x3d23c826	0.0399858
25	0xbd2bb531	-0.041920844
26	0xbb5e9422	-0.0033962806
27	0x3c98448c	0.018587373
28	0xbd0389af	-0.032113727
29	0x3a0e2c0b	0.0005423433
30	0x3d54c45c	0.051945075
31	0x3cebe280	0.028794527
32	0x3db9e0ae	0.090760574
33	0xbca9ddd0	-0.020735651
34	0xbd3d1ed8	-0.046171993
35	0xbd4e3191	-0.05034024
36	0xbd46cec5	-0.048537035
37	0x3d082c43	0.033245336
38	0xbc351144	-0.01105148
39	0xbcebf370	-0.028802603

dense_3/bias f4 [40]
0	0xbd130ebd	-0.035902727
1	0x3ec731b3	0.38905105
2	0x3c642e45	0.013927047
3	0xbcfa9c8c	-0.030592225
4	0xbd5f6689	-0.054541145
5	0xbceceb7d	-0.028920883
6	0x3c870e69	0.016486363
7	0xbada45cb	-0.001665288
8	0xbc58367e	-0.013196586
9	0x3ccf625c	0.025315456
10	0xbc9a840c	-0.018861793
11	0xbb9b22cc	-0.0047343727
12	0xbd1fc814	-0.03900917
13	0xbcefeb02	-0.029286865
14	0x3e8891cc	0.26673734
15	0xbd811157	-0.063021354
16	0x3ed6a2eb	0.41921172
17	0x3b78a21b	0.003793842
18	0x3e2eac36	0.17057881
19	0x3d0244ff	0.03180408
20	0xbcb4e56b	-0.022082051
21	0xbc98be50	-0.018645436
22	0x3c244e4c	0.010028433
23	0x3ba00a37	0.00488403
24	0x3c0dd1e9	0.0086560035
25	0x3bd568b0	0.006512724
26	0x3d32e69f	0.04367697
27	0xbc4fc800	-0.012681961
28	0x3d734565	0.05939235
29	0xbda7deba	-0.081967786
30	0x3ccc850d	0.024965787
31	0x3d176998	0.036965936
32	0x3c74c729	0.014940062
33	0x3c5d8ee6	0.013522839
34	0x3d80f474	0.06296626
35	0x3cc80f09	0.024421232
36	0x3d21c546	0.039494775
37	0x3dd30af8	0.103048265
38	0x3d925485	0.07145027
39	0x3c8a83f8	0.01690863

dense_22/bias f4 [45]
0	0x3cbf5574	0.023356177
1	0xbbf16253	-0.0073664575
2	0xbcdbc752	-0.026828442
3	0xbc4df379	-0.012570255
4	0x3c8ac0d1	0.016937645
5	0x3aa7cb2a	0.0012801636
6	0xbbf2ab8a	-0.007405703
7	0x3cc3ab11	0.023885282
8	0xbc855696	-0.016276639
9	0x3bba6c8d	0.00568921
10	0x3c268b10	0.010164991
11	0xbc69a888	-0.014261372
12	0x3f3abdd6	0.72945917
13	0xbd163c8f	-0.036678847
14	0xbc40c9e0	-0.011766881
15	0x3ee55686	0.44792575
16	0x3babd5fa	0.005244014
17	0x3b93380c	0.0044927653
18	0x3bbee2bd	0.005825369
19	0x3a30ba17	0.0006741597
20	0xba00282a	-0.00048887974
21	0xb9dc4148	-0.00042010308
22	0xba5d651b	-0.0008445547
23	0xbaac8250	-0.0013161395
24	0x3b109ed9	0.0022067337
25	0x39a23eca	0.0003094583
26	0x3b42cd86	0.0029724552
27	0xbd4c8bdd	-0.04993807
28	0x3e809757	0.25115463
29	0xbda617d6	-0.08110015
30	0x3d6c1ee9	0.057646666
31	0x3ca6e387	0.020372165
32	0xbd4217ec	-0.047386095
33	0xbbd1f40a	-0.0064072656
34	0xbc0022f0	-0.00782083
35	0x3c3d4768	0.011552669
36	0x3ae34c3d	0.0017341446
37	0x3b279f83	0.0025577254
38	0x3bb2744b	0.005445992
39	0x3c1d220f	0.00959064
40	0xbb88815b	-0.004165811
41	0xbc29eaf7	-0.010370961
42	0x3e24adda	0.16081944
43	0xbd2983e6	-0.041385554
44	0x3efd32b8	0.49452758

dense_21/bias f4 [40]
0	0xbd689840	-0.056785822
1	0xbd10183b	-0.035179358
2	0xbd141fad	-0.03616302
3	0x3ccbf46c	0.024896823
4	0x3c6a2223	0.014290365
5	0x3c823260	0.015893161
6	0x3c120250	0.008911684
7	0xbd68c643	-0.056829702
8	0x3cbf84c4	0.023378737
9	0xbd21f7d7	-0.039543
10	0x3cc43424	0.023950644
11	0x3e4b3fa2	0.19848493
12	0x3c59774c	0.0132730715
13	0xbcda10ce	-0.026619341
14	0xbd49f9ec	-0.04931061
15	0xbd2fd08d	-0.0429235
16	0x3b572360	0.0032827482
17	0xbce59f88	-0.028030172
18	0x3db46249	0.08807809
19	0x3c8005ea	0.01562782
20	0x3c6f8b31	0.014620588
21	0xbd8d360f	-0.068950765
22	0xbc6b990d	-0.014379752
23	0xbd4ae638	-0.04953596
24	0xbd1eef1e	-0.03880226
25	0xbaba085d	-0.0014193166
26	0x3a8e9e75	0.0010880964
27	0x3c6441a8	0.013931669
28	0xbd0b7218	-0.034044355
29	0x3e2c05c6	0.16799077
30	0x3c21543c	0.009846743
31	0xbab1dc63	-0.0013569709
32	0xbd975384	-0.07388976
33	0xbc9dbff8	-0.019256577
34	0xbd0e5d96	-0.03475722
35	0xbbdae08e	-0.006679601
36	0xbd0c1f2b	-0.03420941
37	0xbcc45ba6	-0.023969483
38	0xbc071f4e	-0.00824721
39	0x3db12be2	0.08650948

dense_20/bias f4 [40]
0	0xbd7646b1	-0.06012601
1	0xbd6cf455	-0.0578502
2	0x3be5c175	0.0070115873
3	0xbcaa21d7	-0.02076809
4	0xbca3a250	-0.019974858
5	0x3c0d8caa	0.008639494
6	0x3bb7c6f8	0.0056084357
7	0x3db822f2	0.0899104
8	0x3e726bc5	0.23673923
9	0xbd7fddcc	-0.06246738
10	0x3c7388df	0.014864176
11	0xb8f587a2	-0.00011707774
12	0xbd034d08	-0.032055885
13	0x3d9cc7ec	0.076553196
14	0x3d9574c6	0.072976634
15	0x3d9dfbdc	0.07714054
16	0x3c886f76	0.016654711
17	0xbd00067d	-0.031256188
18	0xbbf099d2	-0.0073425556
19	0xbca7b555	-0.020472208
20	0xbd47ea1a	-0.04880724
21	0x3ea8aa39	0.3294237
22	0xbd114daa	-0.035474457
23	0x3bef2fe2	0.0072994092
24	0x38f01011	0.000114470844
25	0x3ade761a	0.0016972453
26	0x3cc27aed	0.023740256
27	0x3bca2503	0.006168963
28	0xbca84355	-0.020539919
29	0x3e200fa3	0.15630965
30	0xbd02ad3e	-0.031903498
31	0xbd90b60b	-0.07065972
32	0x3d2d61e3	0.04232968
33	0x3d49aaf9	0.049235318
34	0xbd1a3eb7	-0.037657466
35	0xbbe8ab3c	-0.007100491
36	0xbd0377fe	-0.032096855
37	0xbd20bf99	-0.03924522
38	0xbd3c67cb	-0.045997422
39	0x3e1ba646	0.15200147

dense_2/bias f4 [40]
0	0x3d2477e2	0.04015339
1	0x3c2c8e93	0.010532039
2	0xbd82ca2f	-0.0638622
3	0x3d98e23f	0.07465028
4	0xbd25996f	-0.04042953
5	0x3d77777c	0.060416684
6	0xbe1364d8	-0.14393938
7	0xbb1e12c3	-0.002412007
8	0xbc8ca20b	-0.017167112
9	0x3b108c45	0.0022056263
10	0x3e12e117	0.14343677
11	0x3d7c2a5b	0.06156383
12	0x3dc68979	0.096941896
13	0xbcd6503b	-0.026161304
14	0x3dd23d22	0.102655664
15	0x3dcb2460	0.09919047
16	0x3dfe34b1	0.12412394
17	0x3d3b5033	0.04573078
18	0xbd074de1	-0.033033255
19	0xbe0374dc	-0.12837547
20	0xbd23dddd	-0.040006507
21	0x3d1b5f50	0.037932694
22	0x3a43b407	0.0007465486
23	0x3dfd6440	0.12372637
24	0xbc8a8401	-0.016908647
25	0xbc56fbd0	-0.01312156
26	0xbd06427e	-0.032778256
27	0x3e000640	0.12502384
28	0xbd42fcdb	-0.047604423
29	0x3d92d1f8	0.071689546
30	0x3c20e579	0.009820336
31	0x3d44bc22	0.04803098
32	0x3d1909aa	0.037362732
33	0xbbca88cb	-0.006180858
34	0xbc9b6788	-0.018970266
35	0xbdab6f7f	-0.083708756
36	0x3d9b6b19	0.07588787
37	0x3c75595e	0.01497492
38	0xbcc86d43	-0.024466163
39	0xbbf2f093	-0.0074139326

dense_19/bias f4 [40]
0	0xbc794795	-0.01521482
1	0xbcabd4bf	-0.020975469
2	0xb85560b1	-5.087321e-05
3	0x3c388077	0.011261097
4	0x3df310aa	0.11868413
5	0x3e18130b	0.14851014
6	0x3cc42d0d	0.023947263
7	0x3d78326e	0.06059497
8	0x3d21cc1a	0.039501287
9	0x3ea17e32	0.31541592
10	0xbd9bc42b	-0.076057754
11	0x3e0c0560	0.13673925
12	0x3aa23943	0.0012376684
13	0x3c3a3b97	0.011366746
14	0xbd5d4daf	-0.054029163
15	0x3c97621f	0.018479405
16	0x3cba09cd	0.022709752
17	0x3d203e33	0.039121818
18	0x3c1d0387	0.0095833605
19	0xbc4582dc	-0.012055125
20	0xbcb07998	-0.021542355
21	0x3c32171b	0.010869767
22	0x3cd2ad1d	0.025717312
23	0x3d4a0693	0.049322676
24	0xbbd80ec0	-0.006593555
25	0x3f07297a	0.52797663
26	0x3e5d6064	0.21618801
27	0x3db94a67	0.09047394
28	0x3e6f882e	0.23391792
29	0xbc508828	-0.012727775
30	0xbd1d4240	-0.03839326
31	0x3dbbca3e	0.09169434
32	0xbcf39110	-0.029732257
33	0xbd2df502	-0.042469986
34	0xbd5bcfb6	-0.053664885
35	0x3d266054	0.04061921
36	0xbc33bcc6	-0.0109703
37	0x3e54d5ca	0.20784679
38	0x3dc17767	0.09446602
39	0x3daf1306	0.0854855

dense_18/bias f4 [45]
0	0x3da0cf62	0.07852055
1	0x3e1c85d6	0.1528543
2	0x3e53846d	0.20655985
3	0xbbb3678c	-0.0054749902
4	0xbb54de72	-0.003248122
5	0x3bb74f87	0.005594197
6	0x3c6e4100	0.014541864
7	0xbc81166d	-0.015757764
8	0x3b984c86	0.004647794
9	0xbb4c07d0	-0.0031132586
10	0x3bfcb363	0.0077118143
11	0xbb1888b8	-0.002327485
12	0x3e63eb79	0.22257794
13	0x3d1ae632	0.037817188
14	0xbdcea553	-0.10090127
15	0x3ee675af	0.4501166
16	0xbd46eb28	-0.048564106
17	0x3bdb05c9	0.0066840393
18	0x3b8eef5c	0.00436203
19	0xbb1c063f	-0.0023807434
20	0xbac743b4	-0.0015202672
21	0xbb868176	-0.0041047884
22	0x3aebb764	0.0017983732
23	0xb8fd1302	-0.000120675206
24	0x3b86adef	0.00411009
25	0x3a56e8d0	0.0008198144
26	0x3aec6fdc	0.0018038708
27	0x3d6ceaf7	0.057841267
28	0x3e82e54e	0.2556557
29	0xbc54356a	-0.012952188
30	0x3d6a82cd	0.057253648
31	0x3e4bc103	0.19897847
32	0xbe4f8ebd	-0.20269294
33	0xbbe9c5a3	-0.007134156
34	0xbaf8beb8	-0.0018977737
35	0x3bd44f7a	0.006479201
36	0x3a41b5ea	0.0007389473
37	0xbb8f693d	-0.004376559
38	0x3b3ae610	0.0028518476
39	0xbbafe3d2	-0.0053677345
40	0x3c190d74	0.009341586
41	0xbb0432dd	-0.0020171918
42	0x3c0bbdb4	0.0085291155
43	0xbcb2436b	-0.021760663
44	0x3ea15ab6	0.3151452

dense_17/bias f4 [40]
0	0x3a00aed5	0.00049088645
1	0xbd060ab5	-0.032725055
2	0x3d507213	0.05089004
3	0xbc4483fc	-0.011994358
4	0x3c1074ec	0.008816939
5	0xbd0b0f42	-0.033950098
6	0xbc66bbe8	-0.014082886
7	0xbcedd0eb	-0.029030284
8	0x3e44fd29	0.19237198
9	0x3c82d3f8	0.015970215
10	0xbd5caec8	-0.053877622
11	0xbac3d11b	-0.0014939638
12	0xbd9749c0	-0.073871136
13	0xbcd2fdfe	-0.025755879
14	0xbd082a90	-0.033243716
15	0xbd7d2822	-0.06180585
16	0x3d833360	0.064062834
17	0xbdb1ba0b	-0.08678063
18	0xbb9ae81e	-0.0047273776
19	0x3e1bbbef	0.1520841
20	0xbb93dd6d	-0.00451248
21	0x3c548bf0	0.012972817
22	0xbd1a7771	-0.037711564
23	0xbd60634f	-0.054782208
24	0x3c32fd5b	0.010924662
25	0x3c9a27d5	0.018817822
26	0xbd7617ed	-0.06008141
27	0xbd2a739e	-0.041614167
28	0xbd12bee2	-0.03582657
29	0xbc3fd40a	-0.011708269
30	0xbcae45c0	-0.021273494
31	0x3e2ce12b	0.1688277
32	0xbc8df139	-0.017326938
33	0xbd015ba0	-0.03158152
34	0xbd498dbf	-0.049207445
35	0xbd5536c7	-0.052054193
36	0x3d49ee34	0.049299434
37	0xbd7457c4	-0.059654012
38	0x3ce9b1f9	0.028527247
39	0x3c3d66b1	0.011560128

dense_16/bias f4 [40]
0	0x3e0576f3	0.13033657
1	0xbc1b4381	-0.009476543
2	0xbc104c0b	-0.008807193
3	0xbcef56f5	-0.029216269
4	0xbc6e346a	-0.014538864
5	0xbc51f3c6	-0.012814468
6	0x3e85d52d	0.26139203
7	0xbba0bfd6	-0.004905681
8	0xbc89830e	-0.016786125
9	0xbd7f11f3	-0.062272977
10	0x3c4b8496	0.012421748
11	0xbc83f767	-0.016109182
12	0x3ca02c91	0.0195525
13	0xba9386b1	-0.0011255351
14	0xb7d6ebb0	-2.5620539e-05
15	0xbd47f495	-0.048817236
16	0x3c04aba6	0.008097565
17	0x3bc6ae0f	0.00606323
18	0xbb77354b	-0.0037720974
19	0x3e0f7ef7	0.14013277
20	0x3d7c8d36	0.061658107
21	0x3c03f9e8	0.008055188
22	0x3d8c2295	0.068425335
23	0xbd012c0b	-0.031536143
24	0x3bceac0e	0.0063071316
25	0xbd406ca0	-0.046978593
26	0xbcd07ce5	-0.02545018
27	0xbc8bd9f3	-0.0170717
28	0x3ce07bfb	0.027402868
29	0xbd2c63f0	-0.042087495
30	0xbcca3167	-0.02468176
31	0x3b8dcda4	0.004327493
32	0x3cb07ce0	0.02154392
33	0xbbe284ea	-0.0069128172
34	0xbcbf5d1a	-0.023359824
35	0x3df5d24e	0.12003003
36	0xbc589daa	-0.013221184
37	0xbc457a96	-0.012053153
38	0x3ce00989	0.027348297
39	0x3d6bfd64	0.0576147

dense_15/bias f4 [40]
0	0x3e110bf5	0.14164717
1	0x3cd61dd9	0.02613728
2	0xbcab168f	-0.02088478
3	0x3c5a253d	0.013314542
4	0x3e5b9f6d	0.21447535
5	0x3e84645f	0.25857827
6	0x3d2cf229	0.04222313
7	0xbcbc1c5f	-0.022962747
8	0xbc29ad58	-0.01035627
9	0x3c433a65	0.011915778
10	0x3cfa9c18	0.03059201
11	0x3d1dfb73	0.03856988
12	0x3da5e51b	0.08100339
13	0x3e033c86	0.12816057
14	0x3e45d72a	0.1932036
15	0xbe16844a	-0.14698902
16	0x3d8c50e6	0.06851368
17	0xbc2589a8	-0.010103621
18	0x3d4e90e8	0.050431162
19	0x3d058ab6	0.03260299
20	0x3e4f7514	0.20259506
21	0xbd99aa4e	-0.07503186
22	0x3e30a327	0.17249738
23	0xbd4e1cfb	-0.050320607
24	0xbccbf402	-0.024896625
25	0x3ba5f284	0.0050643105
26	0x3b96d514	0.0046030376
27	0x3dc5b582	0.096537605
28	0xbcf9e8a5	-0.030506441
29	0xbd41ec0b	-0.04734425
30	0xbd65e2d7	-0.056124534
31	0xbd8bad44	-0.06820157
32	0x3ce17b2a	0.02752455
33	0x3d39a8fd	0.045327175
34	0xbbfafbaa	-0.007659395
35	0x3c8fd311	0.017556699
36	0x3cd5e52d	0.026110256
37	0x3e42a826	0.19009456
38	0x3d922379	0.07135672
39	0xbcb227d5	-0.021747509

dense_14/bias f4 [45]
0	0x3d9aedde	0.07564901
1	0x3dd5c65f	0.10438227
2	0x3e481365	0.19538648
3	0x3bdc81c6	0.0067293374
4	0xbb8e437d	-0.0043415413
5	0xbb8b3d58	-0.004249256
6	0x3ae26419	0.0017272263
7	0x3ba44bc5	0.0050139152
8	0x3b0b6719	0.0021271168
9	0xbc3ccf32	-0.011524009
10	0x3c7d0597	0.015443227
11	0xbbf5ca80	-0.0075009465
12	0x3f05ade5	0.52218467
13	0xbc3bdda9	-0.011466422
14	0xbd2dfd46	-0.04247787
15	0x3ee51c42	0.44748122
16	0xbcc874be	-0.02446973
17	0x3c0cb5bd	0.008588252
18	0x3c4b7a4c	0.012419295
19	0x3b632c35	0.00346638
20	0x3a44c26a	0.00075057766
21	0xbade4324	-0.0016957265
22	0xbba95cd1	-0.0051685353
23	0x392ecfd6	0.00016671358
24	0xbb2e30d0	-0.0026579387
25	0x38a41178	7.823383e-05
26	0x3b2488a1	0.0025105851
27	0x3ca826a7	0.020526243
28	0x3e9115ce	0.28336948
29	0xbd36d913	-0.04464061
30	0x3db1dc42	0.08684589
31	0x3dfa7e5b	0.12231132
32	0xbe5babc3	-0.2145224
33	0xbba5e383	-0.005062522
34	0xbbf84816	-0.0075769527
35	0x3c580b38	0.0131862685
36	0x3bd03579	0.0063540307
37	0xbb9355d4	-0.0044963155
38	0xbb90e048	-0.0044212677
39	0x3bdab526	0.0066744266
40	0xbbba83ae	-0.005691967
41	0xbba47069	-0.005018283
42	0x3c8e7943	0.017391806
43	0xbd446be1	-0.047954444
44	0x3f0ed4ae	0.55793273

dense_13/bias f4 [40]
0	0x3d9f06d3	0.077649735
1	0xbd0067fd	-0.03134917
2	0xbc1f4444	-0.009720866
3	0x3d4edfb8	0.050506324
4	0xbc9623d4	-0.018327631
5	0xbbebcb9d	-0.0071959035
6	0xbd5c7034	-0.053817943
7	0xbca296e2	-0.019847337
8	0x3c1857e2	0.009298297
9	0xbc9a9e2c	-0.01887425
10	0xbcab1dbf	-0.020888207
11	0xbd3c5f5c	-0.04598938
12	0x3e3d73ab	0.18501155
13	0xbb400517	-0.0029299909
14	0xbc860583	-0.01636005
15	0xbd3f16bc	-0.04665254
16	0xbce8e80d	-0.028430963
17	0xbb3bae0c	-0.0028637676
18	0xbbeb8230	-0.0071871504
19	0xbd1a51f0	-0.037675798
20	0xbc88975d	-0.016673738
21	0xb98b3a43	-0.00026555554
22	0xbcb3eb4e	-0.021962788
23	0xbd00f265	-0.031481165
24	0xbc9ca73f	-0.019122718
25	0xbcfa3d86	-0.030546915
26	0x3e71b2b1	0.23603322
27	0x3c307480	0.010769963
28	0x3c4d76fd	0.012540576
29	0xbc73059a	-0.0148328785
30	0x3c48462a	0.01222376
31	0x3c38d8fb	0.011282201
32	0x3d99427d	0.07483385
33	0xbc75eeea	-0.015010575
34	0xbcd0ac31	-0.025472732
35	0xbc9487de	-0.018131193
36	0x3e04db55	0.12974294
37	0x3c2f6d63	0.010707232
38	0x3cc97187	0.024590267
39	0x3c8e4738	0.017367944

dense_12/bias f4 [40]
0	0xbcc2e720	-0.02379185
1	0xbd1a61e9	-0.03769103
2	0x3e518b56	0.20463309
3	0x3bb715d8	0.005587321
4	0x3cd6c559	0.02621715
5	0xbd508119	-0.050904367
6	0xbd203b84	-0.03911926
7	0x3d1771b6	0.036973678
8	0xbd15361a	-0.03642855
9	0xbcf909bd	-0.030400151
10	0x3e0d89f1	0.13822152
11	0x3dbe28ac	0.09285101
12	0x3d5bb256	0.05363687
13	0x3c8a8e41	0.016913535
14	0x3d560dbc	0.052259192
15	0xbd26c688	-0.040716678
16	0x3c26f7eb	0.010190944
17	0xbd3f033c	-0.046633944
18	0x3c6a3f9e	0.014297394
19	0xbd3aa8cb	-0.04557113
20	0xbb12db13	-0.002240841
21	0x3c8aa735	0.016925434
22	0xbc8da9fa	-0.017292965
23	0xbcf62632	-0.03004751
24	0x3d993723	0.074812196
25	0x3d588d16	0.052868925
26	0xbc110b0b	-0.0088527305
27	0xbd666d25	-0.056256432
28	0xbc9a4598	-0.018832013
29	0xbc3e7c60	-0.011626333
30	0xbc2b30f5	-0.010448684
31	0x3d512d6e	0.051068716
32	0x3c791804	0.01520348
33	0x3e0726f4	0.13198453
34	0x3acafc05	0.0015486485
35	0x3c91badb	0.017789295
36	0x3e0b0b40	0.1357851
37	0xbc24c78a	-0.010057339
38	0xbca0528b	-0.01957061
39	0xbcf071c2	-0.029351119

dense_11/bias f4 [40]
0	0x3dd71c80	0.10503483
1	0x3dadffaf	0.084960334
2	0x3d2da189	0.04239038
3	0x3ea2a690	0.31767702
4	0x3c9e5315	0.019326726
5	0x3eec6495	0.46170488
6	0x3e09faba	0.13474551
7	0x3ea38415	0.31936708
8	0x3e43e089	0.19128622
9	0x3db2f86a	0.087387875
10	0x3d204ae3	0.039133918
11	0x3cc3d819	0.023906754
12	0x3b8dea2f	0.0043308954
13	0xbd18ec28	-0.03733459
14	0xbd01ddcb	-0.03170566
15	0x3af4658e	0.0018645988
16	0x3dfb1085	0.1225901
17	0xbc04edfc	-0.0081133805
18	0x3bbb5cff	0.005717873
19	0xbd363dab	-0.044492405
20	0x3e285a2e	0.16440651
21	0xbca94c28	-0.020666197
22	0x3cb96bfd	0.0226345
23	0x3e567e17	0.20946537
24	0x3de564e0	0.11200881
25	0x3c517328	0.012783803
26	0xbd007ba5	-0.031367917
27	0x3d12d0ad	0.03584354
28	0xbc345894	-0.011007447
29	0xbde9b7a4	-0.1141198
30	0x3e023000	0.12713623
31	0xbd457357	-0.0482057
32	0x3e1c082c	0.15237492
33	0x3cf73747	0.030177725
34	0x3e4bbeb0	0.1989696
35	0x3dcd82e1	0.10034729
36	0xbcb85a1c	-0.022503905
37	0x3d103252	0.03520424
38	0xbd09ab39	-0.033610556
39	0x3cbec9a1	0.023289504

dense_10/bias f4 [45]
0	0x3d9592b8	0.07303375
1	0x3e984d11	0.29746297
2	0x3d66c84e	0.05634337
3	0xbb966476	-0.0045896126
4	0x3c52985a	0.012853706
5	0xbba9ed2a	-0.005185743
6	0x3bc2985e	0.0059385737
7	0xbc74c0b3	-0.014938521
8	0x3af807ea	0.0018923257
9	0x391875d0	0.00014539738
10	0x3a197142	0.00058533635
11	0xbc346805	-0.011011128
12	0x3e9c28bb	0.30499825
13	0xbcf3a59a	-0.02974205
14	0xbd009539	-0.03139231
15	0x3ee9ced4	0.4566561
16	0xbd99beea	-0.07507117
17	0x3d4c4a8c	0.04987578
18	0x3ac2b4da	0.0014854923
19	0xba335ad8	-0.0006841845
20	0x3aaa54d8	0.0012995256
21	0xbb3ff2dc	-0.0029289043
22	0xbb0b60a8	-0.0021267328
23	0xb9b00683	-0.00033574188
24	0x3ab4b338	0.0013786322
25	0x39bf9bb2	0.0003654636
26	0x3b074022	0.0020637591
27	0x3b0cb0c0	0.0021467656
28	0x3e8cdd8c	0.27512777
29	0x3a1ba6df	0.00059376465
30	0x3d9e8e51	0.077419885
31	0x3e89e341	0.26931193
32	0xbe5fa776	-0.21841225
33	0xbb82ccfa	-0.0039917203
34	0xbb3523eb	-0.0027639817
35	0x3bc16eea	0.0059031146
36	0x3be66f40	0.007032305
37	0x3b2ae95b	0.0026079032
38	0xbc46f570	-0.012143478
39	0xbbc95fc8	-0.006145451
40	0x3b9ab830	0.004721664
41	0xba8c2442	-0.0010691958
42	0x3d98712d	0.074434616
43	0xbc51635a	-0.012780035
44	0x3e9d078a	0.30669814

dense_1/bias f4 [40]
0	0xbca67c56	-0.02032296
1	0xbd0c7e9a	-0.034300424
2	0xbd0ae657	-0.033911075
3	0xbcb16275	-0.021653393
4	0x3d276b62	0.040873893
5	0xbc0bf7ff	-0.008543014
6	0x3dac31bc	0.084079236
7	0xbd72816a	-0.05920545
8	0xbc8f85a8	-0.017519787
9	0x3cf17c6f	0.02947828
10	0x3d665366	0.05623188
11	0xbc0eaf71	-0.008708821
12	0xbd74719d	-0.059678663
13	0xbb0ab9d7	-0.0021167898
14	0xbc974f49	-0.018470423
15	0xbd4c892d	-0.04993551
16	0x3d3edc44	0.04659678
17	0xbd0ae224	-0.03390707
18	0xbb7a51fc	-0.003819584
19	0xbc803b82	-0.015653376
20	0xbd9a72cf	-0.07541429
21	0xbc00531a	-0.007832313
22	0xbd43aef6	-0.047774278
23	0x3dcca92b	0.09993204
24	0x3d452be2	0.048137553
25	0xbc412374	-0.011788238
26	0xbc82cda3	-0.015967196
27	0xbcd5fdd5	-0.026122013
28	0x3de9cf02	0.11416437
29	0xbc2ed503	-0.010670903
30	0xbc726866	-0.014795398
31	0xbbde4bc4	-0.0067839343
32	0xbd691007	-0.05690005
33	0xbd112562	-0.03543604
34	0xbd1431e3	-0.03618039
35	0x3c904505	0.017611036
36	0xbbd1c6b8	-0.006401863
37	0xbaf2d304	-0.0018526022
38	0x3db09468	0.08622056
39	0xbd050517	-0.032475557

dense/bias f4 [40]
0	0x3dc14f99	0.0943901
1	0xbde94e85	-0.113919295
2	0x3cc60cbe	0.024175998
3	0x3cf0c7ec	0.029392205
4	0x3e229780	0.15878105
5	0xbdb0a73d	-0.08625648
6	0x3c5c2ff8	0.013439171
7	0xbd607a23	-0.05480398
8	0xb9caf4f2	-0.0003871094
9	0xbd875db8	-0.06609672
10	0xbda5b3ed	-0.08090959
11	0xbda6741e	-0.08127616
12	0xbdc534a5	-0.09629182
13	0xbcb5df3b	-0.022201171
14	0xbd126c94	-0.03574808
15	0xbd8f2c84	-0.069909126
16	0xbe91fd9e	-0.28513807
17	0x3d9bf71f	0.07615494
18	0xbdb531fd	-0.08847425
19	0xbd2fda02	-0.042932518
20	0x3d615c26	0.05501952
21	0xbdaab255	-0.083347954
22	0x3c78e811	0.015192048
23	0xbd56e7ff	-0.052467342
24	0xbd950d7f	-0.07277965
25	0xbcc37da4	-0.023863621
26	0x3e0aca45	0.13553722
27	0xbdcbc70b	-0.09950074
28	0x3d9d5e6f	0.076840274
29	0x3e115d1b	0.14195673
30	0x3dc0be31	0.09411276
31	0x3dfa5b50	0.12224448
32	0xbd8dc387	-0.069220595
33	0xbde77ea5	-0.113034524
34	0x3de9b747	0.114119105
35	0xbd2ff1a9	-0.042955074
36	0xbd2dddd7	-0.04244789
37	0xbd3035e6	-0.04302015
38	0xbd46f919	-0.0485774
39	0x3e530326	0.2060667

bias/bias f4 [15]
0	0x3c45f8fe	0.01208329
1	0x3c303297	0.010754249
2	0xbd45cd65	-0.048291583
3	0x3de46f56	0.11154048
4	0xbc7a9c1f	-0.015296011
5	0xbdf546fa	-0.11976428
6	0x3e09041b	0.13380472
7	0xbce108fe	-0.027470108
8	0xbd4b2ac2	-0.049601324
9	0x3e05a9bd	0.13053031
10	0xbc2af966	-0.010435438
11	0xbdac1a1d	-0.08403418
12	0x3d173532	0.036915965
13	0xbd2aff9a	-0.041747667
14	0xbcd60bc6	-0.02612866

model/dense_11/MatMul f4 [40, 15]
0	0xb75649f0	-1.2772609e-05
1	0x37639e60	1.3567129e-05
2	0x38a09f04	7.6590135e-05
3	0xb6d58090	-6.3628613e-06
4	0x37f5d39c	2.9304814e-05
5	0xb8ed164f	-0.00011305196
6	0x37c0d0b0	2.2985361e-05
7	0xb861d6e9	-5.384433e-05
8	0x38bff338	9.152893e-05
9	0x38ab52c6	8.169333e-05
10	0x37a7d322	2.0006268e-05
11	0x3907f4fb	0.00012965866
12	0xb7322130	-1.0617354e-05
13	0xb753a57e	-1.2615112e-05
14	0xb676ee80	-3.6795682e-06
15	0x37dfde76	2.6687263e-05
16	0x38d62480	0.00010211114
17	0xb931b807	-0.00016948591
18	0xb82b2df3	-4.081237e-05
19	0x38ae00b2	8.297096e-05
20	0xb91b8e5c	-0.00014834985
21	0xb4a96600	-3.1552918e-07
22	0x38d9a15f	0.00010377424
23	0x3788d330	1.6310805e-05
24	0xb844e6f6	-4.694514e-05
25	0xb79c008e	-1.8596907e-05
26	0xb78e3dcf	-1.6956501e-05
27	0x3899e51c	7.3382835e-05
28	0x390ef657	0.00013633944
29	0x380ed0c5	3.404987e-05
30	0xb7934878	-1.7557511e-05
31	0xb7ff24b8	-3.0415467e-05
32	0xb888af94	-6.517689e-05
33	0x38dfea26	0.00010677082
34	0x36e2a92a	6.755018e-06
35	0x3705dadc	7.978375e-06
36	0xb88dd94d	-6.763879e-05
37	0x37eb4c98	2.804985e-05
38	0xb8854f0c	-6.356658e-05
39	0x379d6ba3	1.876598e-05
40	0xb82d74dc	-4.1355248e-05
41	0xb803fd19	-3.146855e-05
42	0x37370aec	1.0910193e-05
43	0xb87cdad6	-6.028529e-05
44	0xb7e8ae36	-2.7737678e-05
45	0x3e1fac31	0.1559303
46	0xbaa6a6ba	-0.0012714483
47	0x3eadc2dd	0.3393773
48	0xba296e96	-0.0006463317
49	0xbee62aca	-0.4495452
50	0x3a0f9ca8	0.00054783607
51	0x3bf040fc	0.0073319655
52	0xbaefe0a8	-0.0018301206
53	0xbb4c2d92	-0.0031155092
54	0xbb5b0502	-0.0033419733
55	0x39897ea2	0.00026225025
56	0xbb354a06	-0.002766253
57	0xbbb5717f	-0.0055372114
58	0x3a45ad88	0.0007540812
59	0x3c01a5b2	0.00791304
60	0x3881adb4	6.183554e-05
61	0xb6fb5750	-7.4905474e-06
62	0xb8709a22	-5.7364006e-05
63	0xb829c776	-4.0478502e-05
64	0xb80d2f0c	-3.3660835e-05
65	0x388dbf06	6.758985e-05
66	0xb876062f	-5.865673e-05
67	0xb80c761e	-3.3488606e-05
68	0x37750e6c	1.4606496e-05
69	0xb801c18c	-3.093625e-05
70	0x380c8fb9	3.3512453e-05
71	0xb8162c24	-3.5803896e-05
72	0x388557d4	6.3582935e-05
73	0x37927230	1.7457729e-05
74	0x38083ac7	3.2479667e-05
75	0x3abad9de	0.0014255603
76	0x3b55e6eb	0.0032638859
77	0xbde1cc7a	-0.11025329
78	0x3b146dec	0.0022648526
79	0xbd98a171	-0.074526675
80	0x3eadb34d	0.33925858
81	0x3acbe9c8	0.0015557343
82	0x3bf9455c	0.0076071452
83	0xbba20e5c	-0.0049455594
84	0x3bc2ba0a	0.0059425877
85	0xbc36356f	-0.011121138
86	0x3a74695a	0.000932356
87	0x3bd19b42	0.006396682
88	0xbc15e3fb	-0.009148593
89	0x3b95d8fb	0.004572985
90	0x37475aaa	1.1882434e-05
91	0xb8c10dee	-9.205552e-05
92	0xb81dd372	-3.762864e-05
93	0xb9385e53	-0.00017582746
94	0xb6be2230	-5.666421e-06
95	0x3695ac62	4.460614e-06
96	0x38915ab6	6.931035e-05
97	0x3710a17c	8.620667e-06
98	0xb8276281	-3.990764e-05
99	0xb91ecd86	-0.00015144618
100	0xb82fb3ad	-4.1890587e-05
101	0xb77337e0	-1.4496938e-05
102	0x3826b542	3.9746294e-05
103	0xb7f4c293	-2.9177672e-05
104	0x378f5d68	1.7090424e-05
105	0xbccad3de	-0.02475923
106	0xbd8a493d	-0.0675225
107	0x3d76d205	0.060258884
108	0xbe2eaab0	-0.170573
109	0x3e9acba0	0.3023348
110	0xbe5ba277	-0.21448694
111	0xba8dabbc	-0.0010808627
112	0xbb575617	-0.003285771
113	0x3b38ff26	0.0028228252
114	0xbcae9a4e	-0.021313813
115	0x3c3b4f5f	0.011432498
116	0x3b9d91bc	0.0048086327
117	0xbd0e2d8e	-0.034711413
118	0x3d049654	0.032369927
119	0xbc0a1636	-0.008428147
120	0x37aa3f4c	2.0295054e-05
121	0x37e8d3b8	2.7755144e-05
122	0xb7a0fe3b	-1.9191872e-05
123	0x389fcdad	7.620021e-05
124	0xb8131655	-3.506833e-05
125	0x37dcee70	2.6337075e-05
126	0xb868db8c	-5.551758e-05
127	0xb886e14e	-6.431584e-05
128	0xb7b13ba6	-2.112782e-05
129	0xb88e5282	-6.786456e-05
130	0xb8133e64	-3.5105637e-05
131	0x38816c21	6.17134e-05
132	0xb8d9e5f0	-0.000103901955
133	0x385b5192	5.2289637e-05
134	0xb78ef5e2	-1.7042217e-05
135	0x38ac9ee1	8.2311926e-05
136	0x378c4968	1.6723483e-05
137	0xb89ced18	-7.482822e-05
138	0xb774e479	-1.4596729e-05
139	0x3842fad0	4.648679e-05
140	0x384fa654	4.950755e-05
141	0x37f0e058	2.8714698e-05
142	0xb7d16cc8	-2.4965397e-05
143	0x380e5f40	3.3944147e-05
144	0xb7ff393a	-3.0425017e-05
145	0xb725a566	-9.873276e-06
146	0xb73e34fc	-1.1337219e-05
147	0xb8940a41	-7.0591e-05
148	0x37faa5a2	2.9879451e-05
149	0x37c985cc	2.4023371e-05
150	0x37f75384	2.9483585e-05
151	0xb6b0be98	-5.267397e-06
152	0xb8a6ed62	-7.959713e-05
153	0xb87de81e	-6.0536076e-05
154	0xb74421d8	-1.169039e-05
155	0x375dcdac	1.3220513e-05
156	0xb85b8d46	-5.234524e-05
157	0xb8831418	-6.2503095e-05
158	0x38709543	5.735947e-05
159	0x38035abf	3.1317348e-05
160	0xb80e6df6	-3.3957847e-05
161	0x36386dd0	2.7482056e-06
162	0x375ffa2e	1.3350085e-05
163	0xb7f90768	-2.9686562e-05
164	0x36b3c958	5.358055e-06
165	0x37e84436	2.7688318e-05
166	0x38d9a59e	0.00010378215
167	0x381a7657	3.6826674e-05
168	0xb664c5a0	-3.408968e-06
169	0x37debf7e	2.6553633e-05
170	0xb820cd12	-3.833796e-05
171	0xb8b1d878	-8.480338e-05
172	0x3877eea0	5.9111626e-05
173	0x382c8338	4.1130203e-05
174	0xb88c53cb	-6.691328e-05
175	0x37f6b612	2.9410268e-05
176	0xb8d63996	-0.000102150414
177	0xb8920bb4	-6.9640024e-05
178	0xb848ad62	-4.784519e-05
179	0xb8927f16	-6.985494e-05
180	0x3891d470	6.953708e-05
181	0xb8f64f7c	-0.00011744999
182	0x365dfe78	3.3079687e-06
183	0x386935ac	5.5601515e-05
184	0xb7bbe5f7	-2.2399223e-05
185	0xb6f3a83e	-7.2615503e-06
186	0xb7b28d4e	-2.1285054e-05
187	0xb8250821	-3.9346636e-05
188	0xb778a060	-1.4819292e-05
189	0x379ff340	1.906755e-05
190	0x38361b22	4.341745e-05
191	0xb817c39c	-3.618338e-05
192	0x3880954c	6.131324e-05
193	0x383b9aa0	4.472828e-05
194	0x3821fb51	3.8619448e-05
195	0x37e571f6	2.7351995e-05
196	0xb65f8bc0	-3.3310935e-06
197	0x3887bacd	6.472096e-05
198	0xb673c160	-3.632238e-06
199	0x379e9186	1.8902832e-05
200	0xb806440a	-3.2011456e-05
201	0x38cab7e0	9.66636e-05
202	0x3828ea2b	4.0272407e-05
203	0x38ef5ead	0.00011414043
204	0xb6409fd0	-2.8703253e-06
205	0x363bc670	2.7980677e-06
206	0x3808d026	3.261878e-05
207	0x381332ee	3.5094963e-05
208	0x3866bbef	5.50113e-05
209	0xb78468c9	-1.578442e-05
210	0xb821696f	-3.8483584e-05
211	0xb831d67b	-4.239984e-05
212	0x3802b7ec	3.1165706e-05
213	0x35f37530	1.8139017e-06
214	0x389d6131	7.504447e-05
215	0xb7fa866a	-2.9864914e-05
216	0x386b50a2	5.610346e-05
217	0x385bf6c6	5.2443494e-05
218	0xb829d6ca	-4.0492778e-05
219	0xb81d54d2	-3.7510712e-05
220	0xb7dde0ce	-2.6449936e-05
221	0xb4a08b60	-2.990373e-07
222	0x36d509a4	6.349017e-06
223	0x3756828c	1.2785789e-05
224	0xb772be68	-1.4468656e-05
225	0xb8dee1fc	-0.00010627878
226	0x3778a310	1.4819918e-05
227	0xb8d6d41e	-0.00010243825
228	0xb7899bac	-1.6404163e-05
229	0xb80bd84b	-3.334162e-05
230	0xb72af986	-1.0190886e-05
231	0x37d612ee	2.5519603e-05
232	0xb8b5f947	-8.677184e-05
233	0xb889244c	-6.53943e-05
234	0xb710e611	-8.636635e-06
235	0xb5caa3e0	-1.5097867e-06
236	0xb82daf02	-4.1409403e-05
237	0x3722e928	9.710238e-06
238	0xb88da7a0	-6.7546265e-05
239	0xb78a7796	-1.6506568e-05
240	0x3ac0945b	0.0014692651
241	0xb8b4f8a8	-8.629385e-05
242	0xbe29ba5d	-0.16574998
243	0xb9a84788	-0.00032096752
244	0xbe0a7b4e	-0.135236
245	0x3afdba39	0.0019357867
246	0xb973ffac	-0.00023269531
247	0x3b237457	0.002494117
248	0xba3fcd13	-0.000731663
249	0xb976a876	-0.00023523145
250	0xbc37a791	-0.011209385
251	0xb882af06	-6.231484e-05
252	0x3ae9ccf4	0.001783757
253	0x3a60d9bf	0.00085773686
254	0x3a3c21e1	0.0007176679
255	0x37e0700a	2.6755053e-05

model/dense_12/MatMul f4 [40, 40]
0	0xb95e56c5	-0.00021203894
1	0x39ffe861	0.00048810526
2	0x3a19ddd0	0.00058695395
3	0xb9467ddf	-0.00018929642
4	0xb9399ca4	-0.00017701328
5	0xb98edcc6	-0.0002724884
6	0x383282f2	4.256046e-05
7	0x3903e90c	0.0001257995
8	0x388fc002	6.8545356e-05
9	0xb992773b	-0.00027936124
10	0xb826a434	-3.973041e-05
11	0xb8a25568	-7.74067e-05
12	0x39643e34	0.00021766947
13	0xb9afa948	-0.00033504725
14	0xb96e26d0	-0.00022711908
15	0xb7b9a5a0	-2.2130844e-05
16	0xb95e3004	-0.00021189457
17	0xb935588a	-0.00017294488
18	0x37e04f60	2.6739843e-05
19	0xb882c862	-6.236207e-05
20	0x38cd412c	9.787301e-05
21	0xb900798d	-0.00012252312
22	0x3899bb78	7.330527e-05
23	0xb9501f55	-0.00019848098
24	0x39a7d8be	0.00032014208
25	0xb83cac00	-4.498288e-05
26	0xb8b638be	-8.689005e-05
27	0xb9b7a6ae	-0.00035028666
28	0x39b19660	0.0003387211
29	0x3681c954	3.8679373e-06
30	0x38aba6d8	8.1849925e-05
31	0xb9f12cf4	-0.00046000595
32	0xb98d1d2c	-0.0002691535
33	0xb9988cd7	-0.00029096633
34	0xb8f633ec	-0.00011739865
35	0x37fe9550	3.0348689e-05
36	0xb9dab6ec	-0.00041716488
37	0x39ac38d2	0.0003284873
38	0xb91ca03d	-0.00014937013
39	0x399e1ac9	0.00030156065
40	0x38539db4	5.0453193e-05
41	0x38c1d296	9.242182e-05
42	0x385258e6	5.0150695e-05
43	0x3889ac18	6.564724e-05
44	0xb7fb0542	-2.992398e-05
45	0x37a75270	1.994634e-05
46	0x379f680c	1.9002728e-05
47	0x395670f0	0.00020450703
48	0x383762f2	4.372275e-05
49	0x3827214d	3.9846916e-05
50	0xb8538e50	-5.043886e-05
51	0xb85e46ae	-5.299475e-05
52	0xb786ca9e	-1.6068396e-05
53	0x38e96723	0.000111295165
54	0x35944ec0	1.1049779e-06
55	0xb713c770	-8.808318e-06
56	0xb6a2fb44	-4.8572274e-06
57	0xb8467dd0	-4.732405e-05
58	0xb80b6afb	-3.3239816e-05
59	0x37cdda78	2.4539637e-05
60	0xb83e7da9	-4.541656e-05
61	0x376d8f5e	1.4159681e-05
62	0xb8a3c176	-7.8084806e-05
63	0x39a79804	0.00031965983
64	0xb8e009ea	-0.00010682999
65	0x37eeb06c	2.8453964e-05
66	0x38ca725a	9.65341e-05
67	0xb7abf31d	-2.0497997e-05
68	0xb7d508d4	-2.539569e-05
69	0x380e8147	3.3975837e-05
70	0xb723fe80	-9.7748125e-06
71	0x373f5e8c	1.1406501e-05
72	0xb88ff5e0	-6.864569e-05
73	0xb7d62d88	-2.553199e-05
74	0xb82e89e3	-4.161325e-05
75	0x3848b41e	4.7851463e-05
76	0x38cfcfa8	9.909208e-05
77	0x38b6024e	8.6788656e-05
78	0x38f8d8ac	0.0001186592
79	0x38ac2369	8.208195e-05
80	0xbafc6920	-0.0019257404
81	0xbaffa75f	-0.0019504837
82	0xba02b0a0	-0.00049854256
83	0x3ecadf71	0.39623597
84	0x37995c92	1.8282128e-05
85	0xbb24197b	-0.0025039602
86	0xbabdfecc	-0.0014495491
87	0xbdda1909	-0.10649306
88	0xbae91896	-0.0017783816
89	0xbab53471	-0.0013824833
90	0xb8cbe8b2	-9.723137e-05
91	0xb78cf125	-1.6801592e-05
92	0xb8b914ba	-8.825348e-05
93	0xb8ba1c81	-8.8744804e-05
94	0x38209759	3.8287926e-05
95	0xb69352d0	-4.390582e-06
96	0xbb2b184d	-0.0026107014
97	0x387d7ab0	6.0434162e-05
98	0xb83db5a4	-4.5230277e-05
99	0xb7b93394	-2.2077737e-05
100	0xbb172f44	-0.0023068944
101	0xb4f14020	-4.4936405e-07
102	0xb74117a0	-1.1509197e-05
103	0xbb35d99a	-0.002774811
104	0xbb0953e5	-0.0020954546
105	0xb88dad33	-6.755665e-05
106	0xb751c5d0	-1.2503428e-05
107	0xb9083aa4	-0.00012991816
108	0xb8703a0e	-5.7274527e-05
109	0xb94c4930	-0.0001948222
110	0xbb1176d6	-0.0022196076
111	0xb8affc3b	-8.391632e-05
112	0xba812c1a	-0.0009855062
113	0xb9a722fc	-0.00031878788
114	0xbb135b2a	-0.0022484758
115	0xbabfd952	-0.001463691
116	0xb640f8ad	-2.8754978e-06
117	0xb9d27c1c	-0.0004014679
118	0xb78d7864	-1.6864571e-05
119	0xb75fa270	-1.3329656e-05
120	0xb8228d4a	-3.8755396e-05
121	0xb7bd5aa6	-2.2572767e-05
122	0xb81c81a4	-3.7314036e-05
123	0x36635730	3.3876386e-06
124	0x38a778d6	7.985688e-05
125	0xb716cc9c	-8.988336e-06
126	0xb6e90770	-6.944807e-06
127	0xb7a2a374	-1.9388019e-05
128	0x38d011da	9.921538e-05
129	0xb7bcd627	-2.2511069e-05
130	0xb85623db	-5.105497e-05
131	0x3902070e	0.00012400394
132	0x3879889d	5.9493457e-05
133	0x36885278	4.0627165e-06
134	0x388005c2	6.104588e-05
135	0x383a498c	4.441435e-05
136	0x387858bc	5.9210448e-05
137	0xb86ff4a8	-5.7209894e-05
138	0xb799c882	-1.833239e-05
139	0xb7b411f0	-2.1466025e-05
140	0xb76a3d5d	-1.3961774e-05
141	0xb8517eda	-4.9947623e-05
142	0xb97e3629	-0.00024243504
143	0x37af319e	2.088473e-05
144	0xb80c41de	-3.3439945e-05
145	0x388e962c	6.799059e-05
146	0x384b023c	4.8401052e-05
147	0x38ed464a	0.00011314133
148	0xb8290724	-4.029939e-05
149	0xb7b0c57c	-2.1072796e-05
150	0xb72965e0	-1.0096905e-05
151	0xb785f099	-1.5966873e-05
152	0x35cbc404	1.5181727e-06
153	0xb8036f83	-3.1336687e-05
154	0xb8a8cb01	-8.048677e-05
155	0x38942aac	7.065138e-05
156	0xb7d93e80	-2.589752e-05
157	0xb7fe3d28	-3.0307638e-05
158	0xb86d4918	-5.6573277e-05
159	0xb8301024	-4.1976702e-05
160	0x38f555da	0.000116985015
161	0x3903c1d1	0.00012565336
162	0x370c5300	8.363975e-06
163	0xb7548a10	-1.266833e-05
164	0x36670874	3.4426603e-06
165	0xb8c69e4a	-9.4708594e-05
166	0xb81ba116	-3.7104903e-05
167	0xb92d4e4d	-0.00016527735
168	0xb8a61fe0	-7.921434e-05
169	0x39885826	0.00026005617
170	0xb90a0e2a	-0.00013165982
171	0xb7f9048a	-2.9685227e-05
172	0xb93a9e8b	-0.00017797404
173	0x3976fd0c	0.00023554655
174	0x38033c4c	3.128899e-05
175	0x382f4670	4.178885e-05
176	0x39263faf	0.00015854718
177	0x375fdb48	1.3342891e-05
178	0x394fd226	0.00019819345
179	0x374beae0	1.2154429e-05
180	0xb8ef635b	-0.000114149145
181	0xb8dbe674	-0.00010485659
182	0x3845e487	4.7181293e-05
183	0xb88e2e72	-6.779739e-05
184	0x37cc3958	2.4345398e-05
185	0x38237aca	3.8976585e-05
186	0xb7d79690	-2.5700108e-05
187	0xb8fd7e83	-0.00012087545
188	0x393105a1	0.00016882132
189	0x3848ca91	4.787237e-05
190	0xb87d10c8	-6.033553e-05
191	0x38a15d42	7.694449e-05
192	0xb8099ac3	-3.280748e-05
193	0x389d9e88	7.515872e-05
194	0xb90dcead	-0.000135238
195	0x38e8fb6b	0.00011109452
196	0x381d1519	3.7451366e-05
197	0x38735136	5.801135e-05
198	0x3893af23	7.042128e-05
199	0xb7d0d2fc	-2.489378e-05
200	0xb8838015	-6.270424e-05
201	0x38c77f6a	9.512792e-05
202	0xb88b434a	-6.64057e-05
203	0xb9943608	-0.00028269016
204	0x3920aca7	0.00015323107
205	0x385fec2d	5.33873e-05
206	0x378e6d28	1.6978549e-05
207	0x3946dc5d	0.00018964843
208	0x38abb221	8.1870945e-05
209	0x38441186	4.674636e-05
210	0x387e16e6	6.0579645e-05
211	0x38c5fc85	9.4407274e-05
212	0xb8dce7cc	-0.00010533593
213	0xb8875f95	-6.455105e-05
214	0xb916c776	-0.0001437942
215	0xb82e3ba0	-4.1540363e-05
216	0xb6c2c180	-5.804177e-06
217	0xb8f6768c	-0.00011752275
218	0x38f5319e	0.00011691752
219	0xb9decb92	-0.0004249481
220	0xb9a5fd86	-0.00031660142
221	0xb8b2566b	-8.503798e-05
222	0xb8aab2b8	-8.139521e-05
223	0xb94d5716	-0.00019582766
224	0xb890d8d0	-6.9068396e-05
225	0xb9d3de9d	-0.00040410916
226	0x38dd12bf	0.00010541593
227	0xb8a2b79c	-7.758962e-05
228	0x3850c279	4.977218e-05
229	0x3888f471	6.530516e-05
230	0xb96a2da1	-0.00022332977
231	0x36224920	2.4182445e-06
232	0xb7d86142	-2.5794496e-05
233	0xb8989418	-7.2755094e-05
234	0xb8f9b9a0	-0.000119078206
235	0x386f8668	5.7107216e-05
236	0xb69eab58	-4.728714e-06
237	0xb8d9ceae	-0.000103858634
238	0xb93f08cb	-0.00018218455
239	0x38b6e743	8.721512e-05
240	0x39a760ad	0.0003192475
241	0x38ec1cd0	0.00011258724
242	0x38fe8b13	0.000121375684
243	0x379358aa	1.7565053e-05
244	0xb537d920	-6.848877e-07
245	0x38bb4d82	8.931292e-05
246	0x38257a1c	3.945279e-05
247	0x39089314	0.00013024762
248	0x38827031	6.21978e-05
249	0xb9833b36	-0.00025030383
250	0xb972702d	-0.00023120707
251	0x3632afc0	2.6626367e-06
252	0xb91748b5	-0.00014427568
253	0x3914dfd2	0.0001419776
254	0xb8a12348	-7.68365e-05
255	0xb93c8158	-0.00017977261

model/dense_13/MatMul f4 [40, 40]
0	0x3917d226	0.00014478769
1	0xb7808d0b	-1.5324467e-05
2	0xba99d656	-0.0011736851
3	0xb7926c4b	-1.7454984e-05
4	0xba112fd0	-0.00055384357
5	0x375f785c	1.3319859e-05
6	0xb9635cc6	-0.00021682968
7	0xb98b6fb8	-0.00026595383
8	0x395efe42	0.00021266288
9	0x3712a4ae	8.740621e-06
10	0xba746f0a	-0.00093244074
11	0xb9ab11a8	-0.00032628817
12	0xb6e8e3a0	-6.940638e-06
13	0xb98b48f0	-0.0002656649
14	0xb9867ca7	-0.00025651345
15	0xb687b1c7	-4.0440095e-06
16	0x36a4f258	4.9157934e-06
17	0xb7bc8130	-2.2471504e-05
18	0xba0bd596	-0.0005334256
19	0x37ec01f2	2.8134298e-05
20	0x38dbfb92	0.000104895924
21	0xb9a72f0c	-0.00031887775
22	0x3958ed44	0.00020687754
23	0x3882af24	6.2315055e-05
24	0xb996cbf8	-0.00028762198
25	0xb8901bd4	-6.8716385e-05
26	0xb9029ffc	-0.00012457365
27	0x38733cd0	5.799235e-05
28	0x392abf20	0.00016283663
29	0x38856d92	6.362343e-05
30	0x38bc7bfe	8.987634e-05
31	0xb9cef00c	-0.0003947023
32	0x3e1d18cb	0.15341489
33	0xbe3c33fa	-0.18379202
34	0x379a4c2e	1.8393705e-05
35	0xb8cac312	-9.668445e-05
36	0x3d252764	0.04032077
37	0xb84955d0	-4.8002054e-05
38	0x378b9514	1.6639511e-05
39	0x393c9982	0.00017986263
40	0xb9cee1cf	-0.00039459622
41	0x37297a20	1.0101619e-05
42	0x3880d7c0	6.143702e-05
43	0x38842a64	6.302146e-05
44	0xb90d810c	-0.00013494882
45	0x39103023	0.00013750842
46	0xb9002e4d	-0.0001222428
47	0xb96288bd	-0.00021603979
48	0xb9b0e981	-0.0003374331
49	0xb8bf590e	-9.1241774e-05
50	0x385dac4c	5.285097e-05
51	0x37e22c30	2.6961876e-05
52	0xb8881d9c	-6.4905005e-05
53	0xb8ce0e9b	-9.825566e-05
54	0xb81b082e	-3.6962498e-05
55	0xb7c35f9a	-2.329033e-05
56	0xb8a2639e	-7.743317e-05
57	0xba0c37c2	-0.0005348885
58	0xb96b669b	-0.0002244957
59	0x39605850	0.00021395204
60	0xb801f5e0	-3.0984986e-05
61	0x3a15715b	0.000570079
62	0xb97b1d40	-0.00023948122
63	0x39a6197c	0.00031680975
64	0x38dfde38	0.0001067486
65	0x39105d4a	0.00013767663
66	0xb9154745	-0.00014236297
67	0x38e64c59	0.000109814755
68	0x3a09f037	0.000526193
69	0xb8c066b9	-9.174407e-05
70	0xba012973	-0.0004927136
71	0xb6f7ea60	-7.3884585e-06
72	0x36c828a8	5.9651975e-06
73	0xb89d3ae5	-7.497313e-05
74	0xb7242e30	-9.785916e-06
75	0xb9677d20	-0.0002207649
76	0xb800db83	-3.0722014e-05
77	0x38e8471d	0.00011075868
78	0xb900dd8e	-0.00012289567
79	0xb9d269cb	-0.00040133143
80	0xb95a0d8b	-0.00020795145
81	0x376def64	1.4182038e-05
82	0x3880f746	6.149574e-05
83	0xb8f674c6	-0.00011751945
84	0xb8332854	-4.2714484e-05
85	0xb91dc0fa	-0.00015044576
86	0x38dd3af6	0.000105490835
87	0xb888b3af	-6.518454e-05
88	0x380c5a48	3.3462682e-05
89	0x36c488b0	5.8571677e-06
90	0xb8368e26	-4.3524567e-05
91	0xb92c59b2	-0.00016436612
92	0x3897ffe4	7.2479044e-05
93	0x381c6de8	3.7295657e-05
94	0x388b658c	6.646951e-05
95	0x39cb0ae5	0.00038727294
96	0xb9a22be2	-0.00030931743
97	0x383e4960	4.5367866e-05
98	0x398df6a2	0.00027077371
99	0x3861fa54	5.3877317e-05
100	0xb986e030	-0.00025725504
101	0xb9015004	-0.00012332207
102	0x360a69a0	2.0625084e-06
103	0xba407fb1	-0.0007343246
104	0x394fdc77	0.00019823188
105	0x390c9294	0.00013406045
106	0xb93c4f20	-0.00017958554
107	0x38a982c8	8.082908e-05
108	0x393bb63e	0.000179016
109	0xb920399a	-0.00015280247
110	0xb8a16c50	-7.697253e-05
111	0x399681fa	0.0002870707
112	0x38db2720	0.00010450021
113	0xb93d3f31	-0.00018047985
114	0xb8906460	-6.8851514e-05
115	0xb9a56266	-0.00031544565
116	0xb53f5190	-7.1271734e-07
117	0xb905a322	-0.0001274464
118	0x39092579	0.00013079298
119	0x39065f0e	0.00012814646
120	0x39ab7bc0	0.00032707863
121	0xb78f4db8	-1.7083119e-05
122	0x38123428	3.4857687e-05
123	0xb5296480	-6.310365e-07
124	0x37ec5de6	2.8177117e-05
125	0x391477dc	0.00014159031
126	0xb87c3851	-6.013393e-05
127	0x375f8368	1.3322431e-05
128	0x37b45b00	2.1500047e-05
129	0x3849e358	4.8133865e-05
130	0xb833a61c	-4.2831627e-05
131	0x3819f0ae	3.6702193e-05
132	0xb89c83b8	-7.463194e-05
133	0x371d3b9d	9.371809e-06
134	0xb85be34d	-5.242536e-05
135	0xb85a2cba	-5.2016905e-05
136	0x37eb2c99	2.803495e-05
137	0x378111ce	1.538629e-05
138	0xb8f97974	-0.00011895868
139	0xb98f75a5	-0.00027362737
140	0x382646ca	3.964341e-05
141	0x39632110	0.00021660724
142	0xb97950a1	-0.00023776527
143	0xb86b1899	-5.6051274e-05
144	0x3838a6e6	4.4024455e-05
145	0xb8277ee5	-3.9934082e-05
146	0xb8b0be8d	-8.427827e-05
147	0xb7be6c47	-2.2700186e-05
148	0xb8710c64	-5.7470417e-05
149	0x3914ead5	0.00014201862
150	0xb8d436c8	-0.000101191516
151	0x3949b5b6	0.00019236546
152	0xb7e607ae	-2.7421713e-05
153	0xb8116dff	-3.4673136e-05
154	0xb6b59230	-5.411239e-06
155	0xb8a60828	-7.917016e-05
156	0xbc891c07	-0.016736997
157	0x3775e704	1.46569255e-05
158	0x3908103d	0.0001297602
159	0x380cf7fc	3.3609555e-05
160	0xb95bcda1	-0.0002096207
161	0x3918f253	0.00014586122
162	0x38b62043	8.6844455e-05
163	0xb84d1689	-4.8896796e-05
164	0xb97c768c	-0.00024076755
165	0xb82f3292	-4.177035e-05
166	0x3932aeb8	0.0001704049
167	0x380debce	3.383663e-05
168	0xb8d387d7	-0.00010086566
169	0x3848c615	4.7868194e-05
170	0xb6f58ce0	-7.317969e-06
171	0xb86462cc	-5.4451448e-05
172	0x388ffa4a	6.865391e-05
173	0xb8d51597	-0.00010160653
174	0xb8e9e3fa	-0.0001115277
175	0xb903d33a	-0.00012571822
176	0x38335c27	4.276275e-05
177	0x389d9280	7.513631e-05
178	0xb903f13a	-0.00012582997
179	0xb8e9b1ef	-0.000111434485
180	0xb8a43876	-7.830646e-05
181	0xb76ff008	-1.4301397e-05
182	0x3973925a	0.00023228806
183	0xb70730e0	-8.058007e-06
184	0xb681f3c7	-3.872879e-06
185	0xb857c38e	-5.144212e-05
186	0x3730c718	1.0536773e-05
187	0xb7a08e27	-1.9139681e-05
188	0x393b2062	0.00017845773
189	0x38ff497a	0.000121730336
190	0x38d48d33	0.00010135248
191	0xb95b0c0c	-0.00020889955
192	0x38736674	5.803113e-05
193	0x390e12d6	0.00013549192
194	0xb7652ff8	-1.3660632e-05
195	0xb91a5395	-0.00014717721
196	0x37e99b33	2.7848035e-05
197	0xb82c2234	-4.103985e-05
198	0xb834fd96	-4.3151515e-05
199	0x3803d428	3.143042e-05
200	0x3957058a	0.00020506061
201	0x38159bb5	3.566938e-05
202	0x3693edf9	4.408645e-06
203	0x38b845d3	8.7868095e-05
204	0xb898cd7a	-7.286198e-05
205	0xb84237ed	-4.630529e-05
206	0xb910d235	-0.00013811218
207	0xb84c26e3	-4.8673606e-05
208	0x395924ce	0.00020708443
209	0xb868f900	-5.554501e-05
210	0x37fe15ba	3.0289277e-05
211	0x36604248	3.3417182e-06
212	0x38316eca	4.230327e-05
213	0x39cad603	0.00038687894
214	0x387cea73	6.029983e-05
215	0xb7ec2d89	-2.8154596e-05
216	0xb89c5761	-7.454935e-05
217	0xb9844ec1	-0.00025235678
218	0xb880d6d8	-6.1435334e-05
219	0xb9037ca6	-0.00012539569
220	0x35ee2328	1.7742614e-06
221	0x37eb8e1e	2.8080362e-05
222	0x397a381d	0.00023862762
223	0x39f51b68	0.0004675046
224	0x3841dc90	4.62202e-05
225	0x378f167a	1.7057395e-05
226	0xb72e2a18	-1.0381009e-05
227	0xb8238f00	-3.8995408e-05
228	0x3975e242	0.00023449308
229	0x3794baa8	1.7729893e-05
230	0x3837d032	4.3824497e-05
231	0x38e378c6	0.00010846699
232	0x385608b5	5.1029685e-05
233	0x37d38e12	2.5219317e-05
234	0x3529f1b0	6.330911e-07
235	0x37fdcf0c	3.0256364e-05
236	0xb6e69455	-6.8718023e-06
237	0xb744da0a	-1.1733277e-05
238	0x3813fcf2	3.5283105e-05
239	0x38d5de5d	0.0001019805
240	0x39bd0757	0.00036054358
241	0xb963e94d	-0.00021735318
242	0x373a6138	1.1109099e-05
243	0x39348cfb	0.00017218657
244	0x3967327a	0.0002204868
245	0xb8d2df92	-0.000100552235
246	0x36ab9410	5.113434e-06
247	0x398c12c8	0.00026716874
248	0xb950f6d6	-0.0001992838
249	0xb60819a0	-2.0280495e-06
250	0xb810e564	-3.4545912e-05
251	0x39258d7a	0.0001578833
252	0xb93b96a8	-0.00017889834
253	0x39b1cc8b	0.00033912467
254	0x37f979cc	2.973983e-05
255	0x398c1114	0.00026715605
