3tier-app/learnt_model/model_3tier.tflite (tflite, 148092 bytes, 48 tensors)

dense_9/bias f4 [40]
000000 3d a1 78 bc 3a 46 00 bd 0d f7 24 bd 78 9f 25 bd
       -0.015175161 -0.031316973 -0.04027467 -0.040435284
000010 0e 81 e1 bd fc c0 08 be 22 19 3d 3d b8 e9 48 3e
       -0.11010943 -0.13354868 0.046166547 0.19620407
000020 0e 05 6a 3e f3 1a cf b9 61 46 3f bd d7 23 01 3e
       0.2285349 -0.00039502195 -0.046697978 0.12611328
000030 16 06 69 bd 00 93 30 3e 60 43 b4 3b af d3 99 3e
       -0.05689057 0.17243576 0.005501196 0.30044314
000040 ec 1b e6 bd 52 d7 7b 3d 74 93 62 3d 1f 18 87 bc
       -0.112357944 0.061484642 0.055316404 -0.016490994
000050 90 df 92 bd c4 ec 4f 3e ce bd 4b bc 42 f3 a1 be
       -0.071715474 0.20305163 -0.01243539 -0.31630903
000060 67 10 1f 3d 5e 51 24 bd 51 8e 21 bd 17 77 ae bd
       0.038834002 -0.04011666 -0.039442364 -0.08518808
000070 6d e3 07 3d c1 24 35 bd 11 6f 19 3d 00 fc eb 3d
       0.033175875 -0.044224504 0.037459437 0.115226746
000080 da b9 91 bb 41 25 65 bd 4c 85 93 3e 78 86 10 bd
       -0.004447204 -0.05594373 0.28812635 -0.03528449
000090 54 c5 9f 3e 95 c6 9d 3d 2d a4 43 3b 6c 40 25 bd
       0.31205237 0.07703892 0.0029852495 -0.04034464

dense_8/bias f4 [40]
000000 4c b8 b1 3d fd dc 76 bd a9 2d 61 bd e0 29 27 bd
       0.0867773 -0.060269345 -0.054975186 -0.04081142
000010 ba 6b 3d bd 2b 07 a4 3e b5 52 4e bd db ed d1 bd
       -0.046245314 0.3203672 -0.050371844 -0.102504455
000020 67 3f 8d 3d 4b 87 12 bd 9c 60 9e bd e3 0f 85 bd
       0.06896859 -0.035773557 -0.077332705 -0.06497171
000030 f0 f5 a0 bd 07 a8 46 be 3a 56 91 3c 24 34 d7 ba
       -0.07859409 -0.19400035 0.017741311 -0.0016418737
000040 91 12 8f 3e c7 dc d5 bd ea f9 4a bd bd 96 ae 3e
       0.27943853 -0.104425006 -0.049554743 0.3409938
000050 26 a5 05 be 6d 6a 5d be e9 b6 57 3e 10 e9 d1 3c
       -0.1305128 -0.2162263 0.21065868 0.025623828
000060 d9 d2 5c bd 16 cd 3b be dd 3f 12 3e 67 72 cc bd
       -0.053912017 -0.18339953 0.14282174 -0.09982758
000070 63 01 35 bc b7 1b 13 3e ea 54 59 bd d8 5a 69 bd
       -0.011047694 0.14366041 -0.053059496 -0.0569714
000080 60 6f 60 bd 74 bc 70 bd bc 26 f1 3a 0f 09 1e 3e
       -0.054793715 -0.058773473 0.0018398385 0.15433143
000090 b1 53 53 3d 4d 75 23 bd 2e f0 46 3d d9 46 94 bd
       0.051593486 -0.03990679 0.048568897 -0.072400756

dense_7/bias f4 [40]
000000 22 39 7d 3d 8a aa f1 bd 4a 84 a7 3d fb 4d 8c 3e
       0.061822064 -0.11800106 0.08179529 0.27403244
000010 e6 01 ef bd 93 98 7f bd 12 06 07 be c2 b8 81 3d
       -0.11670284 -0.062401365 -0.1318591 0.06334068
000020 8b 88 5f 3d e5 e5 2b bd cc 5b ac bd 1e da c4 bd
       0.054573577 -0.04196729 -0.08415946 -0.09611915
000030 e8 c7 98 bd d8 2a 8d 3d e9 7b 25 3e 96 21 43 bd
       -0.07460004 0.068929374 0.16160549 -0.047639452
000040 cf b7 7b 3b 21 88 1c be c0 cd d3 bb f2 1f fe bd
       0.003840912 -0.15286304 -0.0064637363 -0.12408437
000050 00 83 45 be d3 cd 4f bd e8 40 88 3b dc 19 18 3d
       -0.19288254 -0.0507334 0.004158128 0.037134036
000060 09 c3 a5 3c 44 7b fb 3c 5a 74 4a 3d 25 52 c8 bd
       0.020234602 0.030698426 0.049427368 -0.09781293
000070 8f 88 9c bd 84 27 23 bd 23 ab a9 3d 19 75 93 bd
       -0.07643234 -0.039832607 0.08284595 -0.07200069
000080 85 bc d3 3b 4d 8f 1a bd f2 7b 8a bc 42 bd 0f be
       0.0064616823 -0.03773432 -0.016904805 -0.1403704
000090 77 8f d9 bd 80 3e 86 3e 29 22 60 3d 4c a7 e6 3c
       -0.10623067 0.2621956 0.054720078 0.028155945

dense_6/bias f4 [36]
000000 2a b8 87 3e 27 2a a8 3d 66 25 a1 bb 34 e8 0d bc
       0.26507694 0.08211165 -0.0049177883 -0.008661319
000010 df 91 0a bc b4 3f 2a bb c0 c6 3e 37 8a 07 a7 3a
       -0.00845763 -0.0025977911 1.1371158e-05 0.0012743336
000020 96 67 26 bc e1 3e b0 3b b9 43 67 3b d9 87 c3 bb
       -0.010156533 0.0053785895 0.0035288169 -0.005967122
000030 8f 84 d0 3e 78 b4 c6 bd a9 0e 46 3c 00 73 3b 3b
       0.40726134 -0.097023904 0.012088456 0.002860248
000040 75 e4 e7 ba 01 cd 88 3b 10 ea 7c 3b 40 8f 26 3c
       -0.0017691987 0.004174829 0.003859166 0.010165989
000050 3f 93 08 bc fa 2e f4 3a e8 9a 17 ba b5 ab 1b bb
       -0.008335887 0.0018629723 -0.00057832757 -0.0023753468
000060 15 82 73 3c d2 8d 00 3e c2 f8 a0 bc 00 50 3c 38
       0.014862557 0.125541 -0.019649867 4.48972e-05
000070 87 d6 8a 3b 9b fc 80 bb f8 03 79 b9 bc 37 47 bb
       0.0042369994 -0.003936363 -0.00023747969 -0.003039821
000080 80 55 3f b9 54 64 07 bc 29 fa 99 39 f1 cf 0f 3a
       -0.0001824703 -0.008263666 0.00029368818 0.0005486003

dense_5/bias f4 [40]
000000 9f 6a 71 3b b4 43 fe ba 47 9f bb 3b 62 ca 45 bd
       0.0036837233 -0.0019398839 0.0057257744 -0.04828871
000010 2d a6 4f 3c b1 52 4c 3e bc fd 0f bd fd 00 17 bd
       0.012673897 0.1995342 -0.03515409 -0.036866177
000020 12 ab c6 bc d2 36 75 bd 0b 72 55 bd bd fd 03 3d
       -0.024251495 -0.059866734 -0.052110713 0.032224406
000030 a5 4c 31 bd b7 72 d8 bc 8c a3 2f bd 06 e6 6f bd
       -0.043285985 -0.026421888 -0.04288058 -0.058568977
000040 b7 09 d2 39 78 e7 bb bc e7 e9 4b 3e c5 43 66 bd
       0.0004006156 -0.022937521 0.19913445 -0.056216974
000050 a1 53 3a bd 1e b9 47 bd 19 cd b5 bd 27 ad 21 bd
       -0.04548991 -0.048760526 -0.0887701 -0.03947177
000060 26 98 43 ba 5c 02 3e bd 73 76 2b bd ec c0 8e 3d
       -0.00074613316 -0.04638897 -0.04186101 0.06970391
000070 2a 92 25 bc 70 38 70 3c 2e 32 97 3b 7a cf 3f bd
       -0.010105649 0.014661893 0.004614136 -0.046828724
000080 07 d9 90 bd 30 ee c1 3b 27 3b d1 bb 21 4b bb bb
       -0.07072645 0.0059182867 -0.0063852253 -0.005715743
000090 0c 85 c7 bc 2c 13 69 bd 39 60 21 bd d2 56 58 bd
       -0.024355434 -0.05690305 -0.039398406 -0.052817173

dense_4/bias f4 [40]
000000 03 d8 e0 3b 1b 88 4b bd 65 b4 35 bd 1b 90 0b bd
       0.006861688 -0.049690347 -0.04436149 -0.034072977
000010 3a 40 dc 3d 10 71 2a 3c 0d 07 ce 3c 94 f1 8b ba
       0.10754438 0.010402933 0.025149846 -0.0010676854
000020 b0 4e e4 bc 21 69 8c bd bd 21 49 bd f7 2f 22 bd
       -0.027869552 -0.06855989 -0.04910444 -0.039596524
000030 82 1d b3 bb e6 bc 8e bc eb 52 7e bd 88 3c 02 bb
       -0.005466164 -0.017424058 -0.062090795 -0.0019872505
000040 f4 15 0a bc f1 ec 81 3d 3e 5a 39 bd c8 f5 87 3c
       -0.008428086 0.06344021 -0.045252077 0.01659669
000050 32 7c 94 bc d9 76 7f bd c9 0a 49 3e 62 5d aa bd
       -0.018125627 -0.0623692 0.1963302 -0.083185926
000060 ee 04 f0 bd 88 87 52 bb ca fe 0c bd ee 7c 16 bd
       -0.1171969 -0.003212424 -0.034422673 -0.036740236
000070 6c 5e b6 bc 6d 40 3a 3c 88 e1 1e 3e f2 13 2c bd
       -0.02226182 0.011367899 0.15515721 -0.04201121
000080 0a ca 13 bc 87 9e 91 bd 56 a6 c0 bd da a1 d1 bd
       -0.009020338 -0.07110315 -0.09406726 -0.10235949
000090 88 cc 4d 3e 1a 72 03 3d 64 22 0a bc 9e 91 31 bc
       0.20097554 0.032091238 -0.008431051 -0.0108379405

dense_3/bias f4 [40]
000000 2d 29 8b bb 59 30 9f 3d e3 1e 5b bd ff c0 a9 3c
       -0.004246852 0.077728935 -0.053496253 0.02072191
000010 7e 48 95 3a 9e 08 a0 3c 65 7f 5d bd 54 88 34 3e
       0.0011389402 0.019535359 -0.05407657 0.1763013
000020 ef 98 54 3e ed 73 c9 3b 57 43 04 3c 34 19 c4 bd
       0.20761465 0.0061478526 0.008072696 -0.095751196
000030 b6 35 3c be 21 f6 78 bd 89 dd 3f bc 23 2a 06 be
       -0.18379864 -0.0607816 -0.011710533 -0.13102011
000040 b8 ec c3 3c d1 d3 9e 3c ae 8e 9f 3d 24 b5 97 bd
       0.023916587 0.019388111 0.07790886 -0.07407597
000050 03 43 d9 bc a0 39 eb bb 7c 20 92 3c dd 9b 67 3c
       -0.026521211 -0.0071785003 0.017837755 0.014136282
000060 cd b5 0f be a8 e9 4f be 5d 2a b7 bd 6c 42 ec 3d
       -0.14034195 -0.20303977 -0.08943627 0.115361065
000070 6f a5 b8 bd 56 8c 23 bc 48 28 44 bd fc 10 84 bd
       -0.09015929 -0.009982189 -0.047889978 -0.06448552
000080 e6 ec 00 bd ac 58 71 bd 4d c8 b7 3e 72 57 23 3d
       -0.031475924 -0.058922455 0.35895005 0.039878316
000090 88 b0 c0 3e 36 27 96 3d 74 4d ea 3b b9 05 ec 3d
       0.37634683 0.07331698 0.0071503464 0.11524529

dense_22/bias f4 [45]
000000 f1 30 aa 3e 99 ab 4a bb 59 28 ad 3d 54 09 01 bb
       0.33240464 -0.0030925034 0.08454961 -0.0019689398
000010 c4 8a d1 bb 0f 65 21 3c 64 98 52 3b 0a d6 9e bb
       -0.006394716 0.009850754 0.003213429 -0.004847293
000020 f4 b7 0f bb b5 9b d0 3b b0 25 f2 bb c5 6b 20 3c
       -0.0021929713 0.006366218 -0.0073897466 0.009791319
000030 ee 00 dc 3e 8c be 06 be 67 67 87 ba 59 50 71 3e
       0.4296946 -0.13158625 -0.0010330499 0.23565806
000040 68 4c 79 ba f5 42 70 bd ec 20 0f 3a 9e 2b ce 3a
       -0.00095099816 -0.058657605 0.0005459923 0.0015729552
000050 89 ba b6 bb 87 45 0a 3b f2 3c 71 3b 64 f0 25 ba
       -0.005576436 0.002109857 0.0036810008 -0.00063300715
000060 fa 18 d9 bb 68 8e 76 3c f8 71 bc bb 4c 74 ab bd
       -0.006625292 0.015048601 -0.005750891 -0.08371791
000070 70 36 d0 3e 49 9f 8d bd 92 a0 07 3e 3e b7 14 3d
       0.40666533 -0.06915147 0.13244846 0.036307566
000080 f9 cf 81 bd 20 52 ab b9 12 98 6e 3b 1b e5 2f bb
       -0.06338496 -0.0003267685 0.003640656 -0.0026839438
000090 f0 3e 1f 3b 48 66 f2 ba 7a 45 15 3c 42 a9 3b ba
       0.0024298988 -0.0018493617 0.009110803 -0.0007158705
0000a0 68 d5 dc 3b a7 7e 4c bb d7 e0 85 bd 56 48 64 3c
       0.006739307 -0.003120342 -0.065370254 0.013933262
0000b0 23 55 ea 3e
       0.4576808

dense_21/bias f4 [40]
000000 09 80 4a bd 4b 36 e5 bb 05 62 87 bd 3e 00 56 bd
       -0.04943851 -0.0069949976 -0.066104926 -0.052246325
000010 d4 f2 1d 3e 07 b3 c4 3d c3 1b 01 3c b8 40 05 bd
       0.15424663 0.09604459 0.007880154 -0.032532424
000020 94 d2 85 bd 63 73 82 3e 21 71 b3 3c a0 4a 05 bc
       -0.06534305 0.25478658 0.02190453 -0.008135468
000030 b8 36 05 bd 6d bd c4 bc 25 5e 3c bd 06 af 2a bd
       -0.032522887 -0.024016107 -0.04598822 -0.04167082
000040 d8 a2 0f bc 0c e8 81 bc 78 40 88 bd e6 ce 78 bd
       -0.008766852 -0.015857719 -0.066529214 -0.06074419
000050 66 9f 4d 3d 94 24 9c bd 8e b6 5d 3d 51 0e 24 bc
       0.050200842 -0.07624164 0.054129176 -0.010013179
000060 e7 90 4c bd be 6f de 3b 0c 9e 1f bc 35 1d 05 3e
       -0.049942877 0.006788223 -0.009742271 0.12999423
000070 aa eb ee bc 27 91 d1 3c 22 c6 98 3a 9c 48 38 3c
       -0.029165108 0.02558191 0.0011655728 0.01124778
000080 2b cc 5d ba 29 c9 43 bc 0b c8 a6 bd eb 47 af bc
       -0.00084609044 -0.011949816 -0.08143624 -0.021396598
000090 55 26 16 bd ea 7e 9a bd 0f eb 3e bd 83 db a6 bc
       -0.03665765 -0.07543738 -0.046610888 -0.020368343

dense_20/bias f4 [40]
000000 cd 2e 7e 3d 11 55 28 bb 56 cd a7 3c 90 5c ac bc
       0.06205635 -0.002568547 0.020483654 -0.021040231
000010 f3 33 53 bd 2c 91 0e bd 51 26 b5 bd 2a c5 29 bd
       -0.051563215 -0.034806415 -0.08845199 -0.041447796
000020 a5 dd b0 bc 34 28 ec bd ae 2c be ba 94 64 ba 3c
       -0.021590063 -0.11531106 -0.0014509165 0.022753038
000030 e3 08 06 3e 08 bb 93 bd 4d 50 9c 3d e0 c2 26 3d
       0.13089328 -0.07213408 0.07632504 0.04071319
000040 d8 0e 2b 3c c7 c3 81 3e 25 cf 68 bd 41 51 98 bd
       0.010440551 0.2534468 -0.056838173 -0.07437373
000050 ca 91 96 3b 38 5b 41 3e 51 b6 c2 3b 9d c5 01 3c
       0.004595016 0.18882453 0.005942144 0.00792065
000060 83 26 40 3d d4 0f fb 3b c0 20 46 3e db b4 a3 bc
       0.046911728 0.007661799 0.1934843 -0.0199837
000070 6d 0a a0 bd 25 b3 f9 3c b3 da cb ba 13 21 d7 3d
       -0.078144886 0.03048093 -0.0015552848 0.10504355
000080 a7 80 25 bd 35 18 02 bd b4 36 f8 3c e6 b4 36 bd
       -0.040405896 -0.031761367 0.030299522 -0.044606112
000090 d7 60 ed ba 4c a4 38 bd 6b 3c 43 b9 99 c9 09 be
       -0.0018110526 -0.04507856 -0.00018619157 -0.1345581

dense_2/bias f4 [40]
000000 51 02 18 bc a3 55 40 3d c1 bf 4b 3d ef 60 7c bd
       -0.009277896 0.04695667 0.049743418 -0.06161588
000010 35 e4 d5 3d 6d 81 4c 3c ae 23 34 bd 9b 76 1e bd
       0.10443918 0.012482029 -0.04397934 -0.03868733
000020 e9 0e e4 bc 94 20 f2 bc ad b4 b0 3d 20 dd c0 3d
       -0.027839141 -0.02955655 0.08628211 0.09417176
000030 2d 7a 80 bd bd e5 56 bd 46 f9 c0 3d dd ad 11 bd
       -0.06273303 -0.05246519 0.09422545 -0.0355662
000040 0e df 8d bd 40 5f a1 3b 2e e6 95 3d ed 4e 19 3e
       -0.0692731 0.0049246848 0.07319294 0.14971514
000050 f5 83 45 bc 90 80 05 bc 3e ce e6 3d 8f 73 61 3d
       -0.012055387 -0.0081483275 0.11269806 0.055041846
000060 93 b9 07 3d 3d 1c 15 3e 68 56 71 bd fd 58 b4 bb
       0.03313596 0.14561553 -0.058920294 -0.0055037723
000070 f2 87 0b bc d1 a1 b7 bc 2b 9b 38 bd 73 a1 b4 3d
       -0.008516299 -0.022416027 -0.045069855 0.088198565
000080 c0 b0 23 bd ce 61 64 3d f5 23 46 3d 80 34 5f 3d
       -0.039963484 0.055757336 0.048374135 0.054493427
000090 96 a9 b8 3d 9c 95 45 3d a2 c1 e7 3d 86 16 1b 3d
       0.09016721 0.04823838 0.113162294 0.037863277

dense_19/bias f4 [40]
000000 24 be ca 3d 57 0d 5e bd b6 42 bd 3c 5b 0c 22 3d
       0.09899548 -0.05421194 0.0231031 0.039562564
000010 03 d6 54 bd 13 5d 80 3c d7 3d 4c 3d 9e 4d 07 3e
       -0.05196191 0.015669381 0.049863663 0.13213202
000020 25 3e 81 3d a5 10 ee bb 49 b0 f7 ba 30 6c 3c 3d
       0.06310681 -0.007265168 -0.0018897142 0.046001613
000030 9c 30 2d 3c 29 c8 33 3e 81 e6 56 3d eb 03 85 3a
       0.010570671 0.17556824 0.05246592 0.0010148262
000040 87 dc be 3c 65 bf 37 3e 36 6d d9 3d 1e 9d fb bd
       0.023298515 0.17944105 0.106165335 -0.12285827
000050 aa 17 96 bd 95 e6 fa bd f1 f7 e2 bc ae 2a ef 3c
       -0.07328732 -0.12251011 -0.027706118 0.029195156
000060 da c8 04 3e 67 1a 9e bc c8 a0 34 3d 6f e8 23 3c
       0.12967244 -0.019299699 0.044098645 0.010004147
000070 90 72 23 3d b7 1e b1 bd a5 b9 cb ba b6 25 24 3d
       0.039904177 -0.086484365 -0.0015542997 0.040075026
000080 6e ca b4 bd be dd 26 3d 1c 02 b8 bd 11 ad 07 3e
       -0.08827673 0.040738814 -0.08984777 0.13249613
000090 bc 49 cc 3d e4 f6 13 3e 79 63 70 3c 11 43 8e 3d
       0.09975001 0.1444965 0.014672154 0.06946386

dense_18/bias f4 [45]
000000 7a 10 96 3e 30 1b 25 3d 25 3a 7e 3d 56 38 6d ba
       0.29309446 0.04030913 0.06206717 -0.0009049227
000010 1c eb 98 3b 20 8a d0 3b f6 96 5e bb 68 26 40 3b
       0.004666699 0.006364122 -0.0033964491 0.0029319767
000020 7d 1d 43 3b ac 4c 9c 3b bc 6d 55 ba a6 a5 41 39
       0.0029772215 0.004769882 -0.0008141657 0.00018467623
000030 75 68 ee 3e de 5a 41 be 7a 22 96 bd 0e 0d 94 3e
       0.4656407 -0.1888232 -0.07330795 0.2891621
000040 05 f7 0a bd 62 37 80 bd 71 a6 3d 3c 14 40 89 3a
       -0.033926982 -0.062605634 0.011575327 0.0010471367
000050 0c b8 17 bb 6e 39 78 b9 2a 6b c5 39 7e 9a 53 3a
       -0.0023150472 -0.00023672517 0.00037654612 0.00080720324
000060 5a b4 0d 3a 61 7a 20 3b 01 7a a0 3b d4 4f 46 be
       0.00054055976 0.0024487006 0.0048973565 -0.1936639
000070 3e b8 da 3e 54 6d 8a bd 3e 24 0a 3e 3a 80 cb bc
       0.4271869 -0.06759134 0.13490388 -0.024841417
000080 bc bf c3 bc a7 4a 8f 3a 9a 5d 29 3b f6 b6 83 3b
       -0.023895137 0.0010932282 0.0025843144 0.0040196134
000090 ef 4c 91 3b e1 6f 5c 3b 49 0d bb bb 74 d3 f8 38
       0.00443422 0.003363602 -0.005708371 0.00011864948
0000a0 c6 0c b0 3b 22 d0 5e bb 07 c9 e2 bd 0f 0a 89 bc
       0.0053726165 -0.0033998569 -0.11073499 -0.01672843
0000b0 80 67 17 3f
       0.59142303

dense_17/bias f4 [40]
000000 c9 28 02 bd be d2 f1 bc 45 74 3a bd eb ff 17 bd
       -0.031777177 -0.029519435 -0.04552104 -0.037109297
000010 41 7f 06 bd f8 ca a0 3d 22 0c 5d 3b fc 27 3d 3c
       -0.032836203 0.07851213 0.0033729156 0.011545178
000020 f0 35 4a 3e 9d a5 b4 bc 07 c1 ea bc 7d d9 0b bd
       0.19747138 -0.022051627 -0.028656496 -0.03414296
000030 83 b6 21 bc e7 2b 68 bd 8a db 08 3e f7 41 b4 bc
       -0.009870174 -0.056682494 0.13364998 -0.02200411
000040 63 d8 3f 3e 34 8a c7 bc 12 b6 32 bd 8a 2d 6d 3b
       0.18734889 -0.024357893 -0.043630667 0.0036190473
000050 ba 92 fb bc f2 b0 33 bd e6 3e 66 bd 9b 2f af bd
       -0.030709613 -0.04386992 -0.05621233 -0.08554002
000060 43 b7 03 bb 3c 46 db bc 3a 7a 2a 3c 3e 90 b1 bd
       -0.0020098246 -0.026766889 0.010405118 -0.0867009
000070 9b 83 38 bd 00 01 4e bb c7 4f c6 3d 43 f8 6c bd
       -0.045047384 -0.0031433702 0.09683185 -0.05785395
000080 63 8a 3c bc 56 fc ec bc 4c e7 92 bc 19 8e 24 3e
       -0.011507603 -0.028928917 -0.017932557 0.16069831
000090 c2 43 19 bb f2 2a 8f 3c 48 b5 2e bd 8d 9d 85 bd
       -0.0023386334 0.017476533 -0.042653352 -0.06524191

dense_16/bias f4 [40]
000000 65 95 13 bd 88 de b5 bc c3 7b 0f bd 63 5b 69 bd
       -0.036031146 -0.022200838 -0.035030138 -0.05697192
000010 50 4c 82 bd 09 d2 c8 3c e4 e3 b4 bc c0 f4 40 bd
       -0.06362212 0.024514215 -0.022081323 -0.04710841
000020 53 d4 aa 39 fa c3 94 bc 0b a9 4a 3d 51 99 43 bc
       0.0003258312 -0.018159855 0.04947762 -0.011938409
000030 02 b2 5c 3e 4d 67 e3 3b 02 75 7a 3b 08 6e 83 bc
       0.2155228 0.0069398046 0.0038216715 -0.016043678
000040 69 3c 4d bc 4d 6f ec 3c bc 79 06 bd b5 e8 0c bd
       -0.01252661 0.028861666 -0.03283094 -0.034401614
000050 b7 2d 18 3d 85 79 0d bd f2 89 34 bc 8e 16 8d bd
       0.037152972 -0.03453972 -0.011019217 -0.068890676
000060 0a d2 2d bd c0 f4 8d bd f2 6f 4b 3c 3b bf 0e bd
       -0.042436637 -0.06931448 0.012416827 -0.03485034
000070 5d d6 9d bb 7c d5 f9 bc 1f f8 c2 3a 2e 13 3e bd
       -0.004816814 -0.030497305 0.0014874971 -0.04640501
000080 79 3d 98 bd be 15 0d bd a2 56 9d bd 98 bb 05 bc
       -0.074336 -0.034444563 -0.076825395 -0.008162402
000090 f5 11 56 3d 84 9e 55 bd e3 b5 d9 bc ed 72 ab 3d
       0.05226322 -0.052153125 -0.026575988 0.0837153

dense_15/bias f4 [40]
000000 f0 32 06 3e 8d 16 13 bd 6a 85 26 bd 97 f5 f3 bc
       0.13105369 -0.035910178 -0.040654577 -0.029780192
000010 b0 30 1f ba af e6 f2 bc ba 13 22 3d d4 67 61 bd
       -0.00060726237 -0.029651014 0.039569594 -0.05503066
000020 87 a2 6a bd 57 96 17 3d a0 20 1a 3d 70 2a e6 bb
       -0.057283904 0.03700861 0.03762877 -0.007024102
000030 4a 77 44 3e 17 72 fe 3d 78 3b 47 bd 48 90 aa bd
       0.1918613 0.12424105 -0.0486407 -0.08328301
000040 ef 90 01 3e 79 7e 08 bd fc 9c 1c 3d cd c9 c8 3c
       0.12652944 -0.03332374 0.03823565 0.024510289
000050 6a 2e 14 bd 2a e5 4a 3e 7f a3 4a 3e 07 8c a4 bd
       -0.036177076 0.19813982 0.19788931 -0.080345206
000060 c1 35 38 3e 1e 9a aa bd 15 5d 3a bc 38 35 b6 bc
       0.17989255 -0.08330177 -0.011374732 -0.022242174
000070 6e 04 08 3d e8 fb e4 bd 91 8e 93 bd 7c 18 3b 3d
       0.03320735 -0.1118086 -0.07204927 0.045677647
000080 38 88 d4 3d 72 c5 3e 3d 58 c0 76 3d 1d 0a 0b 3e
       0.10377544 0.046575017 0.060242027 0.13578077
000090 25 a5 5e bd 71 dc f1 bc 86 42 4c bd cc cb cf bc
       -0.054356713 -0.02952406 -0.04986813 -0.025365733

dense_14/bias f4 [45]
000000 27 55 80 3e 6e 04 88 bc d8 1f 48 3d cc 8a 46 3b
       0.25064966 -0.016603675 0.048858494 0.0030295132
000010 a3 a9 98 3b 55 8a 50 3b 06 fb 0b 3a 34 cb 2d bc
       0.004658894 0.0031820734 0.00053398346 -0.010607529
000020 bf 4e 9a bb 25 03 a8 3b cd 47 99 ba 51 0e 8b 3b
       -0.0047090943 0.005127328 -0.0011694372 0.00424365
000030 b6 d4 f5 3e f4 28 a1 be 1d 01 98 bd d3 ce 8a 3e
       0.48013848 -0.31476557 -0.07422087 0.2711092
000040 27 ea fb ba 1b 4a a8 bc dc e5 14 bb 1e 90 d7 b9
       -0.0019219563 -0.020543149 -0.0022720015 -0.0004111537
000050 64 8e cd bb cd 8a 46 bb 2e 35 00 3c 5a 0c 1a b9
       -0.006273078 -0.0030295134 0.007825179 -0.00014691186
000060 6e e2 01 bb 5c 54 4a bb a8 be 01 3c 70 24 60 be
       -0.00198188 -0.0030873036 0.007918991 -0.218889
000070 52 fe ff 3e 50 6a aa bd cf ee 8c 3d 11 8a a1 3d
       0.49998719 -0.08321059 0.068814866 0.07887662
000080 41 55 d6 bd e3 5f a5 3a 6b 50 e8 bb 41 8d f8 3b
       -0.1046548 0.0012617077 -0.0070896647 0.007585198
000090 82 3e 22 bb 44 b0 48 3a ca 31 44 3b d6 06 16 3c
       -0.0024756496 0.000765566 0.0029936903 0.009156903
0000a0 d2 4f a1 3a 39 94 86 bc 64 de 8d bc 6e 21 53 3d
       0.0012307114 -0.0164281 -0.017317958 0.051545553
0000b0 21 f3 20 3f
       0.62870985

dense_13/bias f4 [40]
000000 9f 99 6e bd 8f 40 09 bc 28 c8 5a bd b7 7e 6b bc
       -0.058251973 -0.008377208 -0.05341354 -0.014373473
000010 31 ac 67 bb 9c 44 41 bd 02 34 bb bb 5d 64 f9 bc
       -0.0035350437 -0.04718457 -0.005712987 -0.030443365
000020 fd 6a 93 bd 4d 04 68 bd 44 fe b4 bb f6 88 ea ba
       -0.07198141 -0.056644727 -0.005523475 -0.0017893601
000030 94 98 02 3e 44 e7 63 3e e5 51 85 bd 03 f8 52 bd
       0.12753516 0.2225619 -0.06509761 -0.051506054
000040 be 76 4a bc 14 7e 01 bd e2 22 fe 3d 09 79 aa bd
       -0.012357412 -0.031614378 0.12408997 -0.08323867
000050 0b 02 ff 3c aa ba de 3c fa 81 38 bd 6e 37 9d bd
       0.031128904 0.027188618 -0.04504583 -0.07676588
000060 94 5e af 3b d9 8f 5b bd 7d a6 20 3b cf 5a 33 bd
       0.0053518508 -0.05360398 0.0024513297 -0.043787774
000070 bf 7a 72 3d ce c3 99 3c 37 db 28 bd 5c 88 5c bd
       0.05919909 0.018770125 -0.041224685 -0.05384098
000080 30 f9 6a bd 17 ac 13 bd 02 fa 9d 3d 77 f2 ad 3d
       -0.05736655 -0.03605279 0.07713701 0.08493512
000090 35 4f 7e bb fc ee 0a 3e 1b b2 da b9 da 47 b6 bd
       -0.0038804535 0.13567728 -0.000417129 -0.08900423

dense_12/bias f4 [40]
000000 c3 cb 80 bd 33 23 65 3e 72 71 9b bd 76 69 09 bd
       -0.062888645 0.22376709 -0.07589997 -0.03354784
000010 95 27 59 bd 8d 53 2b bd a8 e0 2c bd 7c d4 40 3e
       -0.053016264 -0.041827727 -0.042206436 0.18831056
000020 70 f9 cb bc 78 8a bf 3c 61 d8 31 bd 00 99 95 3c
       -0.024899215 0.023381457 -0.043419246 0.018261433
000030 ca 5c c4 bd 3c b7 24 3c ee 31 87 3b d3 02 4d bd
       -0.095880106 0.010053452 0.004125825 -0.05005152
000040 5d 02 39 bd ae 5d 0b 3e 89 46 7d bd 9c ec f1 bb
       -0.04516827 0.13609955 -0.061834846 -0.0073829424
000050 c2 f7 07 bd 55 92 45 3c f3 39 6b bd cc 9f 30 bc
       -0.033195265 0.012058814 -0.05742831 -0.010780286
000060 76 48 75 bd e2 d3 07 bd 9f 53 93 bd 70 3d 62 3d
       -0.059883557 -0.03316105 -0.07193684 0.055234373
000070 0e cf 23 bb 33 b8 70 bd de 44 95 bd 8d 69 d6 bc
       -0.002499524 -0.058769416 -0.07288526 -0.026173377
000080 ef ae 5d bd 41 96 1d 3d a3 9f 28 bd 10 64 72 3d
       -0.054121908 0.03847337 -0.041167866 0.05917746
000090 5d 79 e6 3d 34 c0 6a bd 0d 64 09 3d 9f c2 b3 3d
       0.11253617 -0.057312205 0.03354268 0.087773554

dense_11/bias f4 [40]
000000 14 40 73 be 20 c3 16 3e 69 38 d0 3c a9 00 04 be
       -0.23754913 0.14722872 0.025417523 -0.12890877
000010 3f 5c b9 bd 62 a3 c5 bd 3c 92 17 3d 41 83 8c bd
       -0.09050798 -0.096503034 0.037004694 -0.06860972
000020 ac 94 22 3c 57 cb 82 3d 5f cd 99 3b 87 8e 0a bd
       0.009923141 0.0638644 0.0046936716 -0.03382733
000030 62 5c 1f bd 12 6d 59 3c 6a 69 ce 3c d4 8d b9 bd
       -0.038906462 0.013270633 0.02519675 -0.09060255
000040 3e 5c 74 3d 36 29 03 bd 10 9a b2 3e c1 b7 aa bd
       0.05965828 -0.032021724 0.34883165 -0.083358295
000050 d5 dd 32 3a 12 27 9b bd 30 1b 6b bc a3 01 ee 3d
       0.00068232167 -0.075758114 -0.014349744 0.11621406
000060 68 c5 0b 3d 5c 24 96 bd 3c 0f c8 3b 22 d0 ba 3b
       0.03412381 -0.07331154 0.0061053317 0.005701081
000070 10 f9 e6 3d 7e b4 aa 3c e0 83 64 3d 49 b0 3c 3e
       0.11277974 0.020838019 0.05578983 0.18426622
000080 5e 0a d1 bd 50 28 bf 3c a4 ca 70 bd 2e 89 90 3c
       -0.102070555 0.023334652 -0.058787003 0.017643537
000090 75 54 f0 bc 06 08 fa bd 30 08 b4 b9 c6 41 f4 bd
       -0.029337147 -0.122085616 -0.00034338376 -0.11926608

dense_10/bias f4 [45]
000000 eb 62 75 3e 51 c9 78 3d 0c 00 19 3e 84 41 e0 3b
       0.23963515 0.060738865 0.14941424 0.0068437476
000010 c6 0e 6c 3a a3 b0 20 3a 68 ab d4 bb 5e aa 3d 3b
       0.0009004887 0.00061298365 -0.00649016 0.0028940658
000020 ee 5e 57 bb 79 89 07 bb 32 3a 01 bc 5f b2 84 3b
       -0.003286298 -0.0020681305 -0.00788741 0.004049584
000030 e0 57 3f 3e 30 12 9d bc f3 82 91 bc ef ae 9f 3e
       0.18685865 -0.019173712 -0.017762637 0.3118815
000040 e2 8f b9 bd 70 65 b0 bd 44 79 1a 38 6e fd ac ba
       -0.090606466 -0.08613098 3.68294e-05 -0.0013198087
000050 ba bf 4d 3c 38 84 2f bb e4 3c 41 3c 7e 86 28 bc
       0.012557918 -0.002678169 0.011794303 -0.010285972
000060 ef 68 b2 3b bb 71 2f 3b 47 65 9c bb 71 c6 62 3c
       0.005444638 0.002677067 -0.0047728154 0.013841257
000070 87 bf 3d 3e 80 8a 85 3c c3 11 bb 3d 06 99 13 3e
       0.18530093 0.016301394 0.09134247 0.14413843
000080 d1 b0 1c be 6d 58 84 bc 40 85 90 3c 44 8c 2b bc
       -0.15301825 -0.016155446 0.017641664 -0.010470454
000090 10 ba b2 37 76 14 af bb 8a db 92 3a d6 90 77 bb
       2.1305896e-05 -0.0053430153 0.0011204344 -0.0037775538
0000a0 f1 74 32 3b 4a 5f 88 3b d5 58 40 bd 66 46 b7 3d
       0.0027230347 0.00416175 -0.046959717 0.08948974
0000b0 24 7f 82 3e
       0.25487626

dense_1/bias f4 [40]
000000 8e c1 2f bc 3c c6 1a bd 0e 00 1b 3e 6c 61 5d 3d
       -0.010727299 -0.037786707 0.1513674 0.054047987
000010 6b 16 70 bd ce 80 ac 3b b0 c0 2a 3c 71 ba e9 3d
       -0.05861513 0.005264378 0.010421917 0.11412514
000020 18 b8 15 3b 99 ec d7 bd 71 46 d0 3b 5f 70 a3 3d
       0.0022845324 -0.10543174 0.0063560535 0.079804175
000030 2e c5 27 3d cd 6b 8c 3d 37 04 d7 3b 17 b4 de bc
       0.04095953 0.06856499 0.0065617817 -0.027185483
000040 b4 30 a2 3c 96 0b 57 bd 09 ce 1f bd 68 e8 30 bb
       0.019798614 -0.052501284 -0.03901485 -0.0026993994
000050 22 05 80 3c cb d8 f1 3d 59 54 22 3c 49 1b 8f 3c
       0.015627448 0.11808928 0.009907805 0.017469065
000060 5b 1d b6 bd 3a 4e 99 be 06 97 19 bd 47 26 d8 3d
       -0.08892318 -0.29942495 -0.037497543 0.10554176
000070 60 c5 7d bc c6 53 52 3d 41 b9 1e bc e2 9a e7 bc
       -0.015488952 0.051349424 -0.009687723 -0.028272096
000080 ed 96 2d 3b dd 28 36 3d 28 64 72 bb 42 88 c0 3d
       0.0026487664 0.044472564 -0.0036985967 0.09400989
000090 dc 77 31 3c d2 1a 82 bd 52 8f 30 bc a9 82 ba bd
       0.010831799 -0.06352772 -0.010776358 -0.09106953

dense/bias f4 [40]
000000 29 f3 e9 3a 7f 94 0a be c4 4c a0 bd 82 29 20 bd
       0.0017848957 -0.1353321 -0.07827142 -0.039102085
000010 db 21 26 bd f8 a4 8e ba 2c 9d df bd 1f 76 60 ba
       -0.04055963 -0.0010882905 -0.1091865 -0.0008562523
000020 e8 88 bf 3d ca cd 58 be b9 43 4e bd 98 a1 ee bd
       0.09352285 -0.21172252 -0.050357554 -0.11651915
000030 93 56 08 be db 9a fc bd 4c 03 05 bd 93 b0 89 3d
       -0.13314275 -0.12334224 -0.032473847 0.06723132
000040 5e c4 03 bc a9 f1 8b 3c e0 6c 05 3e e0 5c 03 3e
       -0.008042423 0.017083006 0.13029814 0.12828398
000050 1a 7e 17 3e f3 ea 27 3b 0c 19 72 3d ab af 96 bd
       0.14794198 0.0025622218 0.059105918 -0.07357725
000060 df e3 29 3d 3e fa b8 bc 1b c4 3d bd ff 2d 26 bc
       0.04147708 -0.022580262 -0.0463296 -0.010142802
000070 d3 83 f5 3c b8 28 98 bc 35 5b 70 3c 05 e8 c1 3d
       0.029970085 -0.018574104 0.014670183 0.09468082
000080 76 75 32 3d a7 98 04 3d 4b d0 83 bd 0e 05 f7 3d
       0.04356905 0.032372143 -0.06436213 0.12061511
000090 f4 a4 82 bd 2d 5c 35 3d 1e 0c 20 be d4 ef 0d be
       -0.063791186 0.04427736 -0.15629622 -0.13861018

bias/bias f4 [15]
000000 ef da c2 3d 3b 93 2c be ae 30 bc 3d ad ba e9 3d
       0.095144145 -0.16853039 0.091889724 0.11412559
000010 f3 ad 37 be a6 40 69 3d 45 96 0d bc 8e dc a0 bd
       -0.1793745 0.05694642 -0.008641784 -0.078545675
000020 c5 cc cc bc 02 d3 85 3c 81 15 8a bd 45 10 5a 3d
       -0.024999985 0.016335968 -0.06742383 0.053238172
000030 94 26 55 3d 2c 57 c5 bd d8 08 4c bd
       0.052038744 -0.09635767 -0.04981312

model/dense_11/MatMul f4 [40, 15]
000000 8b 25 30 be e4 df 12 3e 8d fe fc 3b cd 7f b1 bb
       -0.17201822 0.1434322 0.0077207745 -0.0054168464
000010 a6 04 e0 3d 13 c8 19 bf 31 2a 7a 3c 08 6d e3 bb
       0.109383866 -0.60070914 0.015268848 -0.006940488
000020 0c 46 e5 ba f7 b3 06 3b e9 82 8d ba 92 be a9 3a
       -0.0017492189 0.0020554045 -0.001079646 0.0012950471
000030 99 79 ca 3b 47 ae 94 bc 20 86 b3 bc df 15 e5 ba
       0.0061790464 -0.018149508 -0.021914542 -0.0017477832
000040 bc a9 18 be 98 ec b8 bd be ad f2 bb 93 3f 06 bf
       -0.14908499 -0.09029502 -0.0074059656 -0.52440757
000050 03 66 2e 3f e3 75 26 3c 7c 26 cd ba 76 a1 81 bb
       0.6812441 0.010159942 -0.0015651728 -0.003956015
000060 e4 54 d2 ba 84 65 c1 3b c3 a6 80 3c 2f c6 b2 bd
       -0.0016047028 0.005901994 0.015704518 -0.08729207
000070 a7 51 ad bd d5 3e f8 bc 60 0a a4 3d e8 1d 2d be
       -0.084628396 -0.030303398 0.080097914 -0.1690594
000080 1b 7e f2 be 2e d9 0c bc 14 55 72 bd 3a d0 ad 3e
       -0.47361836 -0.008596702 -0.059163168 0.33947927
000090 1d f9 d1 ba 9e 9a 1d 3a 9c 23 05 3d 91 38 1a bc
       -0.0016019676 0.00060121145 0.032504663 -0.009412901
0000a0 1a 7f 31 3c fb bf c8 b9 e3 08 d6 bd 6e 6b 4b 3c
       0.010833526 -0.0003829001 -0.10450914 0.01241575
0000b0 9d b5 95 bd ca b0 f3 3c 6b fe b4 39 56 78 e0 bc
       -0.073100306 0.029747386 0.00034521832 -0.02740113
0000c0 3b ed b0 38 51 c6 e0 3d e5 be a4 b9 78 4a 8c 39
       8.4365216e-05 0.10975326 -0.00031422745 0.00026758364
0000d0 00 ef 52 ba 68 3f 0c bc b8 a8 27 ba 8c 8f 02 ba
       -0.0008046478 -0.008560039 -0.00063956855 -0.00049804966
0000e0 c3 77 7d 3a f3 f0 ae 3c 47 01 8a 3b e2 b5 a5 b8
       0.000966903 0.021355128 0.004211578 -7.9016914e-05
0000f0 a3 2a c8 3b 2a b6 11 bc ec 1c a8 3b 9c 78 53 3b
       0.0061085983 -0.008893529 0.005130401 0.0032267934
000100 e2 80 84 39 7f 86 9c 3c 2f be 21 3b af 31 89 bb
       0.00025273027 0.019107101 0.0024680009 -0.004186831
000110 c8 7d d1 3d 10 11 95 bd 68 22 fc 3d e3 5c 1b 3b
       0.10229069 -0.07278645 0.1231125 0.0023706488
000120 de 14 83 bb 40 91 1f 3c 63 d0 29 bb 06 6e 1c ba
       -0.0040002903 0.00973922 -0.0025911562 -0.00059673225
000130 ae b4 c5 3c 64 5a 31 3a 2c 7f 49 3d b2 58 4b 3e
       0.024134006 0.00067654834 0.049193546 0.19858053
000140 19 60 a4 be 4d 12 11 3c b3 49 8e ba be 92 f4 bb
       -0.32104567 0.008854461 -0.0010855704 -0.007463782
000150 7d d3 a1 3b f3 e3 60 3a e8 66 db bb b3 ab 51 bc
       0.0049385414 0.0008578889 -0.006695617 -0.012797284
000160 39 f8 0a 3c e3 49 00 3b 56 58 71 b9 7c dd 06 3a
       0.008482032 0.001957529 -0.00023016459 0.0005144698
000170 3f 74 09 3a e5 a4 d1 38 e9 f4 0c 38 20 d5 db 38
       0.0005243457 9.9966106e-05 3.360669e-05 0.000104824314
000180 18 2d fb b9 7e 3c 89 3a 3f b9 9d b9 61 7d 73 3c
       -0.00047908048 0.0010470299 -0.00030083393 0.014861436
000190 6d cf 60 b9 55 64 64 b9 59 00 5b 3d 2c 65 a8 39
       -0.00021439577 -0.00021781151 0.05346713 0.00032118836
0001a0 82 0e 0b ba 9b 9e b4 be 8d 97 4d 3a bd 4c dd bc
       -0.0005304591 -0.35277256 0.0007842712 -0.02701413
0001b0 7a 34 9b be 89 95 04 3e 77 7d d7 3d da fa 68 3c
       -0.30313474 0.12947668 0.105219774 0.014219964
0001c0 a2 34 cc bb 70 0c 3e bc 9f 71 95 3c f6 b5 46 bc
       -0.0062318603 -0.011599645 0.018242655 -0.012128344
0001d0 dc 7c 52 bc f0 2b 9a bc 90 84 de bb 0d 40 ed 3c
       -0.012847152 -0.01881978 -0.006790705 0.028961206
0001e0 e6 94 8d b9 a1 15 5d 3c 68 3d 28 bc 7c 31 e1 3d
       -0.00027004554 0.013493926 -0.010268547 0.109957665
0001f0 f4 3a d7 bb 93 51 ee be f0 72 85 3a 62 8c 04 3b
       -0.006568307 -0.4654661 0.0010181349 0.0020225276
000200 e0 ac 97 bb 38 7e 86 3b 9c cf 16 3e 87 d9 06 3e
       -0.0046287626 0.004104402 0.14727634 0.13168918
000210 fe 7a e4 bc c7 ce 1f 3b 99 08 49 3c 53 c4 f9 3c
       -0.027890678 0.0024384724 0.012270116 0.030489122
000220 0d 9a 29 3b 08 9f 23 bd e5 dc 2f bd 6d 43 e7 bd
       0.0025879175 -0.039946586 -0.04293527 -0.11292157
000230 9c 3a 9b 3b 6e d9 7b ba 3e e6 a2 bc c1 f8 b7 bd
       0.0047372114 -0.00096072897 -0.019885179 -0.08982993
000240 36 62 24 bc da 38 b0 3c 47 9a 18 bd 6c 04 fe 3c
       -0.010033181 0.021511484 -0.037256505 0.031007968
000250 14 98 ce bc 3e 54 52 bd 86 59 d6 ba 1a 17 b8 3d
       -0.025219 -0.05134987 -0.0016353584 0.08988781
000260 41 05 53 bb 41 17 1b 3a a4 a3 f5 b9 b7 0e 00 ba
       -0.0032199176 0.0005916246 -0.00046851963 -0.0004885005
000270 2d c2 fe b9 d8 38 06 ba 21 f4 ee ba 90 8b 33 b8
       -0.00048591328 -0.0005120165 -0.0018230715 -4.2806903e-05
000280 87 2b 8b 3a d5 0e 1c ba 40 ad 12 b6 40 57 1b ba
       0.001061783 -0.0005953138 -2.185654e-06 -0.0005925782
000290 06 bd ae b9 b8 86 79 b8 2a a5 d2 3d 0c 58 b5 38
       -0.000333287 -5.9491693e-05 0.10285409 8.6471526e-05
0002a0 00 01 7f 39 f0 4e 56 37 ea 4c 00 3d 70 f3 dc 39
       0.00024319068 1.2773773e-05 0.03132335 0.00042143045
0002b0 59 cb ce b9 64 68 34 ba eb 6f 06 ba 91 db 0b 3a
       -0.00039442888 -0.00068820105 -0.00051283714 0.0005335147
0002c0 42 09 03 ba f4 4c c1 39 a3 b7 29 39 e4 47 25 ba
       -0.0004998633 0.00036869163 0.00016185506 -0.0006304963
0002d0 bf d7 c5 37 05 00 75 38 00 55 44 37 d0 7d 05 38
       2.3584695e-05 5.841257e-05 1.1702301e-05 3.1826843e-05
0002e0 cc 52 86 3d 93 39 48 38 e4 4e 02 b7 f2 b1 a0 b8
       0.06558761 4.7737336e-05 -7.766972e-06 -7.6625394e-05
0002f0 12 1f d1 36 e1 5c af 3c 06 4c 9c 3d 09 30 3d 3c
       6.2323024e-06 0.021406593 0.07631688 0.011547097
000300 b6 18 6e b9 d6 a2 bf b7 1c ba 3d 37 52 de b3 3c
       -0.00022706654 -2.28448e-05 1.130861e-05 0.021956597
000310 f9 2a 9f bd e8 c1 98 bd 5b 9c a5 bb be 6e 4e 3d
       -0.07771868 -0.0745886 -0.0050540394 0.05039858
000320 f2 03 ab 3a 14 1f f0 bc 74 a1 d1 3a 39 a6 02 3c
       0.001304744 -0.029311694 0.0015993551 0.007974201
000330 e0 73 dd bb 9d 7a 1e 3c 90 ac b8 b9 cb c6 31 bd
       -0.006758198 0.009672788 -0.00035223784 -0.043402474
000340 5a 3b f5 3d b5 5b c2 3b 4d d8 53 3d 0a 69 a6 3e
       0.11974211 0.0059313425 0.051719952 0.32502013
000350 0f e3 f8 bb 1d e1 3b 3d 9f 43 fd bc e3 1e 15 3e
       -0.007595427 0.04586898 -0.030916033 0.14562564
000360 4c 72 bb 3b 97 78 b1 ba 42 2d 10 3d 3f 32 17 3a
       0.0057204124 -0.0013539967 0.03519941 0.000576768
000370 6c 2f 5b bd 0a 5a dc 3b 1f cd 6c 3c 33 94 b5 bb
       -0.053512022 0.0067246007 0.014453202 -0.0055413484
000380 08 ce 8e ba 56 96 b1 37 c9 6b 7b b7 00 30 0f 33
       -0.0010895142 2.117005e-05 -1.49858615e-05 3.3338438e-08
000390 08 79 f5 b6 d0 26 19 b6 b7 79 a8 b7 c6 0d a4 37
       -7.315659e-06 -2.2821368e-06 -2.0083839e-05 1.9556737e-05
0003a0 23 9c a2 37 96 61 c3 b7 0b 59 24 37 71 ee 1a 37
       1.9384612e-05 -2.3291253e-05 9.795894e-06 9.234632e-06
0003b0 b3 03 20 b8 ac c8 c1 b7 65 64 95 b7 51 35 3c 37
       -3.8150418e-05 -2.3100838e-05 -1.7808934e-05 1.1218087e-05
0003c0 a2 58 83 b9 36 04 05 3b 74 b0 65 3a e4 5c a8 39
       -0.00025052304 0.00202967 0.00087619503 0.00032112666
0003d0 08 c6 1a 3a 7f 0a f4 39 06 5c ca ba f3 b9 46 b9
       0.0005904143 0.00046547127 -0.0015438802 -0.00018952023
0003e0 2a 96 90 3a a2 f3 97 3a 1e 64 93 3a 3d 18 1f bb
       0.001103108 0.0011592994 0.0011245047 -0.0024275922
0003f0 7e 23 9a 3b 12 b2 fa 3b 68 00 db ba 0d 23 1d 3a
       0.004703938 0.007650622 -0.0016708495 0.00059942977

model/dense_12/MatMul f4 [40, 40]
000000 95 22 b2 38 92 61 de 36 db 4f 04 38 08 1a 0e 39
       8.494143e-05 6.6274742e-06 3.1545624e-05 0.00013551873
000010 a0 34 7e 38 2d d4 37 b8 1a fc da b7 70 0b 50 38
       6.060733e-05 -4.3828204e-05 -2.6105019e-05 4.9601716e-05
000020 85 36 90 b7 c6 d6 e5 b7 1f 11 90 b8 08 23 68 37
       -1.7191525e-05 -2.7398939e-05 -6.869644e-05 1.3836434e-05
000030 e9 15 6a 38 67 9f 06 37 c3 7a 95 b7 7d df 8a b6
       5.5810353e-05 8.024136e-06 -1.781935e-05 -4.138738e-06
000040 d4 30 2e b8 50 bd 29 b8 23 e9 93 38 c9 5d c9 b8
       -4.1530307e-05 -4.046905e-05 7.052931e-05 -9.601896e-05
000050 51 b9 5a b9 a2 a8 80 38 08 7f 64 38 eb 96 f2 b8
       -0.00020859136 6.134926e-05 5.4477743e-05 -0.0001156757
000060 7e c7 3c b8 ca ee 4c 38 e4 85 bf 37 da 67 2a b8
       -4.5008484e-05 4.885978e-05 2.2831322e-05 -4.0627878e-05
000070 8c d3 d2 38 03 2c f7 37 a0 fa 58 37 04 e0 5a 37
       0.00010052984 2.9465189e-05 1.2932956e-05 1.304597e-05
000080 6a 17 88 b8 3c 55 86 38 b6 90 41 b8 f5 33 56 38
       -6.4893466e-05 6.405494e-05 -4.614956e-05 5.1069965e-05
000090 e8 ab c9 37 4e 18 3c b8 e0 dc ee 36 ed 45 7b 38
       2.4041117e-05 -4.484533e-05 7.118666e-06 5.9908187e-05
0000a0 79 de 04 be ea 2f 23 be ab 32 e1 be 67 c3 e5 bd
       -0.12975492 -0.15936247 -0.4398397 -0.11218911
0000b0 1d b6 be 3a a4 57 80 bb 5e f6 12 3d dd be 0f be
       0.0014550124 -0.0039166976 0.035879485 -0.14037652
0000c0 f2 c5 95 bb e4 97 2b 3e 8f 52 51 3a cd 4d 88 3a
       -0.004570716 0.1675716 0.00079850195 0.0010399163
0000d0 04 a4 64 ba fa bc d7 3b c1 b7 66 3b b8 17 b6 b6
       -0.000872195 0.006583807 0.003520474 -5.426784e-06
0000e0 7c 2b b0 bb c2 9b 99 bb 08 ba b6 3b 51 bc d8 37
       -0.0053762775 -0.004687757 0.005576376 2.5836898e-05
0000f0 06 e4 42 b9 cc d7 40 37 9e f9 8f 3d 66 72 e0 3d
       -0.00018586227 1.1494336e-05 0.070300326 0.1095932
000100 48 30 33 bc 13 53 a8 bd 8a 13 ce ba 69 95 a7 3d
       -0.010936804 -0.0821897 -0.0015722376 0.081827946
000110 e5 e8 5b bc 4a 5a a8 bd 9a 0c 6f b9 a5 2d 86 bd
       -0.013422226 -0.08220346 -0.0002279751 -0.06551675
000120 0c 2a 9e bd 42 de 93 3e 94 b8 b6 b5 6e f4 6e bd
       -0.077228636 0.28880507 -1.3613776e-06 -0.058338575
000130 50 b1 fa bd 1a 47 01 b8 2c 97 65 ba e0 54 6e b5
       -0.12240851 -3.0822215e-05 -0.0008758183 -8.878542e-07
000140 80 b1 79 35 5a b5 44 39 14 b5 34 38 1d d3 2e 39
       9.3018025e-07 0.00018759575 4.3083986e-05 0.00016672579
000150 96 6b 94 b8 de e6 ac b6 fd c5 c9 b8 30 f6 a6 b7
       -7.0772294e-05 -5.152876e-06 -9.621305e-05 -1.9903382e-05
000160 68 b6 7b 37 2d 17 2c b8 58 32 68 37 78 45 2b 36
       1.5003236e-05 -4.102958e-05 1.3839999e-05 2.5521422e-06
000170 d8 e5 06 b9 04 10 a8 b7 75 d8 81 38 ce 6f 8c b8
       -0.0001286486 -2.0034619e-05 6.1915176e-05 -6.6965455e-05
000180 86 5b 9b 38 0c 79 a0 38 03 a4 5f b8 1f 7b 1e 38
       7.4080235e-05 7.651941e-05 -5.332009e-05 3.77848e-05
000190 bd 96 da b8 71 39 b4 b8 76 02 d3 b7 cc fd 4f 38
       -0.00010423127 -8.593768e-05 -2.5154306e-05 4.9589013e-05
0001a0 06 31 a1 b7 84 de 5f b8 05 e5 35 b8 0e ff 79 38
       -1.9215524e-05 -5.3374577e-05 -4.3367054e-05 5.9603764e-05
0001b0 df 3e 52 b8 40 3d 97 b5 e1 06 97 b8 c8 26 3f 38
       -5.0126455e-05 -1.1268203e-06 -7.2015224e-05 4.5574066e-05
0001c0 84 f7 2d 39 00 90 2e 36 ba 81 54 b8 6d b3 ee 38
       0.00016590772 2.601184e-06 -5.0665556e-05 0.00011382145
0001d0 80 63 54 b7 f5 b9 85 b7 b7 87 dd b8 01 38 a6 b7
       -1.2659351e-05 -1.5941429e-05 -0.0001056338 -1.9814821e-05
0001e0 63 4f 81 38 4f 22 68 38 46 f2 12 b9 96 a5 ae b8
       6.165986e-05 5.5345063e-05 -0.00014013899 -8.327809e-05
0001f0 92 06 35 38 11 19 17 b9 20 e0 d6 b6 7a ba d4 38
       4.3159882e-05 -0.0001440982 -6.4037886e-06 0.00010143682
000200 88 be 7c b9 14 75 89 38 e6 f8 94 38 87 39 21 38
       -0.00024103571 6.5544766e-05 7.103551e-05 3.8438968e-05
000210 c1 3a a6 38 76 25 b7 b8 8f c2 b2 39 20 4d 2c b7
       7.9264406e-05 -8.733098e-05 0.00034095763 -1.0269956e-05
000220 60 4a 1c b6 e4 6e c8 38 c0 dd 41 39 f4 27 9c b8
       -2.3289103e-06 9.557398e-05 0.00018488523 -7.4461015e-05
000230 e8 c6 87 38 3a df 16 38 aa 43 e8 b8 35 54 7c b9
       6.474351e-05 3.5970683e-05 -0.000110752255 -0.00024063962
000240 80 8e 72 35 6c 04 62 38 30 6d 25 b8 c6 e0 4a 37
       9.035939e-07 5.3886717e-05 -3.9440754e-05 1.2092472e-05
000250 44 7c 5a 38 80 17 e0 b7 19 3d 81 b7 f6 50 8f 37
       5.209098e-05 -2.6713824e-05 -1.540645e-05 1.7084629e-05
000260 8c ef 15 b8 5b 92 b0 b8 c8 b6 96 39 c0 ce 54 b9
       -3.5747464e-05 -8.419595e-05 0.00028746412 -0.00020294916
000270 fe 19 bc 38 a6 45 4a 39 43 ec d0 39 cf 41 37 b8
       8.96938e-05 0.00019290167 0.0003984888 -4.369189e-05
000280 e0 d6 fd 39 68 ed 00 b6 80 19 d2 38 c6 9e 67 b8
       0.00048416015 -1.9211675e-06 0.0001001833 -5.522256e-05
000290 e6 fd cc b8 ac f7 4e b9 ec e2 a5 39 2b ee 42 b9
       -9.77477e-05 -0.00019737956 0.00031640322 -0.00018590006
0002a0 44 98 39 39 20 65 6e b7 42 14 0a b8 b0 cb f3 b7
       0.00017699698 -1.42094505e-05 -3.292063e-05 -2.9062707e-05
0002b0 00 0b 1d 39 42 2a 6a b8 a8 a6 14 b9 a0 29 03 38
       0.00014976785 -5.5829303e-05 -0.00014176464 3.12716e-05
0002c0 07 cb 5c 38 9c eb 0e 37 de 11 a0 38 60 d5 bf b8
       5.264117e-05 8.518717e-06 7.6327226e-05 -9.147334e-05
0002d0 b0 39 06 37 94 68 4f b8 5a 47 93 b8 a3 e0 1a 39
       8.000454e-06 -4.9450042e-05 -7.0227965e-05 0.00014770268
0002e0 58 e3 4a 39 1b 28 5e b9 32 36 cf b7 84 79 b1 b7
       0.00019348913 -0.0002118651 -2.470156e-05 -2.115663e-05
0002f0 e5 cd 90 37 ca 9a e2 b9 e8 09 af 38 35 aa 73 b9
       1.7262015e-05 -0.00043221406 8.3464955e-05 -0.00023237693
000300 41 8f 6b b9 e0 aa 5b 38 ca b7 8c 39 4c 08 d1 36
       -0.00022464713 5.237281e-05 0.00026839814 6.2296513e-06
000310 b0 cb fc b7 12 b1 bf b8 34 f4 dd b9 fa 92 fe 38
       -3.013559e-05 -9.140572e-05 -0.0004233435 0.0001213904
000320 c2 4b b7 b9 e4 e9 7d b7 7e 58 93 39 57 a2 e0 b9
       -0.00034960924 -1.5134432e-05 0.00028103957 -0.00042845562
000330 c3 99 e2 38 d7 90 44 b9 50 dd 65 b8 8a 81 f2 37
       0.0001080516 -0.00018745974 -5.4803968e-05 2.890897e-05
000340 68 e9 2b 37 cf 9c 23 b8 74 07 0d 38 3e 97 8b b8
       1.0246738e-05 -3.9008268e-05 3.362396e-05 -6.6562076e-05
000350 ba 20 93 38 d8 5e e0 b6 26 d4 2a b9 44 44 08 b8
       7.015602e-05 -6.6867615e-06 -0.00016291495 -3.2488504e-05
000360 30 5c 5a b7 7e 75 81 b9 46 d5 42 39 d1 3f c9 b8
       -1.3015277e-05 -0.00024692336 0.00018580732 -9.5963136e-05
000370 16 bd c7 38 2e fe 13 b8 21 1f db b8 01 b5 92 b9
       9.5242794e-05 -3.5284254e-05 -0.00010448532 -0.00027982148
000380 5d 79 06 39 d0 a2 22 39 d2 c3 d8 38 8a 5d f3 b7
       0.00012824447 0.00015510176 0.00010336157 -2.9011415e-05
000390 7b 44 95 36 06 50 06 b9 9a d1 40 38 78 ec 05 39
       4.448518e-06 -0.00012809047 4.5971574e-05 0.0001277196
0003a0 b3 0a 9f b9 13 ba 18 b9 34 be cf 38 4c aa 64 39
       -0.00030334815 -0.00014565168 9.905957e-05 0.00021807215
0003b0 9f 2f 63 b8 c9 01 ae b8 20 27 38 b8 28 fc 02 39
       -5.4165368e-05 -8.297299e-05 -4.3905457e-05 0.00012491702
0003c0 da fd 03 b9 3d 49 3e 38 ea eb f0 38 53 39 5f 38
       -0.000125877 4.536774e-05 0.00011488034 5.322073e-05
0003d0 13 63 fc 38 aa 61 31 b9 38 72 39 39 9f 3d bf 39
       0.000120347504 -0.00016916418 0.00017685525 0.0003647627
0003e0 84 86 5c b9 c3 fb 88 b9 60 02 6c b7 94 20 e7 38
       -0.00021030946 -0.00026127519 -1.4067249e-05 0.000110210065
0003f0 ba 7e be b7 40 ba 14 b7 e2 46 cb b8 a2 e6 62 38
       -2.2708777e-05 -8.864852e-06 -9.692997e-05 5.4097392e-05

model/dense_13/MatMul f4 [40, 40]
000000 34 a1 c1 b7 f8 bb 21 b8 b4 e5 8c 37 00 e5 34 34
       -2.3082459e-05 -3.856045e-05 1.6796264e-05 1.6847116e-07
000010 80 b5 1a b7 5a 4c f1 38 c6 1e 46 38 b6 30 fe 38
       -9.221374e-06 0.00011505997 4.723554e-05 0.00012120737
000020 89 83 bf 37 c0 ca 2a 37 13 0d 32 b8 07 a7 7e 38
       2.2830225e-05 1.0179996e-05 -4.2450683e-05 6.0713875e-05
000030 da 39 eb 37 b0 b2 19 b7 ca b4 8d b7 7c 9f 5a 38
       2.8041122e-05 -9.161115e-06 -1.6892696e-05 5.212378e-05
000040 a4 53 aa 38 c2 f4 31 b8 6d 46 25 b9 4b f5 19 37
       8.121811e-05 -4.2428037e-05 -0.00015761862 9.176622e-06
000050 8a 28 ac b7 78 f7 72 36 0f ec 80 39 53 b6 38 38
       -2.0522875e-05 3.6204856e-06 0.0002458994 4.403882e-05
000060 4e 8a e8 38 48 b5 4d 36 07 60 61 b8 68 3b 76 39
       0.00011088383 3.06529e-06 -5.3733613e-05 0.00023482519
000070 16 8c c6 38 80 14 b6 b5 b2 cc 5d 38 1c 3c 0b 39
       9.467469e-05 -1.3566023e-06 5.2881143e-05 0.00013278465
000080 be 2c d7 38 aa 32 bb b7 34 36 bf 38 02 de aa 37
       0.00010260333 -2.231573e-05 9.117686e-05 2.036896e-05
000090 2e b7 2d 39 86 19 8c b9 a6 b3 7b 38 6c e6 ec 38
       0.00016566805 -0.00026721897 6.0010374e-05 0.00011296276
0000a0 6d 5d f0 b7 a2 54 d0 36 1c 5c 4c 38 0c 3e 16 b9
       -2.8653734e-05 6.2087356e-06 4.8723174e-05 -0.00014328229
0000b0 7a c2 9e b9 fe 4d e7 b7 a0 e0 a0 38 76 e9 06 37
       -0.00030281005 -2.7573664e-05 7.671234e-05 8.041379e-06
0000c0 58 ef 35 b7 77 91 17 b7 56 47 0b 37 68 7f 11 b8
       -1.0844167e-05 -9.03417e-06 8.301655e-06 -3.468935e-05
0000d0 8e bb a0 b6 8d f0 54 38 c5 10 21 b8 95 8d 8a b7
       -4.790206e-06 5.076877e-05 -3.840101e-05 -1.6516811e-05
0000e0 b0 3b 55 b8 fd 1b d3 b7 63 4e 46 b7 a2 80 cd 3d
       -5.0838746e-05 -2.5166193e-05 -1.18199705e-05 0.100343004
0000f0 b4 47 87 b6 f2 b7 ba 37 c8 20 1b 38 a8 e3 8d b7
       -4.031661e-06 2.2258584e-05 3.698541e-05 -1.691452e-05
000100 5a ad 54 37 08 20 20 b8 38 d4 01 b8 ac 97 59 36
       1.2676546e-05 -3.8176804e-05 -3.095364e-05 3.2423804e-06
000110 48 af 46 b8 d0 71 16 36 f0 72 71 b7 c5 d6 fa b6
       -4.7370122e-05 2.241799e-06 -1.439148e-05 -7.475583e-06
000120 12 a0 ac b7 f1 4a 69 b7 15 03 87 38 66 b9 ef 36
       -2.0578536e-05 -1.3905331e-05 6.437876e-05 7.1443383e-06
000130 c4 c6 7d 36 97 7c 67 38 92 11 ec b7 34 9c d7 35
       3.7815635e-06 5.5190725e-05 -2.8141574e-05 1.6064209e-06
000140 d8 6b 04 b9 22 ad 32 b7 72 c5 0f b9 66 05 fb 38
       -0.00012628676 -1.0649937e-05 -0.00013711097 0.00011969618
000150 d7 0e 2c b9 38 6b 00 b8 0b bd ae 39 64 64 2b b8
       -0.00016408727 -3.0617433e-05 0.00033328714 -4.0863073e-05
000160 4c e7 f2 b6 60 f4 93 b8 78 7c a3 37 98 08 b3 38
       -7.2390885e-06 -7.0550246e-05 1.9489074e-05 8.536986e-05
000170 76 16 00 36 6a f8 eb 37 18 8d 91 35 6c b4 36 39
       1.908656e-06 2.812986e-05 1.0844406e-06 0.00017424085
000180 a6 3a 04 b8 20 6d 0e b5 ea 07 9d 37 b4 f2 ec b7
       -3.1525873e-05 -5.305792e-07 1.8719544e-05 -2.824641e-05
000190 cc be bf 37 be 79 9a 37 50 13 05 39 73 0a 49 b7
       2.2857821e-05 1.8414921e-05 0.00012691063 -1.19829665e-05
0001a0 69 be a1 b8 b0 92 1e b8 64 d3 41 39 d7 cc 0b b8
       -7.712545e-05 -3.780675e-05 0.00018484663 -3.3330954e-05
0001b0 04 6c 9c b6 11 08 94 39 af 7a d0 38 58 87 1a 37
       -4.661737e-06 0.0002823477 9.9410645e-05 9.2106275e-06
0001c0 b4 30 76 38 77 06 11 b8 43 32 7d b7 c0 a9 07 b4
       5.869633e-05 -3.4576715e-05 -1.5091678e-05 -1.263461e-07
0001d0 f8 90 48 b8 e0 7f 93 38 91 80 ee 37 74 9a 85 38
       -4.781873e-05 7.033325e-05 2.843168e-05 6.370703e-05
0001e0 e5 8f 06 ba bc ac 07 37 9e d6 22 b9 36 7b 55 38
       -0.00051331363 8.086845e-06 -0.00015529475 5.0897906e-05
0001f0 23 c7 00 39 0d f9 a2 38 9a 0f 1b b8 f7 86 a6 37
       0.00012281215 7.771151e-05 -3.696941e-05 1.985159e-05
000200 d8 84 cc 37 65 db 1c b8 00 75 1f 35 00 06 f5 35
       2.4380555e-05 -3.7397625e-05 5.9402373e-07 1.8255669e-06
000210 80 2f a3 b6 60 8f b8 37 46 47 26 38 a6 c2 27 b8
       -4.8633083e-06 2.2001273e-05 3.9643863e-05 -3.9997183e-05
000220 49 21 3c b8 96 85 8d 37 69 ff bf b7 f5 c9 81 b7
       -4.4853692e-05 1.6870716e-05 -2.2887909e-05 -1.5472042e-05
000230 0d ee 9d b7 0f c5 12 b8 10 84 49 b9 52 67 46 b7
       -1.882671e-05 -3.4992638e-05 -0.00019218051 -1.1825776e-05
000240 3a 91 79 38 b8 72 ad b7 f2 05 da b8 50 7e 9e b5
       5.950148e-05 -2.0676627e-05 -0.000103961574 -1.1808679e-06
000250 9e 8e 89 37 cd 9e b7 b8 6a eb b5 b8 26 3c 0e b7
       1.6398084e-05 -8.755699e-05 -8.674602e-05 -8.477864e-06
000260 06 4a dc b8 b8 ac 21 37 3e c7 a6 b8 44 a8 d8 37
       -0.000105042054 9.636562e-06 -7.9526086e-05 2.5827561e-05
000270 29 95 fe b7 d8 57 67 b9 50 8f 1c 39 bc e1 11 b8
       -3.0348618e-05 -0.00022062601 0.00014930707 -3.4780925e-05
000280 ce 07 89 38 ed c0 c9 bd b4 67 04 37 98 48 3a b8
       6.534123e-05 -0.09851251 7.891958e-06 -4.4413464e-05
000290 00 df 7a b7 6e d5 52 b9 a0 4c 4b b7 96 60 3e ba
       -1.4953082e-05 -0.0002010667 -1.21175835e-05 -0.0007262317
0002a0 f2 6d 0a b8 3e e5 ff b9 96 0c b5 3a ba f9 a6 ba
       -3.300416e-05 -0.0004880819 0.0013812955 -0.0012739219
0002b0 84 50 4d ba ea 3e 3e 3a 83 a2 be 3c b3 35 c9 b8
       -0.0007832127 0.00072573 0.023270851 -9.594429e-05
0002c0 08 f4 0d 37 de 92 55 ba 2f 1e 21 3e b8 1f c7 ba
       8.461073e-06 -0.000814719 0.1573417 -0.0015191948
0002d0 b9 74 32 b8 18 29 a3 39 7d f7 0e 39 31 c7 6a 38
       -4.2547214e-05 0.000311204 0.00013634372 5.597546e-05
0002e0 66 55 d1 b8 5e 05 cf b8 db 4f b1 b8 44 c6 6b bb
       -9.981803e-05 -9.871529e-05 -8.454892e-05 -0.003597633
0002f0 a6 7f 87 37 ca fd 8c b7 93 e1 8e b8 7a b8 47 ba
       1.6152695e-05 -1.680748e-05 -6.813104e-05 -0.00076187367
000300 26 11 47 39 80 0c 18 3c ba 6c dd 38 dc 4c 10 bb
       0.00018984507 0.009280324 0.00010558353 -0.0022018468
000310 74 2b 83 3a 25 4d aa b9 8d dc 10 bc 42 79 f3 ba
       0.0010007457 -0.00032482404 -0.008841646 -0.0018575566
000320 bb db a9 b8 84 47 20 38 b8 39 e3 38 2c 0a 3d b9
       -8.099476e-05 3.8213577e-05 0.000108349544 -0.00018028234
000330 44 cc 2a b8 00 3c 60 b9 3e b4 2d 3a a7 05 11 39
       -4.0721396e-05 -0.00021384656 0.00066262844 0.00013830383
000340 95 0e f7 37 e8 9c f2 36 7f b0 21 39 dd cc 71 37
       2.9451485e-05 7.2304283e-06 0.00015419906 1.4412418e-05
000350 29 bc 6e b7 c2 23 a1 b6 c6 d4 00 b8 64 6d 0a 38
       -1.4229715e-05 -4.8023367e-06 -3.071574e-05 3.3003642e-05
000360 00 dc 7e 38 ba a4 a2 38 80 4d da 33 fd 6b 8d 37
       6.076321e-05 7.755445e-05 1.0165513e-07 1.6858796e-05
000370 54 28 41 38 8c af db 37 d6 fd 0d b9 ce d3 5a 37
       4.6052344e-05 2.618858e-05 -0.00013541369 1.3043127e-05
000380 74 89 c4 35 ee 31 8e 39 b6 67 53 b8 49 40 00 37
       1.4643142e-06 0.0002712155 -5.040291e-05 7.644362e-06
000390 ba 04 6f b7 0e a3 0f 39 44 6b 4c b8 7b 86 27 b9
       -1.4246611e-05 0.00013698285 -4.873729e-05 -0.00015976459
0003a0 78 62 6b 39 00 3c 05 b2 00 9b 66 36 c5 4f 46 39
       0.00022448029 -7.755261e-09 3.4362893e-06 0.00018912468
0003b0 d6 42 cc b7 66 97 5e 39 68 79 30 b8 28 4a 2e b9
       -2.4349818e-05 0.0002122797 -4.207474e-05 -0.00016621558
0003c0 ba ed 7b 37 7a 44 4e 36 f0 cd 6f b6 60 66 59 38
       1.5016116e-05 3.073625e-06 -3.5733647e-06 5.1832176e-05
0003d0 5c 90 79 38 30 a0 0a 39 4b f0 82 38 22 35 9b b7
       5.950067e-05 0.0001322038 6.243641e-05 -1.8502182e-05
0003e0 f0 9c f8 35 1f 49 50 b7 47 23 05 3d 05 ae 93 37
       1.8523115e-06 -1.2414791e-05 0.032504346 1.76048e-05
0003f0 b4 ba f0 36 28 fe a3 35 de c5 84 37 f8 22 2e b8
       7.1742925e-06 1.2218416e-06 1.5827765e-05 -4.15174e-05
