3tier-app/learnt_model/model_3tier.tflite (tflite, 148092 bytes, 48 tensors)

dense_9/bias f4 [40]
000000 c9 5f 15 3b 76 e7 8d bb 7f 48 9a bd 89 da ee 3b
       0.0022792688 -0.004330571 -0.07533359 0.007289235
000010 e1 2d 99 3b 5b d1 40 bd 48 71 25 bd 3a ab 15 bd
       0.0046746586 -0.047074657 -0.040391237 -0.036540247
000020 02 a8 6c 3b 38 a6 5a bd 90 07 91 bb 56 fc ca bb
       0.0036110883 -0.053381175 -0.0044259503 -0.0061946316
000030 96 cb 1b bd eb 58 8b bd 76 ac 28 bd 0d f3 d0 bc
       -0.03803595 -0.06804069 -0.041180097 -0.02550652
000040 42 e5 34 bd d3 79 2a bd f0 b6 da bb c7 d3 a8 bc
       -0.04416395 -0.041620087 -0.00667464 -0.020608796
000050 b0 6b 28 bc ce f4 89 bd 13 1d 18 ba 82 20 63 bc
       -0.010279581 -0.06736146 -0.0005802672 -0.013862731
000060 ab a0 4c bd a3 fb 85 bc 1a 4e 98 bc a0 b6 77 bd
       -0.049957912 -0.016355341 -0.01859193 -0.0604769
000070 eb 37 56 bd 59 db b1 bc da e8 1f bd 80 d2 4f bd
       -0.05229942 -0.021711038 -0.039040424 -0.050737858
000080 f3 ac 71 ba 8d f0 41 bd a0 a9 4f bb 4b 7a df bc
       -0.0009219192 -0.047348548 -0.0031686798 -0.027279994
000090 7d f4 51 bd 6c dc f4 bc 7f d7 29 bd de 15 3d bd
       -0.051258553 -0.029890262 -0.04146528 -0.046163432

dense_8/bias f4 [40]
000000 40 3a 63 bb 49 15 4f bd 72 66 54 bd 60 55 07 bd
       -0.003467217 -0.05055741 -0.051855512 -0.033040404
000010 19 fc 61 3b 60 c0 df 3a d3 f9 9b bb 73 1f 12 bd
       0.0034482537 0.0017070882 -0.004760006 -0.035674524
000020 85 2d 70 bd c4 e9 3e bb e0 38 21 3d 66 cd 46 bd
       -0.05863716 -0.0029131034 0.03936088 -0.048535727
000030 13 21 ba bc 51 77 a1 3c 2f 31 29 bd ba 06 3e 3c
       -0.02272085 0.019710215 -0.04130667 0.011598283
000040 93 52 e8 b9 a1 7b 21 bd a7 a6 aa 3c 4c fe 8b bc
       -0.0004431201 -0.039424542 0.02083142 -0.017089032
000050 f4 4d 27 3c 0d e6 d8 3c bf 7c a2 3b ee 7c 58 bc
       0.010211457 0.026476884 0.0049587185 -0.013213379
000060 3c ec 3a bd 60 42 14 bd 7f 79 4f bd 2d 8d 4e 3d
       -0.045635447 -0.036196113 -0.050652977 0.050427604
000070 da 19 cf bc 31 e6 79 3c ae d7 20 bc 37 8f e5 3c
       -0.025280882 0.015252636 -0.009817047 0.028022392
000080 bb a5 ab 38 97 e3 d0 3d 01 b7 2b bd 58 d5 ef bb
       8.184785e-05 0.10199659 -0.041922573 -0.0073191337
000090 a8 e9 cf bc 88 66 56 3a a0 f0 93 3c b0 16 5f 3c
       -0.02537997 0.00081787305 0.018059075 0.013616249

dense_7/bias f4 [40]
000000 74 91 36 bb 68 66 a3 bc fb 0e 8c 3a f1 4e 8e bb
       -0.0027857693 -0.019946292 0.0010685617 -0.0043429066
000010 54 7e 84 bc d8 18 1c bc cd ae f5 3c 4c 95 34 bd
       -0.01617352 -0.009527408 0.029990578 -0.044087693
000020 68 ea 3b bc 44 4d ce 3b f6 37 06 bd a1 b0 0b bd
       -0.011469461 0.006295832 -0.032768212 -0.034103993
000030 16 a4 26 3d e0 f2 96 3b bb 10 b7 3c 26 c4 7b 3d
       0.04068383 0.0046065897 0.022346845 0.06146636
000040 de 84 0b bc c1 2f 48 3d 47 57 9d bc b5 e1 ca bc
       -0.008515565 0.048873667 -0.019206656 -0.024765829
000050 04 bc 6c 3d 3f 88 ba bb e1 69 b2 3c 53 52 25 bd
       0.057796493 -0.0056925113 0.021779003 -0.040361714
000060 c7 7c c9 bc 9a 04 3e 3c 46 66 e3 bc bb 6a d8 bc
       -0.024595631 0.011597777 -0.027758729 -0.02641808
000070 5d 9c f0 3c b7 59 67 bd 26 22 22 3e 42 cd 33 bd
       0.029371435 -0.056482043 0.15833339 -0.04389692
000080 9f 67 6c bd b5 b2 94 3d b0 22 2c ba 9a 0e 64 bd
       -0.05771601 0.07260648 -0.0006566448 -0.055677988
000090 10 1e eb bc 7e 63 71 3d 31 b7 cb ba 67 9a fa bc
       -0.028700858 0.058932774 -0.0015542266 -0.030591203

dense_6/bias f4 [36]
000000 50 8a 19 3b 96 0a cb bc f5 05 bc 3d 6d 90 25 3c
       0.0023428388 -0.024785321 0.09180824 0.010105235
000010 5b 4b ea 3b b3 c4 11 bc af 3b 31 bb 8d f7 a5 3b
       0.0071500964 -0.008896994 -0.002704363 0.0050649107
000020 0e ef 09 3b 3f 52 2c 3c be fe 21 3c 7c 73 c5 bb
       0.0021047029 0.010517656 0.009887395 -0.0060257297
000030 f2 52 15 3c 81 04 af ba c9 f4 99 3d 7e 88 78 bb
       0.009114014 -0.0013352783 0.07517392 -0.0037923153
000040 33 b9 9c 3b 2e 20 fe 3b 57 52 c0 39 02 28 0c bb
       0.0047828197 0.007755301 0.00036682442 -0.0021386151
000050 30 af 02 bb 1b 61 2d 3b 2f 52 08 bb 00 e1 33 bb
       -0.0019940846 0.0026455584 -0.0020800938 -0.0027447343
000060 10 d2 e2 39 c5 2e b6 3b 60 9d d3 bd 62 87 09 bb
       0.00043262588 0.0055597746 -0.10332751 -0.0020985235
000070 81 33 23 ba 59 85 8a bb ca 1f 6c 3b e3 d0 05 bb
       -0.0006225631 -0.004227322 0.003602969 -0.0020418696
000080 b1 e3 2e 3b 87 8a c8 ba f8 dd ff 3b d4 94 a2 3a
       0.0026686008 -0.0015300073 0.007808443 0.0012403973

dense_5/bias f4 [40]
000000 b3 3b e1 bd 90 79 55 bd f4 31 53 bd 2a c1 40 bc
       -0.10997715 -0.052117884 -0.05156131 -0.011764804
000010 33 7e 19 bd 97 b8 f1 bc d2 70 89 bc f2 cc 0a bd
       -0.03747387 -0.029506965 -0.01677743 -0.033886857
000020 64 42 2c bd 16 6e a2 bc 4d 90 70 bd f4 24 98 bd
       -0.042055503 -0.019827884 -0.058731366 -0.07428923
000030 46 fb 68 bd ee 72 91 bd 92 d7 74 bc af 09 72 bc
       -0.056880258 -0.07101999 -0.014943974 -0.014772817
000040 2d f3 88 bd ce bc 16 bd e6 b6 50 bc 5b 70 a0 bd
       -0.06687007 -0.036801152 -0.012738919 -0.0783393
000050 97 01 5d bd 75 57 44 bd 77 c9 b7 bc ca 7e 37 3b
       -0.053956594 -0.047934968 -0.022434933 0.0027999156
000060 8d 8a 46 bd 84 75 25 bd da f3 92 bd f3 b8 55 bc
       -0.048471976 -0.040395275 -0.07175417 -0.013044584
000070 4b 75 8b 3c 08 26 4c bd c2 0b ae bc 0f d7 63 bc
       0.017023703 -0.049840957 -0.021245841 -0.013906254
000080 0f ab a2 bd 7e e2 38 3b 9e b9 5c bd 05 6a 87 bd
       -0.07942783 0.0028211172 -0.053887956 -0.066120185
000090 22 45 24 ba e9 82 88 bd 1e a7 52 bd 4a 8c 24 bd
       -0.0006266405 -0.06665594 -0.051428907 -0.040172853

dense_4/bias f4 [40]
000000 7d 23 35 bd 31 9d 02 bd 43 ea f2 bc b7 40 17 3c
       -0.044223297 -0.03188819 -0.02965272 0.009231738
000010 e6 77 dc bc e8 2c 10 bd 9d a8 5d bd 14 df 8e 3d
       -0.02691264 -0.035199076 -0.05411588 0.069761425
000020 fd 2a 87 bd 4e 0e cc 3b d9 ff 45 bd 20 ec cb bc
       -0.06599996 0.006227291 -0.0483397 -0.024892867
000030 93 7d 9f b9 90 c4 27 3c 20 f3 b7 bd 2d 72 33 bd
       -0.00030420403 0.010239735 -0.08981919 -0.04381006
000040 7f 07 54 bc ae 62 1e bd e7 17 85 bc a0 21 74 bd
       -0.01294124 -0.038668327 -0.01624675 -0.05960238
000050 16 d2 f2 bc d8 ac 85 bc 2c 4d 4a bd c8 b1 90 3b
       -0.029641192 -0.01631777 -0.049390003 0.0044157244
000060 7f 55 68 bd 1a f3 59 3a cd 14 d1 bb cf 17 c2 bc
       -0.05672216 0.0008314118 -0.0063806535 -0.023692993
000070 5a e4 0d 3b 33 fa 3b bd d7 f0 f9 bc 1f 99 cc bc
       0.0021651 -0.045892905 -0.03051035 -0.024975358
000080 a1 ce 93 bd 12 e1 94 3c ff a1 55 bd 4d 8d fd bc
       -0.07217146 0.018173728 -0.052156445 -0.030951167
000090 bf 94 31 3d 37 5a 1a bd 61 ed 53 ba ba c0 07 3d
       0.043354746 -0.03768369 -0.00080843834 0.033142783

dense_3/bias f4 [40]
000000 5d e2 50 bd 46 17 af bd 70 14 c0 bc a6 ea c0 ba
       -0.050997127 -0.08549361 -0.023447245 -0.0014718368
000010 03 e5 28 b9 54 ed 02 bd 9a 5a 38 bc ce 55 28 bd
       -0.00016107042 -0.031964615 -0.01125207 -0.041097455
000020 17 ce d6 3c 32 dd df bc 34 cf 01 bd ca 47 a3 bc
       0.026221318 -0.027327154 -0.031691745 -0.019931693
000030 30 f3 50 bd 0a 1a 88 3c 72 71 ad bc 47 42 81 bb
       -0.05101317 0.016613979 -0.021172259 -0.0039446685
000040 f7 ba 3e ba be 86 f7 bc 22 cf 7b 3b cb 7e ac 3c
       -0.0007275785 -0.030215617 0.0038423021 0.021056553
000050 53 d1 d8 ba e2 0a d4 3c c3 fb b3 3c aa c8 39 bd
       -0.0016541876 0.025884096 0.021970635 -0.045357384
000060 1f a1 0a bd f3 46 ae bd b4 a6 8c bc 92 b1 4b bb
       -0.033845063 -0.08509626 -0.017169334 -0.0031081182
000070 31 58 d1 bc 49 5a 3f 3c a1 94 5e 3c b3 73 dc bc
       -0.025554748 0.0116792405 0.013585241 -0.026910638
000080 ea f1 8c bd 6e 0b 31 bd 58 a9 c0 3c d1 bf be 3d
       -0.06882079 -0.04322379 0.02351825 0.0931393
000090 3f 78 86 bd 2f ac 79 3d 34 c9 6f 3d b5 3f 74 3b
       -0.06565904 0.060955223 0.05854149 0.0037269418

dense_22/bias f4 [45]
000000 fb 66 d7 bc df f8 42 bd 04 0a 97 3e 66 f4 53 3b
       -0.026294222 -0.047600623 0.2949983 0.0032341718
000010 9e de 13 3a 98 99 42 bc 68 1c 0f 3b 38 dd 90 bb
       0.00056407775 -0.01187744 0.0021837 -0.0044209026
000020 69 97 26 3c 02 8f 7f 3a 72 25 42 bc 2d 9f 6e 3c
       0.010167935 0.0009748788 -0.011849748 0.014564318
000030 0b fd bf 3e a4 79 30 3d 1d 63 9f bd bd 62 45 3d
       0.37497744 0.043084756 -0.07782576 0.048189867
000040 09 db 85 bd 81 9d 14 3e 34 03 a4 bb c4 2a 17 3b
       -0.06535918 0.14513208 -0.0050052647 0.0023066262
000050 96 0f d0 3b 07 a5 c6 3b c4 e1 64 3b 1e 68 81 ba
       0.0063495142 0.0060621533 0.0034924606 -0.0009872948
000060 b6 a3 c4 3a da 15 94 ba 3d a6 6a bb e6 09 61 3d
       0.0015002403 -0.0011298016 -0.0035804652 0.05494108
000070 e1 21 cb 3d 6d cd b4 bd 14 12 8f bc dc 32 63 3d
       0.09918571 -0.08828244 -0.017464675 0.055468425
000080 a8 7d 4f be 38 4a a9 3b 86 ef 58 ba 7c 8d 97 bb
       -0.20262778 0.0051663183 -0.0008275438 -0.0046250205
000090 b6 74 3b 3b 26 da 04 3b 30 86 22 39 ea 16 08 bb
       0.00286035 0.0020271628 0.00015499513 -0.002076561
0000a0 94 ee c3 3a 46 70 1b 3c 29 dc be bd ae 13 d1 bc
       0.0014948421 0.009487217 -0.09319336 -0.02552208
0000b0 19 7b d8 3d
       0.10570354

dense_21/bias f4 [40]
000000 5c ce 11 bd 77 46 c5 3c 42 58 02 bd 17 43 07 bd
       -0.03559719 0.024081452 -0.03182245 -0.033022966
000010 07 fe 9f bd 6b aa 17 bd c1 8e df bd ae aa e7 bc
       -0.07812124 -0.037027758 -0.109159 -0.028279629
000020 2b 34 2a ba 89 09 99 3d cf 5f 09 bd 0e 45 91 bc
       -0.0006492759 0.07472522 -0.033538636 -0.017733123
000030 33 a4 30 bc c0 ec 3a bd 7c 7d 2d bd 57 a1 7e bd
       -0.010781336 -0.04563594 -0.042356 -0.062165584
000040 0d 10 5a bd 08 94 4d bd 73 52 b3 3a 43 b4 16 bd
       -0.053237963 -0.05019 0.0013681188 -0.036793005
000050 10 93 a6 bc 24 73 97 3d 47 71 bf bc 9b c3 2d bd
       -0.020333797 0.07395008 -0.023369445 -0.042422872
000060 05 56 77 bd 36 da e1 bc 47 8e 34 bd 48 18 72 bc
       -0.06038477 -0.027569871 -0.044081 -0.014776297
000070 f3 14 57 bd 7b 2a 04 bd 85 9f dd bc 62 2a 8b bb
       -0.052510213 -0.032267075 -0.027053604 -0.004246996
000080 8b 2f fc bb e3 6f 70 3d 11 f1 54 bd cc 26 7b bd
       -0.0076960973 0.058700453 -0.05198771 -0.061316296
000090 54 c0 af bc 09 50 13 bd ba ec 11 3e af d5 8a bb
       -0.021454014 -0.035965 0.1425046 -0.004236899

dense_20/bias f4 [40]
000000 c7 6c 64 bd 11 d0 7e bd 4c ff 98 3d 1f 6a 73 3c
       -0.0557678 -0.062210146 0.07470569 0.014856844
000010 16 c5 4d 3d ba 39 1c 3e e5 7d 5a bd bc ca 4a 3d
       0.050236784 0.15256396 -0.05334272 0.04950975
000020 6a da 5b bd 4e 8b 0f bc 20 39 33 bc 62 ea 3e 38
       -0.053675093 -0.00876124 -0.010938913 4.5517816e-05
000030 68 69 f5 bc ce 96 5a bd 0f 56 13 bd f7 99 94 bd
       -0.029957488 -0.053366475 -0.035970744 -0.07255929
000040 7e 07 cb 3c 92 e1 7a 3b b3 87 4a bd 16 51 32 3b
       0.024783846 0.0038281423 -0.04944582 0.0027208976
000050 ef 11 83 3b 90 7f 66 bd d3 23 b4 bb 49 01 8b bd
       0.0039999406 -0.056273997 -0.0054974346 -0.067873545
000060 06 e7 91 bc 77 9a 07 bb ef 72 08 3e 8e f1 4a 3c
       -0.017810356 -0.0020691433 0.13325094 0.012386693
000070 f5 05 9e 3b e5 be 16 bd 8b 66 99 3d 9d c4 24 3e
       0.0048224875 -0.036803145 0.07490262 0.16090627
000080 5b fb c1 bc b4 8d 81 bd f0 85 be bc f4 95 e0 bc
       -0.023679426 -0.06325856 -0.023257226 -0.027415253
000090 40 0d a3 3a ab a8 6a bb 34 56 0b bd c4 5e 9a bb
       0.0012439862 -0.00358061 -0.034017757 -0.004711004

dense_2/bias f4 [40]
000000 dc 34 4e 3d 05 35 4e bd 72 dc fb 3c 0f 87 12 3e
       0.05034338 -0.050343532 0.030744765 0.14309333
000010 5e d0 38 3c 4f 95 9f bd 85 2a 6b bd a4 cd c5 3c
       0.011280147 -0.0779215 -0.057413597 0.024145909
000020 c6 90 da bc a8 31 df 3d 3a 1e 09 3d 9d 63 51 bd
       -0.026680361 0.10898143 0.033476092 -0.05112039
000030 00 0c 9b 3d 73 4b 29 3d 18 a4 6b 3d 49 63 56 3d
       0.07570648 0.04133172 0.05752954 0.05234078
000040 d7 bf b9 bc 53 2b 7e 3d 07 bb 65 bd 42 d4 2b 3d
       -0.022674484 0.062053036 -0.056086566 0.04195047
000050 c2 53 e9 bc ce 42 19 bd d8 03 8a bd 7b dd ce 3d
       -0.028482322 -0.037417226 -0.067390144 0.10100838
000060 75 56 24 bd e3 06 83 bd 40 a8 97 bd 95 39 4c bd
       -0.040121514 -0.06397798 -0.07405138 -0.049859602
000070 e5 00 1d bd d2 e5 3d bb 7b 7d 71 3d 45 76 cc bc
       -0.03833093 -0.0028976095 0.058957558 -0.024958739
000080 8a 5d 1f 3d d7 b0 5f 3d c1 b7 30 3d 6b e9 67 3c
       0.038907565 0.054612007 0.04314399 0.014154772
000090 04 f9 fd 3c f5 cd 19 bc 59 31 28 3c d9 5b 2d bd
       0.031002529 -0.009387483 0.010265672 -0.04232392

dense_19/bias f4 [40]
000000 d9 95 c8 bd c2 d6 86 3c 48 80 5e 3c 33 7d 8e bd
       -0.09794206 0.016459826 0.013580389 -0.069574736
000010 45 66 15 ba ac 0f 54 bc a2 41 80 3b 99 05 30 3c
       -0.0005699138 -0.01294319 0.003914074 0.010743522
000020 30 3b 24 bd 90 1b 0d 3c 65 36 31 bd 0e 62 5d bc
       -0.040095508 0.008612528 -0.043264765 -0.013512148
000030 01 00 1b bd 4e fb 2b bd 00 79 b6 bb ad ec a1 bc
       -0.0378418 -0.04198771 -0.0055686235 -0.019766176
000040 04 63 b0 3d 11 35 88 bd 78 2d 0d 3e 48 61 7f 3c
       0.08612636 -0.066507466 0.13786876 0.0155871585
000050 e7 12 b2 3c ff 64 fc 3d 1e 36 2f 3d a7 db 97 bc
       0.021737529 0.12323951 0.04277622 -0.018537356
000060 9f 4a 32 3e e4 88 7e 3d 7d 70 13 bc 6b a8 fa bc
       0.17411278 0.062142268 -0.008998987 -0.030597886
000070 dc b1 32 bd ba 16 b4 3c dc 92 13 3d bb 6e 03 bc
       -0.04362665 0.021983493 0.036028728 -0.008022006
000080 45 32 81 bc 4b fa a9 3e 98 64 b8 3c f5 7f d5 3d
       -0.01577104 0.3319877 0.022508904 0.104247965
000090 1d 0f 01 bd 2a 19 27 3d df ab 79 3d d2 3e 6c 3c
       -0.031508554 0.040795483 0.060954925 0.014419274

dense_18/bias f4 [45]
000000 00 b8 bd b8 48 95 8a bd b1 11 66 3e 23 31 2d 3c
       -9.046495e-05 -0.067667544 0.22467686 0.010570797
000010 70 da 65 bc 18 8c 20 3b ab 68 37 bc 29 7a 7b ba
       -0.01402913 0.0024497565 -0.011194388 -0.00095930934
000020 bd 4e bf 3b 44 a0 f2 39 d2 2e c6 3b 1a 48 a5 bb
       0.0058382438 0.00046277244 0.006048062 -0.0050439956
000030 95 64 48 3e 64 de 29 bd ae 47 32 bd ad 5a b5 3c
       0.19569619 -0.041471854 -0.04352539 0.022137964
000040 69 0e 9a bd 85 e1 55 3e 5a 1f 25 3b cf e4 49 ba
       -0.0752228 0.2088681 0.002519569 -0.00077016366
000050 82 53 7e 3a fa 2d 37 3b 64 83 53 b9 b9 1c ac bb
       0.00097017747 0.0027950988 -0.00020171475 -0.0052524474
000060 4b b0 b7 3a f0 53 0e b9 6c 0d 9e 3b 4e 47 8b 3d
       0.0014014331 -0.00013573444 0.0048233774 0.0680071
000070 9f 14 26 3e b4 11 29 3d 87 fd c6 ba 84 fd b3 3d
       0.16218804 0.04127665 -0.0015181758 0.08788589
000080 e8 c9 38 be c4 fb f6 39 53 93 82 3b 94 e2 f2 3a
       -0.18045771 0.00047108356 0.0039848476 0.001853066
000090 7c 0e 16 3b d5 c9 94 bb f4 3f 3b ba b5 bb b8 3a
       0.0022896817 -0.004540662 -0.00071430136 0.0014094027
0000a0 4b 7d f6 3a e8 3c 46 bb 49 0a fc bc f8 9d 38 3d
       0.0018805651 -0.0030248705 -0.030766623 0.045072526
0000b0 1e 4c 04 3e
       0.12919661

dense_17/bias f4 [40]
000000 3e b6 ea bc da 20 51 bb 59 12 27 bb 8e 30 af bc
       -0.028651353 -0.003191045 -0.0025493114 -0.021385457
000010 4a 8d 78 bc f1 e8 73 3b 9b 40 47 bc 1e 36 8b bc
       -0.015170405 0.0037217701 -0.012161399 -0.016993579
000020 45 34 81 bd 0c 36 e4 bb f5 5c c9 bc ca ee 5e bc
       -0.06308798 -0.0069644507 -0.024580458 -0.013606736
000030 f0 39 f4 bc 3f d3 08 bd 2f 43 45 bd ba 60 5c 3d
       -0.029812783 -0.033404585 -0.048159774 0.053803183
000040 96 90 dd bd 45 a5 13 3e 7a dc 45 bd e5 d5 8b bb
       -0.10818593 0.14418514 -0.048305966 -0.0042674416
000050 10 3c 0c bd ea 57 2c bd 6e b7 8e 3c 34 a6 cd 3b
       -0.034236968 -0.04207603 0.01742145 0.0062759165
000060 ff eb 27 bd 35 71 8a 3d 7b ae 9a bc 6d c1 83 bc
       -0.040996548 0.06759874 -0.018882027 -0.016083444
000070 ae 44 26 bd f6 d2 be bd db 08 06 bd 41 b9 69 b9
       -0.04059284 -0.09317581 -0.03272329 -0.00022289624
000080 32 d3 8e bd 94 07 cd bc 28 c2 a3 3e 9c 38 00 bc
       -0.06973876 -0.025028028 0.31984067 -0.007825997
000090 d2 9e 4e bd 62 2c 58 bd 2d 4c 6e bd 16 18 6c 3b
       -0.05044443 -0.0527767 -0.058178116 0.0036025099

dense_16/bias f4 [40]
000000 e5 9e 59 bc b1 80 3f bd b5 d2 00 bb 81 f9 07 bd
       -0.013282512 -0.04675359 -0.0019656841 -0.03319693
000010 81 91 3c 3c 40 41 40 b9 88 ac fe ba aa 05 2d bd
       0.0115093 -0.00018334854 -0.001943008 -0.04224173
000020 64 04 90 bd 31 25 e4 3c 8e d7 c5 bc 7b ef f3 3c
       -0.070320874 0.027849765 -0.024150636 0.02977728
000030 9f fe 4c bd 91 7d 22 3e 92 93 db 3d 3c 09 a3 3d
       -0.050047513 0.15868212 0.10721506 0.07960746
000040 91 3a 0e 3b d1 74 94 3d 00 ee ff bb 8f 2b 09 bc
       0.0021702389 0.072488435 -0.007810354 -0.008372202
000050 80 c8 8d bd e4 13 23 bd c0 42 a9 bc 62 cd 2f bd
       -0.06923008 -0.03981389 -0.020661712 -0.042920478
000060 7e 1e 4a bc 03 17 aa bc 47 61 4b 3e 1d de 0b 3e
       -0.0123363715 -0.020762926 0.19861327 0.13658948
000070 63 b0 0b bd 40 31 84 bd 6e f8 b2 3c cc 99 44 bc
       -0.034103762 -0.06454706 0.021846976 -0.011999559
000080 7d 6f 42 3b 3a 46 98 bd 37 69 de bc f2 7d 82 bc
       0.0029668503 -0.0743527 -0.02714978 -0.015929196
000090 47 14 e9 bc df 86 e8 bc d8 ec ec bc c6 f7 0d bd
       -0.028452052 -0.028384624 -0.02892153 -0.034660123

dense_15/bias f4 [40]
000000 d8 02 68 bd 96 db 5e bb e0 31 4f bc 19 a4 a6 3d
       -0.056643337 -0.0034005395 -0.0126461685 0.08136768
000010 7b 3d 13 bc 26 42 17 3c cc 71 b9 3c c9 0a 3b 3c
       -0.008986826 0.00923208 0.02263727 0.011416146
000020 d8 81 24 3d f9 c6 8c bc eb c8 84 bb 42 91 70 bc
       0.04016289 -0.017184721 -0.0040522716 -0.01468307
000030 8a 5b 1b 3e bc a1 17 3c ed f2 07 3d b6 71 6c 3e
       0.15171638 0.009254869 0.033190656 0.23090252
000040 35 e0 10 3c e4 43 42 3c 54 d2 cc bb 60 b8 a6 bd
       0.008842518 0.011857007 -0.006250659 -0.081406355
000050 92 10 6f bc b7 63 39 bd 2a 29 8d 3b 07 97 31 bc
       -0.014591353 -0.04526111 0.0043078857 -0.01083923
000060 51 de 50 bd fe 6d 92 bd 94 c5 00 3d 31 14 0a 3d
       -0.050993267 -0.071498856 0.031438425 0.033710662
000070 78 34 cb 3c 99 51 99 bc cc 1c 07 3d ef 0c e0 bc
       0.024805292 -0.018715667 0.032986447 -0.027349917
000080 18 fb 29 3d af d3 e4 3d 8f 16 cf 3d 3d 20 a0 bc
       0.041499227 0.11173188 0.101117246 -0.019546622
000090 dc f4 95 bd b9 cf 1f 3d 89 5d dd 3d 7a 76 d8 3d
       -0.07322094 0.03901646 0.10808856 0.105694726

dense_14/bias f4 [45]
000000 33 88 cd 3b 18 19 ff bc e7 02 b8 3e cc 0e ce ba
       0.0062723397 -0.031139895 0.35939714 -0.0015720963
000010 5d 51 0d 3b e4 46 6e ba ec 5f 35 3b 7c 53 c2 3b
       0.002156339 -0.0009089543 0.0027675582 0.0059303623
000020 c7 8f 8f 3b 96 e1 16 3c f5 82 84 bb f0 41 0e bc
       0.0043811533 0.009209057 -0.0040439316 -0.008682713
000030 86 d2 3b 3e 18 8a 07 3d 0b ea a6 bc 59 71 d3 3c
       0.18342027 0.03309068 -0.020375272 0.025810884
000040 53 2d cc bc 14 58 dc 3d 68 8d 68 3b 45 70 55 3b
       -0.024923956 0.10758987 0.0035484675 0.0032568139
000050 21 a8 84 3b 5d ce c6 ba 29 78 70 bb eb e4 90 bb
       0.004048363 -0.0015167702 -0.0036692715 -0.0044218204
000060 fa 66 ce 3b ee dc cf 3a 38 3d 7e 38 32 c5 b9 3d
       0.006298897 0.0015858689 6.0615333e-05 0.09070815
000070 1e 3b eb 3d 4d a7 83 bc e8 0e 74 bc 14 d0 a0 3c
       0.11485885 -0.016070986 -0.014896132 0.01963047
000080 6c 2a 89 be 60 f7 59 3a bb 85 b8 ba 94 a3 a4 ba
       -0.26790178 0.0008314755 -0.0014077941 -0.0012560957
000090 f1 a8 18 3b b6 b5 09 ba 92 7d 7d 3b 15 7b b0 bb
       0.0023294056 -0.00052532123 0.0038679582 -0.0053857663
0000a0 c3 93 a6 3b d6 77 06 bb a2 8c 1e bd 1e 00 4e bc
       0.0050835325 -0.0020518205 -0.038708337 -0.01257327
0000b0 92 79 0d 3e
       0.13815907

dense_13/bias f4 [40]
000000 98 da 88 bd 2a e0 cd bb d8 8e 58 bd 4d 86 1e bd
       -0.066823184 -0.006282826 -0.0528706 -0.038702298
000010 50 cd 9a bd 87 0d ca bc 11 05 e7 bc 9e ff b4 bc
       -0.075586915 -0.024664653 -0.028200658 -0.022094544
000020 7f d3 fe bc 11 6a d5 bc c9 c8 08 bc ee 81 c7 3b
       -0.031106709 -0.026051553 -0.008348652 0.006088487
000030 ca b3 40 bd c7 05 f3 b9 1a 79 b2 bc ef b0 ca bc
       -0.04704646 -0.00046352876 -0.021786261 -0.024742572
000040 d7 eb 9d bd 92 9d 0c bc 60 bb 70 bd 96 9b 03 bc
       -0.077109985 -0.00858249 -0.058772445 -0.0080327
000050 08 ec 6e 3c 77 e9 c2 bc df 2c a3 3d 65 68 82 bd
       0.014582641 -0.023792965 0.07967543 -0.06367568
000060 81 cf 6d bd 59 f6 27 bd 51 a9 49 bd 59 da d8 bb
       -0.05805922 -0.04100642 -0.04923374 -0.006617826
000070 07 dd d0 bc a3 83 23 bc 93 59 b8 bd a2 ad 8d bd
       -0.025496019 -0.009980115 -0.0900146 -0.069178835
000080 ba ce 99 3d e2 13 1f bd ab 3e 3d bd b4 36 4d 3e
       0.07510133 -0.03883732 -0.046202343 0.20040399
000090 07 2b 87 bc df 8b 3f bd fc 70 8e bc ca c9 9f bc
       -0.01650001 -0.04676425 -0.01738786 -0.0195054

dense_12/bias f4 [40]
000000 c5 4c 48 bd 2d 0b 26 bd 22 ec 87 3d d2 8b 84 bc
       -0.048901338 -0.040538 0.06636836 -0.016179953
000010 1d b8 96 3b 6a 93 b9 3d 3e 10 0b bd 78 e5 10 bd
       0.0045995847 0.0906132 -0.033951037 -0.03537509
000020 fb d2 38 bd 96 49 89 bd 75 83 d7 bc 65 de c5 bd
       -0.04512308 -0.067034885 -0.0263078 -0.09661559
000030 75 78 31 bd ce 9d e3 39 bc aa 93 bc 83 f1 30 bd
       -0.043327767 0.00043414388 -0.018025748 -0.043199074
000040 56 42 5f bc 50 01 f4 bc 73 c0 69 bd 39 f8 7e bd
       -0.013626656 -0.029785782 -0.0570683 -0.062248442
000050 56 24 10 bd ba 23 51 bd bf 4e 04 bd ba 9c 3c 3d
       -0.035190903 -0.051059462 -0.03230166 0.046047904
000060 6e 91 6a bd 68 93 13 3d 67 28 ed 3c 2a 43 09 bd
       -0.0572676 0.03602925 0.02894993 -0.03351132
000070 f8 aa aa 3d 91 10 60 bc cf 6e 20 bd 0b aa 2d 3c
       0.08333391 -0.013675825 -0.039168175 0.010599623
000080 8f 24 25 bd bb 2c 1b bd f3 82 15 3d 0d 8a f9 3c
       -0.040318068 -0.037884455 0.036501836 0.030461336
000090 24 20 11 bd 55 ab a6 bc 2d c1 63 bc 9f 20 8c 3d
       -0.035431042 -0.02034537 -0.013901037 0.068421595

dense_11/bias f4 [40]
000000 0d 09 32 3d b5 15 97 3b 17 8c 37 bc 41 b9 6c 3b
       0.043465663 0.004610742 -0.011202834 0.0036121162
000010 ee 90 af 3d c3 80 d0 3d 52 f7 97 3d ae dd a6 3d
       0.08572565 0.10180809 0.074202195 0.08147751
000020 97 4a d2 3d c6 0f 25 bd ca 5e 38 bd ec 3c 97 bd
       0.10268133 -0.040298246 -0.045012273 -0.07384667
000030 93 38 4a bb 4d cb 96 bc 64 83 5d 3d dd b4 42 bc
       -0.0030856475 -0.018407488 0.054080382 -0.0118839415
000040 4c 01 f6 3c 08 1e 8b bc 71 08 a6 bd 71 5b 9b bc
       0.030029915 -0.016982093 -0.08107079 -0.018964501
000050 03 51 65 3c 2e cc 94 3d 45 ed 90 3c 6b e5 b6 3c
       0.0139963655 0.07265507 0.017691264 0.022326192
000060 2a 21 b4 bc 56 6f 2c 3d d0 1b 0c 3d 66 73 e2 3c
       -0.02198847 0.042098366 0.03420621 0.027642917
000070 e1 d2 a5 3a dc 99 04 3d fd 09 82 3d 58 42 93 3c
       0.0012651348 0.032373294 0.06349561 0.017975971
000080 dc 4f 8c bd c0 53 16 bc c0 77 7b 3d aa b5 27 3d
       -0.068511695 -0.009175241 0.0613935 0.040944733
000090 3b a0 64 3c 09 15 a2 bc 5f 44 a1 bd be 05 75 3d
       0.013954218 -0.019785421 -0.07874369 0.05981993

dense_10/bias f4 [45]
000000 8c 19 6e 3c 2b bf 8b bd 82 ad 90 3e e2 4c 04 3c
       0.014532458 -0.06823572 0.28257376 0.008074971
000010 cc 2d 2b 3a 1e fe 05 bc f0 37 57 bb af 57 7e ba
       0.00065299566 -0.008178262 -0.0032839738 -0.0009702397
000020 2f cd cd 3b 8a db 80 3b da 62 05 3c 18 e6 d1 bb
       0.0062805633 0.003932421 0.008141244 -0.006405603
000030 41 e4 18 3e 97 0d e6 bc 94 78 d7 3b 8f 18 91 ba
       0.14930822 -0.028082652 0.0065756533 -0.0011069941
000040 2b d5 b2 bc 31 3d ee 3d 25 4a ad ba 82 28 84 3b
       -0.021830162 0.11632765 -0.0013220949 0.004033149
000050 98 a6 50 3b 77 f0 42 bb ca 59 65 3b 68 44 9c 39
       0.003183758 -0.002974538 0.0034996145 0.00029805605
000060 6d bd a4 3b ac ce 64 bb ac ac 90 39 23 7c 7a 3a
       0.005027464 -0.0034913225 0.0002759447 0.0009555241
000070 4a 1c f3 3d e2 e1 f6 bc eb 21 c8 3b d4 f0 13 3d
       0.1187063 -0.030137006 0.006107559 0.036118343
000080 6c c4 4b be 39 d3 67 3a 1c a3 82 3b f4 c8 67 3b
       -0.19899148 0.00088434253 0.0039867293 0.003536758
000090 04 ac 0c 3c ae ba 73 3b 3a 99 fe 3b 69 d2 13 bc
       0.008585934 0.0037190127 0.007769731 -0.009022334
0000a0 8e 75 29 3b 49 b1 2c 3b 5b d5 71 3c 3b 00 a1 3c
       0.0025857422 0.0026350787 0.014760341 0.01965343
0000b0 65 8e f8 3d
       0.121365346

dense_1/bias f4 [40]
000000 d9 b0 0f 3d 77 8f ed bc 15 fb 10 bd 2b 89 7c bb
       0.035080764 -0.028999073 -0.0353957 -0.0038533907
000010 6a 80 cd bb 7a 27 5d 3c ab 20 23 bb 5e 81 be 3d
       -0.0062714117 0.0134981815 -0.0024891298 0.093020186
000020 5c 00 8c bd 53 3a a3 bd e0 96 85 bc 76 68 cf bc
       -0.06836006 -0.07970109 -0.016307294 -0.025318366
000030 cd 47 ca 3d 98 2e 55 bd 18 1d b7 bd ec 73 b4 3b
       0.09876976 -0.05204639 -0.08941096 0.005506983
000040 bd c9 42 bd 59 c1 66 3d db 53 91 3a a5 b4 78 bd
       -0.047555674 0.056336734 0.0011087613 -0.06071915
000050 89 3b 85 bb 90 00 85 3d d7 c2 82 bd cb 6c ca bc
       -0.004065935 0.06494248 -0.06384819 -0.02471008
000060 6b b0 30 bd cb 70 a9 bb 89 b0 b8 bc 5a 58 4e 3c
       -0.043136995 -0.0051709167 -0.022545116 0.012594307
000070 5f 1a 1c 3d f2 53 57 bd db 2a bd 3c 13 07 73 bd
       0.038111087 -0.05257029 0.023091724 -0.05933292
000080 e6 fd c9 3c 8d b5 4e 3c 45 37 5c 3c e7 f4 df 3d
       0.024657201 0.012616527 0.013440912 0.10935383
000090 0b a7 34 3d 38 14 83 bc 82 ec 07 bd 34 de 61 bd
       0.044104617 -0.016000852 -0.033184536 -0.05514355

dense/bias f4 [40]
000000 53 54 aa bd ef 3d 33 bc 1c c0 6e bd 51 d6 70 3c
       -0.08316865 -0.010940059 -0.05828868 0.0146995345
000010 be 87 70 3d 45 d3 83 bd 70 ab 08 3d d1 fc c7 3d
       0.058723204 -0.06436781 0.03336662 0.09765018
000020 41 a3 b2 bd d0 dc ee 3d e6 4d b3 3c b1 c5 32 3c
       -0.087225445 0.116632104 0.02188773 0.010911391
000030 87 dd 1c be 9a 98 b0 3d 4e 64 b2 3d f4 8a 85 3d
       -0.15318881 0.086228564 0.08710538 0.06520644
000040 3e 8c 4c 3d 7c 89 00 bd 3f 63 9b 3c 0e e1 bb bd
       0.049938433 -0.031381115 0.018968223 -0.09173785
000050 aa 5b 04 bd 8b 6c 7d bd 8e 25 5a 3c 24 3c 22 bd
       -0.03231398 -0.061871093 0.013314618 -0.039608136
000060 00 5c 9a bc 45 95 99 bd 92 2c 9d 3c 11 59 7c bd
       -0.018842697 -0.07499174 0.019186292 -0.061608378
000070 b5 d1 f8 3d 05 af 90 bd f8 f1 b5 bc e3 e6 ad bd
       0.121493734 -0.07064632 -0.022210106 -0.08491304
000080 90 d7 31 bd 49 07 1c bc c9 46 4e bd a8 16 a9 3d
       -0.043418467 -0.009523221 -0.050360475 0.082562745
000090 68 22 f1 3a df 0e 02 3e c8 cc 00 bc af 84 97 bd
       0.0018397095 0.12700985 -0.007861324 -0.07398354

bias/bias f4 [15]
000000 65 5e 5d 3d 11 77 9c bd 6b 03 48 bd 86 c2 53 bd
       0.0540451 -0.076398976 -0.048831385 -0.051699184
000010 37 ad f9 bb 72 af 0d bd 00 7c a2 bc d7 43 bb bc
       -0.007619526 -0.034591146 -0.019834518 -0.022859497
000020 a8 e2 80 bd 47 19 94 3d 84 0a 27 3b 32 a4 e7 bd
       -0.06293231 0.07231384 0.0025488446 -0.11310615
000030 c6 4f 23 3d 9a b5 03 bd 00 3f ea bd
       0.039871 -0.03215561 -0.114377975

model/dense_11/MatMul f4 [40, 15]
000000 3d 93 79 b8 10 6b 0d 38 45 b8 36 b7 b0 19 e3 36
       -5.9503353e-05 3.371673e-05 -1.0890949e-05 6.7681176e-06
000010 19 a6 89 3c 73 f0 7c 39 fc 19 47 38 2c 0d c1 b8
       0.016802834 0.00024122167 4.7469497e-05 -9.2054106e-05
000020 d4 8c 77 b6 8f 70 6f 38 ea 9a 9b b8 e8 7b b3 b6
       -3.688784e-06 5.708687e-05 -7.419831e-05 -5.3490403e-06
000030 47 e7 8e b8 81 62 20 b8 9c 96 87 b7 4b 54 21 38
       -6.8141664e-05 -3.823871e-05 -1.6163387e-05 3.8463895e-05
000040 00 eb 8e b3 4a da b6 bb f7 09 4b b8 51 5d 06 37
       -6.6551365e-08 -0.0055802213 -4.8408252e-05 8.008749e-06
000050 1b 03 96 b7 9e 50 a6 b6 00 86 64 b7 f5 f7 c8 b7
       -1.788284e-05 -4.9565706e-06 -1.3621058e-05 -2.3957322e-05
000060 98 65 6c b8 b2 08 a8 b7 2e c3 8d b7 2a 96 96 36
       -5.63614e-05 -2.003121e-05 -1.6899397e-05 4.4878298e-06
000070 0e de 30 b9 06 c8 80 37 ea 5a df ba 91 68 a6 ba
       -0.0001686739 1.5351932e-05 -0.0017040644 -0.0012695958
000080 e3 27 23 bc 38 57 85 3b 26 2c 16 ba 35 e1 79 3e
       -0.00995824 0.004069235 -0.00057286245 0.24402316
000090 54 ee 6b bb 66 b0 a4 3a b0 3a ab 39 a0 e1 d5 3b
       -0.003600021 0.0012564778 0.00032659387 0.0065271407
0000a0 12 7b 2c bb 84 fe d0 ba 18 07 1a 39 0c 68 08 3a
       -0.0026318473 -0.0015944992 0.00014689227 0.00052034925
0000b0 7f 9f 53 ba 38 50 3d ba 88 09 24 bb 12 89 83 bc
       -0.0008072778 -0.00072217314 -0.0025030095 -0.016056571
0000c0 31 3a 4f 3b a8 21 cd b9 23 a4 80 3e a9 d8 b3 bb
       0.0031620378 -0.00039125723 0.25125226 -0.0054884744
0000d0 37 b8 01 3b 90 77 da 38 a0 23 7f 3b 7b 5a 24 bb
       0.0019793638 0.0001041732 0.0038931146 -0.0025078345
0000e0 8c 07 fb ba e8 84 18 39 0e f9 4c 3a 40 b3 9b b7
       -0.0019152029 0.00014545361 0.00078190945 -1.856091e-05
0000f0 60 86 ac be 39 77 21 bd 13 98 ce bc 8e 27 54 bd
       -0.3369627 -0.03942034 -0.025218999 -0.051795535
000100 8e 9c 50 3c f4 cb 8c 3e 46 0f 10 bc f1 76 5a 3a
       0.012732638 0.27499354 -0.008792704 0.00083337637
000110 d7 d4 89 3b 76 5a cf 3b f4 69 92 ba 54 40 a2 3b
       0.0042062807 0.0063279225 -0.0011170493 0.004951516
000120 ed b5 0d 3b 2c d2 f1 bb dc 72 f9 3a 45 22 60 3c
       0.0021623329 -0.007379791 0.0019031423 0.0136800455
000130 c3 f9 8e bb ea ef 4b bb d6 62 39 3c c0 f3 30 bc
       -0.00436327 -0.0031118342 0.011315068 -0.010800302
000140 21 89 9b 3e 3a 6d e4 bb 0f 9b 55 3b 86 f6 59 ba
       0.3037806 -0.0069710286 0.0032593643 -0.0008314628
000150 b6 ab 03 3c 6b 01 21 3a 54 b8 e5 bb e4 c5 a5 3b
       0.008036545 0.0006141874 -0.007010499 0.005058991
000160 3c 0d 0a bb a0 20 78 38 d0 6f 69 39 ee 2a df 3a
       -0.0021065017 5.9158192e-05 0.00022262265 0.0017026344
000170 dc 8d bb 39 b4 09 3d 39 d4 6a fb 39 8b 48 32 bc
       0.00035773113 0.0001802806 0.00047954044 -0.010881553
000180 08 cb 16 b8 c7 20 76 3a 2e 61 ac b9 35 86 a2 b9
       -3.5951874e-05 0.00093890395 -0.000328788 -0.0003099904
000190 65 b2 c6 39 f2 cd 4d ba a3 13 3a b9 eb f4 f2 3c
       0.00037898417 -0.00078508176 -0.00017745658 0.029657802
0001a0 a5 29 96 b9 3e 59 f3 38 ea 19 41 b8 84 b1 dd b9
       -0.00028641257 0.000116037656 -4.603892e-05 -0.00042284664
0001b0 d6 7b ae b9 63 a1 c4 bd 50 33 19 b8 c0 5a d6 38
       -0.0003328013 -0.096010946 -3.652583e-05 0.00010221219
0001c0 23 ec 1b bd 8a b1 d4 37 60 df 07 b9 a4 16 f0 38
       -0.038066994 2.5355042e-05 -0.00012957817 0.00011448309
0001d0 6c 94 32 38 ba 1a 22 38 e1 d2 a8 3c 8a c0 3f b8
       4.2576736e-05 3.86487e-05 0.020608367 -4.5717265e-05
0001e0 2e 27 45 38 9c a8 2d 37 1e 1b 9a b6 da c9 fe b6
       4.700495e-05 1.0350861e-05 -4.5927145e-06 -7.5932885e-06
0001f0 a0 fe 47 bd a0 fc b3 36 05 41 fe 37 65 47 91 b7
       -0.048826814 5.364025e-06 3.0309437e-05 -1.7318593e-05
000200 7f a4 93 b7 ea 7e 65 37 64 7f 42 b7 1b 20 e6 37
       -1.7600365e-05 1.3679013e-05 -1.15929615e-05 2.7433087e-05
000210 d0 92 88 3c 72 b7 24 38 a5 63 10 38 f9 03 70 38
       0.016671568 3.9271494e-05 3.4425077e-05 5.722416e-05
000220 a7 22 6a b7 ab 92 b4 36 90 3d 18 b7 2d bf 48 b8
       -1.3955555e-05 5.3814924e-06 -9.07424e-06 -4.7861762e-05
000230 38 ca 04 b4 85 fb 59 37 55 c9 40 38 aa 56 b3 37
       -1.2367025e-07 1.2992769e-05 4.5963872e-05 2.1378819e-05
000240 8e 32 82 3d 68 66 57 b6 51 4f 0d 37 bf 57 0f 37
       0.06357299 -3.2097105e-06 8.422722e-06 8.543894e-06
000250 61 ec c3 37 50 b1 24 38 cd 69 88 37 c2 90 67 38
       2.3355884e-05 3.9265782e-05 1.626173e-05 5.5209508e-05
000260 a2 f5 99 b7 72 84 cd 36 e6 a0 a1 37 28 71 8e b8
       -1.8353403e-05 6.1248948e-06 1.926762e-05 -6.792165e-05
000270 02 97 b1 b7 da ea e5 b6 f8 c0 28 38 48 a7 2e b8
       -2.1170363e-05 -6.852072e-06 4.0234037e-05 -4.1640626e-05
000280 ef 7c 4a b7 48 14 7c b7 96 12 f8 36 37 06 8e 36
       -1.2069227e-05 -1.5025093e-05 7.3931396e-06 4.2326533e-06
000290 f6 47 91 37 32 13 36 b8 e0 98 cf b6 e2 19 05 b8
       1.7318856e-05 -4.341006e-05 -6.1868777e-06 -3.1733776e-05
0002a0 a9 81 e6 36 8a eb 30 38 0e 7c 7d bd 80 72 0c b6
       6.8696286e-06 4.2181033e-05 -0.061885886 -2.0928273e-06
0002b0 40 36 47 37 7c d9 18 3d 1e 54 22 37 3e ad cb 36
       1.1873955e-05 0.037316784 9.6755375e-06 6.0700395e-06
0002c0 60 38 e8 bb d5 90 0d 3d 50 5a 1f b6 05 78 95 37
       -0.0070867985 0.03456195 -2.3745415e-06 1.7818073e-05
0002d0 99 bb 4c 3e 49 6b 6b 3d 52 ec e8 3b b0 41 62 b8
       0.19993438 0.057475362 0.0071082497 -5.3943775e-05
0002e0 7e f5 57 b7 5a 40 de 37 2a b0 97 37 7e 35 0b bc
       -1.2872157e-05 2.6494428e-05 1.8082636e-05 -0.00849664
0002f0 c6 1e 93 bd b9 e9 59 38 fb 1a b2 b8 4e a7 f4 bb
       -0.07183604 5.1954503e-05 -8.492727e-05 -0.0074662333
000300 6b 27 ab b8 81 c9 87 b7 7a 1d 70 3d 5c fb 92 ba
       -8.1612576e-05 -1.6187087e-05 0.05862186 -0.0011213827
000310 f4 b9 5c ba 00 8c 31 ba 18 60 bd b9 83 99 86 3d
       -0.0008420043 -0.0006772876 -0.00036120485 0.06572249
000320 52 b0 ce ba 41 bf af 39 e9 2f d0 b9 ca b6 22 39
       -0.00157691 0.00033521096 -0.00039708547 0.00015517618
000330 74 f1 69 b9 9c e4 74 3d 9a 2b ba 3a 33 e9 3a ba
       -0.0002231056 0.05978833 0.0014203668 -0.00071300863
000340 31 52 26 3d b2 7e 0e 3a 60 43 6b ba c6 0e c3 bb
       0.040605728 0.0005435749 -0.0008974578 -0.005952689
000350 b9 36 96 ba 62 1c f6 ba b9 8e 3c 3e 78 37 b2 b9
       -0.00114604 -0.0018776769 0.1841382 -0.00033992133
000360 8c b4 4a 3a a2 a1 ac ba 0e 65 8e 3a 30 2c 1c bb
       0.0007732592 -0.0013170729 0.0010863857 -0.0023830049
000370 48 55 14 ba 2d c0 29 3b b0 5a 0d b7 c0 e3 67 3a
       -0.000565846 0.00259019 -8.42537e-06 0.0008845888
000380 22 a5 02 ba 2c 20 f0 b6 6d 3e 16 b8 cb 1c 07 b8
       -0.0004983713 -7.1563027e-06 -3.5820925e-05 -3.2213324e-05
000390 50 e3 b6 38 ab 81 15 38 90 e0 32 b5 c8 cd bc 36
       8.7207765e-05 3.564513e-05 -6.663695e-07 5.6267927e-06
0003a0 a0 6d 8c 36 38 34 ac 36 d5 fb d2 b7 74 ac b6 35
       4.185087e-06 5.1320785e-06 -2.515122e-05 1.3610247e-06
0003b0 74 e6 74 b7 4c 6f 39 b7 40 d9 21 37 2c 4f 05 38
       -1.459719e-05 -1.1052773e-05 9.64693e-06 3.1783406e-05
0003c0 fd 22 5c 3d 46 8a d2 37 e4 92 28 3d c8 eb f8 b6
       0.053744305 2.509834e-05 0.04115571 -7.4184245e-06
0003d0 f6 f4 59 3d f0 31 ea b6 1a 68 47 37 87 76 e2 36
       0.05321213 -6.979557e-06 1.1885562e-05 6.7491233e-06
0003e0 1d 54 78 b8 f8 8d a2 3d 80 dc 0d b4 b4 5d 10 38
       -5.9206144e-05 0.07937235 -1.3211866e-07 3.4419543e-05
0003f0 68 4e d2 b7 bf 98 86 b7 46 35 96 3d 58 dc db b7
       -2.5070462e-05 -1.6045173e-05 0.0733438 -2.620944e-05

model/dense_12/MatMul f4 [40, 40]
000000 a0 fa af 36 78 66 35 38 ea ef d6 b6 1e 53 a4 37
       5.244583e-06 4.3249194e-05 -6.4056267e-06 1.9589028e-05
000010 33 c9 87 b8 9c 5e 9a b7 08 59 3e b8 b4 67 c8 b8
       -6.474778e-05 -1.8402287e-05 -4.5382447e-05 -9.5560594e-05
000020 ba 7d 0f 38 a7 36 a1 b8 97 ba c3 b7 72 0b a1 b8
       3.421095e-05 -7.687258e-05 -2.33327e-05 -7.67921e-05
000030 24 2f 92 37 47 ba 97 b8 be d3 4d b7 c4 e0 a2 b8
       1.7426508e-05 -7.234938e-05 -1.2268252e-05 -7.766628e-05
000040 e7 15 ad 37 b3 9c e1 b8 24 8d 10 b7 2a 17 96 37
       2.0633406e-05 -0.000107580236 -8.615931e-06 1.789218e-05
000050 d0 df 2e 38 30 75 9e b5 a6 25 39 38 f0 80 7b b8
       4.1693274e-05 -1.1806023e-06 4.41425e-05 -5.9963146e-05
000060 20 83 ab b4 35 97 38 b8 72 49 54 b8 ac 64 80 b8
       -3.1946638e-07 -4.400984e-05 -5.061314e-05 -6.122267e-05
000070 a5 22 36 39 e2 2f ca 38 5f 75 8b 37 b4 a0 22 38
       0.00017369779 9.6410295e-05 1.6624746e-05 3.8773476e-05
000080 d0 db 39 b7 5e e7 9b b7 77 7e 1f 39 13 08 8d 38
       -1.1078038e-05 -1.8585179e-05 0.00015210533 6.724908e-05
000090 80 16 b6 37 ce 4e 9f b8 c5 f6 bb 37 42 82 8f b6
       2.1706568e-05 -7.596389e-05 2.2407048e-05 -4.276896e-06
0000a0 9a 9c fa 37 4a 1f 50 38 30 49 6f b7 f5 53 8b b8
       2.9875246e-05 4.9620205e-05 -1.426255e-05 -6.643675e-05
0000b0 3e c5 ec b7 a2 e6 8c b8 14 de 0b b9 57 cb 15 b9
       -2.822524e-05 -6.718679e-05 -0.00013338804 -0.00014285497
0000c0 5e da de 37 90 57 0b 39 44 14 9a 38 47 4e a6 b7
       2.6566147e-05 0.00013288693 7.347067e-05 -1.9825193e-05
0000d0 6c 6a cd b6 82 05 19 37 f4 22 b9 b7 00 c2 2b b5
       -6.121865e-06 9.120793e-06 -2.2069995e-05 -6.398477e-07
0000e0 a4 5c 0e 38 55 6b 8f 38 fa 54 ed b7 00 73 b4 36
       3.3941717e-05 6.8387635e-05 -2.8292172e-05 5.377806e-06
0000f0 21 81 27 38 6b ec 5c 38 a2 fc 84 b7 c0 d9 e8 b7
       3.9936163e-05 5.267227e-05 -1.5853268e-05 -2.7757953e-05
000100 50 e5 79 b6 e4 e5 af b8 fc eb b4 b8 6c f4 1e b7
       -3.7237369e-06 -8.387471e-05 -8.627024e-05 -9.474443e-06
000110 60 ce 2e b9 34 57 ad b7 9b 84 86 37 69 a6 b2 b7
       -0.00016670814 -2.0663814e-05 1.6035794e-05 -2.1296744e-05
000120 82 17 db b8 a2 72 84 36 4c be 8d b7 e8 89 ab b6
       -0.000104471124 3.9472516e-06 -1.6897124e-05 -5.1122515e-06
000130 7e 52 a4 b8 9a 65 2a b8 58 f5 66 38 13 9b dd 37
       -7.835495e-05 -4.0625782e-05 5.5064767e-05 2.6417465e-05
000140 0e b2 03 b8 68 ef 45 35 56 d0 0b b9 24 e6 48 b9
       -3.139866e-05 7.37366e-07 -0.00013333684 -0.0001915922
000150 7b 50 4f b9 38 84 a1 b7 64 06 24 b7 15 22 5e 3d
       -0.0001977104 -1.9254265e-05 -9.77665e-06 0.054231722
000160 47 4f 67 b7 04 8b 9c 37 c6 e7 4d 37 82 db 18 3c
       -1.3787131e-05 1.8661383e-05 1.2272916e-05 0.0093296785
000170 a8 8a 78 b7 28 ff 97 3c 10 8e ba b5 56 a6 ca 36
       -1.4814235e-05 0.018554285 -1.3899426e-06 6.039433e-06
000180 c4 dd ce 3c eb a1 14 38 41 ee 5e b7 6c a7 e5 b7
       0.02525223 3.5436748e-05 -1.3287704e-05 -2.737689e-05
000190 1b b5 1f 36 76 8c 8f 37 82 8e c4 bc 71 d6 27 bb
       2.3798264e-06 1.7112336e-05 -0.023993734 -0.0025609995
0001a0 26 1e 69 b9 8e c1 2a b8 ee 69 da 37 a8 96 f8 36
       -0.00022231843 -4.071142e-05 2.6036952e-05 7.4085146e-06
0001b0 92 bf 2c 38 b8 ae 01 b7 9a 4d 8d b9 8e 8c 1b 37
       4.118641e-05 -7.729679e-06 -0.00026951433 9.271445e-06
0001c0 04 8f 3c b6 ce 91 5b b7 12 28 11 b8 dd 35 aa b7
       -2.809743e-06 -1.3087365e-05 -3.4608012e-05 -2.0290661e-05
0001d0 7e 3c f8 b8 f4 8a 25 38 db f4 35 37 58 2f 19 b8
       -0.00011836829 3.9468476e-05 1.0845451e-05 -3.6522135e-05
0001e0 c4 1c dc 36 dc 7a a1 b8 5a a2 89 b8 8e 18 c3 b7
       6.5598597e-06 -7.6999626e-05 -6.5629094e-05 -2.3257246e-05
0001f0 0a d3 8d b8 0e 0c 20 b8 54 3c 79 b8 17 85 89 b8
       -6.762713e-05 -3.81582e-05 -5.942241e-05 -6.557459e-05
000200 ee ef 33 38 3a 96 bd b7 db 9d 6a b8 5a 8e 17 38
       4.2900378e-05 -2.260051e-05 -5.5936962e-05 3.613378e-05
000210 ac fa e6 36 6a 98 00 b7 9a 79 bf 37 30 8d 4f 37
       6.883716e-06 -7.664881e-06 2.28256e-05 1.2371034e-05
000220 3a ef af b7 10 2d 20 39 88 de ed b7 e9 e7 8b b7
       -2.0973024e-05 0.00015275576 -2.8356226e-05 -1.6678083e-05
000230 0e f6 8e 38 50 9a e8 38 14 b4 94 38 22 17 05 39
       6.816919e-05 0.00011091365 7.090732e-05 0.00012692486
000240 52 48 1e 36 6a 90 f7 b7 f8 19 5c 37 d7 71 c2 b8
       2.358593e-06 -2.9511943e-05 1.3119068e-05 -9.271845e-05
000250 6d b8 79 b7 50 79 6a 37 50 93 d2 b6 dc 54 8b 38
       -1.48844965e-05 1.3975732e-05 -6.275637e-06 6.643843e-05
000260 1a a0 47 b8 8a 95 d3 38 b7 21 4b b7 c4 3a 15 b6
       -4.7594403e-05 0.00010089118 -1.2107593e-05 -2.2236936e-06
000270 d3 3d c0 37 12 95 c9 37 fd 4d 01 b8 da 6b a7 37
       2.2916973e-05 2.4030483e-05 -3.082863e-05 1.9958174e-05
000280 71 b8 fd b7 a8 2d 28 b8 67 89 65 38 37 40 ea 37
       -3.0245837e-05 -4.0096842e-05 5.472582e-05 2.7924876e-05
000290 aa 5f 4a 39 7d 05 e0 38 56 41 1c b7 1f dd 14 b7
       0.00019299859 0.000106821746 -9.313537e-06 -8.872971e-06
0002a0 4f 30 0c 38 84 3e 84 38 54 2f 4a 37 19 fb 77 b7
       3.3423592e-05 6.305895e-05 1.2051158e-05 -1.47808105e-05
0002b0 0c 52 e3 b4 34 59 17 b8 df a5 f1 b7 e6 41 ae 37
       -4.2341742e-07 -3.6084282e-05 -2.8806679e-05 2.0773103e-05
0002c0 32 63 82 b6 d8 29 23 38 f2 16 7e b7 04 ac 9b 37
       -3.8858498e-06 3.89012e-05 -1.5144922e-05 1.855754e-05
0002d0 f6 86 d6 b7 48 d1 32 b8 be af 28 37 f8 e1 91 38
       -2.5573634e-05 -4.2633415e-05 1.00544985e-05 6.956229e-05
0002e0 5a b6 ef 38 70 91 10 b6 d3 dd 0b 3d 16 9b 29 b7
       0.00011430374 -2.1542328e-06 0.034147095 -1.0109294e-05
0002f0 4c 1a 79 37 de 03 25 b8 76 eb 36 37 00 3d fb b5
       1.4847679e-05 -3.9342667e-05 1.0902868e-05 -1.8718711e-06
000300 bc c0 06 b7 45 fb 9f b7 b0 ac 9b 34 f6 62 d8 36
       -8.031897e-06 -1.9071284e-05 2.8996647e-07 6.448822e-06
000310 64 30 e1 38 f4 5f 4c 36 10 83 71 3c a5 25 3b 37
       0.000107378495 3.045422e-06 0.01474072 1.1154833e-05
000320 ec 6d 3c b9 82 c0 fb 37 a2 88 93 b8 1e 10 4e b8
       -0.00017970026 3.0011175e-05 -7.034956e-05 -4.9129238e-05
000330 4b dc b9 38 ee 6c f3 b8 38 f6 94 b7 2e 5c 35 b7
       8.86252e-05 -0.00011607433 -1.775763e-05 -1.0809903e-05
000340 78 ea 8a b7 04 f7 bc b7 7b 31 de 37 77 08 d5 38
       -1.6560065e-05 -2.2526372e-05 2.6487503e-05 0.00010158208
000350 b0 d2 0a b9 87 6e d9 37 d6 56 d7 b7 78 61 8e b8
       -0.00013239193 2.5919884e-05 -2.5670433e-05 -6.7892426e-05
000360 48 8f 83 b8 06 53 09 39 c2 e0 ff 38 18 69 b9 36
       -6.273255e-05 0.00013096267 0.00012201212 5.525664e-06
000370 cc c9 53 38 9a 3f d4 37 cc 4b 58 b8 2b 93 00 b8
       5.0494258e-05 2.5301986e-05 -5.1569004e-05 -3.065464e-05
000380 18 bf 86 b7 db e7 48 b9 7e 0c 33 b8 4b c2 dc 37
       -1.606303e-05 -0.00019159859 -4.268856e-05 2.6316518e-05
000390 82 d2 ac 37 75 a0 97 b8 c0 4a df b6 ac 3a 59 b8
       2.0602023e-05 -7.2301285e-05 -6.65462e-06 -5.1791474e-05
0003a0 e0 39 b2 37 6e 1c 79 38 da 18 99 b8 d5 6a 45 b8
       2.1246204e-05 5.9392703e-05 -7.3002375e-05 -4.7067955e-05
0003b0 8c 5e 9c 38 3c 20 08 38 2e 61 b0 37 2a b6 32 38
       7.4562704e-05 3.2454947e-05 2.1026088e-05 4.260816e-05
0003c0 1a 5a e1 37 a2 19 20 b7 0c a6 14 37 d8 f2 c4 37
       2.6864047e-05 -9.542711e-06 8.860148e-06 2.3478104e-05
0003d0 63 b5 af b7 dc 75 20 b7 e6 82 b1 b7 14 8e ed b8
       -2.094609e-05 -9.564184e-06 -2.1160999e-05 -0.00011327505
0003e0 db 90 a4 b7 b8 5d c5 37 e0 dc 07 b6 9c 83 86 36
       -1.9617777e-05 2.3527871e-05 -2.0245134e-06 4.0088325e-06
0003f0 db a5 53 b8 d0 cb ff 35 8f b7 80 3d 3a 85 cc 37
       -5.0460785e-05 1.9058298e-06 0.06285011 2.4380734e-05

model/dense_13/MatMul f4 [40, 40]
000000 2c 83 4f b8 7f 8a d5 38 f2 61 23 38 d8 5f 92 37
       -4.947481e-05 0.000101824284 3.8953447e-05 1.7449187e-05
000010 68 98 57 36 56 a7 fd 37 dc bf e9 b7 f6 93 bc b9
       3.2126209e-06 3.0237872e-05 -2.7865106e-05 -0.00035968394
000020 ba 55 11 b9 1a 5d c3 38 11 c5 5e b8 38 9a 94 b8
       -0.00013860213 9.315666e-05 -5.3112457e-05 -7.0859154e-05
000030 3b 7f 19 b8 9f 3e 12 b8 5c 13 87 b8 d6 95 c4 b7
       -3.6596535e-05 -3.4867433e-05 -6.4409076e-05 -2.3434794e-05
000040 6a 9b 36 38 10 a3 d7 37 a8 fa 25 b8 f5 b6 a6 b8
       4.3536922e-05 2.570593e-05 -3.9572507e-05 -7.949575e-05
000050 10 16 d1 36 36 35 06 b9 87 9d 81 39 a6 8b 84 b7
       6.231254e-06 -0.00012799058 0.00024722164 -1.5800655e-05
000060 87 d5 b0 b9 52 28 18 38 cb 33 fb 37 f0 30 0b 37
       -0.00033728426 3.6277175e-05 2.994565e-05 8.29644e-06
000070 88 e7 45 b7 3e ab a0 b7 ee b7 82 39 86 31 d5 b8
       -1.1796023e-05 -1.9153227e-05 0.0002493257 -0.00010165856
000080 42 c7 e8 38 e6 87 b6 b8 be 21 30 b8 ec b8 97 37
       0.00011099737 -8.703749e-05 -4.1993095e-05 1.8086714e-05
000090 68 4b ca 38 6c 5f 24 b7 e6 53 c9 37 81 18 06 b8
       9.646156e-05 -9.797379e-06 2.4000135e-05 -3.197091e-05
0000a0 b0 a0 51 39 64 7b 46 38 e8 bf 51 3d 14 e7 83 b8
       0.00019991654 4.7321795e-05 0.051208407 -6.2896084e-05
0000b0 7e 46 81 37 be ed c0 37 78 19 1d b8 7c bc 10 b9
       1.5410824e-05 2.2998891e-05 -3.7455437e-05 -0.00013803126
0000c0 ac 9d f4 37 26 92 75 b7 d4 96 5d b8 40 ab 61 b5
       2.9160488e-05 -1.4637166e-05 -5.2830976e-05 -8.4068233e-07
0000d0 ba 55 54 37 80 45 04 36 11 54 a4 38 40 99 f5 36
       1.26561445e-05 1.9709987e-06 7.835788e-05 7.3194096e-06
0000e0 17 24 85 b7 1f 64 ff 38 b9 63 a0 b8 32 70 05 b8
       -1.5871641e-05 0.000121779965 -7.647969e-05 -3.181416e-05
0000f0 23 db c3 b8 da 5a b6 b7 8c 6f 01 b9 2c 1e 8c b8
       -9.339142e-05 -2.1738397e-05 -0.00012343953 -6.68134e-05
000100 f8 ec 8a 38 37 bb e5 37 3a 96 c6 b7 be 91 14 38
       6.624492e-05 2.7386106e-05 -2.3673394e-05 3.5421683e-05
000110 f0 f1 9a 35 16 bd 87 37 40 e0 a6 38 5a 3f 2e 3b
       1.1544307e-06 1.6181304e-05 7.957267e-05 0.0026588053
000120 be c9 f5 37 c4 41 06 39 c7 f0 73 38 f8 18 54 37
       2.930022e-05 0.00012803735 5.8159956e-05 1.2641998e-05
000130 a0 9f a6 b8 7c c8 53 37 34 b5 26 38 22 1a 23 37
       -7.945229e-05 1.2623259e-05 3.9746243e-05 9.721642e-06
000140 d1 de 59 39 bc f0 75 38 10 9b ff b5 79 14 0a 39
       0.00020777738 5.8636753e-05 -1.904411e-06 0.00013168332
000150 cc 0d 32 b7 a8 76 32 b7 bc 41 3f b7 d8 18 b5 b7
       -1.0612839e-05 -1.0637254e-05 -1.1399792e-05 -2.158845e-05
000160 60 91 9d b5 fd ac 6b b8 d9 62 a5 37 de 47 a1 35
       -1.1739721e-06 -5.6189474e-05 1.9715562e-05 1.2016351e-06
000170 fc 8f e0 b7 99 be 2d b8 2e d8 e3 38 ae 8c 8f 38
       -2.6769929e-05 -4.1423922e-05 0.0001086447 6.844975e-05
000180 75 b2 eb 38 94 08 69 b8 6a 56 b9 38 46 b4 08 39
       0.000112389134 -5.5559518e-05 8.837583e-05 0.00013037128
000190 bf d4 f1 38 22 e4 3e b7 1c d7 5e 38 82 73 10 37
       0.000115314026 -1.1377999e-05 5.312926e-05 8.609963e-06
0001a0 ef ff 48 39 40 d5 4b b7 f0 8e 0d 37 a3 7d c3 37
       0.00019168829 -1.2149394e-05 8.437535e-06 2.3304316e-05
0001b0 36 af 33 38 74 a9 31 b7 90 75 c4 38 12 61 c4 b6
       4.2840104e-05 -1.0589476e-05 9.367906e-05 -5.8525557e-06
0001c0 a2 44 86 b8 ca 2b d4 37 7c ac d3 b8 12 7c f7 37
       -6.402402e-05 2.529276e-05 -0.00010093392 2.950247e-05
0001d0 fb 18 c8 b8 8a 07 48 38 38 2f 28 39 76 d7 e2 b7
       -9.541396e-05 4.7690737e-05 0.00016039319 -2.7041631e-05
0001e0 5a 87 ac 38 2c 38 a9 37 26 fe 0c b8 d6 af 94 37
       8.22681e-05 2.0172527e-05 -3.3615295e-05 1.7724855e-05
0001f0 cc e8 dd 37 dc 2c d9 37 10 a5 30 38 2a 90 b1 39
       2.6453657e-05 2.5889305e-05 4.2115396e-05 0.0003386748
000200 90 74 4a b9 58 b0 67 37 ff eb e0 38 0e 4b 39 38
       -0.00019307644 1.3809731e-05 0.0001072511 4.4177337e-05
000210 56 87 ef 38 c0 f4 ac 37 f6 31 48 b9 08 09 9c 35
       0.000114216164 2.0617968e-05 -0.00019092098 1.1625534e-06
000220 7c af e3 b7 b8 3a 88 37 ba 75 0e 39 80 3f 26 36
       -2.7142225e-05 1.6239806e-05 0.00013586032 2.477289e-06
000230 ba 84 3b b7 c6 8c ac 37 33 6b 29 b8 23 83 30 b8
       -1.1176971e-05 2.056955e-05 -4.0392577e-05 -4.20838e-05
000240 40 be d3 b5 00 4f 90 33 b7 3d f7 b7 ce 2a 46 b8
       -1.5776095e-06 6.7198926e-08 -2.9473433e-05 -4.7246744e-05
000250 d6 96 ff b7 ea a7 8c b7 93 a6 b1 b8 3a b4 51 38
       -3.0468607e-05 -1.6767492e-05 -8.4710446e-05 4.9997332e-05
000260 1f 9c 7b 38 a9 6a c0 b7 05 0c 11 b8 5a 23 17 b8
       5.9988462e-05 -2.2937851e-05 -3.4581888e-05 -3.603413e-05
000270 4c d0 06 b9 ce 60 25 b8 b0 2c 6a b7 f0 59 2d 38
       -0.00012856832 -3.9429222e-05 -1.39578915e-05 4.1330175e-05
000280 c0 27 00 39 e5 b2 c6 b7 92 87 f3 b6 b6 ff 33 37
       0.0001222184 -2.3686744e-05 -7.257747e-06 1.0728769e-05
000290 5e 15 c7 b8 22 de 0b b7 e7 db ef b7 d3 2a 33 b9
       -9.4930394e-05 -8.336765e-06 -2.859342e-05 -0.00017086724
0002a0 dc ed 95 38 43 11 d1 37 93 b5 38 38 a2 5d f7 b8
       7.1491784e-05 2.492278e-05 4.4038123e-05 -0.00011795318
0002b0 34 0c 63 b8 bc b1 ee 37 88 17 e9 37 80 cc 67 b5
       -5.4132383e-05 2.8454575e-05 2.7786722e-05 -8.635179e-07
0002c0 2c f1 28 b7 5f d8 8a 38 3c 1c c8 b7 90 31 7a b6
       -1.00697325e-05 6.620655e-05 -2.3855006e-05 -3.7281752e-06
0002d0 d3 2c aa b8 6d 66 c4 38 aa fc 8f b7 6e c4 a3 37
       -8.114581e-05 9.3650866e-05 -1.7164584e-05 1.9522584e-05
0002e0 d0 86 6d b8 f5 dc 86 36 10 51 cf b5 86 71 d4 37
       -5.6630757e-05 4.019234e-06 -1.5446294e-06 2.5325233e-05
0002f0 24 da 69 36 22 75 13 b7 8f 61 95 b8 06 10 5d 37
       3.484668e-06 -8.789155e-06 -7.123045e-05 1.3176357e-05
000300 3a b9 0c b8 ba fb ad 38 7b 9e c0 b8 57 c7 93 38
       -3.3551107e-05 8.2961706e-05 -9.184793e-05 7.046636e-05
000310 3c 09 6b 38 d7 05 d1 3c 16 3f 47 b8 be b8 33 37
       5.6036966e-05 0.02551548 -4.750405e-05 1.0712245e-05
000320 97 76 e6 3c 38 42 b2 38 bc 7f 1a 36 0d 25 9d 37
       0.02813272 8.5000356e-05 2.302214e-06 1.8733112e-05
000330 9a f4 0c b7 61 5e 98 b7 cc d4 b2 38 8f 44 35 b8
       -8.401601e-06 -1.816376e-05 8.527338e-05 -4.3217613e-05
000340 5a 2d 77 38 fa 52 b4 b7 ea 86 ca 37 ed b9 7d 37
       5.8931626e-05 -2.1496311e-05 2.41431e-05 1.5123264e-05
000350 4e de 92 b6 44 59 0d b7 98 37 21 37 ab af 81 b7
       -4.3770187e-06 -8.425039e-06 9.609292e-06 -1.54598e-05
000360 07 ef d4 bd fb 5a 78 38 b4 68 c2 37 a6 99 07 be
       -0.10397153 5.921254e-05 2.3175358e-05 -0.13242206
000370 75 71 2e 39 91 29 f5 37 7b a9 99 b8 b7 2f 33 b8
       0.00016636199 2.9225632e-05 -7.327177e-05 -4.2721364e-05
000380 d2 f5 05 39 cc f8 d6 b7 6a 5f b9 bd 42 8f 05 b7
       0.00012775444 -2.5626643e-05 -0.09051402 -7.960773e-06
000390 28 93 e8 3d c1 2a 30 37 da 7e 85 38 4e 3f d0 36
       0.11356193 1.0500372e-05 6.365562e-05 6.2062527e-06
0003a0 14 00 f1 b7 66 06 11 b8 70 1d fc b7 ca 42 d8 36
       -2.8729475e-05 -3.4576653e-05 -3.0054449e-05 6.445077e-06
0003b0 b7 57 15 38 dc c6 34 3d b7 ec 52 b8 61 2f 12 b7
       3.560606e-05 0.04413496 -5.028836e-05 -8.713309e-06
0003c0 b0 48 fc b7 1c 76 04 36 21 05 48 3d 68 94 77 37
       -3.0074589e-05 1.9738281e-06 0.048833016 1.4756901e-05
0003d0 35 91 bb b8 1a 8c bf b8 40 ce 01 b8 a8 96 0b b7
       -8.943902e-05 -9.133686e-05 -3.0948082e-05 -8.320123e-06
0003e0 6c 69 a7 b8 5a f8 cc b7 0e 52 ac 38 3b e4 dc 38
       -7.982817e-05 -2.4434343e-05 8.216883e-05 0.00010532929
0003f0 80 b0 b1 37 9a bf af 37 b7 55 4f 38 25 32 63 b8
       2.1182233e-05 2.0950847e-05 4.9432474e-05 -5.416772e-05
