3tier-app/learnt_model/model_3tier.tflite (tflite, 148092 bytes, 48 tensors)

dense_9/bias f4 [40]
-0.05625991 0.061692543 0.06509496 -0.014072914 -0.040323574 -0.03823645 0.08869648 -0.0055642254
-0.009987278 -0.032729927 -0.002781014 -0.037520625 -0.0026226237 -0.0060143736 -0.03671781 0.13745841
-0.014515589 -0.030498976 -0.03855826 -0.026345046 0.010952475 -0.020947032 -0.05131455 -0.006638272
-0.009374517 -0.034313 -0.05137371 -0.048119627 -0.03013308 0.0016062843 0.0093448665 -0.00964789
-0.007544381 -0.0055479137 0.008136833 -0.014720497 0.008138438 0.010285274 -0.056877866 -0.0053566974
00000000: cb70 66bd 52b1 7c3d 8250 853d 1492 66bc
00000010: 552a 25bd d39d 1cbd 80a6 b53d 1b54 b6bb
00000020: aea1 23bc d10f 06bd ac41 36bb 3aaf 19bd
00000030: 53e0 2bbb 3914 c5bb 6a65 16bd e6c1 0c3e
00000040: cbd2 6dbc fdd8 f9bc 44ef 1dbd 91d1 d7bc
00000050: 0272 333c 1c99 abbc 352f 52bd dd85 d9bb
00000060: 9397 19bc ca8b 0cbd 3d6d 52bd 1619 45bd
00000070: a6d9 f6bc f589 d23a 361b 193c 2f12 1ebc
00000080: db36 f7bb 46cb b5bb 5a50 053c 3d2e 71bc
00000090: 1557 053c 9183 283c c4f8 68bd 3c87 afbb

dense_8/bias f4 [40]
0.008295694 -0.052258216 -0.014455758 -0.0073491186 0.015488585 -0.008605366 0.1676595 -0.05067338
0.06497098 0.015059322 0.049920928 0.008760889 0.02496892 -0.010413921 0.14007741 0.1010228
0.14661331 -0.012749895 0.048549477 -0.05038467 0.012484205 0.08615772 -0.027503507 0.005094045
-0.015516826 -0.046174787 0.010311923 -0.0022746685 -0.039423645 0.042667247 -0.0021324614 0.042042438
0.008827967 -0.03454195 0.016998036 -0.017082337 0.08929906 -0.058195453 -0.019196168 -0.039883513
00000000: aaea 073c b60c 56bd d8d7 6cbc e0d0 f0bb
00000010: d6c3 7d3c 85fd 0cbc efae 2b3e e48e 4fbd
00000020: 810f 853d 60bb 763c e379 4c3d d589 0f3c
00000030: 9f8b cc3c 279f 2abc 7470 0f3e 0be5 ce3d
00000040: cd21 163e f0e4 50bc d1db 463d 2860 4ebd
00000050: 8d8a 4c3c 7573 b03d 094f e1bc f2eb a63b
00000060: 493a 7ebc c621 3dbd 57f3 283c 9b12 15bb
00000070: b07a 21bd dac3 2e3d c4c0 0bbb b134 2c3d
00000080: 2da3 103c dc7b 0dbd 773f 8b3c 42f0 8bbc
00000090: 6de2 b63d 5b5e 6ebd 4841 9dbc e55c 23bd

dense_7/bias f4 [40]
0.1877876 -0.009581709 0.09532416 0.15327956 0.01884292 0.39729527 0.06356734 -0.0717806
0.09449726 0.060976908 0.04632101 -0.07318752 0.027063634 -0.011193603 0.025072461 0.15656693
0.0024125068 -0.0064760097 0.13156618 -0.064700134 0.06646885 -0.018338831 0.00878077 0.17205638
-0.059252955 0.005069084 -0.052593917 0.003172006 0.010709828 0.0894585 0.2828541 0.04848653
0.024733933 0.0039853556 0.02999596 0.18836407 0.017567156 -0.038682725 0.034715272 0.18046758
00000000: 654b 403e 9afc 1cbc 5039 c33d 51f5 1c3e
00000010: 785c 9a3c 496a cb3e 982f 823d b501 93bd
00000020: c887 c13d ecc2 793d 19bb 3d3d 57e3 95bd
00000030: 8eb4 dd3c 6065 37bc c364 cd3c 1553 203e
00000040: 261b 1e3b b534 d4bb 49b9 063e 8181 84bd
00000050: d220 883d 513b 96bc 38dd 0f3c 8c2f 303e
00000060: 3ab3 72bd 8f1a a63b b86c 57bd 6ee1 4f3b
00000070: 4678 2f3c 0536 b73d 41d2 903e d099 463d
00000080: d19e ca3c 9697 823b 16ba f53c 83e2 403e
00000090: ffe8 8f3c c771 1ebd 9a31 0e3d 7ecc 383e

dense_6/bias f4 [36]
0.025312057 0.074498706 0.2717808 0.0009128868 -0.006630625 0.0062026656 -0.0019134111 -0.001977238
0.0033827075 0.0035828182 -0.0034421962 0.0018990398 0.013325237 -0.038409196 -0.03447711 -0.0018212312
0.009389774 0.0041217934 0.0055859997 0.007165189 -0.0020853286 -0.0063291998 -0.0010561997 -7.032632e-05
-0.080746055 0.30104554 -0.2267202 0.0016970965 -0.0010220894 -0.0013217747 -0.0046830596 0.005425475
0.004075233 0.0049210265 -0.00535551 -0.0041393787
00000000: 3b5b cf3c c792 983d da26 8b3e cc4e 6f3a
00000010: b745 d9bb bb3f cb3b 6ccb faba 8d94 01bb
00000020: 6ab0 5d3b b7cd 6a3b 7896 61bb 34e9 f83a
00000030: 1852 5a3c f652 1dbd df37 0dbd 61b6 eeba
00000040: 91d7 193c 1c10 873b c30a b73b f6c9 ea3b
00000050: 02aa 08bb 2d65 cfbb 2e70 8aba 287c 93b8
00000060: 305e a5bd a422 9a3e 5729 68be 1c71 de3a
00000070: a1f7 85ba 663f adba 5a74 99bb 2fc8 b13b
00000080: 8889 853b 9040 a13b 467d afbb a0a3 87bb

dense_5/bias f4 [40]
-0.04541142 -0.010225706 -0.015985643 0.2554942 0.011123639 -0.011170637 -0.046399955 -0.05016536
-0.018759875 -0.017702134 -0.049435787 -0.03849518 -0.021934666 0.0096131405 -0.0072103413 -0.034229297
-0.034746334 -0.064943664 -0.061342806 -0.05589983 -0.018218834 -0.05353325 -0.021514876 -0.015201666
0.035539515 0.029415442 0.009610838 -0.053135246 0.057771485 -0.017205672 -0.047535613 0.25893188
-0.032091822 -0.04569824 0.11219504 -0.030523749 -0.031357955 -0.03387157 0.009354353 -0.0453077
00000000: 5301 3abd b889 27bc 53f4 82bc 23d0 823e
00000010: ec3f 363c 0c05 37bc e10d 3ebd 317a 4dbd
00000020: 4fae 99bc 1104 91bc 2e7d 4abd 1fad 1dbd
00000030: 54b0 b3bc 6f80 1d3c ba44 ecbb 0534 0cbd
00000040: 2c52 0ebd 2f01 85bd 9842 7bbd 38f7 64bd
00000050: aa3f 95bc ae45 5bbd f73f b0bc 6910 79bc
00000060: e291 113d a7f8 f03c c776 1d3c 58a4 59bd
00000070: cba1 6c3d e9f2 8cbc b4b4 42bd b892 843e
00000080: b772 03bd 142e 3bbd 83c6 e53d f10c fabc
00000090: 3371 00bd eabc 0abd 0043 193c 9194 39bd

dense_4/bias f4 [40]
-0.041134693 0.04728487 0.010703689 -0.019905971 -0.006901723 -0.056701675 0.029709155 -0.0018060073
0.035126258 -0.0014277066 -0.053570166 -0.0076099816 -0.039457366 -0.0010400033 -0.0037461114 0.017429536
-0.01650995 -0.027376303 0.010073053 -0.0007570156 -0.018087184 -0.023864465 0.10424707 -0.029249266
-0.02717365 -0.028888104 0.044142183 -0.026763197 0.19502717 -0.06550852 0.009347244 0.033657134
-0.017032402 0.24755517 -0.01225568 -0.075160675 0.15509431 0.11683561 -0.051220734 -0.0637918
00000000: da7c 28bd c8ad 413d 875e 2f3c d911 a3bc
00000010: d927 e2bb 0440 68bd 9d60 f33c 8db7 ecba
00000020: 8de0 0f3d e221 bbba 646c 5bbd 275d f9bb
00000030: 0c9e 21bd b850 88ba 5281 75bb 63c8 8e3c
00000040: e03f 87bc 4544 e0bc 7209 253c 7572 46ba
00000050: 932b 94bc 697f c3bc 7d7f d53d 289c efbc
00000060: 469b debc bfa6 ecbc 6fce 343d 7e3e dbbc
00000070: 34b5 473e 5529 86bd 2f25 193c 10dc 093d
00000080: 8987 8bbc 1a7f 7d3e 0ccc 48bc d7ed 99bd
00000090: 0bd1 1e3e 8247 ef3d d5cc 51bd 46a5 82bd

dense_3/bias f4 [40]
-0.013680688 -0.0248051 0.005977763 0.034003314 -0.026593193 0.079790086 0.40447986 -0.0047007245
0.15526491 0.16829486 0.046084262 0.16454574 0.048667908 -0.06278117 0.046820313 0.035158277
0.23124836 -0.007191438 0.19378391 -0.012063674 0.02760761 0.07397516 0.00013313723 0.0058945725
0.07079203 0.24090295 0.1465789 0.0065842196 -0.028172527 -0.011893401 0.098623745 -0.0035069913
-0.02701601 -0.08183259 0.1515875 -0.02750444 0.05909657 -0.03400866 -0.0739137 -0.019501558
00000000: f724 60bc 1134 cbbc 1ce1 c33b 0f47 0b3d
00000010: f8d9 d9bc fc68 a33d fc17 cf3e 8908 9abb
00000020: c4fd 1e3e 7d55 2c3e dac2 3c3d ae7e 283e
00000030: 0058 473d 6a93 80bd a8c6 3f3d 2002 103d
00000040: 5fcc 6c3e 28a6 ebbb 4a6f 463e b7a6 45bc
00000050: 5b29 e23c 4a80 973d c19a 0b39 4227 c13b
00000060: 69fb 903d 43af 763e c718 163e 70c0 d73b
00000070: 12ca e6bc 8adc 42bc 3ffb c93d 8dd5 65bb
00000080: ae50 ddbc d897 a7bd c139 1b3e fe50 e1bc
00000090: 3f0f 723d aa4c 0bbd 1160 97bd bbc1 9fbc

dense_22/bias f4 [45]
0.005410201 0.022787694 0.060212977 0.0002873305 -0.0028045713 -0.003213705 0.0015402985 -0.008977593
-0.006268101 0.0031934762 -0.0033116213 0.0026477897 0.535602 -0.25822726 -0.0040163724 0.0069926
0.030761614 0.009107813 0.0035286404 -0.00073591573 0.0012701028 -0.0032696114 -2.6477675e-05 0.00095733715
0.0025078966 0.0018826482 -0.0004257588 -0.24642731 0.31143522 -0.04166425 0.0062503046 0.061669905
-0.011636217 -0.0023694204 0.008200896 -0.0075854557 -0.0141278505 -0.0020796417 0.004176177 -0.0009812731
0.0030070692 0.008697664 -0.00030764315 -0.080164835 0.44982472
00000000: 0e48 b13b 42ad ba3c e2a1 763d d9a4 9639
00000010: e6cc 37bb 069d 52bb d7e3 c93a c116 13bc
00000020: a464 cdbb a449 513b c907 59bb 8a86 2d3b
00000030: 361d 093f 5d36 84be c69b 83bb 2e22 e53b
00000040: c8ff fb3c f038 153c c340 673b 78ea 40ba
00000050: 9479 a63a fa46 56bb 601c deb7 cff5 7a3a
00000060: 865b 243b 31c3 f63a 6138 dfb9 7157 7cbe
00000070: 7074 9f3e 22a8 2abd 5bcf cc3b 9599 7c3d
00000080: d5a5 3ebc 4748 1bbb 0d5d 063c 6a8f f8bb
00000090: 8078 67bc 994a 08bb 50d8 883b 109e 80ba
000000a0: 4012 453b a680 0e3c 2a4b a1b9 762d a4bd
000000b0: 6d4f e63e

dense_21/bias f4 [40]
-0.01648471 -0.015382036 -0.02738952 0.003249968 0.07276995 -0.045991305 -0.06718614 -0.06457848
0.07216813 0.014450011 -0.038099766 0.011409566 -0.023227645 -0.0069457362 -0.01855501 -0.0142334765
-0.020693036 0.010406701 -0.013431714 0.108303875 0.023213763 -0.0035914448 -0.032284126 0.0127454
-0.041038655 0.011457588 0.04809378 -0.04252795 -0.006222657 -0.053936686 -0.022368291 -0.03855592
-0.036338795 0.012143395 -0.033116467 -0.03583788 -0.022453729 0.15284523 0.012990809 -0.047211852
00000000: f10a 87bc ef04 7cbc fd5f e0bc 6afd 543b
00000010: 6908 953d 6161 3cbd e398 89bd b941 84bd
00000020: e2cc 933d bdbf 6c3c 800e 1cbd 30ef 3a3c
00000030: e747 bebc 0f99 e3bb ad00 98bc 8733 69bc
00000040: 7184 a9bc de80 2a3c b110 5cbc 6cce dd3d
00000050: ca2a be3c 725e 6bbb 5c3c 04bd 15d2 503c
00000060: 2618 28bd 9bb8 3b3c fcfd 443d ca31 2ebd
00000070: 6ee7 cbbb b7ec 5cbd b53d b7bc d0ec 1dbd
00000080: fdd7 14bd 17f5 463c 22a5 07bd beca 12bd
00000090: e2f0 b7bc 7683 1c3e 67d7 543c 3761 41bd

dense_20/bias f4 [40]
-0.03160447 0.029713435 0.013269194 0.0008880267 0.00349751 0.00975193 -0.02454478 0.027171798
0.0004928312 0.013399246 -0.03520285 0.02663256 0.07171876 -0.022846725 0.06336295 -0.0204497
0.008948632 -0.04191368 0.0011715526 0.086764574 0.15200016 0.053706873 0.10667558 0.12828359
-0.0435574 0.0079407375 -0.004241491 0.0095316665 -0.042960856 0.16678281 0.014936587 0.016321013
-0.0005407526 0.01076243 0.025075262 0.008917066 0.03992499 0.0020988795 0.0022454478 -0.027262183
00000000: b073 01bd 9769 f33c 0967 593c 77ca 683a
00000010: 7b36 653b 8fc6 1f3c 2212 c9bc 6497 de3c
00000020: 5831 013a 8388 5b3c dd30 10bd 872c da3c
00000030: 49e1 923d 0e29 bbbc 6fc4 813d 2186 a7bc
00000040: 489d 123c aead 2bbd c88e 993a a0b1 b13d
00000050: eea5 1b3e bdfb 5b3d ba78 da3d c65c 033e
00000060: 3f69 32bd de19 023c 35fc 8abb b52a 1c3c
00000070: b9f7 2fbd 1dc9 2a3e 96b8 743c a5b3 853c
00000080: 4bc1 0dba e754 303c a36a cd3c e318 123c
00000090: 6388 233d 5b8d 093b 5d28 133b f154 dfbc

dense_2/bias f4 [40]
-0.121868424 0.1165016 -0.014131402 -0.0347641 0.0809743 -0.015145811 -0.10110946 0.12810703
0.10115936 0.03869396 0.024147801 -0.022174764 0.13168846 0.10926327 0.12838592 -0.11377042
0.006489026 -0.043055862 -0.047314353 -0.051567297 0.02236292 0.079324245 0.04985852 0.030063268
-0.057363205 0.12212316 0.0651555 -0.040681843 -0.0652332 0.03756303 0.08831595 -0.017748438
-0.0759029 -0.060376443 -0.048806656 0.14758182 0.019027174 0.11998541 0.106446184 -0.06321583
00000000: 2796 f9bd 6498 ee3d 6587 67bc cd64 0ebd
00000010: dbd5 a53d 2326 78bc 7a12 cfbd 7d2e 033e
00000020: a32c cf3d 8f7d 1e3d 9cd1 c53c daa7 b5bc
00000030: 57d9 063e 6cc5 df3d 9977 033e 7700 e9bd
00000040: e5a1 d43b 585b 30bd b2cc 41bd 3b38 53bd
00000050: 7132 b73c c074 a23d 7338 4c3d 3e47 f63c
00000060: aef5 6abd b51b fa3d 3f70 853d 01a2 26bd
00000070: fc98 85bd b1db 193d fede b43d 2c65 91bc
00000080: fb72 9bbd 4a4d 77bd 7de9 47bd b01f 173e
00000090: e0de 9b3c e9ba f53d 7500 da3d 4d77 81bd

dense_19/bias f4 [40]
-0.045068722 -0.11112659 0.028231718 0.10916794 0.21633433 0.13070217 0.095140345 0.06332105
0.06949571 0.057608902 0.3445349 0.06400314 0.03436682 0.008533818 -0.024026664 0.13538608
-0.064325064 0.1194944 -0.0047968454 0.03627081 0.10682649 0.064276405 0.035965547 0.16109234
0.04606676 -0.026532575 -0.030601334 0.09834725 -0.004358831 -0.06367136 -0.065653175 0.07674202
-0.009382048 0.08566169 -0.058929157 -0.0046929377 -0.01981871 0.17041734 0.2191962 0.31351912
00000000: fb99 38bd 5696 e3bd 3446 e73c 7193 df3d
00000010: bf86 5d3e cad6 053e f1d8 c23d 77ae 813d
00000020: c453 8e3d 50f7 6b3d e166 b03e 1414 833d
00000030: 39c4 0c3d 6dd1 0b3c 91d3 c4bc a6a2 0a3e
00000040: dcbc 83bd 7bb9 f43d db2e 9dbb b390 143d
00000050: d9c7 da3d 59a3 833d 9c50 133d 64f5 243e
00000060: 80b0 3c3d d85a d9bc a6af fabc 486a c93d
00000070: 86d4 8ebb 2166 82bd 2c75 86bd ec2a 9d3d
00000080: 29b7 19bc 656f af3d b35f 71bd 37c7 99bb
00000090: d95a a2bc e281 2e3e f874 603e 9485 a03e

dense_18/bias f4 [45]
-0.013648624 0.044116408 0.18699123 0.006141844 0.000318677 -0.003931226 -0.0067358334 -0.0042494177
0.005005807 -0.002417197 -0.00047124937 0.0024183125 0.3200483 -0.048958093 -0.036998563 0.021758843
-0.013872122 -0.05151714 -0.0010053072 0.004617478 0.00013261498 0.0048132758 -0.0009139393 -0.0006227222
0.0038946262 0.00080544077 -0.005242546 -0.0854914 0.16601914 -0.016441034 -0.029484663 0.047553286
0.042611074 0.01902966 -0.016102279 -0.0039274027 0.0014241044 -0.0015980938 0.00023456622 -0.000979752
-0.014177923 0.0058308654 -0.0807816 -0.00032662228 0.43164983
00000000: 7a9e 5fbc 68b3 343d a17a 3f3e 8641 c93b
00000010: 1a14 a739 84d1 80bb 44b8 dcbb b33e 8bbb
00000020: c107 a43b d669 1ebb 0512 f7b9 8d7c 1e3b
00000030: 5fdd a33e 4888 48bd ce8b 17bd 9a3f b23c
00000040: e647 63bc a303 53bd 83c4 83ba 364e 973b
00000050: 900e 0b39 afb8 9d3b 6e95 6fba 2e3e 23ba
00000060: fc3c 7f3b 3724 533a aac9 abbb 1d16 afbd
00000070: ec00 2a3e 59af 86bc d289 f1bc 3cc7 423d
00000080: f388 2e3d 17e4 9b3c ede8 83bc 71b1 80bb
00000090: 04a9 ba3a 2177 d1ba e4f5 7539 066b 80ba
000000a0: 854a 68bc d810 bf3b d370 a5bd 803e abb9
000000b0: 3501 dd3e

dense_17/bias f4 [40]
-0.01984239 0.004979774 -0.04168886 0.013833869 0.04449196 -0.06426408 0.016408682 0.023592688
-0.056389373 0.1206689 -0.011154158 -0.023150703 -0.039407797 0.15353312 -0.025801297 0.0047119795
-0.003921302 -0.03844387 -0.0023233003 -0.07024179 -0.009143338 0.04867386 0.20104906 -0.03361165
-0.019572154 -0.038861047 -0.02036784 -0.040963415 -0.037481546 0.10722266 -0.020944448 -0.041551866
-0.03815938 -0.045907814 -0.05618099 -0.0116539495 -0.023823423 -0.03366488 -0.025092805 -0.03152314
00000000: 828c a2bc 5f2d a33b f0c1 2abd 74a7 623c
00000010: 343d 363d e39c 83bd 806b 863c 7445 c13c
00000020: 8bf8 66bd 4221 f73d eebf 36bc 8ba6 bdbc
00000030: 126a 21bd c937 1d3e 3e5d d3bc f366 9a3b
00000040: 447e 80bb 5277 1dbd 8342 18bb edda 8fbd
00000050: f0cd 15bc 3e5e 473d cedf 4d3e 5fac 09bd
00000060: c855 a0bc c32c 1fbd 75da a6bc 41c9 27bd
00000070: 4086 19bd 8e97 db3d b193 abbc 4a32 2abd
00000080: 034d 1cbd d509 3cbd 0a1e 66bd 35f0 3ebc
00000090: 5729 c3bc 2fe4 09bd 6d8f cdbc 681e 01bd

dense_16/bias f4 [40]
0.01283025 -0.031514227 -0.05986295 -0.0284344 -0.0035918949 -0.031201586 0.0032606982 0.1293123
0.19710642 -0.016697481 0.020810422 -0.047370423 0.09610618 -0.0436157 -0.014216708 0.05292441
-0.002777667 -0.060892675 -0.03446972 0.009392049 -0.015970636 -0.029336905 -0.05265691 -0.011232183
0.035132006 0.06838345 0.20334919 -0.06531005 -0.0031880822 -0.026568143 -0.057298843 -0.023388281
0.006707174 0.008443387 0.24263732 -0.028266096 0.013128501 -0.037422743 0.08594342 0.0047103707
00000000: f835 523c 1015 01bd da32 75bd 42ef e8bc
00000010: ff65 6bbb 789a ffbc 70b1 553b 726a 043e
00000020: 44d6 493e 28c9 88bc 9e7a aa3c 7d07 42bd
00000030: 51d3 c43d 60a6 32bd 32ed 68bc 44c7 583d
00000040: 8509 36bb 996a 79bd 1f30 0dbd 1ce1 193c
00000050: dad4 82bc f353 f0bc c6ae 57bd 3107 38bc
00000060: 94e6 0f3d 9f0c 8c3d c53a 503e 47c1 85bd
00000070: 25ef 50bb 6fa5 d9bc 31b2 6abd c898 bfbc
00000080: dac7 db3b 2256 0a3c eb75 783e 4d8e e7bc
00000090: ed18 573c 9748 19bd 1b03 b03d 7459 9a3b

dense_15/bias f4 [40]
-0.031011073 -0.019978173 -0.024922522 -0.026174586 0.0020516221 0.08018827 0.05354739 -0.009677334
0.039289683 -0.027490996 -0.06271011 -0.028031036 0.002275978 -0.0047724945 -0.030083109 -0.043324936
0.0130490055 -0.028566536 -0.06302115 -0.060676944 0.03457054 0.039238904 0.02408453 -0.04350276
-0.03492543 0.26733145 0.013050401 -0.05193594 0.124707304 -0.06550485 -0.02241529 0.0075603253
0.3101526 0.13024652 0.14575432 -0.06774985 0.03669562 -0.04198557 0.4224156 0.26431933
00000000: ef0a febc 44a9 a3bc 512a ccbc 166c d6bc
00000010: 8274 063b bf39 a43d 8254 5b3d ae8d 1ebc
00000020: 38ee 203d cc34 e1bc 286e 80bd 58a1 e5bc
00000030: 9328 153b 9662 9cbb da70 f6bc 7d75 31bd
00000040: 7fcb 553c 5e04 eabc 3c11 81bd 6388 78bd
00000050: d799 0d3d f9b8 203d ec4c c53c f32f 32bd
00000060: f80d 0fbd abdf 883e 59d1 553c c8ba 54bd
00000070: 8b66 ff3d 6827 86bd 45a0 b7bc 9bbc f73b
00000080: 52cc 9e3e 585f 053e 9f40 153e 6fc0 8abd
00000090: 254e 163d 10f9 2bbd dc46 d83e dd54 873e

dense_14/bias f4 [45]
-0.018210053 0.12840493 0.13760184 0.0010562139 -0.007016938 0.00020661086 0.0023387852 -0.005912684
0.0063495026 -0.0039619543 0.0014920004 -0.0019656844 0.42061707 -0.067085154 0.09227304 0.011447148
-0.08521357 -0.038979877 -0.0005403487 0.0020875419 -0.0014641953 -0.0020339862 -0.005811939 -0.0018298582
-0.003509517 -0.0017880376 -0.0071857865 -0.13324973 0.19588077 -0.08327349 0.007517338 0.18366697
-0.05173608 -0.017593438 0.012541486 0.011644535 -0.004065168 -0.011027383 0.020136395 0.014286421
-0.00028261376 -0.0058948374 0.09707964 0.008232825 0.2894512
00000000: 402d 95bc 957c 033e 7fe7 0c3e a870 8a3a
00000010: 58ee e5bb aea5 5839 4e46 193b 30bf c1bb
00000020: 7d0f d03b 48d3 81bb 3a8f c33a b6d2 00bb
00000030: 1f5b d73e f163 89bd a6f9 bc3d d28c 3b3c
00000040: 7484 aebd 5da9 1fbd 30a6 0dba 24cf 083b
00000050: 3eea bfba a04c 05bb 1472 bebb dad7 efba
00000060: edff 65bb 965c eaba bf76 ebbb 9e72 08be
00000070: f894 483e 4b8b aabd 0054 f63b 3213 3c3e
00000080: 36e9 53bd 1d20 90bc ce7a 4d3c b8c8 3e3c
00000090: 1a35 85bb 32ac 34bc 15f5 a43c 9811 6a3c
000000a0: c72b 94b9 7b29 c1bb b1d1 c63d f9e2 063c
000000b0: f332 943e

dense_13/bias f4 [40]
-0.047731593 0.0080733765 0.00588473 -0.020598851 -0.010497531 0.008189823 -0.01983505 -0.008542763
-0.027303932 0.0071961 0.0127965575 -0.005182337 0.082599536 0.115066715 -0.020200377 -0.064031065
0.1762647 -0.048503198 -0.0014104638 -0.014747402 -0.04465833 0.022075221 8.437867e-05 -0.030001327
0.04834215 -0.05699414 -0.058895014 0.1117484 -0.03685001 -0.06891235 -0.037117552 -0.04620098
-0.015244008 0.07309637 0.007006243 -0.007907475 -0.03264015 -0.0018194537 -0.04377072 0.075194605
00000000: 3482 43bd 3246 043c b1d4 c03b ecbe a8bc
00000010: d6fd 2bbc 9b2e 063c 1d7d a2bc f2f6 0bbc
00000020: 7fac dfbc 43cd eb3b a7a8 513c 98d0 a9bb
00000030: f229 a93d 19a8 eb3d 437b a5bc b822 83bd
00000040: bc7e 343e 4aab 46bd 50df b8ba 169f 71bc
00000050: a7eb 36bd 18d7 b43c 74f4 b038 58c5 f5bc
00000060: 6b02 463d b072 69bd e63b 71bd 58dc e43d
00000070: 09f0 16bd eb21 8dbd 9308 18bd 3d3d 3dbd
00000080: 01c2 79bc 8db3 953d a094 e53b 5b8e 01bc
00000090: aeb1 05bd bc7a eeba ed48 33bd a1ff 993d

dense_12/bias f4 [40]
0.004256802 -0.037763815 -0.0058329226 -0.004161101 0.064884305 -0.00923783 -0.056317452 -0.051014584
0.0011067773 -0.058865115 -0.031931162 -0.05674417 -0.0118487 0.008681299 -0.053996228 0.004964918
0.045351725 0.27597067 0.16107167 0.013273968 0.19383532 -0.03110674 -0.013384304 0.044386648
-0.043332532 -0.02452942 -0.0035735231 -0.050378393 -0.025836127 0.004256594 0.043197803 -0.03421364
-0.021240126 0.044717114 0.0067589586 -0.0045676404 0.022363111 0.00645202 0.010134829 0.055418182
00000000: a57c 8b3b 3bae 1abd 1a22 bfbb d859 88bb
00000010: 10e2 843d 445a 17bc 21ad 66bd abf4 50bd
00000020: 4911 913a 8c1c 71bd 40ca 02bd 936c 68bd
00000030: 0d21 42bc 023c 0e3c 262b 5dbd c0b0 a23b
00000040: bbc2 393d 074c 8d3e f9ef 243e 0f7b 593c
00000050: c47c 463e 90d3 febc d749 5bbc c6ce 353d
00000060: 747d 31bd ecf1 c8bc c531 6abb 9359 4ebd
00000070: 49a6 d3bc e67a 8b3b 2ef0 303d 9a23 0cbd
00000080: c6ff adbc 4b29 373d 417a dd3b 25ac 95bb
00000090: d832 b73c 776b d33b 8e0c 263c 2dfe 623d

dense_11/bias f4 [40]
0.07602638 -0.012945702 0.16220641 0.16563718 0.09457005 0.042009003 0.03664311 0.01701019
0.36382893 -0.010700765 0.09747442 0.029354831 0.10817715 -0.07491214 0.030400062 -0.080734
0.019878464 0.110811576 0.015080836 -0.020340266 0.039919294 0.36531213 0.010589329 0.027159512
0.077746615 0.0035845484 -0.048587102 -0.012091751 -0.034630198 0.2087033 -0.01467714 -0.028016098
0.3292332 -0.10416586 0.09662824 -0.04059612 -0.15112819 0.00530722 0.014437633 -0.07723293
00000000: b8b3 9b3d 361a 54bc 7019 263e cb9c 293e
00000010: f1ad c13d a211 2c3d 1617 163d f458 8b3c
00000020: c947 ba3e 4352 2fbc aba0 c73d 8b79 f03c
00000030: fb8b dd3d 896b 99bd 8d09 f93c de57 a5bd
00000040: 29d8 a23c 2ef1 e23d 9c15 773c a1a0 a6bc
00000050: 6a82 233d 310a bb3e dd7e 2d3c a07d de3c
00000060: 9e39 9f3d beea 6a3b 4503 47bd 7b1c 46bc
00000070: 65d8 0dbd 51b6 553e 6378 70bc 0482 e5bc
00000080: 4191 a83e e954 d5bd 07e5 c53d 1e48 26bd
00000090: 59c1 1abe 30e8 ad3b d28b 6c3c 4c2c 9ebd

dense_10/bias f4 [45]
-0.029222762 0.06633464 0.3450209 0.00084523583 -0.002078074 0.005072462 -0.009870047 -0.0027140342
0.010951532 0.01144344 -0.0147386305 0.0101104425 0.37893885 -0.030998463 0.007540927 0.022511603
-0.005441371 -0.14166729 0.0005570903 0.0076141665 -0.0019271697 0.0061755558 0.00067812926 -0.002465798
0.00040013663 0.0045773834 -0.000872134 -0.042682648 0.20387276 -0.017387465 -0.072402924 0.13165033
-0.037914257 -3.2529686e-05 -0.015038144 0.0061768736 -0.009961924 0.0021465095 0.013164832 -0.016766783
0.011895523 -0.00093604514 0.055058025 -0.089700215 0.29161668
00000000: 9364 efbc 75da 873d 94a6 b03e d192 5d3a
00000010: 4c30 08bb e536 a63b fab5 21bc f0dd 31bb
00000020: 0e6e 333c 447d 3b3c 4c7a 71bc 45a6 253c
00000030: 4604 c23e 7df0 fdbc e119 f73b 416a b83c
00000040: 874d b2bb 3b11 11be b209 123a 4280 f93b
00000050: 1699 fcba 515c ca3b 7cc4 313a 3a99 21bb
00000060: 6ec9 d139 e0fd 953b ec9f 64ba 00d4 2ebd
00000070: 05c4 503e 2870 8ebc fc47 94bd 58cf 063e
00000080: fb4b 1bbd 7c70 08b8 8c62 76bc 5f67 ca3b
00000090: 5637 23bc 74ac 0c3b 4fb1 573c 7e5a 89bc
000000a0: 71e5 423c ed60 75ba 8684 613d bfb4 b7bd
000000b0: c84e 953e

dense_1/bias f4 [40]
0.20756124 -0.029049063 -0.0064106127 -0.0366382 -0.04524383 -0.022449702 0.037570752 -0.0011834204
-0.035314288 0.025036387 0.0100713335 0.09819671 0.10439982 -0.034704827 -0.0068333214 -0.039306328
-0.06708019 -0.014647126 0.0058984873 -0.021967076 0.006659956 0.006545058 -0.048542175 0.07952315
-0.031119423 0.04968283 -0.055219755 0.1481171 -0.04630067 0.021743642 -0.0128614865 0.15072134
-0.06262533 0.07895123 0.09621329 -0.08731153 -0.029725416 -0.027169215 -0.03303147 -0.049484424
00000000: ef8a 543e 4df8 edbc 1e10 d2bb f011 16bd
00000010: 9851 39bd 70e8 b7bc cae3 193d 001d 9bba
00000020: b7a5 10bd 1c19 cd3c 3c02 253c 5b1b c93d
00000030: 93cf d53d a626 0ebd 0eea dfbb acff 20bd
00000040: 5761 89bd 80fa 6fbc 1948 c13b 4cf4 b3bc
00000050: c33b da3b ed77 d63b 29d4 46bd 09dd a23d
00000060: 29ee febc 3980 4b3d 1c2e 62bd 02ac 173e
00000070: c5a5 3dbd b91f b23c fcb8 52bc b256 1a3e
00000080: b641 80bd 2fb1 a13d 790b c53d 63d0 b2bd
00000090: b782 f3bc f991 debc 024c 07bd 2eb0 4abd

dense/bias f4 [40]
-0.08038084 -0.012285987 0.045790732 -0.09376053 0.035442397 -0.112409376 0.09507754 0.02649514
0.04192861 0.1040987 0.23752742 -0.08715303 -0.06257873 -0.33677104 0.16575493 0.05375197
0.039307166 0.07436549 -0.14971778 -0.013508001 0.110908076 -0.02436379 0.013572403 0.02934083
0.047834605 -0.10462984 -0.0018438232 0.02116956 -0.016569652 -0.11658867 -0.006150346 0.08595519
-0.02955915 -0.0015680222 -0.044259664 -0.04504791 -0.15765117 -0.056282956 0.017536378 -0.030641038
00000000: b69e a4bd 2a4b 49bc 108f 3b3d 8505 c0bd
00000010: 0c2c 113d e336 e6bd 03b8 c23d 560c d93c
00000020: 56bd 2b3d b331 d53d 633a 733e 4a7d b2bd
00000030: 4729 80bd 416d acbe a9bb 293e 072b 5c3d
00000040: 8d00 213d ef4c 983d 9e4f 19be aa50 5dbc
00000050: c623 e33d 9296 c7bc c95e 5e3c 2e5c f03c
00000060: 38ee 433d 2b48 d6bd 71ac f1ba c96b ad3c
00000070: 14bd 87bc 0ac6 eebd d788 c9bb 4609 b03d
00000080: 0826 f2bc 1886 cdba 9f49 35bd 2884 38bd
00000090: 4f6f 21be f588 66bd 73a8 8f3c ea02 fbbc

bias/bias f4 [15]
-0.01145209 0.027491003 -0.057706222 0.17700498 -0.0018480003 -0.039241403 0.18225487 -0.112595476
0.015168292 0.15550742 -0.116904475 0.090865105 0.06891283 0.008902389 -0.016632523
00000000: 8ca1 3bbc d034 e13c 5c5d 6cbd cb40 353e
00000010: 9a38 f2ba 98bb 20bd 05a1 3a3e 7598 e6bd
00000020: 6e84 783c 563d 1f3e 9d6b efbd 7c17 ba3d
00000030: 2b22 8d3d 53db 113c ee40 88bc

model/dense_11/MatMul f4 [40, 15]
-3.411331e-05 -5.197362e-06 5.26738e-05 5.944619e-05 5.0395283e-05 -9.9380144e-05 1.7987943e-05 -6.21887e-07
-4.6819656e-05 -4.737188e-05 7.601545e-06 -1.6383703e-05 -8.2470106e-05 4.253069e-05 7.150429e-05 0.0001290038
-1.8488157e-05 -1.6129957e-06 7.510984e-05 -3.1490526e-07 -0.00010228866 -4.5417437e-07 -2.2528588e-05 3.637585e-05
-2.2549715e-05 -5.8394144e-06 6.8362744e-05 6.6798806e-05 3.4451947e-05 2.682782e-05 -0.0018467208 0.0014200059
-0.1439583 0.0004750793 0.00014817102 -2.8185677e-05 0.00043757726 0.0037132425 -0.0018579356 -0.0003839643
-0.00045325016 -4.662022e-05 -0.00035853783 -0.0024070346 0.0022857294 -0.0036322249 -0.00086539285 -0.0017891241
-0.00058407494 0.00031148185 -0.0471177 0.00014803195 0.0031200456 -0.0007404865 -0.0034875215 0.0033931574
-0.00011713305 0.00035897392 0.0024169153 -0.00093058555 3.4803787e-05 6.013498e-05 2.3261255e-06 2.4637451e-05
9.361753e-05 -5.5519864e-05 -4.3631942e-05 5.5085948e-05 -3.1999163e-05 2.490091e-05 -4.7832706e-05 -3.6336798e-05
1.8071907e-05 -5.7565987e-05 2.0736721e-05 -0.048559513 -0.010491263 0.00073789916 -0.0075102635 -0.10380091
0.21863134 0.00021116741 0.0010490564 -0.0008946626 0.0027424605 -0.006137634 0.0054008793 -0.0059174667
0.00044367518 0.006104595 -1.7420483e-05 9.140399e-05 -5.794155e-05 -1.6740354e-05 8.777104e-06 -6.7511806e-05
-0.00013815999 7.229826e-05 1.6431815e-05 -2.3552717e-05 -8.77586e-06 3.6923862e-05 5.2405223e-05 9.883763e-05
-3.926529e-05 -3.0069012e-05 3.1952466e-05 3.4020995e-06 -3.7812304e-05 -0.00011667675 -2.2660537e-05 3.9027113e-06
-1.7572993e-05 -7.284845e-05 4.671383e-06 -2.7266524e-05 3.0236366e-05 -5.3552467e-06 -3.3102864e-05 2.043489e-06
0.17729631 0.0004085751 -0.0076902877 -0.006062448 0.06462863 -0.2567184 -0.003948615 0.00018981629
0.03409633 0.06599549 0.00473593 0.002298375 0.0011505202 0.0054020877 0.031247733 -2.4932686e-05
8.3926316e-05 2.4772984e-05 -0.00011942106 -6.08783e-07 7.415666e-05 -4.433202e-05 -4.3076165e-05 3.712775e-05
-2.6355912e-05 3.8104256e-05 6.155567e-05 -3.413576e-05 -5.216193e-05 -2.711537e-05 -0.0069765816 0.0012493444
-0.003120778 -0.018103719 -9.202387e-05 -0.20308974 -0.0062030326 -2.463139e-05 0.056156505 -0.002083737
0.005025876 -0.0012333674 0.11109498 0.0062095514 -0.013212428 -7.641903e-05 3.243155e-05 -2.7970582e-06
-0.024195012 -6.763935e-05 -3.7124344e-05 9.4011193e-07 -2.4064859e-05 5.5410037e-06 1.8151706e-05 -4.8387733e-06
2.8295583e-05 -1.4495548e-05 -9.43003e-05 1.6616072e-05 -0.003911856 -0.00095333654 -0.0017306353 -0.0008773536
0.00019635704 -0.0035082325 -0.0019379503 0.0030680106 -0.0005993638 -0.0029853343 0.0033249748 -0.00014204881
0.00029471202 0.0019599216 -0.0011796159 -0.000154345 -3.3117707e-05 3.4453178e-06 1.5115611e-05 1.895144e-05
0.0449679 -5.5546963e-05 -3.7289028e-05 -3.7922575e-05 -1.2620765e-05 1.956174e-05 2.7422902e-07 4.3383807e-07
2.735943e-05 4.9778413e-05 -3.370823e-05 -1.9791636e-05 0.04161415 -1.8188075e-06 5.79073e-06 0.0001087593
-5.4453627e-05 8.3070496e-05 5.8869373e-06 -5.5020162e-05 -1.8963563e-05 -9.789757e-06 2.7365859e-05 1.6403184e-05
-3.259616e-05 3.1007166e-05 7.219582e-05 -4.4041917e-05 -1.5571266e-05 4.8342303e-05 -9.342786e-06 2.516669e-05
-4.6548603e-06 3.316122e-05 3.3233417e-05 -8.266955e-05 4.581624e-05 -9.347577e-05 -7.751445e-06 5.913542e-06
0.00635782 0.29016882 0.32184035 -0.0033501538 -0.04539727 0.060348578 0.015678016 0.02532563
-0.02067567 0.008929014 -0.0031522627 -0.0045274687 -0.005042768 -0.008392103 0.022113524 0.06269388
00000000: e314 0fb8 0065 aeb6 10ee 5c38 dc55 7938
00000010: 865f 5338 4f6a d0b8 d0e4 9637 c0ef 26b5
00000020: 3960 44b8 2bb1 46b8 c610 ff36 bc6f 89b7
00000030: cdf3 acb8 fb62 3238 93f4 9538 3245 0739
00000040: 0417 9bb7 1c7e d8b5 4a84 9d38 4010 a9b4
00000050: ce83 d6b8 40d5 f3b4 c6fb bcb7 4692 1838
00000060: 2529 bdb7 30f0 c3b6 f85d 8f38 5616 8c38
00000070: 7f80 1038 4e0c e137 ab0d f2ba 7e1f ba3a
00000080: ce69 13be 1014 f939 5b5e 1b39 4870 ecb7
00000090: a06a e539 df59 733b f985 f3ba d14e c9b9
000000a0: 35a2 edb9 148a 43b8 22fa bbb9 57bf 1dbb
000000b0: 2dcc 153b 9f0a 6ebb 88db 62ba 0b81 eaba
000000c0: 9b1c 19ba 634e a339 7dfe 40bd 0639 1b39
000000d0: ae79 4c3b 351d 42ba e78e 64bb bc5f 5e3b
000000e0: 54a5 f5b8 aa34 bc39 1c65 1e3b 8af2 73ba
000000f0: 48fa 1138 7139 7c38 881a 1c36 86ac ce37
00000100: 8754 c438 00de 68b8 7101 37b8 160c 6738
00000110: d736 06b8 4ce2 d037 fa9f 48b8 5768 18b8
00000120: 2099 9737 0273 71b8 c5f3 ad37 57e6 46bd
00000130: 8ce3 2bbc 936f 413a a818 f6bb 9295 d4bd
00000140: e5e0 5f3e d26c 5d39 7e80 893a ca87 6aba
00000150: daba 333b 351e c9bb dcf9 b03b 4fe7 c1bb
00000160: 139d e839 0e09 c83b 3422 92b7 25b0 bf38
00000170: 4406 73b8 a36d 8cb7 6041 1337 2095 8db8
00000180: 0adf 10b9 d59e 9738 0ed7 8937 1393 c5b7
00000190: 083c 13b7 b2de 1a38 aecd 5b38 0c47 cf38
000001a0: c9b0 24b8 b63c fcb7 b304 0638 a04f 6436
000001b0: a798 1eb8 5ab0 f4b8 2217 beb7 09f4 8236
000001c0: b769 93b7 37c6 98b8 e0be 9c36 6aba e4b7
000001d0: 1aa4 fd37 38b1 b3b6 eed7 0ab8 e022 0936
000001e0: 2a8d 353e 0636 d639 cffe fbbb 80a7 c6bb
000001f0: 045c 843d 9870 83be 6263 81bb 6c09 4739
00000200: 98a8 0b3d a528 873d dc2f 9b3b 55a0 163b
00000210: 0dcd 963a ff03 b13b 3ffb ff3c 8926 d1b7
00000220: 9901 b038 94cf cf37 b271 fab8 406b 23b5
00000230: 8e84 9b38 25f1 39b8 aeac 34b8 9eb9 1b38
00000240: e416 ddb7 22d2 1f38 7317 8138 fe2c 0fb8
00000250: 72c8 5ab8 d075 e3b7 cf9b e4bb 0bc1 a33a
00000260: f785 4cbb 404e 94bc f0fc c0b8 c2f6 4fbe
00000270: cf42 cbbb 829f ceb7 5d04 663d 4e8f 08bb
00000280: 1bb0 a43b f1a8 a1ba c485 e33d 7e79 cb3b
00000290: f178 58bc 2843 a0b8 1d07 0838 18b5 3bb6
000002a0: 9e34 c6bc 99d9 8db8 f6b5 1bb8 005c 7c35
000002b0: e4de c9b7 dcec b936 7e44 9837 bf5c a2b6
000002c0: 4d5c ed37 e831 73b7 17c3 c5b8 be62 8b37
000002d0: 072f 80bb 55e9 79ba 7cd6 e2ba 34fe 65ba
000002e0: 31e5 4d39 60ea 65bb d202 feba ad10 493b
000002f0: a01e 1dba 99a5 43bb d2e7 593b f0f2 14b9
00000300: 9483 9a39 0772 003b 579d 9aba acd7 21b9
00000310: dee7 0ab8 1c36 6736 0e99 7d37 e8f9 9e37
00000320: 4330 383d 19fb 68b8 ca66 1cb8 0e0f 1fb8
00000330: c6bd 53b7 8418 a437 c039 9334 40ea e834
00000340: ee81 e537 2ac9 5038 f061 0db8 3706 a6b7
00000350: 9973 2a3d c01d f4b5 fe4d c236 b415 e438
00000360: 2365 64b8 2236 ae38 6888 c536 73c5 66b8
00000370: f113 9fb7 b03e 24b7 bc8f e537 9299 8937
00000380: dcb7 08b8 b10d 0238 d667 9738 a6b9 38b8
00000390: 0a9f 82b7 27c3 4a38 f6be 1cb7 0e1d d337
000003a0: f230 9cb6 9716 0b38 1c64 0b38 e05e adb8
000003b0: d02a 4038 6c08 c4b8 340c 02b7 f06c c636
000003c0: 4255 d03b 0291 943e 42c8 a43e 418e 5bbb
000003d0: 7df2 39bd 1230 773d 2f6f 803c b277 cf3c
000003e0: 0660 a9bc 004b 123c 3196 4ebb 295b 94bb
000003f0: ce3d a5bb 087f 09bc 6c27 b53c a665 803d

model/dense_12/MatMul f4 [40, 40]
-4.1251715e-06 -6.424462e-05 0.00025691208 2.958937e-05 -0.00016415572 0.0035709932 0.000109342174 -3.5993406e-05
7.6164026e-05 6.248914e-05 -0.00017672777 -6.2410705e-05 -1.07909e-05 -5.983196e-05 -4.0365812e-06 1.33843205e-05
0.00092405797 0.00072942086 1.6925309e-05 2.0551375e-05 -6.461163e-06 -0.0036654721 -6.6350112e-06 -5.5616954e-05
-0.0005255932 5.0127186e-05 9.245785e-06 -7.813063e-05 -3.8296832e-05 5.741285e-05 -4.8324786e-05 -6.437339e-05
-0.0018860367 0.1959344 2.6843663e-05 5.072123e-06 0.00016888687 0.035694823 5.6747616e-05 1.8738876e-05
-2.4081164e-05 -4.0653256e-05 1.0622247e-05 -2.9259256e-05 -0.00013695266 -1.3298205e-05 2.7875256e-05 1.7231057e-05
2.8227834e-05 -3.6084377e-05 3.059396e-05 0.0001308763 -3.1530173e-05 1.3260687e-06 0.00022596672 -6.1151964e-05
2.2377557e-05 0.00016102429 2.6864527e-05 5.6134002e-05 0.00010578356 -0.00016703074 3.462223e-05 -3.616706e-05
9.472246e-05 -3.250279e-05 -5.1250692e-05 -6.8239533e-06 -3.2831926e-05 1.2680477e-05 -2.865406e-05 5.7138986e-05
-5.1836454e-05 5.24569e-05 1.6317645e-06 -3.680419e-05 3.2295695e-05 -8.735543e-06 -6.4943088e-06 0.00013551142
-2.5924577e-05 6.799972e-05 -6.136042e-05 -4.8702705e-06 -9.730937e-06 2.1099586e-05 -0.00011516591 3.263991e-06
8.174163e-05 3.751457e-05 3.4631797e-05 4.1646083e-05 3.8907892e-05 0.00013349362 5.8623125e-05 -1.6756756e-05
2.4256398e-05 -2.835154e-05 1.5515747e-05 -9.252188e-05 -5.9859667e-07 7.6208526e-06 1.5585389e-05 6.650162e-05
-6.786336e-05 -4.345851e-05 5.8597227e-05 -1.4075249e-05 1.4675752e-06 4.4961067e-05 3.5277204e-05 1.5944172e-05
8.092404e-05 1.7916482e-05 -6.410721e-05 -7.96119e-05 -1.6397657e-05 -3.665489e-05 0.00012984904 -7.2743176e-05
4.445095e-05 -8.461573e-05 7.749057e-05 5.08142e-05 -2.865833e-05 7.972872e-05 -9.956745e-05 4.1772917e-05
1.5108544e-05 -0.0001507974 4.0652318e-05 -3.981486e-06 -4.6260284e-06 0.00013348566 5.3435655e-05 -2.9293209e-05
-5.2994295e-05 -8.048497e-06 6.326313e-05 6.611513e-05 3.3182318e-05 8.941855e-05 -9.09558e-05 4.4818582e-05
-0.00013829894 2.214235e-05 3.918627e-06 7.3806135e-05 -1.0124055e-05 4.8114845e-05 -3.4977405e-05 -3.7175567e-05
-8.887053e-05 3.3586948e-05 -4.6420137e-05 3.0733987e-05 4.867094e-05 1.8825958e-06 -2.4514018e-05 6.0855773e-06
-0.0021136296 5.176848e-05 -0.04333052 -0.0015189371 -0.0017839866 -0.002077965 -0.0016891826 -0.0004912802
-0.040717322 -0.00011324702 -0.0017215228 -0.000626863 -0.0010138524 -0.00060850236 -0.00033789518 1.3082474e-05
0.25682104 0.00075750425 -0.00011912449 -3.378719e-05 -0.0009331594 -0.0043017305 2.0678628e-05 -0.0005405666
0.2269448 -0.00015353377 -7.585532e-05 -0.00012969876 -6.4489977e-06 -0.0011489359 -4.4497574e-07 -0.00015942488
0.42302933 -0.0006038422 -0.002390499 4.998904e-05 -0.00033244223 3.5014087e-05 0.00012759051 1.1137312e-05
-8.12224e-05 -0.00019382598 -5.5807177e-05 0.00027014068 -0.00015120453 0.00014591933 -9.043922e-05 -8.637719e-06
0.00013870749 1.8409322e-05 -7.550807e-05 -0.00011994842 -0.00012773095 5.224259e-05 8.945652e-05 -5.314542e-05
-3.705243e-05 5.2698684e-05 0.00017509385 -0.00025646487 2.2262233e-05 -0.00019171508 3.5158395e-05 -4.471377e-05
0.00020262663 0.00013270667 -0.0004603766 -4.206199e-05 -0.00017190765 2.5567278e-05 5.986918e-06 -0.000150673
-0.00016558086 -6.697786e-05 2.138823e-05 -6.9936825e-05 8.105918e-05 0.0001697216 -8.575889e-05 0.0001369011
-8.2159e-05 2.646594e-05 3.1280222e-05 -9.958143e-05 -5.6564604e-06 -7.611765e-05 -4.0982995e-06 -2.4564943e-05
9.976817e-06 -0.0005063716 -3.191665e-05 1.900662e-05 3.2183976e-05 1.9515515e-05 7.990907e-05 1.5328118e-05
00000000: f46a 8ab6 11bb 86b8 28b2 8639 b036 f837
00000010: 3721 2cb9 5307 6a3b a24e e538 a0f7 16b8
00000020: 40ba 9f38 9a0c 8338 0050 39b9 7ee2 82b8
00000030: 900a 35b7 14f4 7ab8 f871 87b6 388d 6037
00000040: 7b3c 723a 9b36 3f3a d3fa 8d37 be65 ac37
00000050: f8cc d8b6 6b38 70bb 50a2 deb6 4046 69b8
00000060: f6c7 09ba a83f 5238 581e 1b37 10da a3b8
00000070: e9a0 20b8 94ce 7038 58b0 4ab8 3300 87b8
00000080: e434 f7ba 07a3 483e 542e e137 3431 aa36
00000090: 3917 3139 bc34 123d 4a04 6e38 6e31 9d37
000000a0: e801 cab7 1a83 2ab8 3436 3237 c671 f5b7
000000b0: f39a 0fb9 5b1b 5fb7 a8d5 e937 6a8b 9037
000000c0: d0ca ec37 4e59 17b8 0452 0038 d73b 0939
000000d0: 443f 04b8 60fb b135 7bf1 6c39 b63e 80b8
000000e0: 70b7 bb37 a1d8 2839 225b e137 6d71 6b38
000000f0: 1ed8 dd38 f924 2fb9 5637 1138 16b2 17b8
00000100: bca5 c638 9b53 08b8 03f6 56b8 50f9 e4b6
00000110: 03b5 09b8 3cbe 5437 205e f0b7 85a8 6f38
00000120: f86a 59b8 2b05 5c38 0003 db35 335e 1ab8
00000130: 3d75 0738 df8e 12b7 b0e9 d9b6 1218 0e39
00000140: 9b78 d9b7 129b 8e38 a0ae 80b8 4e6b a3b6
00000150: 0e42 23b7 04ff b037 3a85 f1b8 f00a 5b36
00000160: b46c ab38 f658 1d38 9c41 1138 24ad 2e38
00000170: 0831 2338 6cfa 0b39 1ae2 7538 dc90 8cb7
00000180: 387a cb37 78d4 edb7 d027 8237 4e08 c2b8
00000190: 40af 20b5 a0b6 ff36 5ebd 8237 c976 8b38
000001a0: dd51 8eb8 3847 36b8 4bc6 7538 bc24 6cb7
000001b0: 80f9 c435 9494 3c38 9cf6 1338 d9bf 8537
000001c0: c3b5 a938 5a4b 9637 4c71 86b8 50f5 a6b8
000001d0: b38d 89b7 e3bd 19b8 1628 0839 b28d 98b8
000001e0: d870 3a38 b973 b1b8 6f82 a238 5521 5538
000001f0: 4c67 f0b7 0834 a738 dece d0b8 5435 2f38
00000200: b47a 7d37 5e1f 1eb9 1882 2a38 b498 85b6
00000210: 4839 9bb6 49f8 0b39 1920 6038 b0ba f5b7
00000220: 3146 5eb8 0808 07b7 22ac 8438 4aa7 8a38
00000230: 3e2d 0b38 3886 bb38 86bf beb8 96fb 3b38
00000240: 5704 11b9 56be b937 c07c 8336 5ec8 9a38
00000250: 7cda 29b7 ecce 4938 b4b4 12b8 f6ec 1bb8
00000260: 0160 bab8 b6df 0c38 3eb3 42b8 5ee8 0038
00000270: 0624 4c38 80ad fc35 74a3 cdb7 b632 cc36
00000280: d284 0abb fb21 5938 587b 31bd 1217 c7ba
00000290: a8d4 e9ba 782e 08bb 9067 ddba 42c9 00ba
000002a0: 35c7 26bd 087f edb8 b8a4 e1ba 1054 24ba
000002b0: 3ee3 84ba e783 1fba 8627 b1b9 cc7c 5b37
000002c0: 0c7e 833e 4093 463a 79d2 f9b8 b8b6 0db8
000002d0: 449f 74ba 88f5 8cbb 0477 ad37 cfb4 0dba
000002e0: 3864 683e e8fd 20b9 8414 9fb8 bfff 07b9
000002f0: 7864 d8b6 e497 96ba 00e5 eeb4 4a2b 27b9
00000300: 4d97 d83e 2a4b 1eba eba9 1cbb 53ab 5138
00000310: a44b aeb9 17dc 1238 d1c9 0539 64da 3a37
00000320: f255 aab8 c43d 4bb9 8012 6ab8 aba1 8d39
00000330: a88c 1eb9 ec01 1939 30aa bdb8 b8ea 10b7
00000340: 0272 1139 b86d 9a37 165a 9eb8 d18c fbb8
00000350: 84ef 05b9 0e1f 5b38 9a9a bb38 76e8 5eb8
00000360: be68 1bb8 c808 5d38 6699 3739 2276 86b9
00000370: c8bf ba37 2007 49b9 0a77 1338 0c8b 3bb8
00000380: 2c78 5439 2d27 0b39 b45e f1b9 b86b 30b8
00000390: 1c42 34b9 5079 d637 3ce3 c836 fafd 1db9
000003a0: c69f 2db9 7776 8cb8 e06a b337 0cab 92b8
000003b0: 51fe a938 4cf7 3139 74d9 b3b8 1c8d 0f39
000003c0: c74c acb8 2c03 de37 e232 0338 60d6 d0b8
000003d0: a0cc bdb6 5aa1 9fb8 2084 89b6 d010 ceb7
000003e0: 1a62 2737 06be 04ba 3ede 05b8 6870 9f37
000003f0: 48fd 0638 40b5 a337 db94 a738 e294 8037

model/dense_13/MatMul f4 [40, 40]
0.00015065714 -3.8171253e-05 -0.0001423585 6.623767e-05 -8.549916e-05 8.568186e-05 -0.00020903393 0.00043881588
-8.47382e-05 3.744692e-05 -0.00026179804 -0.0003296058 -0.00021520942 -2.9732955e-05 7.623818e-05 9.519771e-05
-3.8351354e-06 -3.330255e-05 0.00019670925 -7.130133e-06 -7.435947e-06 -8.77306e-05 -0.00014282957 -1.1258417e-05
-4.068261e-05 0.00032341998 -0.00047003676 9.9268436e-05 6.4756023e-09 0.00041976513 -6.685698e-05 -0.0002043595
0.00016166555 -0.00014537826 -0.00019474998 -0.00016367488 -7.0463146e-05 0.0001693154 0.00049533136 -0.000112451635
-2.6088795e-05 6.735949e-05 0.00024759956 5.181905e-05 -5.0604176e-06 0.00011766792 3.1015064e-05 -0.00031653114
0.00016463427 0.00017283787 -5.1176146e-05 9.540265e-06 -4.0544808e-05 8.709061e-05 0.00032210397 -0.00011101761
1.1197568e-05 -7.339275e-06 3.3097298e-05 -0.0002264734 5.120735e-05 0.00013044155 -3.88685e-05 -5.47705e-07
0.00021544732 -5.5620767e-05 1.4013342e-05 -0.00016322576 5.676118e-05 -2.7397196e-05 -6.74873e-05 2.1100524e-05
6.586325e-05 -2.30082e-05 -0.000307746 3.798358e-05 -8.157094e-06 1.8833713e-05 -2.9559415e-06 -1.07918795e-05
4.670994e-06 -5.1560564e-06 -1.0709249e-05 1.6518381e-05 2.7566242e-05 0.0006003458 -0.00046377492 2.156433e-05
1.8213468e-05 6.276156e-05 5.821401e-05 -0.00017245833 -0.0003595894 2.766568e-05 0.00013840271 -0.00014195482
0.00028423168 2.6208538e-05 -6.1051105e-06 -7.521936e-05 -0.00014420156 9.277718e-05 2.8557894e-05 -6.7442e-05
-0.0002577635 0.00015434435 -2.384045e-05 3.1034964e-05 1.9118106e-06 -0.00021163459 -6.160673e-05 5.8769892e-05
7.80235e-05 0.00013504356 -6.0867736e-05 -1.7657541e-05 -2.6682028e-06 3.4216282e-05 4.3191885e-06 -2.3460474e-05
-0.00023504504 0.00026901608 0.00023275721 3.3300264e-05 0.00018532344 0.00034672863 -0.000115933915 -0.0001677544
-3.418859e-05 0.00031550997 -0.00042113924 0.00015156541 0.00020857208 -8.437145e-05 -0.0001924586 4.0486775e-05
-0.00026609437 0.00017876779 7.9426456e-05 9.255033e-05 -0.00029842154 -7.097644e-05 -0.00026273762 -0.00013026019
-0.00012304394 0.0002516414 -0.00030508998 4.746551e-06 -2.9472722e-07 0.00019421513 -0.00013738936 0.0001402958
-0.00024127617 2.8463379e-05 -9.15689e-05 1.4485877e-05 -0.00021565288 0.000103917344 0.00012429288 -0.000100386984
-1.5500877e-05 -6.4397515e-05 -7.843354e-05 2.608195e-05 -0.00010772637 -3.2336975e-06 4.97503e-05 0.00020752316
-3.1026706e-05 -0.00015653965 8.206515e-05 3.4426113e-05 1.3856326e-05 6.048755e-05 -0.00012848596 -0.0004038146
-0.00010282616 7.5918433e-06 -9.903372e-05 9.399365e-05 4.6123612e-05 -2.993624e-05 -0.00040819484 -7.683243e-07
0.00012734547 -0.00011230691 7.4031195e-05 -0.00013147896 4.035187e-05 7.9348683e-07 -3.579592e-05 -1.3721614e-05
-7.054187e-05 -3.545753e-05 0.0001846801 4.2811695e-05 3.099325e-05 9.379546e-05 9.507782e-05 4.912071e-05
4.591392e-05 6.513628e-05 -0.000112118 2.3515211e-05 1.89885e-05 -4.5801382e-05 8.490108e-05 0.00015599675
3.180564e-05 8.1615704e-05 0.00013916318 4.047173e-05 3.0317024e-06 6.199116e-07 -1.1443837e-05 9.043455e-06
4.535809e-05 -2.426846e-05 -4.898061e-05 -6.674917e-05 7.303546e-06 -7.410975e-05 0.00013020825 2.7096496e-05
0.00025940032 8.573669e-05 -0.00018361813 -8.427666e-05 -3.421994e-05 -0.00013113287 -3.9352937e-05 -2.3987548e-05
-2.3323159e-05 0.00010879223 5.7363366e-05 -1.5017589e-05 2.169254e-07 -6.0640014e-07 4.3395972e-05 2.7382102e-05
-0.088266455 -1.4336034e-05 4.161356e-05 2.5838766e-05 0.20864712 8.135112e-05 -5.6291043e-05 9.065574e-06
-8.61013e-06 9.614821e-05 1.6858565e-05 -7.524803e-05 -2.0259336e-05 1.3417473e-05 1.3436238e-05 1.4259975e-05
00000000: b8f9 1d39 121a 20b8 1246 15b9 14e9 8a38
00000010: 034e b3b8 19b0 b338 1e30 5bb9 df10 e639
00000020: 7ab5 b1b8 5310 1d38 f041 89b9 f1ce acb9
00000030: d7a9 61b9 096b f9b7 10e2 9f38 e2a4 c738
00000040: 90af 80b6 57ae 0bb8 bd43 4e39 603f efb6
00000050: 4c82 f9b6 02fc b7b8 85c4 15b9 88e2 3cb7
00000060: 9fa2 2ab8 b290 a939 446f f6b9 562e d038
00000070: 0080 de31 ec13 dc39 9135 8cb8 5649 56b9
00000080: c484 2939 ae70 18b9 cd35 4cb9 24a0 2bb9
00000090: 9dc5 93b8 428a 3139 20d9 013a 03d4 ebb8
000000a0: 43d9 dab7 5a43 8d38 40d0 8139 4858 5938
000000b0: a8cc a9b6 7cc4 f638 2c16 0238 17f4 a5b9
000000c0: ada1 2c39 d03b 3539 f8a5 56b8 200f 2037
000000d0: a80e 2ab8 6aa4 b638 10e0 a839 20d2 e8b8
000000e0: 30dd 3b37 e443 f6b6 f4d1 0a38 7e79 6db9
000000f0: 79c7 5638 23c7 0839 bc06 23b8 0006 13b5
00000100: b3e9 6139 584a 69b8 d81a 6b37 9527 2bb9
00000110: da12 6e38 08d3 e5b7 f887 8db8 0801 b137
00000120: 1020 8a38 bc01 c1b7 f858 a1b9 8f50 1f38
00000130: 74da 08b7 17fd 9d37 b05e 46b6 c50e 35b7
00000140: 88bb 9c36 3002 adb6 e0ab 33b7 f490 8a37
00000150: 0e3e e737 8660 1d3a d126 f3b9 0ce5 b437
00000160: 20c9 9837 db9e 8338 d12a 7438 eed5 34b9
00000170: 4687 bcb9 9813 e837 3220 1139 b5d9 14b9
00000180: ee04 9539 68da db37 80da ccb6 16bf 9db8
00000190: d034 17b9 5f91 c238 9c8f ef37 a66f 8db8
000001a0: 6e24 87b9 7fd7 2139 fafc c7b7 8a2b 0238
000001b0: a84c 0036 3aea 5db9 dc32 81b8 b17f 7638
000001c0: 8ca0 a338 7b9a 0d39 3c4c 7fb8 481f 94b7
000001d0: 600f 33b6 7483 0f38 8ced 9036 fccc c4b7
000001e0: 6c76 76b9 ba0a 8d39 4a10 7439 e3ab 0b38
000001f0: 6253 4239 21c9 b539 8c21 f3b8 3be7 2fb9
00000200: b865 0fb8 086b a539 5acc dcb9 88ed 1e39
00000210: 24b4 5a39 94f0 b0b8 b6ce 49b9 58d0 2938
00000220: 9582 8bb9 9d73 3b39 c191 a638 9417 c238
00000230: 7675 9cb9 30d9 94b8 0cc0 89b9 7496 08b9
00000240: 5b05 01b9 bdee 8339 7cf4 9fb9 9044 9f36
00000250: 003b 9eb4 3aa6 4b39 2d10 10b9 5e1c 1339
00000260: 14ff 7cb9 a4c4 ee37 ae08 c0b8 5e08 7337
00000270: e120 62b9 33ee d938 9e54 0239 da86 d2b8
00000280: e107 82b7 270d 87b8 b07c a4b8 90ca da37
00000290: 28eb e1b8 8002 59b6 faaa 5038 939a 5939
000002a0: ac22 02b8 cb24 24b9 641a ac38 c264 1038
000002b0: 7878 6837 03b4 7d38 30ba 06b9 14b7 d3b9
000002c0: 60a4 d7b8 70bd fe36 53b0 cfb8 751e c538
000002d0: da74 4138 961f fbb7 fc02 d6b9 d83e 4eb5
000002e0: 0a88 0539 5086 ebb8 3241 9b38 9ddd 09b9
000002f0: 7e3f 2938 0000 5535 9423 16b8 e235 66b7
00000300: e1ef 93b8 3cb8 14b8 b0a6 4139 b590 3338
00000310: c0fe 0138 0eb4 c438 8464 c738 f606 4e38
00000320: b293 4038 c699 8838 e520 ebb8 8842 c537
00000330: 7e49 9f37 dc1a 40b8 ec0c b238 0f93 2339
00000340: 0c67 0538 1929 ab38 55ec 1139 30c0 2938
00000350: 4074 4b36 0068 2635 e8fe 3fb7 58b9 1737
00000360: e13e 3e38 1f94 cbb7 8870 4db8 b0fb 8bb8
00000370: fc10 f536 5e6b 9bb8 8388 0839 484d e337
00000380: 1f00 8839 89cd b338 9e89 40b9 b0bd b0b8
00000390: 6187 0fb8 b680 09b9 e50e 25b8 de38 c9b7
000003a0: 1aa6 c3b7 6227 e438 7299 7038 0ef4 7bb7
000003b0: 00ec 6834 80c7 22b5 1204 3638 9eb2 e537
000003c0: 0bc5 b4bd cc84 70b7 388a 2e38 54c0 d837
000003d0: 97a7 553e 0d9b aa38 0c1a 6cb8 5818 1837
000003e0: 3a74 10b7 2da3 c938 7e6b 8d37 7ace 9db8
000003f0: 98f2 a9b7 9c1b 6137 346c 6137 203e 6f37
