3tier-app/learnt_model/model_3tier.tflite (tflite, 148092 bytes, 48 tensors)

dense_9/bias f4 [40]
000000 2b f0 e6 bd d4 19 c6 3d d3 fb f3 3a 6d 3c 58 3c
       -0.11276277 0.09672895 0.0018614478 0.013198
000010 ea 46 43 bd b5 86 2c bd c9 b6 34 3d ea 78 12 bd
       -0.04767505 -0.042120654 0.04411963 -0.035759844
000020 6f 66 08 bd 61 0c 1e bd 61 a5 a6 3b 5c 6a 23 3e
       -0.033300813 -0.038586024 0.0050856327 0.15958542
000030 68 8f aa bd a0 2f 9a bc 32 48 d7 3d 9f fe d4 3d
       -0.08328134 -0.018821537 0.10511817 0.104001276
000040 d5 82 29 bd ca 4b 6e 3d a0 fe 6e bc f7 11 9d 3d
       -0.041384537 0.058177747 -0.0145870745 0.07669442
000050 c8 e8 35 3d 7a a4 a4 bd d7 f3 d7 3d ea 8f 3c bd
       0.04441145 -0.08039184 0.10544556 -0.046035685
000060 fd 05 79 3c bb 31 57 3c de 2f f1 3d e8 77 c9 3b
       0.015199182 0.013134415 0.11776708 0.006148327
000070 d2 e5 2c be d6 d7 ad bd e0 e1 33 bd 68 ac f6 bb
       -0.16884544 -0.08488433 -0.043916583 -0.0075278766
000080 a4 f0 9f bc c8 dd b8 bb 1e 9b 00 be 76 22 b2 3d
       -0.019523926 -0.0056416728 -0.12559173 0.08697979
000090 24 31 42 bd c9 5b f7 3d 7c d9 c3 bc cb 76 e0 bc
       -0.047410145 0.120780535 -0.023907416 -0.027400395

dense_8/bias f4 [40]
000000 7b 20 65 3c 77 1d f5 3d 31 e0 29 3e 02 e9 8f 3d
       0.013984795 0.119685106 0.16589428 0.070268646
000010 a7 b4 54 3b 75 6f a1 bd 26 11 97 bd c9 0a 38 bd
       0.003245631 -0.07882587 -0.07376318 -0.04493216
000020 2f d0 0b bd 40 b9 a0 bd 2a f5 c2 bc a3 82 d5 bd
       -0.034134086 -0.07847834 -0.023798544 -0.104253076
000030 61 ea 74 3e 07 27 59 3a 54 4a c4 3b ae 1f 69 3e
       0.23917533 0.00082837086 0.005990306 0.22765991
000040 41 7b 51 bc ff 14 65 bd d4 f4 4b 3d d4 91 e6 bb
       -0.012785734 -0.055928227 0.049794033 -0.007036427
000050 70 2d 45 bd 07 51 1d bd bf f5 85 3d 18 6e 09 3d
       -0.048139036 -0.03840735 0.06541013 0.03355226
000060 6a 05 e9 bd a8 59 98 bd 01 71 3f bd 01 60 1e 3d
       -0.11377986 -0.074389756 -0.04673863 0.038665775
000070 b3 0e 9e bc 5b 34 32 3d 88 76 6d 3d fa ae ff bc
       -0.019294119 0.04350696 0.05797437 -0.031211365
000080 22 fa 9c bd 86 47 1f bd 65 66 b3 bc 93 65 ac bc
       -0.076648965 -0.03888657 -0.021899411 -0.021044528
000090 69 2d 04 bd b1 7d e5 bc e6 83 80 bd 1c 4c 39 bd
       -0.03226987 -0.028014036 -0.06275158 -0.0452386

dense_7/bias f4 [40]
000000 dc 6c e7 bc 8b 65 46 3e 22 1d f7 bc a9 11 db bb
       -0.02825015 0.19374673 -0.030165259 -0.006685455
000010 86 00 a5 bd b0 02 0a 3e 0a a8 9e bc 97 35 10 bc
       -0.080567405 0.13477588 -0.019367237 -0.008801839
000020 45 28 e1 bc d9 df 29 bb 3e 03 d8 bc 21 f3 81 3d
       -0.027485022 -0.0025920777 -0.026368733 0.06345201
000030 4a 71 48 bd 67 30 e4 3d 62 10 10 bb 04 42 4c 3d
       -0.048936166 0.111420445 -0.0021982421 0.049867645
000040 a5 29 cc 3d c1 7a 85 3c 23 59 1c bd 3e a3 d5 3d
       0.099688806 0.016293885 -0.038170945 0.104315266
000050 f7 06 11 3e 89 4e cb 3c 5b c8 9c bc 30 76 36 3e
       0.14162813 0.024817722 -0.019138506 0.17818522
000060 15 47 bd 3d 5b 74 d3 bd c8 b9 83 bd 30 f8 a4 3c
       0.092420734 -0.103249274 -0.06431919 0.020137876
000070 23 e9 a7 bc 77 2b a5 bd 45 73 e2 bb db b4 94 bd
       -0.02049691 -0.08064931 -0.006910714 -0.07261058
000080 a8 1c ae 3e 40 77 89 bd ed c9 22 3e 47 fb 92 3d
       0.34006238 -0.06712198 0.15897341 0.071768336
000090 0c 07 12 3e 07 80 1b 3c 09 29 39 3c 03 bb fd 3d
       0.142605 0.009490973 0.011301287 0.12389185

dense_6/bias f4 [36]
000000 e8 86 a6 3e d8 c1 d5 3b 58 63 85 3d fa db 90 bb
       0.325248 0.006523352 0.06513089 -0.0044207545
000010 99 a9 80 ba 50 31 96 3b 9c e8 89 39 c3 9e 14 ba
       -0.0009816169 0.004583515 0.00026303984 -0.00056694093
000020 d6 6c 00 bb 02 8c c3 3a 58 77 5e 3a 58 c0 87 38
       -0.0019596121 0.0014919045 0.00084864115 6.4731285e-05
000030 a2 37 71 3e b3 45 cf bb ed b3 1d bc 7a 72 38 3b
       0.23556378 -0.0063254475 -0.009625417 0.0028144405
000040 fb 7f b6 3a 75 ee 8a bb fa 6f 92 3b fe bb 4b bb
       0.0013923639 -0.004239852 0.004468915 -0.0031087394
000050 5a 15 a8 bb 8f 60 97 3b c3 8d 8e ba 65 d9 34 3b
       -0.0051294984 0.004619665 -0.0010875989 0.0027595398
000060 83 38 ef 3d 50 bd b4 3d 6a de 3b be cc a9 db ba
       0.11680701 0.08825171 -0.18346563 -0.0016758977
000070 6d cf 15 3c 5a 5b 2f bc 0f b4 48 bc ba 90 e1 ba
       0.009143692 -0.010702932 -0.012249961 -0.001720927
000080 96 c5 74 3c b6 7f fd ba 51 57 d9 b9 fc bb ac 3b
       0.014939686 -0.0019340429 -0.0004145452 0.005271433

dense_5/bias f4 [40]
000000 50 06 37 bd 37 1b 42 3e 4e 8b 60 bc bc 52 28 3e
       -0.044683754 0.18955694 -0.013705088 0.1643781
000010 4f 79 29 bd f6 dc 05 bd ac 37 a5 bc fa e9 f2 3d
       -0.041375455 -0.032681428 -0.020168148 0.11861034
000020 cb dc 0a bd 33 f6 df bc 1b ef 48 bd c4 2c 80 bc
       -0.03390197 -0.027339077 -0.049056154 -0.015646346
000030 c6 0b 8b bd b3 46 60 bd 26 3a 93 bc cc be a6 bd
       -0.06789355 -0.054754924 -0.017972063 -0.0814186
000040 94 4b 33 bd af 71 32 bd c9 9e ed 3d 41 f0 ba bc
       -0.04377325 -0.04356545 0.116025515 -0.02281964
000050 75 f7 c3 bd 7d ce 63 bd 11 4d 82 3b ee e6 32 bd
       -0.09568683 -0.055616844 0.003976472 -0.043677263
000060 17 85 d2 bb 56 75 91 bb c0 e2 a0 bd 09 e8 08 bd
       -0.006424557 -0.0044390364 -0.07855749 -0.03342441
000070 60 d0 a7 bc fd eb b2 bc 2e 75 a1 bd b1 e6 9c bc
       -0.020485103 -0.021841044 -0.078836784 -0.019152971
000080 31 2e ea bc 57 6e 67 3d f1 51 fa 3d ce 0b 83 bc
       -0.028586479 0.056501713 0.1222266 -0.01599684
000090 59 46 17 3e e6 0b d0 3d 12 a8 fa bc 85 81 ef bd
       0.14772929 0.101585194 -0.03059772 -0.11694626

dense_4/bias f4 [40]
000000 3b 8d 84 bd a1 20 a7 3d bb a0 91 3c e5 cb 93 3b
       -0.0647225 0.0816052 0.017776838 0.00451039
000010 4d 7e 08 bd 07 00 65 bb b3 7c 96 3d b0 46 86 3e
       -0.033323575 -0.0034942643 0.07348003 0.26225805
000020 1d ea 10 bd 77 63 87 bd dc 9a c1 bc 64 10 04 bd
       -0.035379518 -0.06610768 -0.023633413 -0.032242194
000030 9a a8 00 bd d9 5b 88 bd a5 2f ae 3b 23 8b 73 3e
       -0.03141079 -0.066581436 0.0053157383 0.23783545
000040 0b d8 02 be 81 20 50 bd 43 e3 48 bd 80 ec 0b 3a
       -0.12777726 -0.05081225 -0.04904486 0.00053376704
000050 0f d8 0c bd c2 01 d8 3d 41 52 e9 bc dd e7 bd bd
       -0.034385737 0.1054721 -0.028481605 -0.0927274
000060 3a a3 21 bd 0a 6f 95 bd 3f 56 92 3d 6a e5 a5 3e
       -0.039462306 -0.0729657 0.071453564 0.32401592
000070 56 f3 66 bd d8 c7 e4 3c 1f b7 11 bd bc 9b be bc
       -0.056384407 0.027927324 -0.03557503 -0.02326762
000080 9b 99 36 bd 4b a2 22 bd f4 b8 39 3e 8b 4e 9a bc
       -0.044580083 -0.039705556 0.1813696 -0.01883628
000090 c2 39 97 bd 53 d8 53 bc 58 a2 ab b9 a2 e0 40 bc
       -0.07384063 -0.012929994 -0.00032736617 -0.011772307

dense_3/bias f4 [40]
000000 21 68 bc bd af 2b 5b 3e 21 c7 55 3d a6 1e ef bd
       -0.091995485 0.21403383 0.052191857 -0.116757676
000010 f6 8e 0f 3e 7b 2f f7 bd 6a d9 3e 3e a4 09 7e bc
       0.14019379 -0.12069603 0.18637624 -0.015505228
000020 5d e4 96 bc 28 47 a7 3c fa b8 2b 3e 26 19 88 3d
       -0.018419439 0.020419672 0.16769782 0.06645422
000030 7b bd 8e bd 5c 17 e0 bd be 91 bc 3b ec 3c 50 3d
       -0.06969734 -0.109419554 0.0057546785 0.05083935
000040 c5 1d 05 bc 8d e3 b1 bd 0e 1f 2d 3d e6 d1 03 3d
       -0.008124773 -0.0868598 0.042265944 0.032182597
000050 57 93 77 bd 2c 10 0b bd 52 7b 4e 3d 5b 3f c4 bc
       -0.06044325 -0.03395097 0.050410576 -0.023955991
000060 77 6c 67 bd 30 e9 07 bd ef 91 aa bb ea 13 be bc
       -0.056499925 -0.03318137 -0.005205385 -0.023202855
000070 22 a0 2e 3e b0 cb 27 3e 1f c2 5f bc 3f 51 19 bd
       0.17053273 0.16386294 -0.013657122 -0.037430998
000080 22 a4 2d 3d fb 30 88 3d 8a f6 45 bd 1b fe 10 3e
       0.042392857 0.06649967 -0.04833082 0.14159434
000090 47 1c 01 be 68 e5 0c bb ea 69 07 3e d6 5a 5f 3d
       -0.12608443 -0.0021499041 0.13223997 0.054529987

dense_22/bias f4 [45]
000000 24 d0 90 3e e3 12 bb 3b cb f6 a5 3d 70 39 2c bc
       0.282838 0.0057090386 0.08103713 -0.010511741
000010 f8 a4 a3 ba b8 e2 f3 3b fc d8 a7 ba 26 0f d1 3b
       -0.0012485078 0.0074427985 -0.0012805755 0.0063799797
000020 07 f1 40 ba b9 72 b0 3a 94 aa 2a ba ee cf c4 ba
       -0.00073601346 0.0013461924 -0.00065104035 -0.0015015581
000030 8d fd d4 3e 42 0a 22 be 2b c8 6d bd ca 98 5e 3e
       0.41599694 -0.15824226 -0.058052223 0.21737972
000040 bc d1 5c bc 8d 83 0c bd 35 bb 85 3b 78 b7 ab bb
       -0.013477739 -0.034305144 0.0040811547 -0.005240377
000050 0c 74 ea bb 21 e0 98 bb aa 63 08 bc ff 3b 04 bb
       -0.007154947 -0.00466539 -0.008324543 -0.0020177362
000060 b9 d7 cd 3a 33 d1 38 bb ab be 0a 3c 8f ac 45 be
       0.0015704549 -0.0028200864 0.00846831 -0.19304107
000070 c8 db bd 3e b7 aa 16 bd c1 74 f0 3d 4b c4 5d bb
       0.37081742 -0.0367839 0.11741019 -0.0033838924
000080 40 52 de bd f8 ee 2b b9 00 a9 b7 ba df 83 cb b9
       -0.10855532 -0.00016396854 -0.0014012158 -0.0003881743
000090 a8 96 12 3c 84 24 30 ba 00 09 4b 3b a5 5b dc b9
       0.008947052 -0.00067193084 0.0030980706 -0.0004202995
0000a0 71 49 8e 39 2d b9 c3 3a a9 9b 9c bd 4b 90 ee bc
       0.0002713907 0.0014932506 -0.07646877 -0.029121539
0000b0 e4 83 01 3f
       0.50591874

dense_21/bias f4 [40]
000000 ab 2e 25 bd 53 a1 93 bd 9e 00 32 3c bc c6 b6 bb
       -0.04032771 -0.072085045 0.010864405 -0.00557789
000010 91 aa 6b 3d 33 59 2c bd ed b9 8b bb c6 68 fb bc
       0.05753571 -0.042077255 -0.0042641074 -0.030689608
000020 07 37 b1 3b cd 11 8d bc d7 ba 08 3d 60 43 9c ba
       0.005408171 -0.017220402 0.03338131 -0.0011921935
000030 4e be a6 3b 8f 5d 51 3d 08 92 a8 3d 5d e2 40 bc
       0.005088604 0.051114615 0.08230978 -0.011772719
000040 cc 32 36 bd d6 69 85 bd 5f 69 75 bd d9 91 8b bc
       -0.044482037 -0.06514327 -0.059914943 -0.017037319
000050 99 02 54 bd 23 2a 78 3c f5 42 56 bd 4b 4b a4 bc
       -0.05176029 0.015146765 -0.05230995 -0.020055434
000060 35 26 6d bd 8d 0f 89 bd 1a c4 8e bd f5 ad 42 bd
       -0.057897765 -0.06692419 -0.06970997 -0.04752918
000070 1b 84 37 bd b2 54 a1 ba 54 90 94 bc c7 b2 3e bd
       -0.04480372 -0.0012308566 -0.018135227 -0.046557214
000080 a6 c8 f4 3d af c1 df b9 a7 bb eb 3c ad 2f 1e bc
       0.11952333 -0.0004267818 0.028776003 -0.0096549215
000090 d3 18 38 3e cd 37 1c 3e b8 24 5e 3d 2c 94 f2 3c
       0.1797822 0.15255661 0.054234236 0.02961167

dense_20/bias f4 [40]
000000 b3 9d 7e bd d5 14 8b bd 20 50 c1 bd c1 a2 a5 bc
       -0.062162112 -0.06791083 -0.09439111 -0.020219209
000010 2e ef 1a bd 3e b1 43 3a 5c a2 a9 3b 84 50 10 3d
       -0.037825756 0.0007465071 0.0051768254 0.035233036
000020 63 cc 36 bd 68 29 6a 3c 1d 79 8b bc 0a a6 99 bc
       -0.044628512 0.014292099 -0.017025525 -0.018755931
000030 79 b0 0f bd 57 3a 84 bd 0f f1 53 bd 0f 00 40 bd
       -0.035080407 -0.0645644 -0.051743563 -0.046875056
000040 c6 81 25 3e 59 66 77 3c ee 11 cd bb 70 74 74 bd
       0.16162786 0.015100085 -0.006258241 -0.059681356
000050 82 61 13 bd f5 50 77 bc d1 e4 51 bc 7d 3b 25 ba
       -0.035981663 -0.015094985 -0.012810902 -0.0006303115
000060 a1 2c bc b8 8f be 9d bc c0 88 9d 3d fe 45 2d bd
       -8.972851e-05 -0.019255904 0.076920986 -0.042303078
000070 60 9a c8 ba 27 5e 14 bd 45 91 bb bd 20 4d af 3c
       -0.0015304796 -0.036222603 -0.09158567 0.02139908
000080 dd ed f0 3d 85 7d e4 bc 59 7a d1 bd 6b 41 0e 3d
       0.11764119 -0.027891884 -0.10228414 0.034730356
000090 58 28 0c 3e 79 94 bd bd 49 8a cc 3c 6a 93 e0 bc
       0.13687265 -0.092568345 0.024968283 -0.027414043

dense_2/bias f4 [40]
000000 15 7d 80 3c cd 36 12 bd 4b 31 01 be ba 26 5d 3d
       0.015684644 -0.035696793 -0.1261646 0.05399201
000010 94 5b ca 3b 21 eb 8a be 15 e5 45 bd 87 e7 26 3e
       0.0061754677 -0.27132514 -0.048314173 0.16299258
000020 ec 24 08 bd 99 66 80 bd 07 9b ab bd cb af 02 3e
       -0.033238336 -0.06269569 -0.083791785 0.12762372
000030 6c 5c 05 bd 5f 3b 28 3d 1c 94 f3 bc d2 8b b2 bc
       -0.032558843 0.041072246 -0.02973371 -0.021795187
000040 53 c2 01 3d a5 83 d6 bd e6 4b ef bc 53 9e 68 3d
       0.031679463 -0.10474328 -0.029210996 0.056791615
000050 b6 57 d9 bb 4b f2 97 3d 24 f7 8c bd bb 01 1c 3d
       -0.0066327704 0.074192606 -0.06883076 0.038087588
000060 a7 84 08 3e c9 b0 92 3d a7 93 01 3e 08 eb 54 3d
       0.13331853 0.07162625 0.12653981 0.051981956
000070 6b d3 97 3d f4 a3 cb bc fe 13 83 bd 97 b8 27 bd
       0.07413372 -0.024858452 -0.064002976 -0.040947523
000080 25 53 b3 bc 58 75 3f 3c e5 fa 89 3c 7a b9 96 3d
       -0.021890232 0.011685692 0.016843269 0.073595956
000090 f6 f1 3f 3d 5f cb c1 bd a9 d7 eb bc 58 41 ec 3c
       0.04686161 -0.09462618 -0.028789358 0.028839752

dense_19/bias f4 [40]
000000 95 57 93 3d c0 91 84 3d ca 19 af bd e2 45 ca 3d
       0.07194439 0.06473112 -0.08549841 0.0987661
000010 2c 5c 05 bc 3f 9e 7a 3c 1a 80 86 bd bd a9 fc 3d
       -0.008139651 0.015296518 -0.06567402 0.123370625
000020 91 8d 49 3c 32 cf 34 bd 88 7a ad bc 6e d1 6b 3c
       0.0123018185 -0.04414291 -0.021176592 0.014393194
000030 c6 f7 33 3d b7 89 d6 3d e1 a6 8a bd fa 00 7f 3c
       0.043937467 0.10475486 -0.06770111 0.015564198
000040 5b be cf 3d 78 e6 c0 3d 6f 5c 51 bb 50 67 2c 3e
       0.10143729 0.094189584 -0.0031945964 0.16836286
000050 8f a3 0b bd a1 63 c6 bd 53 e3 99 3c d8 ce a6 b8
       -0.03409153 -0.096869715 0.018785154 -7.9540245e-05
000060 19 46 0a 3d e9 58 87 3e 00 e7 3a 3d c6 08 15 be
       0.033758257 0.2643502 0.045630455 -0.14554128
000070 5e e1 71 bc 5b c5 8a bc 1e 23 c0 bb 2e 9e 89 3c
       -0.014763204 -0.01693981 -0.0058635613 0.016799059
000080 9b e1 1a 3c 3e 87 40 3e 64 8e 85 bd c0 ac cc bd
       0.009453203 0.18801591 -0.065212995 -0.09993887
000090 e1 ad 5c bd 9f 1f 92 3d 3d de ba bd 12 b1 11 3d
       -0.05387676 0.071349375 -0.0912442 0.035569258

dense_18/bias f4 [45]
000000 7d 64 8a 3e 3f 6d 04 3d 1f a4 ad 3d b2 22 e2 3b
       0.2702979 0.032330748 0.08478569 0.0069011087
000010 32 92 81 3a 66 5c 31 bb 0f d3 2d 3c 1a f3 40 bc
       0.0009885489 -0.002706313 0.010609402 -0.01177671
000020 14 7f 3f ba af ef dc 3b 96 92 b1 ba e2 95 8b 3b
       -0.0007305008 0.0067424397 -0.0013547714 0.004259811
000030 35 0a c3 3e 58 59 e9 bd 50 a2 97 bc 70 ef 4a 3e
       0.38093725 -0.11393994 -0.018510014 0.198179
000040 39 75 33 bd b7 b5 8e bd 2c 74 f9 3b 2b 59 21 bc
       -0.043812964 -0.06968253 0.0076127257 -0.009847919
000050 0e 11 ca ba e6 59 ec bb 97 4e c0 3a 1f c6 03 3b
       -0.001541646 -0.007212865 0.0014671859 0.0020107103
000060 64 73 62 bb 7c ee ca bb 40 20 d7 39 07 dd eb bd
       -0.0034553641 -0.0061929803 0.00041032024 -0.11516767
000070 7a 2d 8b 3e 46 a6 28 3d b5 f8 1c 3e 83 cc 71 3c
       0.27183133 0.041174196 0.15329249 0.014758232
000080 fd 20 f3 bd 78 43 2b bb 43 c9 58 bb db 5d 10 3b
       -0.118715264 -0.0026132744 -0.0033078946 0.0022028598
000090 fe c8 81 bc ba 9f 1e 3c 0e f2 7d 3b d2 aa 11 3c
       -0.01584291 0.0096816365 0.0038749012 0.008890824
0000a0 3d b5 16 3b 4c bc 7d bc 4d 03 db bd f9 0f 3d 3e
       0.002299621 -0.015486788 -0.10693989 0.18463124
0000b0 bf ce ce 3e
       0.4039211

dense_17/bias f4 [40]
000000 f5 ba 64 bd cc d2 b1 3c 92 87 18 3a ae 3b 59 bc
       -0.05584236 0.021706961 0.00058185414 -0.013258858
000010 7c 55 7f bd 16 a2 10 3e 43 eb 47 bc ec c9 b1 b9
       -0.062337384 0.14124331 -0.012202087 -0.00033910514
000020 8c 1c ec bc b9 1e 0e bd b1 72 92 bb 36 d2 ab bd
       -0.028822206 -0.03469727 -0.0044692387 -0.08389704
000030 f4 bd d2 3d 86 e8 18 bc 22 79 24 bd f7 cc ec 3d
       0.10290137 -0.009332782 -0.040154584 0.115625314
000040 cf d3 65 bd c1 78 61 bc 4a 16 75 bc b1 b9 58 3e
       -0.0561102 -0.0137617 -0.014958927 0.21164586
000050 54 9c 6f bd b5 23 56 3b 39 10 2e 3d 6f bd 0c bd
       -0.058498695 0.0032675092 0.04249594 -0.034360345
000060 ca 68 3c 3d 76 65 2f bc 83 28 b6 3d 21 0b e1 3d
       0.045998372 -0.0107053425 0.08894446 0.10988451
000070 9c cf ff 3c 49 9c da bd 7b 34 78 bc 42 a8 34 3e
       0.031226926 -0.1067434 -0.015149231 0.1764231
000080 0e 52 4c bd 7c 9a 53 bd 29 ab 53 3b 40 9b cf 3d
       -0.04988294 -0.051661 0.0032298064 0.101370335
000090 76 39 2e 3d df 1b 84 bc a3 76 44 bd ca 1b 56 bc
       0.042535268 -0.016126571 -0.047964703 -0.013068149

dense_16/bias f4 [40]
000000 bd 28 ba bc c6 e4 06 3d 81 36 5b 3c 0a 62 31 3d
       -0.022724504 0.03293302 0.013379694 0.043306388
000010 22 46 2b 3c 54 71 9d 3b 73 fd c4 bd 45 d7 e5 bc
       0.010453733 0.0048047695 -0.09618654 -0.02805675
000020 f7 6a 7f bd 82 b8 a8 3d fe 65 e9 3b dd 61 6b 3e
       -0.06235787 0.08238317 0.007122754 0.2298655
000030 00 7f 39 bd 8c 58 a7 bd 71 29 7a bd a0 61 25 bd
       -0.045287132 -0.08171186 -0.061074678 -0.040376306
000040 fd e5 28 3e 31 9b 8a bd b4 fb 55 3d 4f dd 10 bd
       0.16493984 -0.06767882 0.052241996 -0.035367306
000050 48 23 ad 3d c9 50 8b bd 7e 41 46 3e 99 aa 5b bd
       0.08453995 -0.06802518 0.19360921 -0.05362949
000060 2c 42 d7 bd 09 52 63 bc fa b7 7a bc c5 42 b4 bd
       -0.10510668 -0.013874539 -0.0153026525 -0.08801798
000070 cd b7 a8 bc 68 d5 dd 3d 50 ca 94 bd 58 a8 0e bc
       -0.020595456 0.1083172 -0.072651505 -0.008707128
000080 17 6c 80 bd 8b 35 e1 3c 00 1c 3d bd 60 2c 48 bd
       -0.062706165 0.027491352 -0.04616928 -0.048870444
000090 f1 51 4e bd 39 6e 2e bd 9b 0a a2 bd 0b 22 93 bd
       -0.050371114 -0.042585585 -0.07912179 -0.071842276

dense_15/bias f4 [40]
000000 72 a8 cb 3c 45 8d 3b be f5 5b 00 3e 93 1f 6a 3d
       0.024860594 -0.18315609 0.12535079 0.057159018
000010 01 dc 53 3d ef 06 54 3d 01 8f ac 3e 97 f0 05 3e
       0.051723484 0.051764425 0.33702853 0.13080059
000020 67 84 18 3c e2 13 bf bd 37 67 13 bc 0f ba 8e 3d
       0.009308911 -0.09329964 -0.008996776 0.069690816
000030 11 3d c1 bc 06 48 88 bd cd 05 17 3c c3 dc 2a 3e
       -0.023588689 -0.066543624 0.009217692 0.16685776
000040 5a 3c 0e 3d 1d d4 f4 bc 62 00 3f 3d 8b 33 72 39
       0.034725524 -0.0298863 0.046631224 0.0002309812
000050 a4 18 49 3d 38 66 06 3e 75 c4 55 3d cd f4 a9 bd
       0.049095765 0.13124931 0.05218931 -0.08298645
000060 13 23 99 bd 68 48 10 3e 57 c1 71 bd 5e 70 1f be
       -0.07477393 0.14090121 -0.059022274 -0.15570208
000070 62 df c2 bc 91 5d ff bd bf 08 cc bd 93 cf a9 3c
       -0.023788158 -0.12469018 -0.09962606 0.020728862
000080 96 95 dd 3b eb 13 76 bd a0 18 b4 3c a1 51 b1 bd
       0.006762217 -0.06007759 0.021984398 -0.086581476
000090 d7 3d 35 bc 0b e5 16 3d 6c 99 78 bd ff 85 86 3d
       -0.011062107 0.036839526 -0.06069319 0.065685265

dense_14/bias f4 [45]
000000 1b 76 95 3e 15 a6 67 3c 0e 7e ca 3d 9d 6b 39 bb
       0.2919167 0.014138718 0.09887324 -0.0028292902
000010 6e 45 48 3b c0 4e 80 3b b3 f7 cd 3b 76 a8 8e bb
       0.0030558961 0.0039156377 0.0062856316 -0.004353578
000020 94 02 3c 3b 8a 0b 71 3b 52 df 58 bc 55 47 40 3b
       0.002868806 0.003678056 -0.013236837 0.0029339392
000030 fc 57 99 3e 37 bb b1 bd 6e 85 be bc b3 d1 3f 3e
       0.2994994 -0.086782865 -0.023256984 0.18732338
000040 f2 9a 06 bd 6d fd 33 bd d8 54 3e ba f1 d4 62 bb
       -0.03286261 -0.043942858 -0.00072605675 -0.0034611786
000050 b9 7c d5 3b bf 40 a9 3b 41 8a 83 bb 54 ea a9 3b
       0.0065151122 0.005165189 -0.004014284 0.005185405
000060 d4 19 39 bb 24 c2 f9 bb 85 3e 1c ba e1 2c c3 bd
       -0.0028244155 -0.0076220203 -0.0005960244 -0.09530044
000070 af b9 7d 3e b9 05 95 bd 30 1d cf 3d e2 37 d9 3d
       0.24777864 -0.07276482 0.10112989 0.10606362
000080 30 60 07 be ba 6c ea ba 0b 35 9a ba bf ed 03 bc
       -0.13220286 -0.0017885186 -0.0011765076 -0.008052289
000090 fd 24 d2 bb 61 e1 00 3c 89 66 9c 3b 34 f5 be 3a
       -0.0064131008 0.0078662345 0.0047729653 0.0014568926
0000a0 5c ae d7 3a 78 66 87 3b 7f 6f 83 bd a1 02 01 3e
       0.0016455161 0.0041320883 -0.064177506 0.12598659
0000b0 4f ea f5 3e
       0.48030326

dense_13/bias f4 [40]
000000 9d 2f 44 bd 81 e8 df 3b af 84 90 ba 7f ea 79 bc
       -0.04789697 0.0068331365 -0.0011025871 -0.015253662
000010 55 ac 1f bd b1 fe 39 bb 6e 73 88 bd 54 df 67 3d
       -0.038982708 -0.0028380568 -0.066626415 0.056609467
000020 00 42 99 bb 1d 75 55 bd ae f6 8f bd e5 45 8c bd
       -0.0046770573 -0.05211364 -0.07029472 -0.06849269
000030 c4 e7 5a bd 41 0e d4 3b 91 f7 34 3e b2 22 84 bc
       -0.053443685 0.0064714258 0.17672564 -0.016129825
000040 8d 7d 9f bd c7 d9 53 bd 8a 91 27 3e f1 9e 2d 3d
       -0.07787619 -0.05172136 0.16364112 0.042387906
000050 a2 95 2e 3d fe d6 e5 bb b8 f1 b5 bc c7 0a 5c 3d
       0.04262317 -0.0070141545 -0.022209987 0.053721216
000060 d8 e1 fe bc 1e 5f 3e bd 93 ae 6b 3b 19 0f 0f 3e
       -0.03111355 -0.04647743 0.0035962209 0.13970603
000070 88 6f c6 bc 5c 22 83 bd d8 38 a1 3d 96 c3 17 3d
       -0.024223104 -0.06403038 0.0787217 0.03705176
000080 7f 84 89 bc 45 e2 56 bc cf 26 ae bc 9f 4b 4e bd
       -0.016786812 -0.01311547 -0.02125874 -0.050365087
000090 dd 61 71 3c 45 09 0d 3e 81 0d 82 3d a9 4d 03 bd
       0.014732805 0.13773067 0.06350232 -0.032056484

dense_12/bias f4 [40]
000000 3a 60 44 bd 71 b9 f4 bd 40 70 90 3c 27 17 b9 bd
       -0.04794333 -0.11949433 0.01763165 -0.09037619
000010 32 02 de bc cf 88 26 bd d6 99 a0 3d 44 95 90 3d
       -0.027100656 -0.040657815 0.07841842 0.0705972
000020 03 2f 55 bd d7 e7 58 bd 96 05 7d 3d 0c 55 ec 3b
       -0.052046787 -0.052955475 0.061772905 0.007212287
000030 19 f5 ad bd 80 22 07 3d 06 9d 1e bd 46 ed 78 bd
       -0.08494014 0.032991886 -0.038723968 -0.060773157
000040 7b 9a 61 3e 7f dd d3 bc 16 b1 32 bc 42 6d 9e bd
       0.22031586 -0.025862454 -0.010906478 -0.07735683
000050 ef b3 c2 3d f0 37 ce bc 53 36 26 bd 36 09 b7 bd
       0.09506976 -0.025173157 -0.04057915 -0.08937304
000060 79 ce ad bc 1b de 4a bd 90 59 a6 3d 08 33 03 bd
       -0.021216618 -0.049528223 0.081225514 -0.03203109
000070 6d c8 26 bd c4 87 d8 bc 61 d2 1c bd bc e7 7b 3d
       -0.040718485 -0.026431926 -0.03828657 0.061500296
000080 7d 23 a3 bd f4 73 e1 3d 33 c8 85 bd e5 22 c4 3d
       -0.07965753 0.110084444 -0.065323256 0.09576968
000090 89 a1 ec bc 0b 34 05 be 95 6e 63 bc e9 55 04 3b
       -0.02888562 -0.13008134 -0.013881345 0.0020192808

dense_11/bias f4 [40]
000000 8b bb 4c 3e 83 9b 56 3d f3 18 fc 3c 0e ed 40 3d
       0.19993417 0.0523944 0.030773615 0.047101073
000010 eb 38 28 3e 6f 6e 8c 3d 9d 78 56 bd ce e3 b4 3d
       0.16427962 0.06857001 -0.05236112 0.08832513
000020 a4 44 ab ba a9 0f 88 3d 85 55 e9 3c 2f 89 8b bd
       -0.0013066721 0.06643612 0.028483162 -0.06813275
000030 9f 23 b9 3d a0 ec db bc 58 57 83 bd 9b 94 0f 3d
       0.09039997 -0.02684623 -0.06413144 0.03505383
000040 3e 93 9e bc ff d6 ce 3d b0 79 18 3e 1a 94 d9 3c
       -0.01935732 0.10099601 0.1489017 0.026559878
000050 d9 19 2f be b0 7e 81 bd fe 0c a7 3c 94 1b 29 bd
       -0.17099704 -0.06322992 0.020391937 -0.041286066
000060 42 59 84 bd fd e4 33 3e 69 9f 0d bd b0 d0 e5 bd
       -0.06462337 0.17567821 -0.034575853 -0.112214446
000070 10 b8 5b bd dc 5a 64 3e fa 46 43 bd 85 30 60 3d
       -0.053642333 0.22300285 -0.04767511 0.05473377
000080 f6 ea 9b bc f2 23 b2 bc e6 50 0a 3a 5f db 78 bd
       -0.019032937 -0.021745656 0.0005276337 -0.060756084
000090 f8 49 07 3e 15 0d 80 bd e2 f4 8c 3d af 73 b5 3d
       0.1321181 -0.06252495 0.06882645 0.088599555

dense_10/bias f4 [45]
000000 01 b7 79 3e 19 71 06 3d 0d 4c f8 3d 64 47 41 bc
       0.24386217 0.032822702 0.121238805 -0.011796806
000010 c4 14 8a bb d2 f5 8a 3c de 70 03 3b 0d 99 cf bb
       -0.0042139012 0.01696292 0.0020056288 -0.0063353837
000020 0a 9e cf 3a 00 82 ec 35 6d 9b ad 39 0b 4f cf 3a
       0.0015839946 1.7621205e-06 0.00033112933 0.0015816403
000030 b3 ca 65 3e 60 52 49 bd 42 d9 ac bc ff 80 37 3e
       0.22440605 -0.049150825 -0.02109969 0.17920302
000040 bb ef 35 bd 19 52 b7 bd e8 9e 11 3a d0 91 ba 3b
       -0.044418078 -0.08951206 0.000555499 0.0056936517
000050 ff 4a 3d bc d2 fa 9a 3a ee ee 75 3b f8 49 55 bb
       -0.011553525 0.0011824018 0.0037526446 -0.003254531
000060 3c 4c dd 3a a2 92 5c ba bf 03 0f bb 4b 7a 1f bd
       0.0016883682 -0.0008414184 -0.0021822301 -0.038934987
000070 74 3f 6a 3e 12 d7 9f 3b e1 23 d6 3d c5 2a bf 3d
       0.22875768 0.0048779333 0.10456062 0.093343295
000080 a3 51 10 be 2d 55 d4 3c d5 8c 08 bc 9d be 2d bc
       -0.14093642 0.025919521 -0.008334358 -0.010604528
000090 3a 40 fd bb c6 b4 9a 3a b6 25 8b bb 4c a7 a4 3b
       -0.0077286037 0.0011803142 -0.004246439 0.005024826
0000a0 3c b7 26 bc df 69 e9 3a f6 51 4c bd 58 a1 c3 3d
       -0.010175522 0.0017808041 -0.04988285 0.09552258
0000b0 59 92 af 3e
       0.34291342

dense_1/bias f4 [40]
000000 8c 02 9e bd d6 47 3a bd 60 1a cc bc 07 ab 9d bd
       -0.077153295 -0.045478664 -0.02491492 -0.076986365
000010 36 55 c8 bc 90 64 4d bd 3f ad 5f bd f3 77 4d be
       -0.024454694 -0.050144732 -0.05460858 -0.20065288
000020 54 e6 89 3c 73 1c 83 3d 14 1c 49 3d 78 72 fc bb
       0.016833462 0.06401911 0.049099043 -0.0077040754
000030 51 7a bd ba a5 ab 36 bd fc 2d 6b 3e 13 2d c8 bc
       -0.0014456009 -0.044597287 0.2296676 -0.024435556
000040 0d 39 90 bc 7d 0c 75 bc cf 8d 24 bd f2 48 0a bb
       -0.017605329 -0.014956591 -0.0401743 -0.0021100608
000050 56 e8 82 bc b4 63 80 bb cc 5d 23 3e a1 57 00 bd
       -0.015979927 -0.0039181355 0.1595375 -0.03133357
000060 b9 fb db 3d 95 4a 10 bd dd f7 9e bc b3 3d 8e bd
       0.10741372 -0.035227377 -0.0194053 -0.06945362
000070 af b4 b8 bc 35 68 c4 bb f1 1b 6c 3d 89 06 f3 3b
       -0.022547094 -0.0059938678 0.057643835 0.0074165505
000080 e1 5c 36 bc ca bc 9a bd ac 21 96 bc eb 41 8f 3d
       -0.0111305425 -0.0755554 -0.018326603 0.06994995
000090 e2 f7 d0 3c ea 20 75 3d ef 89 07 3b 1c f7 e8 bc
       0.025508825 0.059845842 0.002068158 -0.028438143

dense/bias f4 [40]
000000 d2 30 12 3e 41 7e 74 bd 75 a1 7b be 67 82 73 be
       0.14276436 -0.059690718 -0.2457331 -0.23780213
000010 c0 1f 01 3d cb d3 9e bd c3 67 b1 bd c4 df be 3a
       0.03152442 -0.0775524 -0.08662369 0.0014562537
000020 f3 7b 4e ba 0b 97 ed 3d 5e dd 6d 3d c5 24 22 3c
       -0.0007876746 0.11601075 0.05807244 0.009896462
000030 35 fb 2f 3d d3 12 98 bd 55 ec 97 3d d8 07 01 3d
       0.04296418 -0.074254654 0.07418124 0.03150162
000040 7e b2 8e bd af 5b 32 bc 91 dd 0d bc 2c 60 59 3d
       -0.069676384 -0.010886117 -0.008658783 0.053070232
000050 4d 6e ac bd fe f1 eb 3d 39 76 31 be 74 59 16 3e
       -0.08419476 0.11520766 -0.17330255 0.14682561
000060 63 35 4a 3d 8b e4 67 bd d3 84 d1 3d 73 92 02 be
       0.04936732 -0.05661444 0.10230412 -0.12751178
000070 0f e5 5e bd 28 2b 1c bc 58 70 7f bd 84 9d 84 bd
       -0.054417666 -0.009531774 -0.062363 -0.06475356
000080 63 fa 94 3c 53 de b0 3c 8c 0d 88 bd 71 60 dc bd
       0.0181858 0.021590387 -0.06643209 -0.10760582
000090 6c b3 ac ba cb 3f d2 bd de f8 11 be 4c 2a 1f 3d
       -0.001317603 -0.10266074 -0.14255092 0.038858697

bias/bias f4 [15]
000000 55 91 fc 3d 95 28 51 bd f3 f8 ae 3c 5e b6 12 3e
       0.123324074 -0.051064093 0.021358943 0.1432738
000010 ba b9 11 be aa 7b f3 3b de ff 06 3e 78 2a 1e be
       -0.14231005 0.0074305134 0.13183543 -0.15445888
000020 9d 7e d6 bb 64 7a b1 3d 65 2d a6 bd c9 df 93 bc
       -0.006545855 0.08665922 -0.08114127 -0.018051045
000030 c4 37 3f 3d cf a8 6f bd 65 d6 1c bd
       0.04668404 -0.058510598 -0.0382904

model/dense_11/MatMul f4 [40, 15]
000000 bb 54 7a bc 27 32 30 be 01 59 ef 3b f8 81 4a be
       -0.01527899 -0.17206632 0.0073043113 -0.19776142
000010 73 a9 39 3e c9 09 bd 3d f9 bd 2e be 9e 47 99 bc
       0.18131046 0.09230382 -0.17064656 -0.018710908
000020 48 f4 d8 b9 bd 09 27 bc 1d 99 f0 3d 2d b5 a4 3b
       -0.00041380734 -0.010195193 0.11747954 0.0050264806
000030 f0 12 2f 3b b6 9a 51 bd 5e 58 3c 3c cc 3e c5 bd
       0.0026714168 -0.051172934 0.011495678 -0.09631118
000040 5e 60 97 bd 49 e0 dd 3d 11 5d a9 be cb e3 73 3e
       -0.073914275 0.108337946 -0.33078817 0.23817365
000050 ee 1d f8 3c 50 07 6f 3e d1 06 74 bc 59 53 e7 bc
       0.03028771 0.23342633 -0.014894203 -0.028237985
000060 64 03 4a 3c 07 a7 d2 bc e1 57 bf bb 4b ce 1c bc
       0.01232991 -0.02571441 -0.0058393334 -0.009570668
000070 a1 0e e5 3c 45 dc 43 3b 77 64 55 3e d1 ac 20 bd
       0.027961077 0.002988593 0.20839106 -0.03922731
000080 df 2a d0 bd d0 5d 2f 3d 68 07 03 bf 05 51 7e 3e
       -0.10164427 0.042814076 -0.51183176 0.24835594
000090 85 e1 c2 bd a7 b7 30 3c 84 b7 d8 3d c5 bd 62 3d
       -0.09515671 0.010785974 0.10581878 0.05535676
0000a0 bb 1b 26 3e 9d 56 35 3c dc 4f c7 39 66 49 3b ba
       0.16221516 0.0110680135 0.00038015738 -0.0007144421
0000b0 22 fa 97 bc 2d 56 06 3a 44 a6 d7 bb 00 7b 0a bc
       -0.01855189 0.00051245355 -0.0065810997 -0.008452177
0000c0 a4 1f 50 bb 44 c7 9a bd e2 3c f7 ba 21 c6 24 ba
       -0.003175714 -0.07557538 -0.0018862749 -0.0006285627
0000d0 87 ab 38 3a df a0 41 b9 25 85 1e 3b 99 d6 2b bb
       0.00070446025 -0.00018465843 0.0024188247 -0.002622044
0000e0 35 6a 7a bd fc ae 4a 3b 78 e6 1a bb 98 63 3f 3b
       -0.061136443 0.0030927053 -0.0023635905 0.002920365
0000f0 41 25 3b 3e 4e bd 42 3e 1e 18 24 be 8a c0 5b 39
       0.1827593 0.19017527 -0.16024825 0.00020957194
000100 c2 28 a5 3a 10 a9 61 3b a5 33 3a 3c 4b d5 96 bb
       0.0012600648 0.0034433044 0.011364852 -0.004603063
000110 a1 13 47 bb 15 c1 a7 bd ee ca a8 3b 1b 81 46 bd
       -0.003037669 -0.08191124 0.005151144 -0.04846297
000120 fb 3e 2d 3b a4 e9 97 3b d9 06 e6 bb bd 14 6d 3c
       0.0026435244 0.0046360064 -0.0070198593 0.014470276
000130 c4 9b ab bd 99 ed e3 3d 78 0e 3c 3e 73 7d 8a 3e
       -0.08379319 0.111293025 0.18364894 0.27048835
000140 94 a1 2e bf 0d 5c 9c 3b 9d 40 8c ba 32 9b 0a ba
       -0.682153 0.0047717155 -0.0010700409 -0.0005287408
000150 27 f4 5f bc d8 d3 4d bd e4 39 36 3a 94 c1 3b 3d
       -0.01366905 -0.050250858 0.00069513754 0.045838907
000160 1d 25 df 3c 7d c3 03 bd 1c 2c 56 bc e8 bc 15 be
       0.027239377 -0.032168854 -0.01307204 -0.14622843
000170 1a e6 8e bc a7 b0 80 be 42 1f ae 3d b6 c0 c0 be
       -0.017443705 -0.25134775 0.08502056 -0.37647027
000180 ab 4b 8e 3d 17 e6 2a bd b3 2e b7 3c c9 51 83 bd
       0.06948026 -0.041723337 0.022361135 -0.06412084
000190 f2 d0 aa 3c 01 f7 db bd 99 e3 ef 3c a9 cb d9 3c
       0.020851586 -0.10740472 0.029283332 0.02658637
0001a0 16 5b ba ba 41 cf 19 bd af f9 85 3d c1 e8 b9 3a
       -0.001421782 -0.03755117 0.06541764 0.0014183746
0001b0 44 ca ca b9 ed 35 97 3c a6 df 16 bd d0 b8 40 bb
       -0.00038679142 0.018458331 -0.03683438 -0.0029407032
0001c0 ac fb 84 ba 99 15 6a 3c 80 8c 25 38 ce 1c 40 b9
       -0.0010145805 0.014287376 3.9469916e-05 -0.00018321277
0001d0 31 67 dd ba 32 4f 8b b8 84 d4 b5 bd 50 b8 c5 bd
       -0.0016891715 -6.642788e-05 -0.08878425 -0.096542954
0001e0 58 ff 59 b9 2b 23 3c bd db 80 14 3a c2 b5 ec bb
       -0.00020789856 -0.045931976 0.0005664953 -0.0072238157
0001f0 fe 1c 09 3a d7 08 69 3d 52 0b 7a 3d 39 25 a9 b9
       0.00052304554 0.056893196 0.061045952 -0.00032261925
000200 c9 8d d0 3b 5a 8d d4 39 dc 14 85 39 74 6a 09 3c
       0.0063645584 0.00040541106 0.00025383278 0.008387197
000210 48 57 01 39 d8 1c a5 b9 86 08 17 ba 71 ff 56 be
       0.00012334913 -0.00031492743 -0.0005761463 -0.2099588
000220 35 30 69 ba 12 1d f1 3b 22 a9 04 be 7c 8f 29 bc
       -0.0008895428 0.007358202 -0.12955144 -0.010349151
000230 f2 44 9d 3d 30 d1 d6 bc 4c 55 21 3b 87 db 27 3c
       0.07679166 -0.026222795 0.0024617491 0.0102452105
000240 67 08 cd 3a 77 a3 10 3c 49 48 40 bc fa 7e 5f 3b
       0.0015642763 0.008828036 -0.011735984 0.0034102784
000250 12 b1 c3 bd 06 87 87 3a 9f a1 45 be 15 6c 71 3e
       -0.09555258 0.0010339923 -0.19299935 0.23576386
000260 1b a6 9e 3c 5b ee 8a 3d 04 59 ac 3d ef 8f 12 be
       0.019366315 0.06783744 0.08415416 -0.14312719
000270 79 14 9d 3c 54 07 02 3e dc d3 05 be cc 86 f9 bb
       0.019174801 0.12698108 -0.13069099 -0.007614946
000280 b8 2a 1b 3c cc 54 4e bd c2 be 98 3d 3b 9b 97 bc
       0.009470634 -0.050373837 0.07458259 -0.018506637
000290 8c e7 58 bd 6c 01 fc 3d 26 ef d1 be 4e f4 97 bb
       -0.052955195 0.12304959 -0.41002768 -0.0046372777
0002a0 98 94 04 be 55 9e 80 3d 67 a2 c3 bd e5 5c 29 ba
       -0.12947309 0.062801994 -0.0955246 -0.0006460681
0002b0 f2 ac f6 3b c8 24 17 3a ac cc 1c be 47 5a e4 3b
       0.007527941 0.00057656737 -0.15312451 0.0069687697
0002c0 16 38 57 3b 95 05 d4 bb c2 7a 9f 3a ce 10 d0 3a
       0.0032839826 -0.006470392 0.0012167322 0.0015874149
0002d0 5e 38 cd bc b3 00 68 bd ed 9f d1 bd a8 6b ef 3d
       -0.025051292 -0.05664129 -0.102355815 0.11690456
0002e0 12 fb 2d bf 74 06 13 3f 0a 32 32 3c 6d 57 0f bd
       -0.6796123 0.5743172 0.010876188 -0.034995485
0002f0 13 2d 12 bc 6e 90 c9 bd 6b c4 3b be 22 70 ab bd
       -0.008921879 -0.09842001 -0.18336646 -0.08370997
000300 1e 26 19 be e3 ab 12 be 88 08 a9 bd dc 90 d3 bd
       -0.14955947 -0.14323382 -0.0825358 -0.10330364
000310 fc a8 59 3e 72 86 c7 3c c9 c4 cd 3b 25 60 19 3e
       0.21255869 0.0243561 0.006279562 0.14978082
000320 84 e3 00 be 10 a7 1c be c2 75 b7 3d 42 ea 15 bd
       -0.1258679 -0.15298104 0.089580074 -0.03660036
000330 8c 53 fa bc aa 55 10 3d 1e 7f 9e bc 9a 5d 92 3a
       -0.030557416 0.035237946 -0.019347724 0.0011166811
000340 f5 71 2c bc 60 5a ce 3d bb 21 8e 3b 66 fa 90 3d
       -0.010525216 0.100758314 0.004337517 0.0707901
000350 63 59 00 bf 52 47 3c bc 10 4e 03 be 10 8c bd 3a
       -0.50136393 -0.011491613 -0.12822747 0.0014461298
000360 14 8c 5d b9 f6 fd 99 3a 46 f2 19 3d e4 25 fd 3d
       -0.00021128386 0.001174866 0.037584566 0.12360743
000370 dc 8d ae bc 38 85 6c 39 3c e7 1a bc 31 35 7e 3b
       -0.021307878 0.00022556342 -0.009454545 0.0038789029
000380 10 86 08 3c 96 6e 04 ba ed 71 b7 39 14 16 63 39
       0.008332744 -0.0005051879 0.0003498936 0.00021656632
000390 b7 7d 20 bd 92 66 0d 3b ca 21 7f 3a 04 db f2 3a
       -0.03918239 0.002157603 0.0009732513 0.0018528407
0003a0 5d f6 c7 ba a6 51 0e 3a 40 b0 ec ba 3a 5d 85 ba
       -0.0015255917 0.00054290367 -0.0018057898 -0.0010174878
0003b0 b9 c5 be 3b b8 e3 bc b9 1c b6 9d 39 2d 91 88 3b
       0.00582191 -0.00036027818 0.00030081056 0.004167697
0003c0 53 03 d2 3b d0 ac 0e ba b1 6a bb ba c4 7d 60 bd
       0.0064090877 -0.0005442621 -0.0014298764 -0.05480744
0003d0 5c ce 13 be b0 9c ed 3d bb 3f 8c 3d 7d d6 4a ba
       -0.14434189 0.116021514 0.06848093 -0.000773765
0003e0 b0 77 80 37 e1 e8 54 ba 7c 7a be 3a 36 65 50 39
       1.5314523e-05 -0.000812186 0.0014532353 0.0001987413
0003f0 a8 12 dd ba 05 07 0a 3d a2 28 23 b9 f4 ff 52 3e
       -0.0016866522 0.0336981 -0.00015560028 0.20605451

model/dense_12/MatMul f4 [40, 40]
000000 34 cf 25 38 1a 16 13 39 d5 23 5f b8 50 e4 a4 39
       3.953204e-05 0.00014027246 -5.3200714e-05 0.00031450624
000010 d4 f9 ba b8 24 69 e9 38 84 7c b0 b9 d1 19 b6 39
       -8.915705e-05 0.0001112989 -0.00033662107 0.0003473298
000020 5c ad 80 39 10 93 07 37 05 84 a5 38 fe 32 07 39
       0.00024543225 8.080868e-06 7.892404e-05 0.000128936
000030 cf af 9a b8 60 b1 34 b8 61 05 ef b7 2c cf 93 38
       -7.376039e-05 -4.3080538e-05 -2.8493525e-05 7.048095e-05
000040 68 70 c4 b9 1a 44 2e b9 50 d8 6a 38 33 16 42 b9
       -0.00037467782 -0.00016619303 5.5991404e-05 -0.00018509552
000050 a7 f7 a6 b9 e0 11 32 36 28 2b f4 b7 5c 92 1d 38
       -0.00031846503 2.6534472e-06 -2.9107163e-05 3.7568025e-05
000060 e8 f5 48 b7 50 37 6d 38 28 ba df b7 ee ec 82 b7
       -1.19781835e-05 5.6556717e-05 -2.6670357e-05 -1.5607537e-05
000070 a4 b3 5e 38 ff ab c3 38 78 bd 96 b9 f8 fb c7 38
       5.3096228e-05 9.330361e-05 -0.00028751395 9.535992e-05
000080 df 9a 21 ba fe 5f 1d b8 e4 95 52 38 50 6e 90 38
       -0.000616474 -3.7521117e-05 5.0207498e-05 6.8870024e-05
000090 f4 58 12 38 27 07 29 39 5d 79 3b 38 92 e0 14 b9
       3.4891957e-05 0.0001611976 4.4697303e-05 -0.00014198039
0000a0 77 e3 87 3d 0e 67 42 3e d5 15 df bc ba 2f 67 b9
       0.06635182 0.18984625 -0.02723209 -0.00022047656
0000b0 bb ee 91 3a a6 2c 0f ba 9b 51 ac 3d 12 95 af 39
       0.0011133769 -0.000546167 0.084140025 0.00033489667
0000c0 37 15 18 3a a3 ec b4 3a 3d a6 81 3d 6c b8 56 3a
       0.0005801501 0.0013803433 0.063305356 0.0008190933
0000d0 38 54 a0 bc b2 b8 f7 3d be 01 9a b8 90 fe 6e 39
       -0.019571409 0.12095775 -7.343617e-05 0.0002279228
0000e0 62 0f 26 38 4e a9 05 38 64 db df b8 dc 9b da 38
       3.959181e-05 3.186735e-05 -0.00010674333 0.00010424081
0000f0 0e f8 b2 3a 3c 36 f3 37 e0 e0 7a b9 9a 7e ba bb
       0.0013654248 2.8993112e-05 -0.0002392563 -0.0056913616
000100 a0 6c c6 39 cc f1 8e 3c 20 57 32 b8 b6 b3 a6 b8
       0.00037846435 0.017449282 -4.251965e-05 -7.9489706e-05
000110 5e d0 7e 39 be 16 37 3a cf 49 31 bb dd 46 d0 39
       0.0002430095 0.0006984285 -0.002705205 0.0003972565
000120 dc 28 30 3a 60 f0 d9 39 a0 f1 c1 b8 e0 47 88 35
       0.00067199557 0.0004156856 -9.247963e-05 1.0153708e-06
000130 0d 48 fd 39 e8 e9 11 3a a6 d4 1b 3b 2b c8 01 3c
       0.00048309602 0.0005566166 0.0023777871 0.007921259
000140 fb 53 8c 3b e1 d8 0e 3b 32 ef 0d 3d 80 d7 92 b6
       0.004282472 0.002179675 0.034651943 -4.3762266e-06
000150 0a 3c 67 b9 b8 7d 6a bd 7a ff a2 b9 2f dc c9 3a
       -0.00022052243 -0.0572488 -0.00031089393 0.0015400703
000160 de b7 60 38 db c7 60 3b e5 89 07 3c e7 b7 35 bd
       5.3577e-05 0.003429881 0.008272623 -0.044364836
000170 f2 24 0f 3b 5d 3e 9b 3b a9 60 82 3d ae 93 2c 38
       0.002184209 0.004737659 0.06366093 4.1145533e-05
000180 e8 7f d2 b7 a1 9c a9 3b 86 45 38 3b 74 12 b9 38
       -2.5093512e-05 0.0051761423 0.002811761 8.8249246e-05
000190 74 6d 11 ba 4e 5f 8f 38 e4 3f fa 3a 40 1a 3c 3c
       -0.0005547621 6.836523e-05 0.0019092527 0.011480868
0001a0 f8 0c 86 b7 09 04 f1 3b 0e 2f 1a 38 f4 38 c8 b9
       -1.5980084e-05 0.0073552174 3.6760284e-05 -0.00038189406
0001b0 66 77 cd ba de d8 da 3b 45 86 1e bc 67 e5 4d 3c
       -0.0015675842 0.0066786846 -0.009675567 0.012566901
0001c0 be f2 9b b9 e5 b4 48 39 9e 75 c0 bb ea 0f 2a b7
       -0.0002974476 0.00019140875 -0.005873396 -1.0136495e-05
0001d0 fb 82 9c 3d cc a3 36 3a 53 87 b9 3a 97 68 81 3a
       0.0764217 0.00069671567 0.001415471 0.0009873089
0001e0 a1 22 cf 37 00 f4 59 33 c6 d0 2a 37 f1 29 84 b7
       2.4692448e-05 5.0746166e-08 1.01813985e-05 -1.5755157e-05
0001f0 58 a6 73 36 f0 e5 8a b5 6c 68 a3 b6 7d ed 20 38
       3.6306647e-06 -1.0348722e-06 -4.869935e-06 3.836815e-05
000200 74 8c 7e 37 93 47 56 38 67 84 56 37 ce e8 99 b8
       1.5172282e-05 5.1088235e-05 1.2786221e-05 -7.338972e-05
000210 05 f0 db 37 28 35 bb b7 05 ef d6 b7 5c ad 50 b7
       2.6218602e-05 -2.231689e-05 -2.562209e-05 -1.24381295e-05
000220 e4 06 e3 b7 10 e0 1d b6 61 65 56 37 e4 7e 87 37
       -2.7063717e-05 -2.3525245e-06 1.2778998e-05 1.6152342e-05
000230 f6 53 66 37 38 4b 57 b4 30 bf 5f 3c 96 25 33 3d
       1.3728617e-05 -2.00508e-07 0.0136564225 0.043737017
000240 d8 a8 22 b6 f0 18 88 b6 77 4b 20 38 a0 85 f2 b6
       -2.423816e-06 -4.056019e-06 3.8217255e-05 -7.227718e-06
000250 c1 fb d7 37 8c 1c 6b b5 b8 2d d8 35 a1 07 a3 b7
       2.574723e-05 -8.7585863e-07 1.610656e-06 -1.9434667e-05
000260 f8 9c 50 37 ee ba f0 37 f3 5c 9b 37 54 dc 5b 36
       1.2434313e-05 2.8697275e-05 1.8520723e-05 3.276179e-06
000270 04 2f 23 37 ae a2 5b b7 9d ff e0 b6 fc c4 d1 37
       9.726504e-06 -1.3091294e-05 -6.7054775e-06 2.500647e-05
000280 ec 04 72 38 60 55 f0 b7 44 f8 9a b7 b4 eb a9 b6
       5.770188e-05 -2.8649985e-05 -1.8473838e-05 -5.064032e-06
000290 cd d7 94 38 00 fd 3b 38 5d ae c5 b7 67 d3 a5 38
       7.097386e-05 4.48199e-05 -2.3565424e-05 7.90719e-05
0002a0 d6 a4 d2 b7 98 e4 cf 37 b0 5a 97 38 3e 2a 42 b7
       -2.5110709e-05 2.478277e-05 7.217133e-05 -1.1573136e-05
0002b0 fa 6e 4c b8 8a c8 36 38 ce 64 5c b6 f2 0a a9 38
       -4.8740745e-05 4.3578948e-05 -3.284123e-06 8.060587e-05
0002c0 d6 2b db 36 96 28 0f b7 a7 68 f3 b6 b8 52 5d b7
       6.531812e-06 -8.532914e-06 -7.2541475e-06 -1.3191886e-05
0002d0 6d 2b e8 37 bb 99 01 b9 14 fb e6 b7 93 58 8a 38
       2.7676777e-05 -0.00012359668 -2.7535054e-05 6.596851e-05
0002e0 7a f3 09 38 2b 9e 43 38 c8 4a 9c 38 b8 9d 8a 38
       3.28901e-05 4.663893e-05 7.452589e-05 6.60973e-05
0002f0 c4 1e e4 b7 68 5f 96 b7 22 f6 23 38 44 a3 bc b8
       -2.7194044e-05 -1.792582e-05 3.9091457e-05 -8.994949e-05
000300 74 da 3f 38 37 40 6f b8 80 da ad 35 e2 ce 37 b8
       4.57414e-05 -5.7041845e-05 1.2953096e-06 -4.3823275e-05
000310 d2 91 c8 b8 eb b8 92 38 f2 41 4e b8 f8 81 26 38
       -9.563904e-05 6.996266e-05 -4.9175644e-05 3.9698527e-05
000320 42 8c 26 b8 28 df 6b b8 c4 31 83 b8 00 37 0a 3c
       -3.970811e-05 -5.6236197e-05 -6.255836e-05 0.008435965
000330 09 27 5b b7 01 de 75 39 60 1a 0c 38 be 71 20 38
       -1.3062506e-05 0.00023447724 3.3403165e-05 3.8252903e-05
000340 ef 75 c3 37 24 c5 9f b8 0a c8 a9 b7 fa ba a7 b8
       2.3300729e-05 -7.618431e-05 -2.023952e-05 -7.998008e-05
000350 7a 92 ee 38 e2 ea 9c b8 78 57 10 b4 06 ba 1d 38
       0.00011376008 -7.48241e-05 -1.3442866e-07 3.7604965e-05
000360 02 2f e5 b7 28 d9 3a 36 e0 fa 9d b8 3c 82 3c 38
       -2.7320817e-05 2.7842561e-06 -7.5330725e-05 4.4943983e-05
000370 06 d5 00 b6 ad e4 b1 b7 f4 bf ae 37 45 b5 98 b9
       -1.9197482e-06 -2.120653e-05 2.0831802e-05 -0.00029126756
000380 17 05 d4 37 2c 30 10 b7 45 9e 96 b8 80 ce 75 b6
       2.527474e-05 -8.594285e-06 -7.1820374e-05 -3.6628044e-06
000390 32 c5 b5 38 a3 e7 b7 b8 8e 90 f2 38 e0 dd 11 b9
       8.667483e-05 -8.769266e-05 0.00011566385 -0.00013910932
0003a0 39 31 1b 38 36 69 24 b8 0c 24 5d b7 1c e5 75 b7
       3.7000722e-05 -3.9198632e-05 -1.3181019e-05 -1.4656482e-05
0003b0 77 5e d0 3d fd f6 91 38 d9 f3 06 b8 7e 16 a4 bb
       0.10174268 6.960144e-05 -3.217519e-05 -0.005007564
0003c0 4d 3c dc bc b5 6d e6 bb 38 1f cc bb 3a 33 3d ba
       -0.026884222 -0.007032121 -0.0062293075 -0.0007217411
0003d0 24 fc ff 3c da a2 55 bb 22 0b 3a bc ff 02 db 3d
       0.03124816 -0.0032598288 -0.011355193 0.10693931
0003e0 1e 55 27 bb 4e 8e 1d bb b6 72 3d 3e 67 ad 7f bb
       -0.0025532912 -0.002404112 0.1850079 -0.0039013268
0003f0 d1 08 17 bc ae 36 85 3d ba 59 17 3a a3 17 27 bd
       -0.009218411 0.0650457 0.0005773563 -0.040794026

model/dense_13/MatMul f4 [40, 40]
000000 50 86 97 b8 43 92 0c 38 78 f7 d1 38 74 6a 83 b8
       -7.225259e-05 3.3514818e-05 0.00010011991 -6.266395e-05
000010 d4 6e 0b 3a 50 50 eb 36 14 e4 6b b6 e2 b6 f1 b7
       0.0005318944 7.0128954e-06 -3.5150488e-06 -2.88146e-05
000020 9a 53 14 b8 d2 0d 2b b9 d0 c1 5b b7 a0 d2 db 36
       -3.536381e-05 -0.0001631298 -1.3098543e-05 6.5512286e-06
000030 a8 ff 12 37 0f 3d c1 b8 22 17 27 b9 cc 65 60 38
       8.761803e-06 -9.21433e-05 -0.00015934979 5.3500567e-05
000040 18 e0 be 37 96 8e 80 38 50 44 1e b7 14 35 a8 b9
       2.2754117e-05 6.130074e-05 -9.433439e-06 -0.00032083003
000050 2c ee 7f 38 ac 36 d4 37 74 30 17 39 95 43 18 39
       6.1018553e-05 2.5297828e-05 0.00014418532 0.00014521026
000060 12 80 2b b7 58 65 f7 38 8b 86 a5 b8 24 10 46 39
       -1.0222213e-05 0.000117967546 -7.892874e-05 0.00018888764
000070 58 b1 48 37 3a c1 1b b8 a8 37 fc 37 d0 02 82 b7
       1.196222e-05 -3.7134836e-05 3.0066658e-05 -1.5498517e-05
000080 94 ca 3e b7 c1 0d 94 b7 3c f8 ed b8 54 e5 82 b7
       -1.1372049e-05 -1.764938e-05 -0.00011347278 -1.5603997e-05
000090 52 a2 7c 39 bc 2c 17 38 58 ca 4f 37 7c 25 ee b6
       0.00024093062 3.6042868e-05 1.2385273e-05 -7.0973165e-06
0000a0 b8 e9 35 b9 76 8e 94 b7 ee 2d df 38 4e 72 56 37
       -0.00017348572 -1.7709313e-05 0.00010642024 1.2782008e-05
0000b0 30 20 33 b7 a5 bd c1 37 72 b4 9c 36 e6 2d c6 bd
       -1.0676726e-05 2.3095703e-05 4.670169e-06 -0.09676723
0000c0 17 14 4a 38 b9 40 2f 38 45 6b 68 b7 04 5d 40 37
       4.8179263e-05 4.178353e-05 -1.3853253e-05 1.1465749e-05
0000d0 5e ab ec b8 c0 d9 2c 38 6c 2e 9f b7 8c 34 8d 38
       -0.000112852766 4.121079e-05 -1.8975894e-05 6.7331915e-05
0000e0 4a 71 72 3c b8 38 2f b8 d5 7d 60 37 06 39 8c b8
       0.014797518 -4.1776075e-05 1.3380738e-05 -6.686342e-05
0000f0 40 74 e6 37 a5 de a7 b7 cc 0e 8c 38 2f 55 8d 38
       2.747227e-05 -2.0011628e-05 6.678476e-05 6.7392706e-05
000100 85 c7 9d 37 b5 1c f9 b7 88 86 f7 b6 88 ed c0 b7
       1.8808767e-05 -2.969648e-05 -7.376835e-06 -2.2998793e-05
000110 ce 7b 86 37 f8 ef 54 38 a2 ed 00 b7 4b e9 ad b7
       1.6031696e-05 5.0768227e-05 -7.684723e-06 -2.0731843e-05
000120 b2 d0 e8 37 8c 5f fc b7 d2 b8 2f b8 27 af b4 b6
       2.7753737e-05 -3.0085233e-05 -4.189538e-05 -5.3848084e-06
000130 64 e3 44 b6 0c e7 d0 37 05 9d a7 b8 a0 8d 6b 37
       -2.9338635e-06 2.4903122e-05 -7.992428e-05 1.4040066e-05
000140 34 4c 17 39 b3 17 2d 3e 39 af b6 3a ac 2e 37 b8
       0.0001442887 0.16903572 0.0013937718 -4.3674067e-05
000150 6e 5c e4 38 ce db 98 37 21 95 bc b9 e4 c2 6c 3a
       0.000108891036 1.8222167e-05 -0.00035969264 0.00090317265
000160 e6 68 02 3a 80 5a c3 36 0a cc 96 3b 56 00 5c 38
       0.00049747375 5.8219885e-06 0.00460196 5.24524e-05
000170 32 4b 60 b9 ce 12 b5 39 90 3b 13 b6 a3 52 78 39
       -0.00021390317 0.0003453702 -2.1939377e-06 0.00023681908
000180 82 57 88 b9 a4 5b 06 38 5b bf 23 3b fa 3d 6f b8
       -0.0002600514 3.2033437e-05 0.0024985883 -5.703976e-05
000190 a4 d8 5c 3b 45 7b e0 39 c8 d5 9b b8 3c 29 2f 36
       0.0033698464 0.00042816452 -7.430796e-05 2.6101034e-06
0001a0 27 69 8e 3b b6 ea 43 37 25 e3 cc 37 6d 10 53 38
       0.004346031 1.1677554e-05 2.4424467e-05 5.0321618e-05
0001b0 e1 ef ad 3b 51 83 c4 39 88 0f 84 b7 b4 53 03 ba
       0.005308137 0.00037481872 -1.5742859e-05 -0.0005009726
0001c0 29 96 49 3b 26 db 8a 3c 17 02 2e b8 90 ef b3 39
       0.0030759668 0.016950201 -4.148678e-05 0.00034320028
0001d0 9a 28 4e 39 1a 77 68 39 86 b8 9b 37 ba d3 9c b8
       0.00019660816 0.00022169613 1.8563365e-05 -7.478097e-05
0001e0 01 1e b8 38 08 f7 e2 b7 91 f7 4a 38 ee d7 97 37
       8.7793924e-05 -2.7056332e-05 4.8391117e-05 1.8101153e-05
0001f0 88 21 18 37 e4 57 ad b8 f4 78 8e bc dd e4 69 38
       9.067713e-06 -8.265654e-05 -0.01739166 5.5764674e-05
000200 79 28 9d 38 14 23 0d b9 5c 28 2c 37 5d 72 2b 38
       7.493882e-05 -0.00013459875 1.0261396e-05 4.0876086e-05
000210 98 6e 95 b9 98 77 22 b8 a0 e4 90 36 19 4b 11 39
       -0.00028501893 -3.873519e-05 4.31815e-06 0.00013856254
000220 2e 08 bc 36 34 e2 53 38 d5 69 06 b8 af 98 16 39
       5.603789e-06 5.051699e-05 -3.2046653e-05 0.00014361994
000230 79 26 85 b8 15 9d fb 37 74 04 67 37 94 de fe b6
       -6.3491e-05 2.9994679e-05 1.376971e-05 -7.5957014e-06
000240 da b4 e1 b7 4b 4a 23 37 4b b9 3b 38 1d 45 cc b8
       -2.6906306e-05 9.732855e-06 4.475684e-05 -9.7403514e-05
000250 de ba 1c b6 c0 f2 c7 b6 06 0e ab b7 64 2f 98 37
       -2.3354582e-06 -5.958922e-06 -2.0391319e-05 1.814188e-05
000260 c5 65 22 b8 cf 15 84 37 38 b1 3a 38 1a 0a 8e b7
       -3.871859e-05 1.5745782e-05 4.4510904e-05 -1.6932423e-05
000270 c6 75 10 37 50 df bd 38 60 ff f7 35 62 0c 81 b7
       8.61049e-06 9.0538175e-05 1.8477258e-06 -1.5383765e-05
000280 54 bf 21 b8 e1 da d2 37 2e 12 db 37 20 3d 0e 36
       -3.856358e-05 2.5135874e-05 2.61153e-05 2.1195228e-06
000290 8e 48 a2 b8 41 d7 56 b7 60 7c 5a b6 50 11 95 36
       -7.738276e-05 -1.2805512e-05 -3.2556927e-06 4.4425615e-06
0002a0 2d f1 8c 37 50 2f 24 37 d2 d3 e3 37 d8 0d 08 b7
       1.6801607e-05 9.7861775e-06 2.7159145e-05 -8.109455e-06
0002b0 00 1c 1b b5 80 25 91 37 50 90 5d b8 f8 a8 fa b9
       -5.7782745e-07 1.730281e-05 -5.2824907e-05 -0.00047809607
0002c0 79 03 e2 b7 f1 02 72 b8 42 f8 b2 38 d0 0f 79 b8
       -2.6942917e-05 -5.7700036e-05 8.533943e-05 -5.9380953e-05
0002d0 d0 4a 57 38 40 db bd 35 f4 41 c5 37 08 b2 52 b8
       5.132967e-05 1.4145407e-06 2.3514942e-05 -5.0233706e-05
0002e0 42 fa c9 b8 02 b0 d5 b6 07 0b 1c 38 cc c9 42 b7
       -9.631041e-05 -6.3683847e-06 3.720357e-05 -1.1610286e-05
0002f0 fd a2 4c b7 ec 01 46 38 dd ea 30 38 82 7b c0 b6
       -1.2197296e-05 4.720867e-05 4.2180403e-05 -5.736424e-06
000300 e1 db 87 b7 d3 0b 6b b7 c3 27 4a 38 9f 88 f3 b6
       -1.6195643e-05 -1.4009845e-05 4.8197584e-05 -7.257869e-06
000310 c4 af b5 36 20 df 2c b7 16 6f 3f 38 ca 1b 81 37
       5.414682e-06 -1.0303949e-05 4.5641405e-05 1.5390939e-05
000320 b4 e6 5f 38 84 8c 0f b7 7d d1 d9 b7 10 f0 26 b6
       5.3382202e-05 -8.556181e-06 -2.5965966e-05 -2.4875662e-06
000330 06 15 d1 b8 c8 d9 f1 37 9c 0d d6 37 98 98 9e 35
       -9.9698125e-05 2.8830851e-05 2.5517125e-05 1.1816328e-06
000340 e8 1a 7c b8 62 f3 8c b8 7e 43 b5 b8 f2 da 84 b8
       -6.010654e-05 -6.721054e-05 -8.643324e-05 -6.335032e-05
000350 28 cd aa b7 61 69 19 38 44 c6 b5 b8 dc c3 49 b9
       -2.0361113e-05 3.6576184e-05 -8.6676824e-05 -0.00019241817
000360 ed 2f 6f bc 94 c2 89 38 88 2a c1 37 58 2d c3 37
       -0.014598829 6.568912e-05 2.3027198e-05 2.3266926e-05
000370 ce ad 82 b8 82 2a 10 b8 ca d2 10 b8 06 22 5e 38
       -6.231257e-05 -3.4371864e-05 -3.4528588e-05 5.296061e-05
000380 ee 43 1a b7 2d 85 84 b8 4f 0b 94 37 7c d6 a0 b7
       -9.194931e-06 -6.3190564e-05 1.764824e-05 -1.9173363e-05
000390 c8 30 87 b7 7c e9 2d b9 6c df 95 38 32 ee 0b 38
       -1.611597e-05 -0.00016585545 7.146489e-05 3.336202e-05
0003a0 81 fc 28 b8 a4 9d 72 b9 c2 bc 0d b8 3c 7d 27 b8
       -4.0289484e-05 -0.00023137644 -3.3792814e-05 -3.9932536e-05
0003b0 b2 4f 79 b8 de c3 6b 39 ce eb fa b8 0e 20 0e 37
       -5.944045e-05 0.00022484313 -0.00011964851 8.471323e-06
0003c0 10 76 63 37 d0 f8 f1 b8 9a 23 2b ba 98 77 69 38
       1.3557743e-05 -0.000115381205 -0.00065284374 5.566291e-05
0003d0 b7 a1 d2 b8 f2 78 bd b9 b7 38 28 bd e7 dd 22 ba
       -0.00010043702 -0.00036139 -0.041069712 -0.00062128756
0003e0 f1 5f 7b 3a 2a 9e c9 37 5c 0d b7 3b a3 4a 92 b8
       0.00095891865 2.4034718e-05 0.0055863094 -6.975725e-05
0003f0 bd 84 68 38 24 71 9f ba 8a 0e 63 39 0d f3 ba 38
       5.5436733e-05 -0.0012164456 0.00021653823 8.914443e-05
