3tier-app/learnt_model/gcp_model/model_3tier.tflite (tflite, 142712 bytes, 48 tensors)

dense_9/bias f4 [40]
0.06375542 -0.043016993 0.0075797597 -0.06297519 0.006676034 0.1031547 0.09810981 0.004562197
-0.0008649765 -0.00048792225 -0.028297711 -0.0069086757 0.034668658 -0.0050210296 -0.05126024 -0.058444016
0.12977016 0.006776292 -0.04862353 -0.0016087109 -0.036923476 0.003914685 0.01820609 0.16560109
0.11430372 0.015565121 -0.026366377 -0.01570798 -0.048593722 -0.044169314 0.007296619 -0.0024579808
0.012035763 -0.008711092 0.0041460777 -0.03738891 -0.02083721 0.050685648 -0.018637547 -0.005733698
00000000: 3492 823d 9632 30bd a25f f83b 23f9 80bd
00000010: a2c2 da3b c542 d33d cced c83d 7b7e 953b
00000020: 97bf 62ba d1cf ffb9 9ad0 e7bc 2c62 e2bb
00000030: b900 0e3d 7387 a4bb 42f6 51bd fe62 6fbd
00000040: 78e2 043e a80b de3b 7729 47bd 61db d2ba
00000050: 123d 17bd c246 803b f024 953c 5593 293e
00000060: 1218 ea3d d904 7f3c 4dfe d7bc 06ae 80bc
00000070: 360a 47bd e2ea 34bd 7a18 ef3b 1316 21bb
00000080: a631 453c f8b8 0ebc d2db 873b 1d25 19bd
00000090: ccb2 aabc c19b 4f3d c5ad 98bc bfe1 bbbb

dense_8/bias f4 [40]
0.015814068 0.072465196 0.016502198 0.05991661 0.040508755 -0.03536289 0.036490966 0.07488152
-0.012408259 0.027748557 0.04135819 -0.029962856 -0.048221264 0.003312329 0.08422024 0.055395674
0.010631545 0.06724275 0.01667428 -0.00062181073 -0.06516187 -0.02762833 0.07647585 -0.025206884
-0.035861533 -0.002634833 0.1502792 -0.0154816825 -0.04362908 -0.02851129 0.057198614 0.08957084
-0.012691351 -0.019972391 -0.0256065 0.07343562 -0.027960077 -0.00071407564 -0.007991427 0.021486377
00000000: 818c 813c a268 943d 9e2f 873c 1f6b 753d
00000010: 82ec 253d aed8 10bd 8d77 153d 7b5b 993d
00000020: 034c 4bbc f150 e33c 3567 293d aa74 f5bc
00000030: a983 45bd a913 593b a97b ac3d 93e6 623d
00000040: ef2f 2e3c 91b6 893d 8098 883c 0301 23ba
00000050: 9673 85bd cf54 e2bc 5f9f 9c3d ab7e cebc
00000060: 8be3 12bd 2aad 2cbb cae2 193e e2a6 7dbc
00000070: 68b4 32bd 8290 e9bc 1849 6a3d eb70 b73d
00000080: 62ef 4fbc 249d a3bc b9c4 d1bc 6a65 963d
00000090: 880c e5bc ce30 3bba 79ee 02bc 3304 b03c

dense_7/bias f4 [40]
0.13161881 -0.04667485 0.0737143 0.122626066 -0.014669733 0.0011372986 0.078032255 0.035062667
0.065587915 -0.0050224047 -0.02784206 0.08770211 0.052379817 0.01946591 0.15351322 0.10217703
0.11858026 -0.048011117 0.20196323 0.0029649737 -0.0026392203 -0.06339106 -0.0041949507 0.021326112
0.07556329 0.13228515 0.025415547 0.039958097 0.10950829 0.08379953 0.037003744 -0.071046494
0.029279632 0.037134856 0.0016595568 0.04582285 -0.008546651 0.06855531 0.14223202 0.17606947
00000000: 15c7 063e 212e 3fbd 86f7 963d 6023 fb3d
00000010: 5259 70bc 6911 953a 60cf 9f3d df9d 0f3d
00000020: f552 863d fc92 a4bb 0815 e4bc 2a9d b33d
00000030: 388c 563d f976 9f3c 9232 1d3e 3142 d13d
00000040: 35da f23d 4ea7 44bd 73cf 4e3e 0150 423b
00000050: c5f6 2cbb 2cd3 81bd cc75 89bb 19b4 ae3c
00000060: edc0 9a3d c275 073e 4434 d03c 1aab 233d
00000070: e245 e03d 179f ab3d 3d91 173d d380 91bd
00000080: d7db ef3c b81a 183d 7c85 d93a beb0 3b3d
00000090: 4107 0cbc ba66 8c3d 45a5 113e 8e4b 343e

dense_6/bias f4 [36]
0.12972824 0.1675314 0.06365738 -0.0039589303 -0.0124689955 0.021348443 0.010975992 -0.0012361887
-0.014751062 0.0028971431 -0.020372754 0.028129894 0.36868727 -0.1525629 -0.006538548 0.005623776
-0.0027208673 -0.0032516008 -0.0012364287 -0.024667861 0.02565123 0.007474268 0.0019366707 -0.007969428
0.06830765 0.18723439 -0.008379588 0.0040211184 0.005305022 -0.006180818 -0.011867248 -0.00036449058
0.011178031 0.009904414 0.0037347116 -0.015266912
00000000: 7bd7 043e 5a8d 2b3e cd5e 823d eab9 81bb
00000010: c24a 4cbc eee2 ae3c a6d4 333c 9c07 a2ba
00000020: 70ae 71bc ffdd 3d3b c3e4 a6bc aa70 e63c
00000030: 94c4 bc3e 7339 1cbe 5141 d6bb a747 b83b
00000040: 9450 32bb cf18 55bb aa0f a2ba 4114 cabc
00000050: 8722 d23c b4ea f43b e3d7 fd3a 3492 02bc
00000060: e2e4 8b3d 5fba 3f3e 8a4a 09bc 96c3 833b
00000070: c0d5 ad3b 7688 cabb d96e 42bc 1919 bfb9
00000080: 0f24 373c 2046 223c 10c2 743b 1222 7abc

dense_5/bias f4 [40]
-0.01324821 -0.006619578 0.01203694 -0.025353014 -0.0070019844 -0.050704405 -0.008910716 -0.030685928
0.05264296 0.007246303 -0.042684145 0.009436932 -0.0090961205 0.015090182 0.17613403 0.014156172
0.13325061 -0.022037463 0.22335084 -0.0021490837 -0.030194158 -0.073644355 0.010870383 0.028505398
0.06218301 -0.01656826 -0.053286415 -0.049780965 -0.037495166 -0.03611581 0.07241804 -0.044858947
0.21905783 -0.02282993 0.059026476 0.18822792 -0.018045459 -0.015178472 -0.012940171 0.11147655
00000000: 050f 59bc 0ce9 d8bb 9636 453c 20b1 cfbc
00000010: e770 e5bb 6caf 4fbd 40fe 11bc 0e61 fbbc
00000020: 25a0 573d 6572 ed3b 92d5 2ebd 5d9d 1a3c
00000030: e507 15bc d03c 773c 7b5c 343e 4aef 673c
00000040: d972 083e e987 b4bc 15b6 643e a4d7 0cbb
00000050: bd59 f7bc dad2 96bd b119 323c 2784 e93c
00000060: 9db3 7e3d 29ba 87bc db42 5abd 20e7 4bbd
00000070: 8894 19bd 2cee 13bd e94f 943d 04be 37bd
00000080: b250 603e d505 bbbc bfc5 713d d2be 403e
00000090: 12d4 93bc 20af 78bc 0303 54bc d14d e43d

dense_4/bias f4 [40]
0.049481723 -0.044635385 0.10870077 -0.053470496 0.040674668 -0.00060858286 -0.025077151 -0.015130658
0.0248854 0.078059934 0.059489902 0.20506224 -0.028316304 0.08888832 -0.030633107 -0.02239124
0.17274997 0.008236358 -0.0085943565 -0.016876053 0.007784727 0.07627871 -0.04281293 -0.037820462
0.013082472 0.019215276 -0.008406471 0.057035927 -0.003313287 -0.035971783 -0.0031125853 -0.066484615
0.00079934683 0.060526118 0.1501608 -0.03376175 -0.024856754 0.14555724 -0.0042968364 -0.007616363
00000000: 59ad 4a3d 98d3 36bd 829e de3d e103 5bbd
00000010: 7b9a 263d 4e89 1fba 996e cdbc 94e6 77bc
00000020: 77dc cb3c e3dd 9f3d afab 733d d6fb 513e
00000030: 98f7 e7bc 140b b63d 48f2 fabc d56d b7bc
00000040: 5ee5 303e caf1 063c 58cf 0cbc a63f 8abc
00000050: 0617 ff3b 0338 9c3d 9c5c 2fbd a1e9 1abd
00000060: dd57 563c 5b69 9d3c 4cbb 09bc 819e 693d
00000070: bb23 59bb 2657 13bd 84fc 4bbb 1629 88bd
00000080: 428b 513a 3cea 773d c1c3 193e c349 0abd
00000090: 64a0 cbbc f50c 153e 7acc 8cbb af92 f9bb

dense_3/bias f4 [40]
-0.02210701 0.09983824 0.0032460263 0.0038940087 0.020287454 0.09231951 0.059656974 0.1391879
-0.012195428 0.027789177 0.11049602 0.12125206 -0.0567439 0.08699065 0.0032495817 0.030325934
0.09868256 0.030590454 -0.02346669 0.01739708 0.053005308 -0.03626949 0.15681045 -0.031603754
0.19279367 -0.022106148 0.038996417 0.11292459 0.19414374 0.08944411 0.23216875 0.003526958
0.316117 0.045734715 -0.019424843 0.061775763 0.026376845 -0.0061992966 -0.08951092 0.08725549
00000000: c319 b5bc fe77 cc3d 49bb 543b a032 7f3b
00000010: e031 a63c 0312 bd3d df5a 743d 4687 0e3e
00000020: 55cf 47bc 21a6 e33c bd4b e23d 0053 f83d
00000030: 4b6c 68bd 2728 b23d eff6 543b 186e f83c
00000040: 151a ca3d d598 fa3c 373d c0bc 5284 8e3c
00000050: 181c 593d 518f 14bd eb92 203e f072 01bd
00000060: b46b 453e f417 b5bc b5ba 1f3d 0245 e73d
00000070: 9ecd 463e 792e b73d a5bd 6d3e 8924 673b
00000080: 16da a13e 5354 3b3d d920 9fbc 9508 7d3d
00000090: 4114 d83c 7823 cbbb 8051 b7bd 02b3 b23d

dense_22/bias f4 [45]
0.16016439 0.058378685 0.032641243 0.0039718067 -0.0059735565 0.0025046226 -0.01392234 0.014494336
-0.0077657877 0.019489499 -0.01608576 -0.008259873 0.294077 -0.08901249 0.09833742 0.34142467
-0.054543894 -0.016292198 -0.0040643844 0.004121323 -0.009752424 -0.006712553 -0.0018624509 0.0090756435
0.0011560813 0.010193329 -0.01009694 -0.047645632 0.27691308 -0.06126694 0.09767878 0.07935301
-0.08494679 0.013436974 -0.0025493389 -0.00046320283 -0.00414344 -0.0007797475 0.0016916929 -0.024973933
0.011917121 0.017811956 0.13050842 -0.02535425 0.23782624
00000000: 2202 243e 7d1e 6f3d d3b2 053d ee25 823b
00000010: d3bd c3bb 9824 243b 871a 64bc a779 6d3c
00000020: 2678 febb 71a8 9f3c 49c6 83bc 6b54 07bc
00000030: 4391 963e 2e4c b6bd 2165 c93d 37cf ae3e
00000040: 6b69 5fbd 3777 85bc 872e 85bb 2a0c 873b
00000050: a2c8 1fbc faf4 dbbb 7b1d f4ba 02b2 143c
00000060: a787 973a ec01 273c a36d 25bc 1128 43bd
00000070: 8dc7 8d3e 0bf3 7abd d00b c83d d583 a23d
00000080: 95f8 adbd c126 5c3c cf12 27bb 08da f2b9
00000090: b2c5 87bb f867 4cba cbbb dd3a 2296 ccbc
000000a0: 0740 433c 61ea 913c 00a4 053e b7b3 cfbc
000000b0: b988 733e

dense_21/bias f4 [40]
0.15599269 0.02569313 0.016480124 -0.013697294 0.046197593 0.028950991 -0.0737244 0.11368825
0.1443999 -0.034213204 -0.021637041 -0.014533899 -0.017627882 -0.0015797557 0.029278036 -0.02936796
-0.0060105408 -0.010517938 0.11868327 -0.058713302 -0.0021354996 -0.016572103 -0.016989961 0.012230594
0.18289033 0.0396365 0.049763203 -0.03705069 -0.0155054135 0.017567812 -1.4416628e-05 0.042533975
0.013999569 0.015122303 0.16812451 0.030901756 -0.04729354 -0.02110638 0.0053478573 0.011098827
00000000: 8cbc 1f3e 667a d23c 5301 873c 9d6a 60bc
00000010: b039 3d3d a12a ed3c d1fc 96bd 63d5 e83d
00000020: 91dd 133e 2523 0cbd 2a40 b1bc 971f 6ebc
00000030: 5968 90bc ce0f cfba 7ed8 ef3c 1395 f0bc
00000040: 12f4 c4bb 6e53 2cbc 3710 f33d 5c7d 70bd
00000050: bdf3 0bbb 38c2 87bc 882e 8bbc d462 483c
00000060: 9a47 3b3e e259 223d 80d4 4b3d 77c2 17bd
00000070: 6b0a 7ebc 5fea 8f3c f2de 71b7 1b38 2e3d
00000080: 735e 653c 89c3 773c d528 2c3e ae25 fd3c
00000090: dfb6 41bd 49e7 acbc 143d af3b dbd7 353c

dense_20/bias f4 [40]
-0.07174251 0.032395057 -0.08381206 -0.0020887065 -0.034778148 0.08586342 0.006649145 0.046419572
-0.023093713 0.027260194 -0.04947172 0.0050487015 -0.01605035 0.119631045 -0.010689144 0.119754195
-0.02394469 -0.03919572 -0.049518052 -0.016871559 0.022489397 -0.004116704 0.0022782248 0.03351442
-0.004737756 0.008084351 0.15972954 0.03332778 0.100021616 0.069737636 0.013362076 -0.026205597
0.10508612 0.03554074 -0.03138254 0.0032227815 -0.025600307 -0.005083768 0.15237595 0.00790755
00000000: bded 92bd aeb0 043d a8a5 abbd aee2 08bb
00000010: 8873 0ebd 29d9 af3d 12e1 d93b 7322 3e3d
00000020: 072f bdbc c550 df3c dca2 4abd 946f a53b
00000030: 067c 83bc 1f01 f53d 8521 2fbc b041 f53d
00000040: a827 c4bc b18b 20bd 71d3 4abd 3936 8abc
00000050: af3b b83c 6be5 86bb 454e 153b 6b46 093d
00000060: 2e3f 9bbb 3a74 043c 2490 233e b682 083d
00000070: 22d8 cc3d 9bd2 8e3d 9cec 5a3c 1fad d6bc
00000080: 6437 d73d 2b93 113d fa8a 00bd 4d35 533b
00000090: bcb7 d1bc bd95 a6bb 7108 1c3e ab8e 013c

dense_2/bias f4 [40]
0.010555867 0.116648585 -0.044358555 0.03575795 0.028586349 -0.054597966 -0.023125643 -0.023487832
-0.003450929 -0.01626317 -0.024426382 -0.0734764 0.051892538 -0.013748597 0.098087214 -0.03457781
0.041297723 0.0319487 -0.070372485 -0.0019768858 0.026769457 -0.020733425 0.05684678 0.008881745
0.056319106 0.017643262 0.009362095 -0.01587079 -0.020132719 0.077922374 -0.054000467 0.01253752
0.08083743 0.0056275907 0.112364054 -0.009911082 -0.029305635 -0.017339623 -0.06358621 0.02474317
00000000: 84f2 2c3c 74e5 ee3d 51b1 35bd ee76 123d
00000010: eb2d ea3c 1ea2 5fbd fd71 bdbc 8e69 c0bc
00000020: fb28 62bb 573a 85bc d619 c8bc cb7a 96bd
00000030: 458d 543d cc41 61bc f3e1 c83d 76a1 0dbd
00000040: cd27 293d a4dc 023d 731f 90bd a48e 01bb
00000050: 9f4b db3c 25d9 a9bc 2bd8 683d bd84 113c
00000060: ddae 663d 9a88 903c 7963 193c 7603 82bc
00000070: 5fed a4bc c495 9f3d 982f 5dbd 2c6a 4d3c
00000080: 188e a53d a767 b83b 201f e63d 1762 22bc
00000090: 5f12 f0bc d30b 8ebc 7d39 82bd 30b2 ca3c

dense_19/bias f4 [40]
0.08774297 0.28688976 0.084763676 0.13788639 0.036443908 0.035845928 0.16706455 0.0075295046
0.21285923 -0.042563967 0.0013897596 0.17604323 -0.005410297 0.012636497 0.018477809 0.06403995
0.029423175 0.045324814 0.018986972 0.12966974 0.076143555 0.102305174 0.1816436 -0.0482772
0.067519404 0.21672307 0.09421809 -0.04971162 0.050442655 0.021656644 -0.00086753414 -0.04460913
0.0956115 0.11810737 -0.03397855 0.040738977 0.19568649 0.06807811 0.036313884 -0.077254735
00000000: 96b2 b33d 37e3 923e 9498 ad3d 1732 0d3e
00000010: 3546 153d 2ed3 123d f812 2b3e 10ba f63b
00000020: c5f7 593e 8e57 2ebd 9828 b63a ad44 343e
00000030: dc48 b1bb 4f09 4f3c c65e 973c 6127 833d
00000040: df08 f13c 83a6 393d 918a 9b3c 25c8 043e
00000050: 27f1 9b3d 6085 d13d c800 3a3e 50be 45bd
00000060: 9d47 8a3d a7ec 5d3e 6af5 c03d 699e 4bbd
00000070: f59c 4e3d 4669 b13c 3b6b 63ba 10b8 36bd
00000080: f6cf c33d 47e2 f13d 182d 0bbd eadd 263d
00000090: 0a62 483e 896c 8b3d debd 143d bb37 9ebd

dense_18/bias f4 [45]
0.19384675 0.059048146 0.026799602 -0.009249192 0.0013310721 0.005864724 -0.0030697852 0.0060467515
-0.0010496448 0.0028927985 -0.0018850092 0.009201706 0.2875024 -0.08614175 0.0634212 0.30971566
-0.08470022 -0.037315764 -0.0019632769 0.004178847 -0.008372023 0.0073629734 -0.005605757 0.00059751037
0.0038243183 -0.0044904444 -0.004319033 -0.08299627 0.26736245 0.0143543715 0.08321748 0.036432903
-0.024023058 0.0033534288 -0.00018177758 0.004195858 -0.009402186 -0.015002008 0.03123246 -0.03505844
0.054812167 -0.012489428 0.04704328 -0.0048439517 0.2859457
00000000: c37f 463e 78dc 713d d78a db3c ec89 17bc
00000010: 5e77 ae3a df2c c03b 732e 49bb d423 c63b
00000020: 3c94 89ba 1b95 3d3b 6a12 f7ba c1c2 163c
00000030: 8433 933e 166b b0bd f9e2 813d 0d93 9e3e
00000040: 4f77 adbd 6ad8 18bd 52aa 00bb b6ee 883b
00000050: cf2a 09bc 1945 f13b 7fb0 b7bb 3ea2 1c3a
00000060: 6aa1 7a3b 9424 93bb ad86 8dbb f3f9 a9bd
00000070: bbe3 883e 992e 6b3c ed6d aa3d ab3a 153d
00000080: 01cc c4bc 33c5 5b3b 8c9b 3eb9 687d 893b
00000090: a00b 1abc fbca 75bc 37db ff3c 7099 0fbd
000000a0: b982 603d 75a0 4cbc 74b0 403d 03ba 9ebb
000000b0: 7a67 923e

dense_17/bias f4 [40]
-0.026031671 -0.013751002 -0.012874729 0.011836385 0.0076890457 -0.023250774 -0.039043933 -0.0078248745
-0.021398593 -0.029750623 0.16821373 0.006650117 0.03953152 0.044121273 -0.0041208533 0.13825212
-0.008148992 -0.053312887 0.024693865 -0.01696264 -0.039157726 -0.05545309 0.10519574 0.009411177
-0.010621753 -0.0403732 0.17239314 0.008894931 -0.019671323 -0.011812328 -0.0078468155 -0.02381906
0.0014906438 0.015292059 0.079732925 -0.016098496 -0.043291856 -0.0013479362 -0.002899855 -0.04148037
00000000: 5f40 d5bc e24b 61bc 87f0 52bc 66ed 413c
00000010: 64f4 fb3b 6878 bebc 88ec 1fbd e733 00bc
00000020: 1a4c afbc 94b7 f3bc 3840 2c3e 3ae9 d93b
00000030: ceeb 213d 82b8 343d 3908 87bb f791 0d3e
00000040: 5a83 05bc 9d5e 5abd ca4a ca3c 3cf5 8abc
00000050: da63 20bd c822 63bd dd70 d73d 5631 1a3c
00000060: dc06 2ebc 5e5e 25bd d487 303e 0bbc 113c
00000070: c125 a1bc 7f88 41bc ee8f 00bc 3020 c3bc
00000080: b561 c33a 8b8b 7a3c 044b a33d fee0 83bc
00000090: cd52 31bd 3cad b0ba 7e0b 3ebb 52e7 29bd

dense_16/bias f4 [40]
-0.03552956 -0.009041032 0.0049860682 0.01951161 0.04298175 -0.03368987 0.110936105 -0.011667041
-0.0018194359 -0.030391445 -0.003577728 -0.043004505 -0.032100413 0.16429818 -0.009610212 -0.030032163
-0.020430148 0.012857058 0.1545237 0.11514361 0.04300986 -0.008997056 0.07264099 0.090072244
0.0009728992 0.061580423 -0.0005121838 -0.023731865 0.0029193603 -0.007580635 -0.007269511 -0.02925968
0.07100119 -0.043935195 -0.022631168 0.053552028 -0.0332954 -0.03279729 -0.07027266 0.054025315
00000000: 7287 11bd d620 14bc 2c62 a33b d0d6 9f3c
00000010: a20d 303d 64fe 09bd 7832 e33d 1e27 3fbc
00000020: 237a eeba 7bf7 f8bc 5178 6abb 7e25 30bd
00000030: b97b 03bd c83d 283e 2774 1dbc 0306 f6bc
00000040: 205d a7bc 69a6 523c 763b 1e3e 6ad0 eb3d
00000050: 1b2b 303d 6368 13bc cdc4 943d cc77 b83d
00000060: 290a 7f3a c13b 7c3d 1344 06ba 5469 c2bc
00000070: bd52 3f3b fa66 f8bb 1435 eebb ffb1 efbc
00000080: 1269 913d 64f5 33bd 0065 b9bc 5f59 5b3d
00000090: c260 08bd 7356 06bd 1deb 8fbd a649 5d3d

dense_15/bias f4 [40]
-0.04925392 0.0006154903 -0.027378531 0.11285461 -0.047775533 0.062986016 -0.074051864 0.061304178
0.00941255 0.22829413 0.16820353 0.042871345 0.07753058 0.05794504 -0.011756041 0.013127874
0.21253465 -0.020424204 0.10028598 -0.07444814 -0.037986763 0.034460012 0.06202089 -0.035537176
0.046631347 0.039581142 0.0527199 0.115048915 0.011849922 0.061125614 0.051222663 -0.033096775
0.032888424 -0.01185988 0.026462844 0.0151789095 0.20673153 0.20126997 -0.01401598 0.0517879
00000000: 7abe 49bd db58 213a f148 e0bc 5120 e73d
00000010: 47b0 43bd d0fe 803d 81a8 97bd 171a 7b3d
00000020: 1937 1a3c f0c5 693e 8c3d 2c3e dd99 2f3d
00000030: 5ac8 9e3d c757 6d3d 699c 40bc 4b16 573c
00000040: afa2 593e a950 a7bc bc62 cd3d 4478 98bd
00000050: 0298 1bbd f125 0d3d 9e09 7e3d 6e8f 11bd
00000060: 8300 3f3d d61f 223d d2f0 573d c49e eb3d
00000070: 2d26 423c da5e 7a3d dbce 513d 7c90 07bd
00000080: 03b6 063d f14f 42bc 9bc8 d83c f6b0 783c
00000090: 6eb1 533e b719 4e3e 48a3 65bc 8d1f 543d

dense_14/bias f4 [45]
0.14981177 0.010450372 0.016104924 0.0013295942 0.009045481 -0.013594325 0.008814805 -0.007033796
0.0100770425 -0.011568854 0.0031347186 -0.0004476346 0.34126705 -0.07735513 0.12612127 0.33384925
-0.07169562 0.014879063 -0.0061581573 0.0026481939 0.0072004045 -0.0048652985 0.009728735 0.0005523319
-0.003786719 0.0030566992 -0.0050249253 -0.08153087 0.3217697 -0.04229578 0.04604893 -3.7188758e-05
-0.015655804 -0.017362073 0.005357997 -0.0040073697 -0.0031042444 0.009557928 0.0064931787 0.0057881717
-0.0014273066 0.012074196 0.044395614 -0.04945528 0.3063617
00000000: 4268 193e 0938 2b3c 79ee 833c c745 ae3a
00000010: 7f33 143c bbba 5ebc f96b 103c c27b e6bb
00000020: 2e1a 253c 4a8b 3dbc da6f 4d3b 80b0 eab9
00000030: 8eba ae3e 5e6c 9ebd ef25 013e 4aee aa3e
00000040: 27d5 92bd 50c7 733c 5eca c9bb 528d 2d3b
00000050: 5ff1 eb3b 156d 9fbb 4665 1f3c 5eca 103a
00000060: 9a2a 78bb e752 483b 21a8 a4bb a8f9 a6bd
00000070: 00bf a43e 573e 2dbd ce9d 3c3d 20fb 1bb8
00000080: 9a40 80bc e83a 8ebc 2392 af3b 4150 83bb
00000090: 9470 4bbb db98 1c3c bbc4 d43b b4aa bd3b
000000a0: 7614 bbba d9d2 453c 2dd8 353d 9f91 4abd
000000b0: 71db 9c3e

dense_13/bias f4 [40]
0.00936665 -0.0014237569 0.0066675306 0.019995645 0.009261504 0.13669008 0.00348674 -0.016640184
-0.0021980596 0.061508756 -0.0063741724 -0.003967503 -0.008036353 0.11893336 -0.009312033 -0.0015199124
0.14247763 0.10286913 -0.028310005 -0.01363901 -0.045353405 -0.051271446 -0.026761632 0.029518092
-0.04533532 -0.006270988 0.045397956 0.005063369 -0.020050684 -0.05339624 -0.012536184 0.013361182
-0.007902651 -0.0009503063 0.052777864 -0.022499587 -0.025214648 -0.004989121 -0.061418723 0.03632954
00000000: 9476 193c 5b9d baba 4d7b da3b e8cd a33c
00000010: 90bd 173c 7cf8 0b3e ca81 643b ff50 88bc
00000020: 520d 10bb 9bf0 7b3d 6fde d0bb d401 82bb
00000030: e8aa 03bc 5593 f33d 7f91 18bc cc37 c7ba
00000040: a8e5 113e 0dad d23d 62ea e7bc 2776 5fbc
00000050: 7ec4 39bd 0202 52bd 363b dbbc edcf f13c
00000060: 87b1 39bd dc7c cdbb 35f3 393d 9eea a53b
00000070: 5541 a4bc 04b6 5abd 9164 4dbc dce8 5a3c
00000080: 1f7a 01bc fa1d 79ba 9a2d 583d 0e51 b8bc
00000090: f38e cebc c87b a3bb 3392 7bbd 49ce 143d

dense_12/bias f4 [40]
-0.04025497 0.045064677 -0.0053923195 0.013832207 0.088913396 0.03561574 -0.01680322 -0.05011494
-0.046126757 0.052302726 0.12097944 -0.038428243 -0.009942713 -0.010832591 0.051327392 0.016389128
0.046654508 -0.042398077 -0.07328558 -0.044950344 0.064186744 -0.035091944 0.023698123 0.043874647
0.11209171 0.0056157387 0.018747808 0.09125753 -0.05998873 0.004100083 -0.022987574 0.03976568
0.015791496 -0.005127952 -0.034652743 -0.03109423 -0.027468406 -0.0128478445 -0.03619464 0.046037167
00000000: 65e2 24bd bd95 383d 0eb2 b0bb 7ba0 623c
00000010: 3a18 b63d cfe1 113d e8a6 89bc 5345 4dbd
00000020: 69ef 3cbd 623b 563d 12c4 f73d ef66 1dbd
00000030: c3e6 22bc 2e7b 31bc ac3c 523d 7e42 863c
00000040: cc18 3f3d 9ba9 2dbd c016 96bd da1d 38bd
00000050: 5774 833d 92bc 0fbd 9122 c23c e7b5 333d
00000060: 5790 e53d 3b04 b83b 0195 993c 3ae5 ba3d
00000070: beb6 75bd fd59 863b 7050 bcbc 56e1 223d
00000080: 2b5d 813c 6108 a8bb 09f0 0dbd 54b9 febc
00000090: 6c05 e1bc c47f 52bc d540 14bd 7891 3c3d

dense_11/bias f4 [40]
0.0031025496 0.052716885 0.122726746 0.04077236 -0.029048495 0.013510849 -0.011821058 -0.016335074
0.033791583 0.015850931 0.24976395 0.16202323 0.0046278485 0.10583016 0.20727232 0.032167684
0.0779886 0.0774494 0.10117067 -0.024768608 0.07774208 0.028613774 0.15972026 0.0219436
-0.017412463 0.046200845 0.12393363 -0.05388256 0.0037486395 0.011846694 0.13559969 0.06077587
0.069607906 0.014399859 0.047646992 0.0969196 0.057279166 0.024273481 -0.0041893846 0.09671178
00000000: 2554 4b3b a9ed 573d 2958 fb3d eb00 273d
00000010: 1cf7 edbc 9c5c 5d3c 1cad 41bc 22d1 85bc
00000020: 0b69 0a3d d0d9 813c 1fc2 7f3e 6be9 253e
00000030: 35a5 973b 7cbd d83d 323f 543e 43c2 033d
00000040: 7db8 9f3d cb9d 9e3d 9132 cf3d 89e7 cabc
00000050: 3d37 9f3d 6f67 ea3c b58d 233e 11c3 b33c
00000060: 95a4 8ebc 193d 3d3d ead0 fd3d f6b3 5cbd
00000070: bcab 753b a318 423c a5da 0a3e 1ef0 783d
00000080: 978e 8e3d 63ed 6b3c 7e29 433d c97d c63d
00000090: 8f9d 6a3d 2ed9 c63c 1b47 89bb d310 c63d

dense_10/bias f4 [45]
0.14704561 0.04115248 0.053766415 0.0010416738 -0.007288569 0.0116587 -0.0057365494 0.0005542418
-0.003709617 -0.024351995 -0.0007622332 0.025835507 0.27997175 -0.063669495 0.15146084 0.3486896
-0.06343114 -0.067704245 -6.627082e-05 0.0056467825 -0.006223764 0.012431927 -0.026062272 -0.0039742766
0.0038672318 0.0014948484 -0.011966925 -0.05259391 0.31364244 -0.097967476 0.07650568 0.08549585
-0.030726144 -0.0071709673 0.003663875 0.0086311735 -0.010919023 0.0038170721 0.0060814787 -0.012408673
0.01192658 0.004056585 0.052958615 -0.06415538 0.33764604
00000000: 2093 163e 818f 283d 2c3a 5c3d c688 883a
00000010: f3d4 eebb 2204 3f3c aaf9 bbbb 8a4a 113a
00000020: 0c1d 73bb d67d c7bc 9bd0 47ba fca4 d33c
00000030: 7558 8f3e 2765 82bd 8d18 1b3e 7187 b23e
00000040: 2fe8 81bd 86a8 8abd e0fa 8ab8 a508 b93b
00000050: b7f0 cbbb 48af 4b3c 8c80 d5bc a63a 82bb
00000060: 6271 7d3b caee c33a ec10 44bc b66c 57bd
00000070: be95 a03e 2ca3 c8bd 03af 9c3d 7318 af3d
00000080: 65b5 fbbc 6ffa eabb 9f1d 703b c469 0d3c
00000090: b4e5 32bc d827 7a3b 2447 c73b bf4d 4bbc
000000a0: b467 433c 1aed 843b 22eb 583d e563 83bd
000000b0: f1df ac3e

dense_1/bias f4 [40]
0.014616516 -0.04154848 -0.034088425 0.005725118 -0.0128692845 -0.042804793 0.034357507 0.057709653
-0.036319144 -0.0019205891 -0.014504006 0.053994615 0.04182404 0.032083772 0.008448417 -0.039354593
0.038740616 -0.015593634 -0.023671068 -0.037104234 -0.035284504 0.04146503 -0.027414503 0.028883854
0.08223102 0.017034637 0.07241496 -0.01602048 -0.034369092 -0.019327564 0.02826023 -0.0032999436
-0.017383847 0.067953505 -0.016733898 -0.06138749 0.01669729 -0.014737808 0.048776552 0.028032834
00000000: 1d7a 6f3c bd2e 2abd 4ea0 0bbd c599 bb3b
00000010: b1d9 52bc 1454 2fbd 75ba 0c3d f560 6c3d
00000020: 62c3 14bd 47bc fbba 36a2 6dbc 7529 5d3d
00000030: af4f 2b3d 466a 033d 3b6b 0a3c 4832 21bd
00000040: 7bae 1e3d 717c 7fbc d4e9 c1bc 9cfa 17bd
00000050: 7c86 10bd 3cd7 293d 6194 e0bc d59d ec3c
00000060: bd68 a83d 398c 8b3c 4b4e 943d 623d 83bc
00000070: 9bc6 0cbd d754 9ebc ff81 e73c de43 58bb
00000080: 9268 8ebc 352b 8b3d 8715 89bc 7371 7bbd
00000090: c1c8 883c d976 71bc ecc9 473d 1da5 e53c

dense/bias f4 [40]
0.09036202 0.05437079 -0.062382046 0.017952386 -0.010367675 -0.046463273 0.08760677 0.008425829
0.015981883 0.050580308 0.033536375 -0.0023870813 0.0019348302 0.03480303 -0.0046632215 0.007969625
0.07422411 -0.03749463 0.048755974 -0.002862089 0.073708765 -0.0050914413 0.13937578 0.040711176
-0.060552448 0.006921823 0.0011023846 -0.01918134 0.13376309 -0.05346698 0.049856827 -0.028959686
-0.055772122 -0.0011529063 -0.004948421 0.005746747 0.13032958 -0.07326989 -0.07810037 -0.033615038
00000000: b90f b93d e8b3 5e3d 5184 7fbd e210 933c
00000010: 2edd 29bc 4650 3ebd 2e6b b33d 7d0c 0a3c
00000020: 70ec 823c 4c2d 4f3d 705d 093d 9470 1cbb
00000030: 219a fd3a 9f8d 0e3d f0cd 98bb 0893 023c
00000040: cf02 983d f893 19bd 58b4 473d e391 3bbb
00000050: 9ff4 963d 1bd6 a6bb 86b8 0e3e c3c0 263d
00000060: d805 78bd 76d0 e23b e47d 903a 2f22 9dbc
00000070: 31f9 083e 3100 5bbd ac36 4c3d dd3c edbc
00000080: 4f71 64bd 1e1d 97ba 5d26 a2bb 354f bc3b
00000090: 1e75 053e 860e 96bd 16f3 9fbd ecaf 09bd

bias/bias f4 [15]
0.040374264 -0.040885493 0.02455769 -0.039524354 0.0047617326 -0.03754906 0.0811009 -0.06561014
-0.04190895 0.041964006 -0.07000874 -0.033165637 -0.004004863 -0.038249444 -0.013520246
00000000: 7c5f 253d 8c77 27bd 352d c93c 4ae4 21bd
00000010: 4f08 9c3b 0bcd 19bd 3b18 a63d 9c5e 86bd
00000020: b8a8 2bbd 73e2 2b3d be60 8fbd b1d8 07bd
00000030: 3a3b 83bb 73ab 1cbd 0684 5dbc

model_1/dense_11/MatMul f4 [40, 15]
-5.6193854e-05 3.3453947e-05 1.4050616e-05 7.907238e-05 -1.3523608e-05 -8.369523e-06 3.6560545e-05 -3.121478e-05
-3.1984273e-05 0.00010622923 1.4449198e-05 2.696875e-05 -0.00010368748 1.9972638e-05 5.5120803e-05 0.07308142
-0.018480795 -0.0016905032 0.06866885 -0.00051971537 -0.0120772 0.00022419961 0.0020202026 -0.0015407273
0.0003196746 0.0031400989 -0.09747919 -0.0018319653 0.0025497486 -0.0031414498 -0.0002058933 0.00079623424
6.818744e-05 9.678502e-05 0.12622464 0.0010573447 0.000113444374 2.960422e-05 0.00052004354 -0.001911739
-0.0022000966 0.0037539403 -0.0001658217 -0.000738159 0.00031102647 0.000110719855 -2.5833462e-05 7.554051e-05
-7.662801e-05 7.741186e-06 -2.6757012e-05 5.0242063e-05 -6.482189e-05 0.00013842329 -4.66903e-05 0.00012690976
-5.922018e-05 0.0001612928 8.1451406e-05 -4.4361026e-05 -8.073314e-05 -9.865179e-05 -0.00013462576 1.6004637e-05
-2.817461e-05 -4.269835e-05 -0.000134896 -9.881774e-05 -6.7093733e-06 -8.914768e-05 -7.2057854e-05 -3.8391725e-05
8.314032e-07 -1.6337e-05 1.2187156e-05 -2.4916611e-05 5.5021505e-05 1.5556261e-05 -4.359563e-05 6.95802e-05
5.3316893e-05 -3.8835627e-05 8.642843e-06 -2.0338368e-05 3.1371816e-05 -1.4005929e-05 3.6239755e-05 -0.0006553945
-4.5793786e-05 2.4574461e-05 -2.890799e-05 -1.002543e-05 5.5231267e-05 4.4446348e-05 -0.00010228886 4.627004e-05
-3.0748357e-05 -9.769269e-05 -0.00017566611 3.6236208e-05 6.9772585e-05 0.00013614578 7.22477e-05 1.4167661e-05
-5.9774517e-05 6.931749e-05 4.4353794e-05 -2.4439145e-05 5.9245147e-05 -0.09365427 5.6075216e-05 -3.134943e-05
7.085796e-05 1.3142722e-05 -2.842287e-05 -5.7745354e-05 2.649109e-05 3.659016e-05 1.1062875e-05 0.00018230382
9.227554e-05 -2.7088263e-06 -0.00014764456 -0.00011035112 -8.727146e-05 -9.998221e-07 -4.852764e-05 -3.5440771e-06
1.6494721e-05 -3.9399274e-05 -0.00015469569 2.077542e-05 0.00013685365 -6.490263e-05 -2.4798726e-05 -0.00040280935
0.00068624504 0.18198463 0.00020696006 -0.00045760753 0.065441586 -2.3550667e-05 1.954372e-05 0.00016934908
0.0002416867 -2.0949901e-05 -0.00017296168 0.00026629673 3.719522e-05 -0.0001423558 0.15859203 -0.09026339
0.007749283 -0.00066461787 -0.36282715 -0.011328124 -0.0068664253 0.0056203925 0.0022639735 0.0021971173
0.009646918 -0.00867104 -0.0011824727 0.005639651 -0.013865547 -0.00074193603 0.00079042464 -0.0012576501
0.07514269 -0.0014499655 -0.0015606275 0.0001175247 0.0013620738 7.11427e-05 -0.00016235578 0.00186276
-0.044712536 -0.00043466073 0.0017618391 0.00010414573 2.808575e-05 -8.3659506e-05 -3.6206307e-05 9.929739e-05
-2.1461794e-05 -2.6373127e-05 -3.9744846e-05 -4.1786584e-06 4.0217077e-05 -1.3275381e-05 1.2436742e-05 -1.6408827e-05
-3.3002143e-06 1.4239613e-06 -2.933871e-05 0.00052160665 0.0001690854 -8.096211e-05 -0.0005595039 -0.055694327
-0.0013501672 -0.0016130147 0.0015557054 0.00026741583 0.0067784004 0.002377612 -0.0037594286 -0.0007746818
0.00029326056 -0.00031345803 0.16639522 -0.11402307 -0.2100935 0.23019685 -0.26188764 -0.03619516
-0.002364129 0.0053749266 -0.003143244 -0.00057644804 0.07415343 -0.008429931 -0.0014025304 0.05992176
0.076498024 -5.2458705e-05 4.5157463e-05 -2.7009519e-06 1.1970522e-05 0.08028955 -6.2854975e-05 3.0902156e-05
-7.941336e-05 -9.568823e-06 3.7280715e-05 -9.024153e-05 6.743602e-05 7.571259e-05 -7.218788e-05 -0.00031281024
-5.3697586e-06 2.148005e-05 8.044708e-05 -0.0001291259 -4.5179095e-05 1.7996608e-06 -0.00015856825 -8.266602e-05
4.4366214e-05 2.1979966e-05 0.00013500887 1.9502504e-06 -5.9420854e-05 -5.4688484e-05 -9.659343e-07 -0.00014662434
00000000: b1b1 6bb8 e750 0c38 f0ba 6b37 a9d3 a538
00000010: 74e3 62b7 d46a 0cb7 9658 1938 9dec 02b8
00000020: da26 06b8 62c7 de38 d56a 7237 f33a e237
00000030: cb72 d9b8 ea8a a737 8331 6738 b6ab 953d
00000040: 0965 97bc e093 ddba 41a2 8c3d 823d 08ba
00000050: 73df 45bc 2017 6b39 6065 043b 3bf2 c9ba
00000060: 009a a739 1eca 4d3b 2ba3 c7bd 8e1e f0ba
00000070: af19 273b c8e0 4dbb 10e5 57b9 60ba 503a
00000080: daff 8e38 10f9 ca38 0841 013e 9a96 8a3a
00000090: fce8 ed38 9456 f837 8853 083a 5193 faba
000000a0: 7f2f 10bb ab04 763b 6ce0 2db9 0381 41ba
000000b0: 4411 a339 4532 e838 f0b4 d8b7 816b 9e38
000000c0: 5ab3 a0b8 24e0 0137 3f74 e0b7 01bb 5238
000000d0: fdf0 87b8 b825 1139 54d5 43b8 1413 0539
000000e0: 2f63 78b8 b520 2939 e4d0 aa38 4a10 3ab8
000000f0: 464f a9b8 47e3 ceb8 542a 0db9 b241 8637
00000100: 8458 ecb7 0117 33b8 df72 0db9 5f3c cfb8
00000110: 1421 e1b6 ccf4 bab8 c41d 97b8 cd06 21b8
00000120: 982d 5f35 710b 89b7 7077 4c37 0404 d1b7
00000130: e4c6 6638 d17e 8237 74da 36b8 96eb 9138
00000140: 94a0 5f38 70e3 22b8 ba00 1137 509c aab7
00000150: 3b95 0338 02fb 6ab7 2400 1838 c8ce 2bba
00000160: b412 40b8 4125 ce37 707f f2b7 e532 28b7
00000170: 1fa8 6738 e76b 3a38 ea83 d6b8 1412 4238
00000180: ccf7 00b8 5de0 ccb8 0333 38b9 55fc 1738
00000190: df52 9238 5bc2 0e39 b083 9738 a4b1 6d37
000001a0: 66b6 7ab8 8b5e 9138 8608 3a38 aa02 cdb7
000001b0: fe7d 7838 cfcd bfbd 4e32 6b38 327d 03b8
000001c0: 9499 9438 907f 5c37 a66d eeb7 9a33 72b8
000001d0: 2f39 de37 6378 1938 b09a 3937 cf28 3f39
000001e0: 0e84 c138 48c9 35b6 09d1 1ab9 4e6c e7b8
000001f0: 8205 b7b8 a031 86b5 288a 4bb8 c8d6 6db6
00000200: 255e 8a37 a640 25b8 cf35 22b9 e046 ae37
00000210: 5f80 0f39 561c 88b8 dc06 d0b7 2830 d3b9
00000220: 20e5 333a 2e5a 3a3e 6b03 5939 0beb efb9
00000230: 3d06 863d ac8e c5b7 d2f1 a337 4c93 3139
00000240: 486d 7d39 92bd afb7 0c5d 35b9 be9d 8b39
00000250: 1002 1c38 5845 15b9 f365 223e 03dc b8bd
00000260: b3ed fd3b c039 2eba 7bc4 b9be 9999 39bc
00000270: c0ff e0bb 452b b83b 2c5f 143b 83fd 0f3b
00000280: 1b0e 1e3c fa10 0ebc 33fd 9aba d2cc b83b
00000290: 522c 63bc 7c7e 42ba 8034 4f3a bcd7 a4ba
000002a0: 69e4 993d c50c beba f88d ccba 9877 f638
000002b0: 9d87 b23a 7232 9538 0c3e 2ab9 db27 f43a
000002c0: 7e24 37bd 2de3 e3b9 83ed e63a d068 da38
000002d0: b099 eb37 5b72 afb8 3adc 17b8 e13d d038
000002e0: da08 b4b7 dc3b ddb7 b4b3 26b8 6736 8cb6
000002f0: c2ae 2838 54b9 5eb7 66a7 5037 b0a5 89b7
00000300: 4079 5db6 f01e bf35 661c f6b7 6ebc 083a
00000310: 844c 3139 34ca a9b8 acab 12ba bc1f 64bd
00000320: 18f8 b0ba cb6b d3ba d0e8 cb3a f233 8c39
00000330: 581d de3b b6d1 1b3b bf60 76bb 0414 4bba
00000340: c4c0 9939 a057 a4b9 8263 2a3e ed84 e9bd
00000350: c022 57be b9b8 6b3e 2316 86be 6041 14bd
00000360: 81ef 1abb 2720 b03b e2fe 4dbb c61c 17ba
00000370: c1dd 973d b11d 0abc 1cd5 b7ba 8570 753d
00000380: ffaa 9c3d 1b07 5cb8 7567 3d38 0042 35b6
00000390: 00d5 4837 d96e a43d 02d1 83b8 f09c 0138
000003a0: b98a a6b8 c889 20b7 dd5d 1c38 0d40 bdb8
000003b0: 706c 8d38 e3c7 9e38 9363 97b8 ae00 a4b9
000003c0: e02d b4b6 0e30 b437 b2b5 a838 f865 07b9
000003d0: af7e 3db8 e08b f135 5745 26b9 fb5c adb8
000003e0: dc15 3a38 9e61 b837 2b91 0d39 0ce1 0236
000003f0: a83a 79b8 5061 65b8 40a5 81b5 2cbf 19b9

model_1/dense_12/MatMul f4 [40, 40]
9.886218e-06 -7.907755e-05 0.0003846347 -6.06786e-05 -2.4295121e-05 1.0648007e-05 -4.835447e-05 0.00017915982
-1.4732292e-05 8.7580716e-05 0.00010963088 1.8252478e-05 0.00029957018 0.0003356376 0.00072851003 -0.000115897914
0.00013821067 3.5176927e-05 -6.1927276e-06 -6.0270653e-05 0.0001848459 3.47545e-05 -0.00026495926 -0.00026099608
-0.00014031226 0.00016524097 -0.00017058154 -0.00033471012 -0.00041918576 3.0821386e-05 0.00032217783 0.00029407995
-7.2995754e-06 -0.00042348908 0.00018229728 -0.0005261061 -6.5251006e-05 1.3545276e-05 -6.7904984e-05 5.993822e-05
4.1590974e-05 0.0002856367 2.0325417e-05 0.00014337714 -3.7425125e-05 -6.8611276e-05 5.090993e-05 2.9370494e-07
0.00030240935 -1.657271e-05 0.0008166769 0.10607574 -2.796848e-06 9.618793e-05 -0.0051536555 -0.00030468233
0.000531045 0.00015041477 0.013197785 -0.00017075801 -0.00012783919 -6.455106e-06 -0.00019664376 -4.17746e-05
-8.333215e-05 0.00019874255 0.00037709423 0.0001947652 -4.9704882e-05 1.014629e-05 -0.00014166834 6.7026136e-05
0.0003580397 -6.6108056e-05 0.00023029286 2.2595417e-05 9.0768895e-05 -2.7246479e-05 8.417102e-05 0.00013289438
6.729658e-05 -5.5584802e-05 8.874758e-05 1.8196133e-05 0.00016037784 4.455332e-06 4.096471e-05 -9.281866e-05
0.000121719844 0.00570849 0.00018631159 1.2116292e-05 -3.773707e-05 4.703246e-05 1.374024e-05 -9.736795e-05
2.6876376e-05 5.642964e-05 9.276677e-05 3.2664335e-05 3.2494398e-05 1.7947445e-05 0.00016922559 0.00022420696
2.2809427e-06 -3.255018e-05 0.041721717 -7.152814e-06 0.00013057872 -3.142678e-05 8.977875e-05 0.07055229
0.00011412833 -3.3699016e-05 -1.7550794e-05 1.4002901e-05 4.1973202e-05 6.641492e-05 1.1105034e-05 0.004763323
1.6222904e-05 -0.0016819021 0.09547591 -0.0004933771 -0.00016862978 -1.1660399e-05 5.5107386e-05 -0.00041509728
0.00010373402 0.0003751269 -0.0016201128 -0.00048173597 4.1713047e-05 -0.0003644497 -0.023784647 0.00026271172
-0.0003210526 0.07716087 0.012069041 -0.00012810202 0.00054969155 -0.00018518388 0.0001286144 3.6620884e-05
-3.1438958e-05 0.0006309465 0.0022667751 1.23256505e-05 2.3218672e-05 -9.4735304e-05 0.006093846 1.9517707e-05
0.034830324 -0.00014677491 -9.0752284e-05 0.00033968285 0.14036149 9.668994e-06 7.394328e-05 0.0015226715
9.018566e-06 0.0013131917 -3.060972e-05 -4.4365384e-05 -0.00012969528 -3.0384574e-05 -4.682948e-05 -4.2835447e-05
-1.2629607e-05 -6.634086e-05 0.05328738 0.00083982165 -6.5632616e-05 0.019924492 0.0021974628 -6.4814434e-05
0.00014700502 -9.1516864e-05 -0.0015047143 5.671063e-07 0.0031981776 0.00011876352 -0.00019104386 -0.00023606673
1.923565e-05 -0.00056558975 -0.0030987181 6.570911e-05 6.596627e-05 0.05398754 -0.077336274 3.7540987e-05
-0.00084966025 -3.3993794e-05 -0.00015782157 -0.0002000301 0.00026137696 -0.00015222759 7.932661e-05 -0.14994311
-9.020098e-05 -0.00023245663 -0.040642843 -0.00014061017 -8.311886e-05 -0.00010005015 -9.787815e-05 0.008308207
-5.3521657e-05 -0.0006581303 0.0034526235 0.0006636253 -2.6711961e-05 0.00058242085 0.19270822 -0.001095248
0.0002792119 -0.00021383219 -0.008806098 -4.204711e-05 0.05495277 8.194491e-05 -0.0018552328 -0.00022760005
-1.942066e-05 -0.0015873628 -0.0005457279 -0.00028498183 1.9289724e-05 -0.00020754579 -0.0007027028 -0.019958448
-0.0014004081 4.6305046e-05 -2.9175135e-06 0.10320839 -0.00048760753 2.5799054e-06 3.2737968e-05 2.6662892e-05
-0.00015576699 -5.5703014e-05 2.751061e-05 -0.0005833219 4.6443016e-05 0.00030075142 0.000108266395 -6.2782216e-05
5.653403e-05 7.8218727e-07 -1.285769e-05 2.4728046e-05 -0.0001489655 -5.203589e-05 8.518931e-05 -0.0002234696
00000000: fcdc 2537 70d6 a5b8 cca8 c939 2781 7eb8
00000010: 60cd cbb7 d8a4 3237 38d0 4ab8 d9dc 3b39
00000020: b62a 77b7 8aab b738 a1e9 e538 e61c 9937
00000030: a10f 9d39 84f8 af39 7bf9 3e3a 380e f3b8
00000040: a5ec 1039 f08a 1338 20cb cfb6 1fcb 7cb8
00000050: 32d3 4139 5cc5 1138 3bea 8ab9 4dd6 88b9
00000060: c920 13b9 8944 2d39 22de 32b9 087c afb9
00000070: 29c6 dbb9 3646 0138 fae9 a839 be2e 9a39
00000080: e0ee f4b6 be07 deb9 0e27 3f39 62ea 09ba
00000090: 5ed7 88b8 8440 6337 3668 8eb8 2c66 7b38
000000a0: f871 2e38 82c1 9539 8080 aa37 8257 1639
000000b0: ecf8 1cb8 66e3 8fb8 1f88 5538 80ae 9d34
000000c0: b28c 9e39 a005 8bb7 4216 563a 3d3e d93d
000000d0: 7cb1 3bb6 80b8 c938 ffdf a8bb c5bd 9fb9
000000e0: d435 0b3a a8b8 1d39 863b 583c 810d 33b9
000000f0: 920c 06b9 f098 d8b6 2832 4eb9 2337 2fb8
00000100: 9bc2 aeb8 8c65 5039 bbb4 c539 e339 4c39
00000110: 367a 50b8 fc39 2a37 ce8c 14b9 6290 8c38
00000120: 46b7 bb39 7ea3 8ab8 c57a 7139 4a8b bd37
00000130: 2e5b be38 5e8f e4b7 f984 b038 9059 0b39
00000140: 9421 8d38 ba23 69b8 ff1d ba38 e6a3 9837
00000150: 192b 2839 037f 9536 86d1 2b38 a3a7 c2b8
00000160: d843 ff38 490e bb3b a35c 4339 1447 4b37
00000170: df47 1eb8 b844 4538 e285 6637 0532 ccb8
00000180: 9474 e137 ddae 6c38 c88b c238 1001 0938
00000190: 984a 0838 d88d 9637 2672 3139 1919 6b39
000001a0: 4c12 1936 7d86 08b8 64e4 2a3d 3402 f0b6
000001b0: f5eb 0839 40d0 03b8 9947 bc38 b87d 903d
000001c0: 2e58 ef38 0b58 0db8 0b3a 93b7 00ee 6a37
000001d0: 620c 3038 3d48 8b38 c24f 3a37 a615 9c3b
000001e0: 6c16 8837 4573 dcba e088 c33d fa55 01ba
000001f0: 36d2 30b9 08a1 43b7 1b23 6738 6aa1 d9b9
00000200: c78b d938 aeac c439 f759 d4ba 8291 fcb9
00000210: 0bf5 2e38 9c13 bfb9 05d8 c2bc 92bc 8939
00000220: f352 a8b9 8506 9e3d 3abd 453c 2053 06b9
00000230: 2d19 103a eb2d 42b9 aadc 0639 6099 1938
00000240: 53dd 03b8 1a66 253a 2d8e 143b 44ca 4e37
00000250: b8c5 c237 a1ac c6b8 e3ae c73b f5b9 a337
00000260: 3eaa 0e3d 97e7 19b9 4352 beb8 7617 b239
00000270: ecba 0f3e 0338 2237 ff11 9b38 6194 c73a
00000280: 724e 1737 671f ac3a f062 00b8 f814 3ab8
00000290: d0fe 07b9 60e2 feb7 c56a 44b8 36aa 33b8
000002a0: c0e3 53b7 7a20 8bb8 de43 5a3d 7a27 5c3a
000002b0: 3ea4 89b8 b038 a33c 4f03 103b fcec 87b8
000002c0: 5c25 1a39 beec bfb8 d539 c5ba 403b 1835
000002d0: 8498 513b ae10 f938 f252 48b9 ae88 77b9
000002e0: 3e5c a137 1644 14ba dd13 4bbb 4fcd 8938
000002f0: 5f57 8a38 0a22 5d3d 7b62 9ebd 5475 1d38
00000300: bcbb 5eba 8f94 0eb8 e87c 25b9 2cbf 51b9
00000310: 6c09 8939 489f 1fb9 265c a638 b08a 19be
00000320: 482a bdb8 9abf 73b9 1c79 26bd c170 13b9
00000330: 1950 aeb8 04d2 d1b8 ef43 cdb8 251f 083c
00000340: 717c 60b8 6086 2cba 6945 623b 24f7 2d3a
00000350: 8013 e0b7 9aad 183a 4e55 453e 6d8e 8fba
00000360: 3063 9239 2438 60b9 7447 10bc be5b 30b8
00000370: 2816 613d d7d9 ab38 482b f3ba eca7 6eb9
00000380: 8de9 a2b7 0f0f d0ba 2e0f 0fba 9d69 95b9
00000390: 5ed0 a137 a6a0 59b9 9635 38ba e67f a3bc
000003a0: e68d b7ba aa37 4238 80ca 43b6 ec5e d33d
000003b0: 93a5 ffb9 7022 2d36 2050 0938 20aa df37
000003c0: 6255 23b9 a8a2 69b8 96c6 e637 12ea 18ba
000003d0: cfcb 4238 2cae 9d39 140d e338 f2a9 83b8
000003e0: f41e 6d38 80f7 5135 5cb7 57b7 136f cf37
000003f0: 9f33 1cb9 1d41 5ab8 aaa7 b238 2a53 6ab9

model_1/dense_13/MatMul f4 [40, 40]
0.0003775429 1.1681246e-05 3.0600568e-05 6.013694e-05 2.928536e-05 -0.00021177706 -6.132254e-05 0.00047254952
-0.00024158596 0.000101022015 0.00015555439 0.00016859679 0.000121043115 -5.953334e-05 0.00015903666 0.00032971537
0.00018079809 0.00014561061 0.00016879581 0.000582407 8.602743e-05 -0.00018649647 0.00012847495 -2.3945067e-06
0.00016158966 -1.9089219e-05 -7.231227e-05 2.7384443e-05 0.0001795871 3.5251083e-05 -2.1904341e-05 0.00020387639
0.025877004 -0.00012418116 0.000119161836 -0.000116454394 4.474912e-05 3.4292258e-05 9.808158e-05 0.0001488621
-6.761523e-05 -8.78796e-06 0.00012915945 -2.2161588e-05 -2.8290002e-05 0.00020067232 -0.00016559921 -9.8208795e-05
3.4417986e-05 3.286914e-08 1.5522048e-05 0.00017351811 -9.695321e-05 -0.00013064983 -0.00012498978 -0.0001933685
-6.213959e-05 -0.0001897342 -0.00025155043 -0.00037325063 -6.183659e-05 -7.63984e-05 0.00010410352 0.00014267112
-0.00023215498 0.00030535948 0.00019605314 0.00016618246 4.8965172e-05 0.00012465974 4.9588965e-05 8.162639e-05
0.00017636208 0.000111942034 -0.00030113163 2.0415238e-05 0.000102308404 -1.5108162e-06 -1.8614606e-05 1.0281408e-05
-6.5976434e-05 5.4426186e-05 -0.000111722016 -8.3073675e-05 -7.288947e-05 0.00021475431 -7.729084e-05 -0.0005071907
4.5676297e-05 2.740663e-05 -8.605911e-05 -1.0737876e-06 8.25854e-05 -0.00011907688 -0.00021226567 -0.00013460996
0.000102546575 0.00029626078 -1.4193392e-05 -8.835289e-05 0.00019673217 0.0005419301 -0.00024024601 9.937883e-06
8.315392e-05 9.3373994e-05 4.284823e-05 0.00018611865 0.00011802864 2.9974923e-05 8.937759e-07 -0.00019452446
4.4855107e-05 -0.00011189108 3.231224e-05 2.2462618e-06 -6.6659086e-06 -9.156327e-05 0.00031169906 6.7434245e-05
-1.9151048e-05 -0.00013965898 -2.8727005e-05 0.096012875 -5.7615624e-05 -3.7125443e-05 -2.1646625e-05 0.00012216426
6.974159e-05 -0.05284973 0.00032929503 -2.8196944e-05 5.219999e-05 5.365391e-05 -3.609999e-05 8.195191e-05
-4.4939166e-05 -9.2741546e-05 -1.9226674e-05 4.435642e-06 -1.2417999e-05 -0.00029720503 -0.0001449186 3.1344458e-05
0.00022838873 6.3226034e-06 -9.043132e-05 0.00033992782 4.8532198e-05 -9.108387e-05 -2.7727185e-05 0.00014053617
-7.748184e-05 -9.577032e-05 0.00022446521 -1.1000084e-05 -4.616049e-05 1.9862799e-05 9.997353e-05 -4.1946056e-05
-0.00043324902 1.0108426e-05 -1.3306233e-05 -1.6439753e-05 -4.779651e-06 -4.039141e-05 3.6810932e-05 3.84579e-06
-2.0618081e-05 7.77674e-06 -5.670209e-05 8.0585975e-05 -0.00015689577 -0.00018468586 9.3326606e-05 9.812082e-05
-1.6303196e-05 -0.00054382865 5.617494e-05 7.9765676e-05 2.3896111e-05 -0.0003024279 2.4625797e-05 -3.316157e-05
6.2328463e-06 -0.00028616752 -3.6034788e-05 -3.7931342e-05 5.6603054e-05 1.8007577e-05 -0.00014729043 -4.1026273e-05
-2.078055e-05 8.5482825e-06 0.0002464195 2.3756875e-06 -8.725982e-05 8.550243e-05 -1.1756427e-05 1.1125028e-05
-5.200757e-05 0.0010560115 -0.00011763705 -0.1815582 0.16168724 0.0010644074 -1.0547519e-05 -4.505832e-05
-0.00020333432 0.00016868199 0.005807983 0.00012344812 9.050803e-05 -0.00033979586 0.00089929043 0.00022829187
0.0002665788 0.00027712178 -8.490173e-05 -0.0001427067 -0.13054697 -0.00020654988 0.0008297447 0.00020709091
-4.321087e-05 5.7083613e-05 0.0003882143 0.25296548 3.9754097e-05 -0.0002915817 0.00010136883 0.0394023
-0.081939705 7.900424e-06 -0.00029303777 -8.664265e-05 0.00029184195 -7.0964335e-05 0.00046621799 0.038138956
3.4695731e-06 -5.1027284e-05 7.338138e-05 0.00013132364 -4.364943e-05 -8.452198e-05 5.5492474e-06 -0.00010460518
-4.0615334e-05 0.0002598632 -0.00040841143 0.00021865685 0.000104007966 -5.2157164e-05 -0.00013211818 1.658019e-05
00000000: f3f0 c539 92fa 4337 1c59 0038 8c3b 7c38
00000010: d5a9 f537 7910 5eb9 4a9a 80b8 86c0 f739
00000020: 3d52 7db9 c8db d338 501c 2339 5bc9 3039
00000030: 87d8 fd38 70b3 79b8 14c3 2639 a6dd ac39
00000040: 9e94 3d39 0daf 1839 c8fe 3039 acac 183a
00000050: a069 b438 448e 43b9 3bb7 0639 50b1 20b6
00000060: 6570 2939 c921 a0b7 5ba6 97b8 a5b7 e537
00000070: 8c4f 3c39 90da 1338 37bf b7b7 a7c7 5539
00000080: 03fc d33c a036 02b9 86e6 f938 fa38 f4b8
00000090: 00b1 3b38 08d5 0f38 26b1 cd38 de17 1c39
000000a0: a6cc 8db8 0070 13b7 fa6e 0739 a6e7 b9b7
000000b0: 5150 edb7 916b 5239 b3a4 2db9 72f5 cdb8
000000c0: 085c 1038 002c 0d33 5835 8237 6af2 3539
000000d0: 5c53 cbb8 0cff 08b9 b00f 03b9 f6c2 4ab9
000000e0: f050 82b8 63f3 46b9 87e2 83b9 dab0 c3b9
000000f0: 44ae 81b8 1438 a0b8 2752 da38 fd99 1539
00000100: a16e 73b9 a818 a039 9d93 4d39 4441 2e39
00000110: f45f 4d38 18b7 0239 bffd 4f38 d62e ab38
00000120: d6ed 3839 6cc2 ea38 34e1 9db9 6441 ab37
00000130: 688e d638 40c7 cab5 9026 9cb7 507e 2c37
00000140: d45c 8ab8 ac47 6438 4d4c eab8 d737 aeb8
00000150: 3cdc 98b8 ac2f 6139 3417 a2b8 fef4 04ba
00000160: 8d94 3f38 4ae7 e537 a27a b4b8 101f 90b5
00000170: b331 ad38 eab8 f9b8 a293 5eb9 1626 0db9
00000180: 460e d738 7353 9b39 2820 6eb7 194a b9b8
00000190: e449 4e39 5010 0e3a 8cea 7bb9 e2ba 2637
000001a0: ec62 ae38 c8d1 c338 f0b7 3338 d828 4339
000001b0: 2586 f738 a872 fb37 d0eb 6f35 43f9 4bb9
000001c0: ce22 3c38 11a7 eab8 0187 0738 7cbe 1636
000001d0: b8ab dfb6 a805 c0b8 8a6b a339 7c6b 8d38
000001e0: 90a6 a0b7 6c71 12b9 c6fa f0b7 66a2 c43d
000001f0: 4ea8 71b8 24b7 1bb8 c695 b5b7 3819 0039
00000200: 3b42 9238 f578 58bd 3ba5 ac39 7a88 ecb7
00000210: 50f1 5a38 720a 6138 126a 17b8 99dd ab38
00000220: 107d 3cb8 3d7e c2b8 f848 a1b7 e0d5 9436
00000230: e656 50b7 2fd2 9bb9 4af5 17b9 db77 0338
00000240: a27b 6f39 c026 d436 f2a5 bdb8 5738 b239
00000250: 0d8f 4b38 4804 bfb8 ad97 e8b7 e45c 1339
00000260: bf7d a2b8 4dd8 c8b8 6c5e 6b39 008d 38b7
00000270: 739c 41b8 099f a637 e1a8 d138 3cef 2fb8
00000280: b325 e3b9 5c97 2937 d63d 5fb7 1ae8 89b7
00000290: e460 a0b6 f269 29b8 7065 1a38 160b 8136
000002a0: fef4 acb7 d878 0237 68d3 6db8 4400 a938
000002b0: 6384 24b9 3ca8 41b9 57b8 c338 37c6 cd38
000002c0: d9c2 88b7 b98f 0eba 629d 6b38 df47 a738
000002d0: 8274 c837 308f 9eb9 7f93 ce37 f716 0bb8
000002e0: be23 d136 c108 96b9 0f24 17b8 7818 1fb8
000002f0: 1169 6d38 fa0e 9737 f971 1ab9 a013 2cb8
00000300: e451 aeb7 986a 0f37 de31 8139 006e 1f36
00000310: 42ff b6b8 c44f b338 783d 45b7 a2a5 3a37
00000320: b422 5ab8 de69 8a3a e9b3 f6b8 65ea 39be
00000330: 5791 253e 9683 8b3a 40f5 30b7 01fd 3cb8
00000340: 2436 55b9 3ae0 3039 e550 be3b da71 0139
00000350: 21cf bd38 a126 b2b9 5cbe 6b3a a261 6f39
00000360: 9ac3 8b39 a84a 9139 450d b2b8 8aa3 15b9
00000370: 1bae 05be 5095 58b9 3983 593a 8b26 5939
00000380: 523d 35b8 106d 6f38 3e89 cb39 b184 813e
00000390: a3bd 2638 6fdf 98b9 fa95 d438 4e64 213d
000003a0: 01d0 a7bd 108c 0437 dda2 99b9 ebb3 b5b8
000003b0: 5d02 9939 b0d2 94b8 b86e f439 9837 1c3d
000003c0: d0d6 6836 2106 56b8 54e4 9938 ecb3 0939
000003d0: 3814 37b8 6441 b1b8 ac33 ba36 7a5f dbb8
000003e0: 625a 2ab8 403e 8839 0e20 d6b9 4047 6539
000003f0: da1e da38 54c3 5ab8 3489 0ab9 b015 8b37
