3tier-app/learnt_model/gcp_model/model_3tier.tflite (tflite, 142712 bytes, 48 tensors)

dense_9/bias f4 [40]
0	0x3e0c8336	0.13721928
1	0x3c1a74e9	0.009427288
2	0x3c210db2	0.009829925
3	0xbb38df31	-0.0028209204
4	0x3dae1c64	0.08501509
5	0xbc281aa2	-0.010260256
6	0xbdac9f8a	-0.08428867
7	0x3b9ffccc	0.0048824307
8	0xbd59826d	-0.0531029
9	0xbcd5cb9f	-0.02609807
10	0xbca08567	-0.019594861
11	0x3c061392	0.008183377
12	0x3d4b6373	0.04965539
13	0xbb560bd9	-0.003266087
14	0x3c33f29c	0.010983136
15	0xbb1dd7c1	-0.0024084898
16	0xbd88cb9b	-0.0667946
17	0xbd20f45a	-0.03929553
18	0xbc7c0a36	-0.015383294
19	0x3c1d66cd	0.009607029
20	0xbd71141d	-0.058857072
21	0x3d647710	0.05577761
22	0xbc93a77d	-0.0180242
23	0x3e2bcfc4	0.16778475
24	0xbc28dd74	-0.010306705
25	0x3e4cae4e	0.19988367
26	0xbcd6cfb2	-0.026222084
27	0xb9b70ad8	-0.0003491256
28	0xbcb81d66	-0.022474956
29	0xbc6c7612	-0.014432447
30	0xbd25e33f	-0.040499922
31	0xbd4a5dd8	-0.049405903
32	0xbb2cd10c	-0.0026369719
33	0x3d4ff0d3	0.050766777
34	0xbdadad70	-0.08480346
35	0xba4335ab	-0.0007446657
36	0x3d63296c	0.055459425
37	0xbd3b30a2	-0.045700677
38	0xbd374bda	-0.044750072
39	0xbd06fcae	-0.032955818

dense_8/bias f4 [40]
0	0xbcf5541b	-0.029947331
1	0x3d34510d	0.04402261
2	0xbbabcccd	-0.00524292
3	0x3d664e18	0.05622682
4	0xbd3f433b	-0.046694975
5	0x3ba22980	0.004948795
6	0xbcc52238	-0.024064168
7	0x3d0aa41e	0.03384792
8	0xbcd4d4f7	-0.025980456
9	0xbd216497	-0.03940257
10	0x3cecadd4	0.028891481
11	0x3d136393	0.035983633
12	0xbd3edddb	-0.046598297
13	0x3ae40ce1	0.0017398858
14	0x3ea0a69b	0.3137711
15	0x3e8ff7c3	0.28118715
16	0xbc33827d	-0.010956404
17	0x3c322cc6	0.010874933
18	0x3c6e5c8b	0.014548431
19	0x3c200f3c	0.009769257
20	0xbc00ee67	-0.00786934
21	0xbd12c882	-0.03583575
22	0x3cbb47c7	0.022861375
23	0xbcaebd29	-0.021330433
24	0xbbe918ba	-0.0071135433
25	0x3d45bec0	0.048277617
26	0xbd910fa4	-0.07083061
27	0xbc582a91	-0.013193742
28	0x3c8ea29a	0.017411519
29	0xbb132c65	-0.002245688
30	0xbdc2ccdc	-0.0951173
31	0x3d5e4586	0.05426552
32	0xba4ab976	-0.00077333243
33	0x3c1ead75	0.00968491
34	0xbdb1fe49	-0.08691079
35	0x3cb98261	0.022645177
36	0xbd029e78	-0.03188941
37	0x3c6e5ffa	0.01454925
38	0x3e36e527	0.17860852
39	0x3e1a818d	0.15088482

dense_7/bias f4 [40]
0	0x3cce6344	0.025193818
1	0xbd072cb8	-0.03300163
2	0x3d761d6e	0.06008666
3	0x3ec32415	0.38113466
4	0xbcd7e506	-0.026354324
5	0xbca89ea0	-0.02058345
6	0xbd0c6147	-0.03427246
7	0x3d9d53d3	0.07682004
8	0x3d24e3ab	0.040256184
9	0x3d9ede2c	0.0775722
10	0x3ea89ee7	0.32933733
11	0xbca40d62	-0.020025913
12	0x3eaed2f3	0.34145316
13	0x3c606da0	0.013698012
14	0x3d158076	0.036499463
15	0x3e12de18	0.14342535
16	0xbc28a706	-0.010293728
17	0xbd2e5096	-0.04255732
18	0x3d85d506	0.065347716
19	0x3e2508e2	0.1611667
20	0x3ea0d8b2	0.31415325
21	0x3dcb9d57	0.099421196
22	0x3d241854	0.040062264
23	0x3d941304	0.072301894
24	0x3d157142	0.036484964
25	0x3d9c82bc	0.07642123
26	0x3e912695	0.28349748
27	0xbbf50cf8	-0.0074783526
28	0x3e20b7f8	0.15695179
29	0x3c98cbff	0.01865196
30	0x3d97f73b	0.07420202
31	0x3e4ac33b	0.19801037
32	0x3cac1f29	0.021010952
33	0x3ba305b9	0.0049750474
34	0x3dc0c3f0	0.09412372
35	0x3c51ef48	0.012813397
36	0x3dc49830	0.0959934
37	0xbcc52631	-0.024066063
38	0x3df9fcd1	0.12206424
39	0xbd16a86e	-0.03678172

dense_6/bias f4 [36]
0	0x3db6dec4	0.08929208
1	0x3db1f03f	0.086884014
2	0xbca9cbb4	-0.020727016
3	0x3bbf5247	0.0058386656
4	0xbb410d86	-0.0029457523
5	0xbb03ceed	-0.002011235
6	0xbbf34361	-0.0074238037
7	0xba295ed6	-0.000646097
8	0x39552500	0.00020327047
9	0xba0293c4	-0.0004981125
10	0xbc25d39d	-0.010121253
11	0xba824b5b	-0.000994067
12	0x3e4b326e	0.19843456
13	0xbe64f0f7	-0.22357546
14	0x3c23193a	0.009954745
15	0xbbd3a15d	-0.006458445
16	0x3c02682c	0.007959407
17	0xb9aa347d	-0.00032464034
18	0x3bb6c679	0.005577859
19	0xbbfbddf6	-0.007686372
20	0x3ae79f74	0.0017671422
21	0xbaeca428	-0.0018054293
22	0xbb7e7226	-0.0038825362
23	0xbbe70614	-0.007050285
24	0x3e059b5f	0.1304755
25	0x3d1b2abe	0.03788256
26	0xbc0e9e03	-0.008704665
27	0xbb5da002	-0.0033817296
28	0x3ab22478	0.0013591191
29	0xba9fdfe2	-0.001219746
30	0xbbdbcc6c	-0.0067077186
31	0x3c2be14b	0.010490726
32	0x3b884d52	0.004159608
33	0x3bc2398a	0.0059272693
34	0xb91d36e0	-0.0001499313
35	0xbbd20bfe	-0.006410121

dense_5/bias f4 [40]
0	0x3c82eb5d	0.01598137
1	0x3cc628b9	0.02418934
2	0x3e842f50	0.25817347
3	0x3c755327	0.014973438
4	0xbc99d2a4	-0.0187772
5	0xbcde8c4e	-0.027166512
6	0xbd0dac97	-0.034588423
7	0xbbf4a5d1	-0.007466056
8	0xbcdead20	-0.027182162
9	0xbd3a6637	-0.045507636
10	0xbce1c8bb	-0.027561536
11	0x3c86ca29	0.01645382
12	0xbd1c8260	-0.038210273
13	0x3ca25266	0.019814681
14	0xbd36dd55	-0.044644672
15	0xbd534a78	-0.05158469
16	0xbcb56fb8	-0.022147998
17	0xbc02ae72	-0.007976161
18	0xbcf561d2	-0.02995387
19	0x3ce44162	0.027863208
20	0xbd1a2478	-0.037632436
21	0xbcc0f00c	-0.023551963
22	0x3d4da814	0.05020912
23	0xbcc32320	-0.02382046
24	0xbd2e2b6f	-0.04252189
25	0xbd21c570	-0.03949493
26	0xbb41b264	-0.0029555792
27	0xbd4530cf	-0.04814225
28	0xbd5f5e9b	-0.054533582
29	0xbd281d44	-0.041043535
30	0xbd50a17b	-0.05093525
31	0xbd2b6acd	-0.0418499
32	0xbab4e60c	-0.001380147
33	0xbce86673	-0.028369164
34	0x3e6c77dd	0.23092599
35	0xbd676a3c	-0.056497797
36	0xbd40ddb7	-0.047086444
37	0xbc83060f	-0.0159941
38	0xbc8db954	-0.017300285
39	0x3c8fb236	0.017541032

dense_4/bias f4 [40]
0	0x3d0cc9a2	0.03437198
1	0x3c0c67ec	0.008569699
2	0x3c7dd490	0.015492573
3	0x3e90a3c5	0.28249946
4	0x3caad8d5	0.020855347
5	0xbca85ed1	-0.020553024
6	0xbbb95710	-0.0056561306
7	0xbac2f795	-0.0014874811
8	0xbd7e3e8a	-0.06207136
9	0xbd4e631b	-0.050387483
10	0xbd2fcbfe	-0.04291915
11	0xbd118c86	-0.035534404
12	0x3ca60871	0.020267697
13	0x3e54d138	0.20782936
14	0xbcff76b5	-0.031184534
15	0x3d0b8b35	0.034068305
16	0x3c254c91	0.010089056
17	0xbd71f8e3	-0.059075247
18	0xbd2ae122	-0.04171861
19	0x3e674b98	0.2258743
20	0x3e040339	0.12891854
21	0xbd8a0605	-0.067394294
22	0xbd31ecf7	-0.043438878
23	0x3cd23c51	0.025663527
24	0xbd318e5d	-0.04334866
25	0x3d342070	0.043976247
26	0xbc2bd743	-0.010488334
27	0xbcc8830d	-0.024476552
28	0x3cda9576	0.026682597
29	0xbc56675d	-0.013086167
30	0x3cb25848	0.021770611
31	0xbca4e6ec	-0.020129643
32	0xbd03e1e8	-0.032197863
33	0xbcf3366c	-0.029689036
34	0x3d65ce3d	0.056104887
35	0x3d254edb	0.040358406
36	0x3c78d1bd	0.015186724
37	0xbd347746	-0.04405906
38	0xbc467d78	-0.012114875
39	0xbd42affc	-0.047531113

dense_3/bias f4 [40]
0	0x3ec3c239	0.38234118
1	0x3d86e1ce	0.065860376
2	0x3e1eedcb	0.15520398
3	0x3d23ef5c	0.040023193
4	0x3eb4fd3e	0.35349458
5	0xbcf0fda7	-0.029417826
6	0x3e598823	0.21243338
7	0xbc83bd27	-0.016081406
8	0x3d4024bb	0.04691003
9	0xbc190460	-0.009339422
10	0xbc0d74c9	-0.008633801
11	0x3d10aa1f	0.03531849
12	0x3d8adae3	0.067800306
13	0x3d0e613e	0.034760706
14	0xbd50d05d	-0.05097996
15	0xbb7e271a	-0.003878063
16	0xbd538e9e	-0.051649682
17	0x3d4fe57a	0.050755955
18	0x3d6ebeca	0.05828742
19	0xbc96a0e2	-0.018387262
20	0x3ea6872f	0.32525012
21	0xbd207803	-0.039176952
22	0x3df06d16	0.117395565
23	0x3e8f72b0	0.28017187
24	0x3c8b65fb	0.017016402
25	0xbc4f3a60	-0.012648195
26	0x3e0c8886	0.13723955
27	0xbbd025ba	-0.0063521536
28	0x3c3ef317	0.011654637
29	0x3c4bf77f	0.012449144
30	0x3dc2b243	0.09506657
31	0xbd0f03b4	-0.03491564
32	0xbc9e8d05	-0.019354353
33	0xbc7cb779	-0.015424603
34	0x3d6fa6cf	0.05850869
35	0x3e45e419	0.19325294
36	0xbb9b5ce3	-0.0047412976
37	0x3e8805ef	0.26567027
38	0xbc95ca32	-0.01828489
39	0x3f1a858c	0.60360026

dense_22/bias f4 [45]
0	0x3d52ae48	0.05143574
1	0xbbdbd6b3	-0.0067089438
2	0xbcdb9993	-0.026806628
3	0x3b37c516	0.0028041056
4	0x3aa91ef6	0.0012902904
5	0x3b1868f3	0.0023255914
6	0xbc3e170a	-0.011602173
7	0xbb437a59	-0.0029827564
8	0x3c221947	0.009893722
9	0x3b647de9	0.0034865087
10	0xbb6bfafe	-0.0036007757
11	0xbb80724c	-0.0039198752
12	0x3f539cb8	0.8266101
13	0xbcd7285a	-0.026264358
14	0xbdad494d	-0.08461247
15	0x3d1f7d4b	0.038937848
16	0xbc74041d	-0.014893559
17	0x3a257dea	0.0006313013
18	0xb9a9754c	-0.00032321585
19	0x3bdf1754	0.006808201
20	0xbb926c13	-0.00446845
21	0x3b8a943e	0.0042290976
22	0x3bf6cc9e	0.0075317165
23	0xbbcbe31a	-0.006222141
24	0x3b90645b	0.0044064946
25	0x3bb8a67e	0.005635082
26	0xbac8e67b	-0.0015327478
27	0x3dc73c77	0.0972833
28	0x3ec820c2	0.39087492
29	0xbe5bad3c	-0.21452802
30	0x3c9d52e3	0.019204563
31	0xbc564226	-0.013077294
32	0x3bc7da3e	0.0060990145
33	0x399ce960	0.00029928517
34	0x3a9c9058	0.0011944873
35	0x3ab87094	0.0014071637
36	0xbc3fc9a8	-0.011705793
37	0x3a11faa2	0.0005568658
38	0x3bf23667	0.007391739
39	0x3b8a52e6	0.004221308
40	0x3a392d38	0.0007063928
41	0x3923e998	0.00015631912
42	0xbc2205f4	-0.009889115
43	0xbe205583	-0.1565762
44	0x3ec37bcd	0.3818039

dense_21/bias f4 [40]
0	0xbc9229e9	-0.01784225
1	0xbb481b40	-0.003053382
2	0x3c5363dd	0.012902227
3	0xbc56ca3e	-0.013109742
4	0xbcd50b81	-0.026006462
5	0x3cb0c092	0.0215762
6	0xbb8e41d1	-0.004341342
7	0xbd30f2e2	-0.04320038
8	0xbaf2c1ef	-0.0018520931
9	0x3c3c6bcd	0.011500311
10	0xbcf46dc2	-0.029837493
11	0x3d8a053d	0.067392804
12	0x3c4df2cd	0.012570095
13	0xbd734471	-0.059391443
14	0x3c785c9e	0.0151588
15	0xbd50db53	-0.050990414
16	0xbc992507	-0.018694414
17	0xbd09688c	-0.03354697
18	0xbb39132a	-0.0028240182
19	0x3e114dd9	0.14189853
20	0xb9c7a6d5	-0.00038080537
21	0x3e5f7d1b	0.21825068
22	0x3c33fa1c	0.010984924
23	0xbd669c0f	-0.056301173
24	0x3cd88428	0.026430205
25	0x39809241	0.0002452303
26	0xbc875a88	-0.01652266
27	0xbb185661	-0.0023244845
28	0xbc68a393	-0.014199155
29	0x3bc1352e	0.005896232
30	0x3da6e4e1	0.08149124
31	0xbd841343	-0.064489864
32	0xbcf09199	-0.029366301
33	0xbd1fbc6f	-0.038998064
34	0x3c3f975c	0.011693802
35	0xbcaa98ce	-0.020824816
36	0xbcd381f2	-0.025818799
37	0xbd04c4a6	-0.0324141
38	0xbb3d02db	-0.0028840813
39	0xbcbd5768	-0.023112968

dense_20/bias f4 [40]
0	0xbc83ce99	-0.016089724
1	0xbd05af9f	-0.03263819
2	0x3db12233	0.08649101
3	0xbb7f4722	-0.003895231
4	0x3d8b7e09	0.06811149
5	0x3b5b93e3	0.0033504895
6	0xbc8d1d29	-0.017225819
7	0xbd85e047	-0.06536918
8	0xbacfa2e8	-0.0015841397
9	0x3d898df1	0.06716526
10	0x3df76ae9	0.12080938
11	0x3cdf0bfe	0.027227398
12	0x3ca5b11b	0.020226052
13	0x3d6f6c0d	0.058452655
14	0xbc2ed520	-0.01067093
15	0x3c0a68aa	0.008447805
16	0x3c63034f	0.013855769
17	0xbd184367	-0.037173655
18	0x3e3db0de	0.185245
19	0xbd4b3d23	-0.04961885
20	0x3d555f77	0.052092995
21	0x3c75fbfd	0.015013692
22	0x3d9de190	0.07709038
23	0x3b92892b	0.004471918
24	0xbd480b0d	-0.048838664
25	0x3e0fd023	0.14044242
26	0x3c666c71	0.01406394
27	0x3c460b48	0.012087651
28	0xbc9e2f54	-0.019309677
29	0x3d942a08	0.07234579
30	0xbd144361	-0.03619707
31	0x3d44adbc	0.04801725
32	0x3c84786b	0.016170701
33	0xbd7ef699	-0.062246893
34	0x3d9f26aa	0.077710465
35	0x3d192106	0.03738501
36	0xbd0f7010	-0.03501898
37	0x3cfddaf1	0.030988188
38	0x3df7c7d2	0.120986596
39	0xbd2d2e70	-0.042280614

dense_2/bias f4 [40]
0	0x3e1a3086	0.15057573
1	0x3e06b561	0.13155128
2	0x3da27348	0.079321444
3	0xbd252e58	-0.0403274
4	0xbd0e0030	-0.034668148
5	0x3ca77c1f	0.020444928
6	0xbdcf80f9	-0.101320215
7	0x3ddfbe41	0.1092496
8	0x3dc9f98a	0.09862049
9	0xbca1697c	-0.01970362
10	0xbc82b712	-0.015956435
11	0x3d9bf8ab	0.07615789
12	0x3e39e9f5	0.18155654
13	0x3d93d367	0.07218056
14	0xbd176832	-0.036964603
15	0xbd2b588c	-0.04183249
16	0xbc42c3e0	-0.011887521
17	0x3e099953	0.13437395
18	0x3e16ef57	0.14739738
19	0xbb889905	-0.004168632
20	0xbd390b68	-0.045176893
21	0x3d32db0d	0.043665934
22	0x3bd11439	0.0063805846
23	0x3b9a0ed8	0.0047014765
24	0x3d9e4e0e	0.077297315
25	0x3e0d401c	0.13793987
26	0x3bcb6d13	0.006208071
27	0x3dfb0574	0.122568995
28	0xbe0a4946	-0.13504514
29	0x3e3c2043	0.18371682
30	0xbb954f28	-0.0045565553
31	0x3e20f1f9	0.15717305
32	0xbdc8e277	-0.0980882
33	0xbcecf9e0	-0.028927743
34	0xbd6970f2	-0.05699248
35	0xbcd56fd6	-0.026054304
36	0x3dbdb84d	0.09263668
37	0xbbb3f808	-0.005492214
38	0x3dc2c351	0.0950991
39	0xbc67f09c	-0.014156487

dense_19/bias f4 [40]
0	0x3c3365fb	0.010949607
1	0xbcee8b8d	-0.029119277
2	0xbc4fc88d	-0.012682092
3	0x3e84b666	0.2592041
4	0xbac603b4	-0.0015107305
5	0x3d5ace3c	0.053419337
6	0x3dd5c568	0.10438043
7	0xb8fd6911	-0.0001208355
8	0x3bca1db5	0.006168092
9	0x3d0471c9	0.032335076
10	0x3df4408d	0.119263746
11	0x3d54a455	0.05191453
12	0x3eb2b97a	0.34907132
13	0x3dd52398	0.104071796
14	0x3ca439e1	0.02004713
15	0xbd0dba9e	-0.0346018
16	0x3da7e3f4	0.081977755
17	0x3eb13806	0.34613055
18	0xbd9110ee	-0.07083307
19	0x3db9a664	0.090649396
20	0x3d98d4a9	0.07462437
21	0x3ec67bb2	0.38766247
22	0x3d04f9a8	0.032464653
23	0x3cfa9142	0.030586842
24	0xbd354603	-0.04425622
25	0x3b91a530	0.0044447407
26	0x3da8cb56	0.08241908
27	0x3e9c35ba	0.3050974
28	0xbc911dad	-0.017714346
29	0xbda66923	-0.08125522
30	0x3e29eefc	0.16595072
31	0xbd4c6279	-0.0498986
32	0x3db4d4db	0.088296615
33	0x3de897b5	0.11357061
34	0xbcd9c5b4	-0.02658353
35	0x3cf8f1df	0.03038877
36	0x3d37cc2e	0.044872455
37	0x3d3491c4	0.044084325
38	0x3db15269	0.086582966
39	0x3d8872c2	0.06662513

dense_18/bias f4 [45]
0	0x3dd4fc6e	0.1039971
1	0x3cb73ed7	0.022368832
2	0xba90aacd	-0.0011037231
3	0x3a94c6c8	0.0011350745
4	0xbb61a1cf	-0.003442872
5	0x3aeed0aa	0.0018220146
6	0x3b3effb1	0.0029144103
7	0x3a46820a	0.0007572478
8	0x3bc50fd9	0.006013852
9	0xba73fb8f	-0.00093071995
10	0x3be66e2b	0.007032176
11	0xbbc3c934	-0.005974913
12	0x3f4aa580	0.7915878
13	0x3d5ac0ca	0.053406514
14	0xbd259939	-0.040429328
15	0x3d8ed4a5	0.069741525
16	0xbd28b83d	-0.04119133
17	0x3a0bbacc	0.0005330264
18	0xbc490eec	-0.012271624
19	0x3b7fd440	0.0039036423
20	0xb823aee8	-3.9025123e-05
21	0x3a6b515a	0.0008976661
22	0xbb9fd070	-0.0048771426
23	0x3b45e1cf	0.0030194407
24	0xbb8f2928	-0.00436892
25	0x3b4d82ee	0.0031358558
26	0xbb408d27	-0.0029381008
27	0x3d00df8e	0.0314632
28	0x3ec0a4d0	0.37625742
29	0xbdeceb25	-0.11568288
30	0x3d313da3	0.043271672
31	0x3c992b70	0.01869747
32	0xbcafcd77	-0.021460278
33	0x3b2c7449	0.0026314429
34	0xbbf85a8d	-0.007579154
35	0x3ae5c7c4	0.0017530848
36	0xbb9e508c	-0.0048313793
37	0x3ac34560	0.0014897995
38	0x391b1108	0.00014788297
39	0x3bf08ba9	0.0073408675
40	0xbc124b7e	-0.008929132
41	0xbb1fd9f4	-0.0024391385
42	0xbd72fd47	-0.059323575
43	0xbe348e68	-0.17632449
44	0x3eb52016	0.35376042

dense_17/bias f4 [40]
0	0xbd25246f	-0.04031795
1	0xbc959830	-0.018261045
2	0xbd8c7689	-0.06858546
3	0xbd8d0111	-0.06884969
4	0xbd80ba7f	-0.06285571
5	0x3bd5ae77	0.006521042
6	0xbd0fe232	-0.035127826
7	0xbce50462	-0.027956191
8	0x3c0997b7	0.008397988
9	0xbd586adc	-0.052836284
10	0x3e6ff6bc	0.23433965
11	0xbd2d0d47	-0.04224899
12	0xbd5714f7	-0.052510228
13	0xbd2e79c3	-0.04259659
14	0xb930a37a	-0.00016845568
15	0x3bbde4f3	0.005795115
16	0xbb54dc57	-0.0032479966
17	0xbd78a4db	-0.060704093
18	0xbd1cbdd7	-0.038266983
19	0x3bd1e1c6	0.006405088
20	0xbd2676ca	-0.04064063
21	0xbbe844c6	-0.0070882766
22	0xbd08cf45	-0.033400793
23	0xbcc98488	-0.024599329
24	0xbad0edbd	-0.0015939992
25	0xbd235d0d	-0.039883662
26	0xbcceb87d	-0.025234455
27	0x3c0fa722	0.008767875
28	0xba101f45	-0.00054978236
29	0xbd28f132	-0.041245647
30	0x3c3246c0	0.010881126
31	0x3d3357bd	0.043784846
32	0x3d231549	0.03981522
33	0xbc617054	-0.013759691
34	0x3bead79e	0.007166817
35	0x3cc1ec40	0.023672223
36	0x3c3fc659	0.011705005
37	0xbccb5c19	-0.024824189
38	0xbd3608c7	-0.044441964
39	0x3dcbda19	0.09953708

dense_16/bias f4 [40]
0	0xbc2af60e	-0.010434641
1	0xbce8cff4	-0.028419472
2	0x3e5da2ce	0.21644136
3	0x3bc5d733	0.0060376166
4	0xbd80ebca	-0.06294973
5	0x3cca2549	0.024675982
6	0x3c080ae8	0.0083033815
7	0xbd0e9d55	-0.034818012
8	0x3c9365df	0.017992912
9	0xbd276f65	-0.04087772
10	0xbd7ae324	-0.061251774
11	0xbc9efb61	-0.019406976
12	0x3e0b79d2	0.1362069
13	0xbd286332	-0.041110225
14	0xbcd2b7f3	-0.02572248
15	0xbd82bb16	-0.0638334
16	0x3cfac35c	0.030610733
17	0xbcf7b11e	-0.030235823
18	0x3d158226	0.036501072
19	0x3b3712ea	0.0027934858
20	0xbced101b	-0.028938344
21	0x3e5b06e2	0.21389344
22	0xbd2c50d9	-0.04206929
23	0x3d9e1fc9	0.07720906
24	0xbbe4d2ee	-0.0069831526
25	0x3d3f9e1f	0.046781655
26	0x3ca4f838	0.020137891
27	0xbd4f0d96	-0.050550066
28	0xbdac1783	-0.08402922
29	0x3b1eb1e8	0.0024214927
30	0xbcc67e72	-0.024230216
31	0x3db3957d	0.08768747
32	0x3d59bb46	0.053157113
33	0x3df48b32	0.11940612
34	0xbcae6324	-0.021287508
35	0xbd035e9d	-0.032072652
36	0x3dbcc73f	0.09217691
37	0x3e87bc48	0.26510835
38	0x3d23069a	0.039801218
39	0x3c71311e	0.014721183

dense_15/bias f4 [40]
0	0xbc9757b6	-0.018474441
1	0x3c9b62a9	0.018967943
2	0x3dc3dfb8	0.09564155
3	0x3daf71d6	0.08566634
4	0x3e0c3129	0.13690628
5	0x3e1cf392	0.1532729
6	0x3d2a97ab	0.041648548
7	0x3e310e97	0.17290722
8	0xbbd75ed0	-0.006572582
9	0xbd1d8466	-0.038456343
10	0x3a1360a1	0.0005622004
11	0xbcc51b13	-0.024060762
12	0x3d49fc9d	0.049313176
13	0x3c5d20fd	0.013496635
14	0x3cb61c43	0.022230273
15	0xbd380f85	-0.044936676
16	0x3e06f073	0.13177662
17	0x3ca86fd5	0.020561138
18	0xbcbc4c8c	-0.02298572
19	0x3dc58e39	0.096462674
20	0x3ec0dcfb	0.37668595
21	0x3da80d87	0.08205705
22	0x3e08ee95	0.13372262
23	0xbcbe1a79	-0.023205983
24	0x3e62b689	0.22139944
25	0xbc2b2982	-0.010446908
26	0x3d409d9c	0.047025308
27	0x3e93d251	0.28871396
28	0xbcc765cf	-0.024340538
29	0xbc80abb5	-0.015706876
30	0x3b504833	0.0031781315
31	0x3de3f97e	0.11131571
32	0x3c016735	0.007898142
33	0x3d3b3452	0.045704193
34	0xbd52d248	-0.05147007
35	0x3d04eb78	0.032451123
36	0xbd722f2d	-0.05912702
37	0x3d06d53b	0.032918196
38	0xbcb59655	-0.02216641
39	0xbc61575d	-0.013753739

dense_14/bias f4 [45]
0	0x3e4b8692	0.19875553
1	0x3d9f1e8d	0.07769499
2	0x3dc8b1c6	0.097995326
3	0xbbeaf38c	-0.0071701463
4	0xbba1799b	-0.0049278266
5	0xbbf27947	-0.0073997113
6	0xbbeab038	-0.00716212
7	0x3a90935b	0.0011030243
8	0x3b049e22	0.0020235856
9	0x3b97dce2	0.0046344856
10	0x3aefb400	0.0018287897
11	0xbbb1d28b	-0.00542671
12	0x3ee8adda	0.45445138
13	0x3d1a4319	0.037661646
14	0x3d6a411b	0.057190996
15	0x3df67a94	0.12035099
16	0xbd7d5643	-0.061849844
17	0x3b2991a2	0.0025874157
18	0xbb95b2c8	-0.0045684315
19	0x3b99a6d3	0.0046890764
20	0xbc01c20a	-0.007919798
21	0x3b8a6544	0.0042234976
22	0x3c146a49	0.0090585435
23	0x3b8a4ba6	0.004220444
24	0xbb22924e	-0.0024806443
25	0x3b86e8c0	0.0041171014
26	0xb91d226a	-0.00014985507
27	0xbc977372	-0.018487666
28	0x3ecde9d2	0.40217453
29	0xbde7a70f	-0.11311161
30	0x3d75d14b	0.06001405
31	0x3cc86204	0.0244608
32	0xbbfde6a7	-0.007748443
33	0xbb96f434	-0.004606748
34	0xbae91e67	-0.001778555
35	0x39a87fe0	0.0003213873
36	0x3b572ec2	0.0032834266
37	0xbc5517ea	-0.01300619
38	0xbb2cfd83	-0.0026396222
39	0x39679a87	0.00022087443
40	0x3a27b2e3	0.00063972006
41	0xbb0c14c6	-0.0021374687
42	0xbbaa8806	-0.0052042035
43	0xbe4d88f6	-0.20071778
44	0x3eb995a8	0.3624699

dense_13/bias f4 [40]
0	0xbd97f151	-0.07419074
1	0xbb9f4101	-0.004860044
2	0xbd0a7b29	-0.03380886
3	0xbce9cc2d	-0.028539741
4	0x3df88a34	0.12135735
5	0xbd0ca7b6	-0.03433963
6	0xbd2fa994	-0.04288633
7	0xbd5ba8eb	-0.05362789
8	0xbcda33d0	-0.026636034
9	0xbd13d2bf	-0.036089655
10	0xbc600787	-0.01367367
11	0xbc836ff1	-0.016044589
12	0x3b99ef15	0.0046976903
13	0x3d3243fb	0.043521862
14	0xbd182cf7	-0.037152257
15	0x3cc2758a	0.023737688
16	0xbca27e76	-0.019835692
17	0xbbcfd7f6	-0.006342883
18	0xbcc703fb	-0.02429389
19	0x3e84738c	0.25869405
20	0xbd1d868b	-0.03845839
21	0xbc3e47f6	-0.0116138365
22	0x3b70e015	0.0036754657
23	0xbd1f86d9	-0.03894696
24	0x3d7cc5ec	0.06171219
25	0xbc9c41fd	-0.019074434
26	0x3be1fb75	0.006896431
27	0xbce8973a	-0.028392423
28	0xbd01b3b0	-0.031665504
29	0x3ba2ebe1	0.0049719666
30	0x3d837c56	0.064201996
31	0xbc68f960	-0.014219612
32	0xbc082f56	-0.008312067
33	0x3e226d4f	0.1586201
34	0x3ad80013	0.0016479514
35	0xbcc49b84	-0.023999937
36	0xbcfa2a46	-0.030537736
37	0x3d574617	0.052557077
38	0x3dfb314b	0.12265261
39	0x3d829a2c	0.06377062

dense_12/bias f4 [40]
0	0x3e0e111b	0.13873713
1	0xbaf06126	-0.0018339499
2	0x3cde370a	0.027125854
3	0xbd88ba0b	-0.0667611
4	0xbd06fd6b	-0.032956522
5	0xbd6be09b	-0.057587247
6	0xbb07ee87	-0.0020741539
7	0xbd389e43	-0.045072805
8	0x3cf888d5	0.030338684
9	0x3b284b03	0.0025679476
10	0x3cfe734a	0.031060833
11	0xbd06c4b2	-0.032902427
12	0xbc507b76	-0.012724748
13	0x3e8591f5	0.2608792
14	0x3c0b94c2	0.008519353
15	0x3e8915e7	0.26774523
16	0xbd1386e4	-0.036017314
17	0xbd219179	-0.039445374
18	0x3d12a168	0.03579846
19	0xbd128819	-0.035774324
20	0x3d17851b	0.036992174
21	0xbd274287	-0.04083493
22	0xbbc8da97	-0.0061295736
23	0xbd30658b	-0.04306559
24	0xbc5dc503	-0.013535741
25	0xbd308639	-0.043096755
26	0x3c0a7adb	0.008452143
27	0x3cef88e3	0.029240077
28	0x3dae661f	0.08515572
29	0x3bb84859	0.005623859
30	0x3c131d8c	0.0089792125
31	0x3e90275b	0.28155026
32	0x3cdb0aaa	0.026738483
33	0x3c75fb35	0.015013506
34	0xbd0da851	-0.034584347
35	0x3be7f5f2	0.0070788795
36	0xbd72f547	-0.059315946
37	0x3e3e827e	0.18604466
38	0x3e7962c7	0.24354087
39	0xbc837102	-0.016045097

dense_11/bias f4 [40]
0	0x3d659280	0.056047916
1	0xbc8a4b70	-0.016881675
2	0x3cce6b0f	0.025197534
3	0x3cc80e70	0.024420947
4	0x3d80e97e	0.06294535
5	0x3de8391b	0.11339017
6	0xbc727858	-0.0147992
7	0x3e330ab6	0.17484555
8	0xbc9592f8	-0.018258557
9	0x3e481e41	0.19542791
10	0x3d13dacf	0.036097344
11	0xbc8c1ee4	-0.017104574
12	0x3cb04aa0	0.021519959
13	0x3d3cbb4c	0.046077058
14	0x3e64333d	0.22285171
15	0x3e708129	0.2348677
16	0x3d166e7c	0.03672646
17	0x3cf603df	0.030031143
18	0x3c67c0bb	0.014145072
19	0xbcb5fc27	-0.022214962
20	0xbd17ec45	-0.03709056
21	0xbcef0685	-0.029177913
22	0x3d956478	0.072945535
23	0x3d10d02c	0.03535478
24	0x3db9ce91	0.090726025
25	0x3e0a4f6f	0.13506864
26	0xbd2d69aa	-0.042337097
27	0x3de1875b	0.11012145
28	0xbd96c8e1	-0.07362533
29	0x3c2c8cfd	0.010531661
30	0x3e0d2112	0.13782147
31	0x3d2deef1	0.0424642
32	0x3ea57eee	0.32323402
33	0xbccb6b8f	-0.024831561
34	0x3d84bf10	0.06481755
35	0x3b88008f	0.004150457
36	0xbd0751ed	-0.033037115
37	0x3e0080cd	0.12549134
38	0x3d35943d	0.044330824
39	0x3c92a303	0.017899996

dense_10/bias f4 [45]
0	0x3e2f8159	0.17139186
1	0x3dd9642d	0.1061481
2	0x3b3a4046	0.0028419658
3	0xba756a8c	-0.0009361885
4	0xbb163722	-0.0022921045
5	0xbab06524	-0.0013457877
6	0x39afd056	0.00033533823
7	0x3c08ae90	0.0083424
8	0x3ba22f25	0.0049494677
9	0xbb20b613	-0.0024522587
10	0xba1f1cf2	-0.0006069682
11	0xbbb71b0b	-0.0055879406
12	0x3ea673fd	0.32510367
13	0x3e0fe068	0.14050448
14	0x3d762cd0	0.06010133
15	0x3e3607e1	0.17776443
16	0xbe14e437	-0.14540182
17	0x3ced2bb5	0.028951505
18	0x3b95dd0f	0.0045734714
19	0x39ae1718	0.00033205072
20	0x3a8f3333	0.0010925293
21	0x3bb078e1	0.0053855036
22	0xbbd078d1	-0.0063620587
23	0xbbc4d6b7	-0.0060070413
24	0x3ba2a269	0.0049632085
25	0xbc033f50	-0.0080107
26	0x3c0fb911	0.008772151
27	0xbda652d5	-0.08121268
28	0x3ea51e63	0.32249746
29	0xbdb1cb1d	-0.08681319
30	0x3dca576e	0.09879957
31	0x3c3e790f	0.011625542
32	0xbd1587bc	-0.0365064
33	0xbb5b0fb2	-0.0033426103
34	0x39bc9e62	0.0003597616
35	0xbb8af7c9	-0.004240964
36	0xbacd4041	-0.0015659408
37	0xbb096b24	-0.0020968402
38	0x3b07bbcb	0.0020711299
39	0xbb2e9496	-0.0026638857
40	0xbabe578d	-0.0014521942
41	0x3b14392c	0.0022617085
42	0x3c7e53ed	0.015522939
43	0xbdf9afe1	-0.12191749
44	0x3e7f337f	0.24921988

dense_1/bias f4 [40]
0	0xbc30017a	-0.01074254
1	0x3dd0d646	0.101971194
2	0x3d1160cb	0.0354927
3	0xbcc2c40b	-0.023775121
4	0x3d71c2d7	0.059023704
5	0xbcb15bd8	-0.02165024
6	0xba9109fb	-0.0011065596
7	0x3c1fdcf7	0.009757272
8	0x3d6523fc	0.05594252
9	0xb9dcc497	-0.0004210814
10	0x3e579e67	0.2105652
11	0x3d0d7f3a	0.03454516
12	0x3c9e2a92	0.019307408
13	0x3dccdcb4	0.10003033
14	0xbd2a178e	-0.04152637
15	0x3caa0ecb	0.020759007
16	0x3d86af12	0.06576361
17	0xbca4ac77	-0.020101769
18	0xbc433e8a	-0.011916766
19	0x3dff0499	0.12452049
20	0xbc21b1d3	-0.009869057
21	0x3d98992b	0.074510895
22	0xbc38bf81	-0.011276127
23	0xbad4dfb6	-0.0016240987
24	0xbd1c9844	-0.03823115
25	0x3baa17d8	0.0051908307
26	0x3e53d3c3	0.2068625
27	0x3d3bbc50	0.045833886
28	0x3ba59277	0.0050528604
29	0x3cc7527e	0.024331328
30	0x3e200f29	0.15630783
31	0xbcc7071d	-0.024295384
32	0x3e156f31	0.14593197
33	0x3cdc2116	0.026871245
34	0x3e44590a	0.1917459
35	0xbcb8b93e	-0.022549268
36	0xbd05c851	-0.03266174
37	0x3df0a8d4	0.117509514
38	0xbd3c6b8e	-0.04600101
39	0xbc982fab	-0.018577417

dense/bias f4 [40]
0	0x3b983238	0.0046446584
1	0x3e7503bd	0.23927207
2	0x3d4f68f4	0.0506372
3	0xbdd14d70	-0.10219848
4	0x3d0996e3	0.033591162
5	0x3ec29a66	0.38008422
6	0x3e4243b2	0.18971136
7	0x3e1c14be	0.15242288
8	0x3e8978ea	0.26850063
9	0x3cd83eeb	0.02639719
10	0x3d82bd1f	0.06383728
11	0x3e1e8689	0.15481009
12	0x3daf77ce	0.08567773
13	0x3e4e8392	0.20167378
14	0x3e1b8154	0.15186054
15	0x3e0723a4	0.1319719
16	0xbc518817	-0.012788794
17	0x3d841ba2	0.06450583
18	0xba144b1a	-0.0005656943
19	0x3d04c29f	0.032412168
20	0x3e918442	0.28421217
21	0xbd43ddd3	-0.04781897
22	0xbd8dea9a	-0.06929512
23	0x3e948b47	0.2901251
24	0x3d025e1b	0.031828027
25	0xbd515410	-0.05110556
26	0x3e93a226	0.28834647
27	0x3e568d73	0.20952396
28	0x3d3401ff	0.043947216
29	0x3e1d8861	0.15384056
30	0x3c90bdf5	0.017668704
31	0x3da8fd7d	0.08251474
32	0x3d94b958	0.07261914
33	0x3dcfb2d2	0.10141529
34	0xbcb4222e	-0.021988954
35	0x3d7341c7	0.059388902
36	0x3e165fe6	0.1468502
37	0x3df1340e	0.11777507
38	0x3e0779c7	0.13230048
39	0x3d23c256	0.039980255

bias/bias f4 [15]
0	0x3d9347de	0.07191442
1	0x3da3a963	0.07991292
2	0x3d60608b	0.05477957
3	0x3e6710cd	0.22565003
4	0x3cfd5de1	0.030928554
5	0x3d133df5	0.03594776
6	0x3e547f77	0.20751749
7	0x3d89b852	0.067246094
8	0xbd454c91	-0.048168723
9	0x3debe0c2	0.115174785
10	0xbd08f56e	-0.033437185
11	0x3db3d133	0.08780136
12	0x3dc36225	0.09540204
13	0xbbbf4931	-0.0058375825
14	0xbd97c613	-0.074108265

model_1/dense_11/MatMul f4 [40, 15]
0	0xb7f44c4b	-2.9122593e-05
1	0xb62eac0c	-2.6028165e-06
2	0xb785930c	-1.592331e-05
3	0xb7847fce	-1.579514e-05
4	0x390588ca	0.00012734826
5	0xb894df70	-7.0988084e-05
6	0xb77e7aed	-1.5168201e-05
7	0x358c9a74	1.0475765e-06
8	0x373b0a18	1.1148419e-05
9	0x390afc02	0.00013254586
10	0xb8562ef4	-5.1065304e-05
11	0xb8052afa	-3.1749696e-05
12	0xb82f06ba	-4.1729516e-05
13	0xb8892cf2	-6.541041e-05
14	0xb895475d	-7.118166e-05
15	0x37b0c782	2.1073738e-05
16	0xb75205b4	-1.2518303e-05
17	0x38663733	5.488768e-05
18	0xb7265060	-9.913085e-06
19	0xb6b5e3ca	-5.4207385e-06
20	0x37dff2d8	2.6696755e-05
21	0x38480413	4.768751e-05
22	0x35992e80	1.1412922e-06
23	0xb6b5ea28	-5.4214797e-06
24	0x38ad926a	8.2765546e-05
25	0x38afbfbf	8.380366e-05
26	0xb88ddcd4	-6.7645364e-05
27	0xb89b75af	-7.412896e-05
28	0x381d6c11	3.753236e-05
29	0xb73aa5c4	-1.1125059e-05
30	0x37b2557d	2.1259062e-05
31	0x37a2f7b1	1.9427245e-05
32	0xb8511394	-4.9847717e-05
33	0x38731e81	5.7964124e-05
34	0x37e2b4ed	2.702555e-05
35	0x375aa4d8	1.3032193e-05
36	0x36dcba48	6.578197e-06
37	0x387b0081	5.9843533e-05
38	0xb8f99530	-0.000119010336
39	0x3814ce02	3.547781e-05
40	0x37e99c62	2.7848586e-05
41	0x38e0622e	0.0001069944
42	0x377e7e4c	1.5168986e-05
43	0x389f15f6	7.585801e-05
44	0xb7a5162c	-1.9679857e-05
45	0xb53db8a0	-7.067665e-07
46	0xb87a1592	-5.9624734e-05
47	0x381732da	3.6048565e-05
48	0xb74155d8	-1.15236835e-05
49	0x38056942	3.18077e-05
50	0x36c57f5e	5.885885e-06
51	0xb88f9d9b	-6.848128e-05
52	0x38ada9ee	8.280935e-05
53	0x38477032	4.7549787e-05
54	0x384bc002	4.8577793e-05
55	0x35a20c40	1.2073506e-06
56	0xb8a4cdcb	-7.858461e-05
57	0x3733df1c	1.0721178e-05
58	0x375146ec	1.24738835e-05
59	0xb6b4589c	-5.3747335e-06
60	0x3c4d146a	0.012517074
61	0x3e4bcb52	0.1990178
62	0x3b7658cc	0.0037589548
63	0x3e0747ba	0.13210955
64	0xbf23c197	-0.6396727
65	0x3db65ab4	0.08904019
66	0xbb15fa65	-0.0022884842
67	0x3c0fda80	0.008780122
68	0xbbcbed2e	-0.0062233424
69	0x3b939c4a	0.004504715
70	0x3aad5c56	0.0013226371
71	0xbb3eb178	-0.002909748
72	0xbbcb30c1	-0.0062008803
73	0x3b66f926	0.003524372
74	0x3b93ceba	0.0045107277
75	0x3a9657cc	0.0011470257
76	0xba3a3814	-0.0007103693
77	0x3a84df41	0.0010137336
78	0x3aa79475	0.0012785333
79	0xbd39de35	-0.04537793
80	0xb9a63d57	-0.0003170769
81	0x397487d0	0.00023320247
82	0x3a773cbb	0.0009431352
83	0xba3be06a	-0.0007166924
84	0x3b081cd5	0.0020769138
85	0xb9da700b	-0.0004166368
86	0xba9df8cc	-0.0012052297
87	0xb7d65110	-2.5548536e-05
88	0xba438dca	-0.0007459788
89	0x3a45e36d	0.00075488427
90	0x38138c57	3.5178233e-05
91	0xb6a7a680	-4.996371e-06
92	0xb6075e3e	-2.0171424e-06
93	0x36bacd98	5.567166e-06
94	0xb756f66c	-1.2812769e-05
95	0xb8aab6a0	-8.140248e-05
96	0x39199174	0.00014645403
97	0x35276180	6.235423e-07
98	0xb7da7ed6	-2.6046688e-05
99	0xb7b089c3	-2.1044985e-05
100	0xb8125338	-3.4886616e-05
101	0x37b9065e	2.2056684e-05
102	0xb887eaf3	-6.481064e-05
103	0xb79efd0f	-1.8952907e-05
104	0x39082289	0.00012982836
105	0x3e177d9e	0.14794013
106	0x3e30ac72	0.17253283
107	0x3bc093b4	0.0058769826
108	0x3e0dd020	0.13848925
109	0xbf383bfb	-0.7196652
110	0x3e2413ce	0.1602318
111	0xbad725f4	-0.0016414509
112	0x3bcc6086	0.0062370924
113	0xbbdf4cba	-0.0068145664
114	0x3bd150a4	0.006387787
115	0xbd2651e2	-0.040605433
116	0xbb9cb2ca	-0.0047820555
117	0xbbb347f4	-0.005471224
118	0xbb1d6582	-0.0024016802
119	0x3bb5c212	0.0055468166
120	0x3901995a	0.00012359527
121	0x387a7964	5.97177e-05
122	0x388f5b2e	6.835755e-05
123	0xb8512059	-4.985961e-05
124	0x3823ef29	3.9084964e-05
125	0x37abd232	2.0482668e-05
126	0x36902df7	4.2968854e-06
127	0x388d04fa	6.724331e-05
128	0xb7c3375d	-2.3271592e-05
129	0x36285704	2.50846e-06
130	0x37784b08	1.47994215e-05
131	0xb8657304	-5.470497e-05
132	0x37b14945	2.1134163e-05
133	0x3884fdcd	6.3415246e-05
134	0x38858a53	6.367699e-05
135	0x3c7eeefe	0.01555991
136	0xbab52e54	-0.0013823011
137	0x3b8aef5c	0.0042399596
138	0x3bc24568	0.005928684
139	0xbdd9e5d6	-0.10639541
140	0xba1ad616	-0.0005906535
141	0xbb1e6948	-0.002417164
142	0x3be46abf	0.006970733
143	0xbb463f08	-0.0030249972
144	0x3b4f830a	0.0031663799
145	0xba52c976	-0.0008040884
146	0xbb467fd4	-0.0030288594
147	0xbac62632	-0.0015117584
148	0x398a5b18	0.0002638928
149	0x3a91b675	0.0011116999
150	0xb753fdb8	-1.2635654e-05
151	0xb85f6103	-5.3257692e-05
152	0xb7d49bf8	-2.5344998e-05
153	0xb882390b	-6.209508e-05
154	0xb8c14180	-9.2151575e-05
155	0x3813defe	3.525521e-05
156	0xb84fc384	-4.9534734e-05
157	0xb3d24840	-9.792029e-08
158	0x3528fd80	6.295377e-07
159	0x38bc4ed6	8.979223e-05
160	0xb89836d3	-7.2581366e-05
161	0x3845713f	4.707393e-05
162	0x377a5950	1.4921956e-05
163	0xb63c6e40	-2.8078357e-06
164	0x382b39e0	4.0823477e-05
165	0xb8cd504c	-9.790118e-05
166	0x380a2c31	3.294292e-05
167	0xb85eaeb9	-5.3091648e-05
168	0xb954c731	-0.000202921
169	0x36c19068	5.7686593e-06
170	0x38385302	4.3946326e-05
171	0xb82c1242	-4.1025e-05
172	0xb78889b0	-1.627658e-05
173	0x389752da	7.2156734e-05
174	0xb6a550c0	-4.9267837e-06
175	0xb8b2c124	-8.523677e-05
176	0x380b7a6b	3.3254193e-05
177	0x38283bf6	4.0110164e-05
178	0x385d8556	5.2814685e-05
179	0x3753bf94	1.2621185e-05
180	0xb8a516e1	-7.872075e-05
181	0xb7d135f9	-2.4939874e-05
182	0x38b60b88	8.680584e-05
183	0x380a17a0	3.2923766e-05
184	0x386db0b6	5.6669778e-05
185	0x37021a02	7.754659e-06
186	0xb6ff9a70	-7.617571e-06
187	0xb8901d06	-6.871861e-05
188	0xb861865c	-5.3769312e-05
189	0x37bd7e1e	2.2589284e-05
190	0x37ac8673	2.0566606e-05
191	0x38bb8aea	8.9427296e-05
192	0x36b911ac	5.515487e-06
193	0x374fcf4e	1.2386428e-05
194	0x38416d8c	4.611681e-05
195	0xb893341c	-7.019212e-05
196	0x38bd96d4	9.040316e-05
197	0x38cb27e5	9.687225e-05
198	0xb8a46dd3	-7.840586e-05
199	0x38b4e482	8.625632e-05
200	0x365f6168	3.3286287e-06
201	0x383a02d7	4.43485e-05
202	0xb7fa1652	-2.9812716e-05
203	0x38d8159a	0.00010303706
204	0xb7a6f3f6	-1.9902345e-05
205	0xb88e1244	-6.77449e-05
206	0x37a852f5	2.006579e-05
207	0x38c3a80c	9.329626e-05
208	0x36f16230	7.19379e-06
209	0x37cde868	2.4546127e-05
210	0xba421088	-0.0007402976
211	0x3a8fb40c	0.0010963692
212	0xbe695743	-0.22787194
213	0xbde2f37a	-0.11081596
214	0x3d4d079c	0.050056085
215	0x3d1ad974	0.037805036
216	0x36e90300	6.9442904e-06
217	0xbb30601e	-0.002691276
218	0x3b603c17	0.0034215504
219	0xbb0ed5c6	-0.00217949
220	0x3b649ee7	0.0034884752
221	0xbb21b0bc	-0.0024671992
222	0x3958c5d0	0.00020673056
223	0xbbaae29a	-0.0052150013
224	0x3858c0f0	5.16781e-05
225	0xb91421b0	-0.0001412693
226	0x37655ae8	1.3670629e-05
227	0xb8a11495	-7.680912e-05
228	0xb8ea1fd0	-0.00011163915
229	0x38b19e10	8.469459e-05
230	0xb80ba4d8	-3.3293705e-05
231	0x38771859	5.8912065e-05
232	0xb7b7dcce	-2.191812e-05
233	0xb6d8d698	-6.4622836e-06
234	0x37804bd0	1.5294092e-05
235	0xb7ef471a	-2.852413e-05
236	0x38c0745e	9.1769485e-05
237	0x37709bb8	1.4341371e-05
238	0x3967d436	0.00022108931
239	0xb5317264	-6.61041e-07
240	0x3d9a894c	0.075457186
241	0x3b8af27f	0.0042403336
242	0x3d942743	0.07234051
243	0x3c0232c4	0.007946674
244	0x3d67ad07	0.056561496
245	0xbf04fee6	-0.51951444
246	0xbb928ba9	-0.004472215
247	0x3b293b36	0.0025822646
248	0x3a4140a7	0.00073719997
249	0xbba705cf	-0.005097128
250	0x3b6350d0	0.003468562
251	0x3b0057df	0.0019583625
252	0x3b1fc9fc	0.0024381867
253	0x3b307406	0.0026924624
254	0xbbc7a1c1	-0.0060922806
255	0x378e4daf	1.6963893e-05

model_1/dense_12/MatMul f4 [40, 40]
0	0x38c29ce0	9.279861e-05
1	0xb80f5daa	-3.418109e-05
2	0xb73dcee5	-1.1313449e-05
3	0x3814d9a1	3.5488632e-05
4	0x38aec42a	8.333505e-05
5	0xb8f1465a	-0.000115048795
6	0xb82a42c8	-4.0593353e-05
7	0xb798fcd0	-1.8237537e-05
8	0xb7bf89d8	-2.2833163e-05
9	0xb9c4efe4	-0.00037562766
10	0x390554ef	0.00012715509
11	0x3820e832	3.836322e-05
12	0xb827d593	-4.001481e-05
13	0x38788cf8	5.9259095e-05
14	0x38f67c11	0.00011753303
15	0xb9ce3e94	-0.00039338006
16	0xb999ccf4	-0.00029335136
17	0xb7c0e4bc	-2.2994696e-05
18	0x3812438e	3.4872028e-05
19	0x37a11b3a	1.9205374e-05
20	0xb8c22dbf	-9.259162e-05
21	0x37252b78	9.844887e-06
22	0x3826add8	3.973939e-05
23	0xb860a266	-5.3557007e-05
24	0xb90dc97c	-0.00013521867
25	0xb9c87c6f	-0.00038239683
26	0x387a4d48	5.967662e-05
27	0x388aefe5	6.6250366e-05
28	0x3888a63a	6.5159475e-05
29	0x37e180ed	2.6882126e-05
30	0xb9f4b4b8	-0.00046673953
31	0xb8b57764	-8.652991e-05
32	0xb984235a	-0.0002520334
33	0x3756997e	1.2791132e-05
34	0x38471c0c	4.7471418e-05
35	0xb7ea9331	-2.7963515e-05
36	0xb7e81098	-2.7664282e-05
37	0xbde9eeb0	-0.11422479
38	0xb8d9bafc	-0.00010382195
39	0xb72dcf62	-1.0359889e-05
40	0xb8c8169c	-9.5409545e-05
41	0xb9a5d376	-0.00031628803
42	0x3889bd37	6.567913e-05
43	0x36b95458	5.5232485e-06
44	0x38a391a5	7.799574e-05
45	0xb8e70f2c	-0.00011017764
46	0x39339c35	0.00017128962
47	0x370ac532	8.271354e-06
48	0xb921a2ae	-0.0001541476
49	0xb9c072d5	-0.0003670665
50	0xb83b1120	-4.4600223e-05
51	0x398aab87	0.0002644921
52	0xb97445d6	-0.00023295669
53	0xb7033f7c	-7.82299e-06
54	0x391ec18a	0.00015140153
55	0xb9192406	-0.00014604637
56	0xb8c7b8a6	-9.523453e-05
57	0xb7c84a30	-2.3876404e-05
58	0x3815a6ba	3.5679644e-05
59	0xb8d1065d	-9.967082e-05
60	0xb8a5cea6	-7.9063044e-05
61	0xb87b9904	-5.998557e-05
62	0xb931eb98	-0.00016967801
63	0xb8b2dfb4	-8.5293694e-05
64	0x393b91a6	0.00017887968
65	0x39a59baa	0.0003158723
66	0xb9ada8ef	-0.00033122997
67	0xb8864e20	-6.40417e-05
68	0x39aeb920	0.00033325795
69	0xb8c339e4	-9.3091076e-05
70	0xb636b790	-2.722696e-06
71	0xb9910b71	-0.0002766508
72	0xb7261c2c	-9.90093e-06
73	0xb93c8442	-0.00017978347
74	0x38b6a130	8.70846e-05
75	0x38d97516	0.00010369175
76	0xb7b250d6	-2.1256896e-05
77	0xb7e60b57	-2.7423417e-05
78	0x38830956	6.248306e-05
79	0x386a6eb4	5.5893048e-05
80	0xb779ecc9	-1.4896687e-05
81	0x37877074	1.614562e-05
82	0xb8d0235b	-9.924798e-05
83	0x389f0d9a	7.584244e-05
84	0xb794b697	-1.7728e-05
85	0x37b7bef5	2.1904221e-05
86	0x38c4b517	9.379739e-05
87	0x37fdb4b8	3.0244104e-05
88	0xb8c63fda	-9.453269e-05
89	0xb7d6111f	-2.551876e-05
90	0x382c6628	4.1103136e-05
91	0x37a8fd26	2.0145042e-05
92	0xb6e007de	-6.676636e-06
93	0xb71907fc	-9.12137e-06
94	0x37db2c5e	2.6127494e-05
95	0x37f846a2	2.9596795e-05
96	0xb83fbc87	-4.571353e-05
97	0x369ed4e4	4.7335507e-06
98	0x3784c688	1.5828075e-05
99	0x382746ac	3.988172e-05
100	0xb7d38628	-2.5215631e-05
101	0x373b6660	1.1169905e-05
102	0xb7b4b4de	-2.1541895e-05
103	0xb70a1a5d	-8.231579e-06
104	0xb8202030	-3.817695e-05
105	0xb790a794	-1.7244172e-05
106	0x38afa5b4	8.375515e-05
107	0xb898354a	-7.257851e-05
108	0x382c6a77	4.110715e-05
109	0x38af8541	8.369471e-05
110	0x372cb802	1.0294842e-05
111	0xb9121f78	-0.00013935368
112	0x388ccccc	6.7138666e-05
113	0xb7f41e23	-2.91011e-05
114	0xb7cd1d16	-2.4451449e-05
115	0x376a4968	1.3964578e-05
116	0xb8e9d90c	-0.00011150734
117	0xb823e4c2	-3.9075276e-05
118	0xb7ccca06	-2.441277e-05
119	0x381f4b4a	3.7978672e-05
120	0xb8867cc6	-6.412859e-05
121	0xb62897a0	-2.5122208e-06
122	0xb84a063a	-4.8166352e-05
123	0x3682c2e6	3.896991e-06
124	0x388e3706	6.7813366e-05
125	0xb8dc23c7	-0.000104970815
126	0x38c73c62	9.5003066e-05
127	0xb78327b0	-1.5634898e-05
128	0xb9238783	-0.00015595373
129	0x384f2d16	4.9394635e-05
130	0x39107e47	0.00013779952
131	0x385ed93d	5.3131243e-05
132	0xb6255860	-2.4638357e-06
133	0x38ffef1a	0.00012203884
134	0xb7d03c90	-2.4823734e-05
135	0xb88a5cf6	-6.597668e-05
136	0xb74abee4	-1.2084583e-05
137	0x39039b09	0.00012550889
138	0xb8e7777c	-0.00011037194
139	0x38da13be	0.00010398727
140	0xb7e44e1a	-2.7216087e-05
141	0xb6b33b50	-5.3415206e-06
142	0x374006d0	1.1445678e-05
143	0xb8fc43d2	-0.00012028929
144	0xb6ba24b0	-5.547503e-06
145	0xb8cb6f5f	-9.700539e-05
146	0x38a9ad78	8.090859e-05
147	0xb87e02c2	-6.0560888e-05
148	0x393ad0db	0.00017816147
149	0xb935b5a0	-0.00017329166
150	0xb72b12c8	-1.0196767e-05
151	0x37b89095	2.2001836e-05
152	0x388d0e69	6.726088e-05
153	0xb8ef58a1	-0.000114129165
154	0xb7eba91c	-2.809293e-05
155	0xb86242cf	-5.394482e-05
156	0xb88a7ffd	-6.6041925e-05
157	0xb840f05c	-4.600022e-05
158	0x3884a324	6.324638e-05
159	0x39f6975a	0.00047033542
160	0xb661dc10	-3.3655706e-06
161	0xb9ce34f4	-0.00039330835
162	0x39082054	0.00012982014
163	0xb93180d8	-0.00016928033
164	0xb9d0125d	-0.00039686533
165	0xb8bff426	-9.153066e-05
166	0xb75c39fc	-1.3126522e-05
167	0x39544e6c	0.0002024711
168	0x3824eb1a	3.9319602e-05
169	0x3a022889	0.00049651467
170	0x384cd27d	4.8833423e-05
171	0x388f2d20	6.8271765e-05
172	0x397c9d97	0.000240913
173	0x3988cce4	0.00026092597
174	0xb6ab9112	-5.1130855e-06
175	0xb8cb062b	-9.680943e-05
176	0x39458ed4	0.00018840592
177	0xb971e5b6	-0.00023069125
178	0x380cef81	3.3601656e-05
179	0x384c82ac	4.8759088e-05
180	0x396b1a36	0.00022421111
181	0xb4439d00	-1.8217906e-07
182	0xb98673df	-0.00025644802
183	0xb8275efd	-3.9904367e-05
184	0x3917983c	0.00014457194
185	0xb8fe9438	-0.00012139272
186	0x39b75e4d	0.0003497474
187	0xb97d82dc	-0.00024176709
188	0xb929d034	-0.00016194658
189	0x380a7aee	3.301625e-05
190	0x39b1a43e	0.0003388244
191	0xb836f8a0	-4.362373e-05
192	0x37fd4630	3.0192634e-05
193	0xb96bc9da	-0.00022486542
194	0xb918dcc2	-0.00014578088
195	0x3a1b8323	0.00059323217
196	0x39050034	0.00012683944
197	0x3910afdb	0.00013798421
198	0xb901f10b	-0.00012392194
199	0x371629b0	8.950403e-06
200	0xb7bc64d8	-2.2458305e-05
201	0x369fbb68	4.760386e-06
202	0x368e07d0	4.2328393e-06
203	0x361edbf0	2.3671855e-06
204	0x370eddc0	8.51549e-06
205	0x37d00a75	2.4800402e-05
206	0xb807104a	-3.220168e-05
207	0x3841fb8e	4.6249064e-05
208	0x382bd1ea	4.0965075e-05
209	0x38f2735b	0.00011560946
210	0x38b683cc	8.702985e-05
211	0xb80961d3	-3.275445e-05
212	0xb84d8c93	-4.900673e-05
213	0xb7e28b8e	-2.7006285e-05
214	0xb8256390	-3.943179e-05
215	0xb81ee612	-3.7884405e-05
216	0xb8f15666	-0.000115078685
217	0xb7ab43fb	-2.0416444e-05
218	0xb6954790	-4.448877e-06
219	0xb947b8f4	-0.0001904702
220	0xb67b5f10	-3.7457248e-06
221	0x37b031a8	2.1003958e-05
222	0x3804ee29	3.1693056e-05
223	0x38b124e2	8.446888e-05
224	0x393530bf	0.00017279664
225	0xb8b90c32	-8.823759e-05
226	0x3740c4e8	1.1489938e-05
227	0x372bbc62	1.0236256e-05
228	0xb8c410fe	-9.349173e-05
229	0xb86061c6	-5.349682e-05
230	0xb7ebedea	-2.812497e-05
231	0x387ee067	6.076731e-05
232	0xb8a6cf75	-7.954139e-05
233	0x392790b4	0.00015980267
234	0xb8bdde9a	-9.053685e-05
235	0xb7715094	-1.438348e-05
236	0xb773d178	-1.4532699e-05
237	0x380dc418	3.3799646e-05
238	0xb5e1d720	-1.6826416e-06
239	0x3902db73	0.00012479517
240	0xb8d755e8	-0.00010268
241	0x38111758	3.4592435e-05
242	0x387fc3ec	6.0979204e-05
243	0x38245350	3.9178238e-05
244	0xba42daaf	-0.0007433099
245	0x38dba948	0.00010474265
246	0x3887af9c	6.4700114e-05
247	0x3dd81dcf	0.105525605
248	0x377bf6d0	1.5018231e-05
249	0x39913b82	0.00027700892
250	0xb848b9de	-4.7856818e-05
251	0xb81479f2	-3.539952e-05
252	0xb6ae3fdc	-5.1930383e-06
253	0x37a77306	1.9961513e-05
254	0xb978c929	-0.00023726061
255	0xb782a6e4	-1.5574922e-05

model_1/dense_13/MatMul f4 [40, 40]
0	0xb85894c3	-5.163696e-05
1	0x39a4c734	0.00031428935
2	0xb77c6188	-1.5043079e-05
3	0x3a0954e2	0.0005238784
4	0xb840e4b4	-4.5989364e-05
5	0x39348d05	0.00017218672
6	0x398b04b2	0.00026515644
7	0x39660b24	0.0002193866
8	0x381d67d0	3.75284e-05
9	0xb96ce4cb	-0.00022591946
10	0xb9916248	-0.0002772978
11	0x389a2099	7.349364e-05
12	0xb98a476c	-0.00026374625
13	0xb623bd60	-2.4399124e-06
14	0xb81f57a8	-3.799019e-05
15	0xb7772674	-1.47313e-05
16	0x392d462c	0.00016524707
17	0x392883cd	0.00016070828
18	0xb83221ab	-4.2469863e-05
19	0xb948f294	-0.00019163854
20	0x39ca0277	0.0003853028
21	0xb880d6c5	-6.1435196e-05
22	0x37512b3c	1.2467437e-05
23	0x376b2838	1.4016456e-05
24	0xb95dcf3b	-0.00021153402
25	0x38f6aaf7	0.00011762039
26	0x3890a245	6.89668e-05
27	0xb83e9db5	-4.5446406e-05
28	0x398a673a	0.0002639832
29	0xb85ad848	-5.2176678e-05
30	0x38a8aa98	8.04264e-05
31	0xb80d8390	-3.3739547e-05
32	0x38b266ec	8.506872e-05
33	0x386c9f32	5.6415047e-05
34	0xba3f627a	-0.0007300746
35	0x3a079f3e	0.000517357
36	0xb8cf387e	-9.881052e-05
37	0xb7a74d85	-1.994405e-05
38	0xb7c81678	-2.385232e-05
39	0x37b266a5	2.1267051e-05
40	0xb78a8673	-1.651349e-05
41	0xb8a9e024	-8.1002974e-05
42	0xb836ec10	-4.361203e-05
43	0xb94c48de	-0.00019482101
44	0xb9b694d5	-0.00034824634
45	0xb705a22c	-7.965176e-06
46	0xb6de04bc	-6.6166667e-06
47	0xb9e482c2	-0.0004358497
48	0x37c5d08e	2.3581346e-05
49	0xb8c24fdc	-9.265516e-05
50	0xb8272334	-3.9848688e-05
51	0xb8fc2b8d	-0.00012024408
52	0xb86d7d2c	-5.662178e-05
53	0x37cae3a9	2.4186289e-05
54	0x379e04f0	1.8837367e-05
55	0x378bd1c9	1.666778e-05
56	0x38509d38	4.9737486e-05
57	0x38aab65e	8.1402e-05
58	0xb70021b0	-7.637238e-06
59	0xb8a97cb0	-8.081773e-05
60	0xb8ae841e	-8.321575e-05
61	0x393decfa	0.00018112725
62	0x383e51f6	4.5375862e-05
63	0x39466012	0.0001891854
64	0xb81b4cf5	-3.702655e-05
65	0x38540bf8	5.0555886e-05
66	0xb7b5b348	-2.1660366e-05
67	0xb7b0da9a	-2.108263e-05
68	0x393964c2	0.0001768051
69	0xb7d4fa18	-2.5388828e-05
70	0xb8dc6468	-0.000105091196
71	0xb6e83710	-6.920549e-06
72	0xb85f26be	-5.3203425e-05
73	0xb7ddee4f	-2.6456224e-05
74	0x3816922c	3.589892e-05
75	0x39a32113	0.00031114425
76	0x36d969f0	6.4794367e-06
77	0x377b553e	1.4980613e-05
78	0x3779e056	1.4893789e-05
79	0x36490e20	2.9959556e-06
80	0x3827e5fd	4.0030096e-05
81	0x384f5c44	4.9438575e-05
82	0xb89baaec	-7.4228126e-05
83	0xb88b56a0	-6.644172e-05
84	0x39101466	0.00013740509
85	0xb593865c	-1.0991457e-06
86	0xb832e04c	-4.26474e-05
87	0x39640ab4	0.00021747762
88	0x386261ee	5.3973803e-05
89	0xb7f0ac5c	-2.869049e-05
90	0x38e2d7ef	0.000108167405
91	0xb93a33e6	-0.00017757676
92	0x385c85be	5.2576645e-05
93	0x37a96f0d	2.0198082e-05
94	0xb8f1ebf2	-0.00011535724
95	0x38ea05da	0.000111590794
96	0x32f56600	2.8568138e-08
97	0xb71b43c0	-9.254494e-06
98	0xb8beca72	-9.0976144e-05
99	0xba165570	-0.0005734777
100	0x36278ee6	2.4968117e-06
101	0x38099b54	3.2808006e-05
102	0xb882bb75	-6.2338e-05
103	0x3892391e	6.9724614e-05
104	0xb93b099d	-0.00017837291
105	0x3997d0db	0.00028956574
106	0xb813d912	-3.5249694e-05
107	0x36b009f8	5.2463693e-06
108	0xb840c2b8	-4.5957713e-05
109	0x3784522b	1.5773889e-05
110	0x3969e7d7	0.00022306979
111	0x3761419c	1.3426321e-05
112	0x3883c13a	6.282558e-05
113	0xb856a966	-5.117934e-05
114	0xb67fe740	-3.8132566e-06
115	0xb88f9fd1	-6.8485395e-05
116	0xb704da68	-7.918665e-06
117	0x37273dec	9.968393e-06
118	0x381df005	3.7655253e-05
119	0x3842c0f8	4.643292e-05
120	0x38a79738	7.991347e-05
121	0xb79cbbe8	-1.868415e-05
122	0xb8ee6236	-0.000113670176
123	0x38e280b6	0.00010800494
124	0xb8f590f8	-0.00011709513
125	0x38305c9b	4.2047915e-05
126	0x398fc994	0.00027425273
127	0xb939654e	-0.00017680714
128	0x383bcd9d	4.4775767e-05
129	0x3897418e	7.2124516e-05
130	0x37571c00	1.2821518e-05
131	0x3993a74d	0.00028162674
132	0xb8e92b5e	-0.000111183836
133	0x36f01c08	7.1558206e-06
134	0xb8a38bbe	-7.798475e-05
135	0x37e799a6	2.7608894e-05
136	0x37dc8ab1	2.6290627e-05
137	0xb919a1a2	-0.0001465143
138	0xb8db2d06	-0.0001045112
139	0x39727cd9	0.00023125428
140	0x37d0f716	2.491059e-05
141	0x39483894	0.00019094563
142	0x392b1a4d	0.00016317629
143	0x38c68e25	9.467852e-05
144	0x38596b6a	5.183687e-05
145	0x3970927c	0.00022942753
146	0xb6490ee8	-2.996001e-06
147	0xb9865bc0	-0.0002562683
148	0xb97c803a	-0.00024080361
149	0x38d7ab6c	0.00010283929
150	0xb97b7af0	-0.00023983023
151	0xb827b7c6	-3.9987055e-05
152	0x379d9445	1.8784902e-05
153	0x39827ae1	0.00024887084
154	0xba45d2dc	-0.0007546374
155	0xb9879a7f	-0.00025864315
156	0xb853a896	-5.0463328e-05
157	0x37dfda71	2.6685391e-05
158	0xb71be3b8	-9.29174e-06
159	0x3899577a	7.311902e-05
160	0xba231b97	-0.0006222068
161	0xb673ff68	-3.6358488e-06
162	0x340eef00	1.3311728e-07
163	0xb85386f2	-5.0431998e-05
164	0xb689c8a0	-4.106274e-06
165	0xb6d0fb12	-6.2281115e-06
166	0xba46ce9d	-0.00075838884
167	0x39551ca6	0.00020323935
168	0xb985b17e	-0.0002549998
169	0x3781bc51	1.546569e-05
170	0xbb2e8a06	-0.0026632561
171	0x383c6d34	4.4924396e-05
172	0x38cf20f7	9.876669e-05
173	0x3e9dba59	0.30806234
174	0xb83f00ce	-4.5538698e-05
175	0xbe831681	-0.25603107
176	0xb7f0f208	-2.8722934e-05
177	0xb76ebe58	-1.4230223e-05
178	0xb854c908	-5.0731964e-05
179	0x3882d1a4	6.237932e-05
180	0xb9001285	-0.0001221393
181	0xb8ad0aff	-8.251331e-05
182	0x398b9f84	0.00026630994
183	0x3841ab9a	4.6174602e-05
184	0xb7f93490	-2.970759e-05
185	0xb86cb53b	-5.643557e-05
186	0xb7c04e24	-2.292457e-05
187	0xb926bb6c	-0.00015900814
188	0xba6a621f	-0.0008941013
189	0xb778c301	-1.4827355e-05
190	0xb8c6ae21	-9.47381e-05
191	0x3b20a532	0.0024512527
192	0xb87bfa1a	-6.007599e-05
193	0x38b346c3	8.5485655e-05
194	0x3899b526	7.32935e-05
195	0x37d956b0	2.5908783e-05
196	0xb833008a	-4.2677428e-05
197	0x3e5ea8cc	0.21744078
198	0xbe8d71b3	-0.27625808
199	0x378d5c4f	1.6851494e-05
200	0x3951b080	0.00019997545
201	0x38ef2445	0.00011403164
202	0x38273350	3.986369e-05
203	0xb8cbdbc0	-9.720726e-05
204	0x39b72a33	0.0003493592
205	0x33af3420	8.158554e-08
206	0xb8159025	-3.5658613e-05
207	0x38605c74	5.3491865e-05
208	0x379d6a95	1.876549e-05
209	0xb83716b2	-4.3651737e-05
210	0x38800615	6.1046485e-05
211	0xb99cc565	-0.0002990171
212	0xb625ad00	-2.4687615e-06
213	0xb7663cf8	-1.3723264e-05
214	0xb9e46d88	-0.00043569156
215	0x38a0cea4	7.667884e-05
216	0x39030886	0.00012496309
217	0xb9665218	-0.00021965092
218	0xb8219474	-3.852365e-05
219	0xb94c36b7	-0.00019475339
220	0xb8f936d3	-0.00011883457
221	0x385bd7b7	5.241457e-05
222	0x3800ff23	3.0755193e-05
223	0xb57c6300	-9.402138e-07
224	0x3982e2b4	0.0002496444
225	0xb8cae114	-9.674035e-05
226	0x36634a20	3.3868782e-06
227	0x37e1f380	2.6935479e-05
228	0x388c7438	6.697368e-05
229	0xb84ca48e	-4.8790644e-05
230	0x39031a31	0.0001250289
231	0xb91987d8	-0.00014641823
232	0x3809bce0	3.283925e-05
233	0x384f1b13	4.937786e-05
234	0xb9809274	-0.0002452318
235	0xb91564d2	-0.00014247306
236	0xb9304cc2	-0.00016813262
237	0xb7d91376	-2.5877478e-05
238	0x386acfc9	5.5983463e-05
239	0x39404227	0.0001833519
240	0x3740f6fc	1.1501597e-05
241	0x398f2d05	0.00027308628
242	0xb873aa26	-5.8094178e-05
243	0x388e2833	6.778575e-05
244	0xb9d1927d	-0.0003997273
245	0x38b3ceef	8.5739295e-05
246	0xb9217510	-0.00015397766
247	0x37b934f0	2.207837e-05
248	0x37eaf8dd	2.801086e-05
249	0xb84fedfa	-4.957428e-05
250	0x38bf141a	9.111334e-05
251	0x38652330	5.4630626e-05
252	0xb7df2758	-2.6601992e-05
253	0xb5921f40	-1.0886943e-06
254	0xb86f9f6a	-5.7130506e-05
255	0xb7c700ec	-2.3723078e-05
