3tier-app/learnt_model/gcp_model/model_3tier.tflite (tflite, 142712 bytes, 48 tensors)

dense_9/bias f4 [40]
000000 73 75 84 bd 7b 3e 70 3c 74 ef c8 bc 69 8e 8a 3e
       -0.06467714 0.014663334 -0.024528243 0.27061775
000010 48 bf 2c bb e6 cb 34 bd 28 c2 88 bc f2 14 57 bd
       -0.002635913 -0.044139765 -0.016694143 -0.05251021
000020 41 dd eb bc ff ad d1 3e 1b a4 96 be 4f 51 82 bd
       -0.028792026 0.4095306 -0.29422078 -0.06363165
000030 47 cc e4 3d 5e 05 a2 be 49 20 bb 3d bb 9a 08 3e
       0.11171775 -0.3164472 0.09137017 0.13340275
000040 ba 41 82 bd cc 49 26 bd ac 3a 57 3e ae f7 08 bd
       -0.063601926 -0.040597722 0.21018475 -0.03343933
000050 a5 11 1c bd 43 37 ce bc 03 fe a5 bd 93 46 c5 bd
       -0.038102765 -0.025172835 -0.081050895 -0.096326016
000060 44 b5 13 bd 04 18 38 bd 6c 71 3e 3b 4f 73 1d bd
       -0.03606154 -0.044944778 0.0029059304 -0.038440045
000070 b2 ad 2f bc e8 ab a1 bd ae 5a fe 3c b7 d6 a6 bd
       -0.0107225645 -0.07894117 0.031049099 -0.08146422
000080 99 db 39 bd 0e 61 e5 bd c4 aa 48 bd fe fc 64 3d
       -0.04537544 -0.11200152 -0.04899098 0.055905335
000090 70 e6 a8 3e 5c 02 6f 3e c6 bb 48 3b c1 f9 88 bd
       0.3298831 0.23340744 0.00306295 -0.06688262

dense_8/bias f4 [40]
000000 73 f6 d8 bc 24 f7 05 3e b9 2b 57 bd 4e e6 74 3c
       -0.026484704 0.13082558 -0.05253193 0.014947487
000010 19 f2 58 3d 03 8a b5 3d d1 e0 ef bc 96 d1 5c bd
       0.052965257 0.08864214 -0.029282006 -0.053910814
000020 84 7b 4b bd 0e 29 b8 bb 07 e3 3e bd f7 78 96 bc
       -0.04967834 -0.0056201285 -0.04660323 -0.018368227
000030 f4 cc 29 3c be 98 de bc f5 94 34 3e 87 7c 73 3d
       0.010363806 -0.027172443 0.17634948 0.05944493
000040 c2 d3 33 3c 72 14 55 3e 66 fa 0d bd 75 d3 93 bd
       0.01097578 0.2080858 -0.034662627 -0.072180666
000050 9a 91 15 3c 36 b0 f5 3b 4a 41 20 bd e4 73 38 bd
       0.009128952 0.0074978126 -0.039124765 -0.045032397
000060 91 87 27 3e ab 14 2b bc 7a 36 3d bd ae 6a e1 bd
       0.16360308 -0.010441939 -0.04619453 -0.11006676
000070 3b 78 bb 3c 76 e0 94 3b e8 5c 83 bd 41 78 7b bd
       0.022884479 0.0045433594 -0.06414205 -0.06139398
000080 74 f7 2c bd e7 dd c9 3d 1f d8 54 bd c6 cd 85 bd
       -0.042228177 0.09856778 -0.05196392 -0.06533389
000090 dd 79 a1 bc 25 a0 50 3e 5a 6c a1 bb 13 c2 0e bd
       -0.01971143 0.2037359 -0.0049262466 -0.034853052

dense_7/bias f4 [40]
000000 34 0a d5 3c 44 6b 60 bc 60 37 df bd 2b 81 79 3c
       0.026005842 -0.013697449 -0.10899234 0.01522855
000010 65 50 be 3c 1a b7 6d bd 7a 32 7c 3c 6e 46 43 b9
       0.023231694 -0.058035947 0.015392894 -0.00018622886
000020 ae db 9d 3b 0d 1f 1b bb 74 43 9b 3c ac 28 c5 bd
       0.0048174476 -0.002366963 0.018953063 -0.09626898
000030 5a f3 13 bd 04 b5 5f bd db bd 9c bd 21 b4 04 be
       -0.03612075 -0.05461599 -0.076533996 -0.12959339
000040 4e 01 0b 3e 0c 61 37 be 07 07 f2 bc 3f b0 1c bd
       0.13574716 -0.17908114 -0.029544367 -0.03825402
000050 81 8a 45 bb 25 30 d9 3e 70 c1 eb bc d9 8b 0e 3e
       -0.003014237 0.42419544 -0.028778762 0.13920535
000060 4a 4d 8c bc 1e d4 dd bc be f9 b7 3c be 32 0c 3d
       -0.017126698 -0.027078684 0.022457954 0.03422808
000070 95 a6 18 bd 21 ec 25 be 78 a8 33 bd 87 0d 21 3e
       -0.03726824 -0.16203357 -0.043861836 0.15727817
000080 9d 08 88 bd 80 0f 78 be f1 d0 b5 bd d3 23 69 3c
       -0.06642268 -0.24224663 -0.08877743 0.014229733
000090 9c b5 a9 bd a7 2f 8f bd f5 8a 09 be 14 e3 b4 bc
       -0.08286592 -0.06991511 -0.13431914 -0.022080936

dense_6/bias f4 [36]
000000 80 b0 47 3e d6 b9 75 3d 01 28 31 3c a2 56 8a ba
       0.19500923 0.05999168 0.01081276 -0.0010554383
000010 58 4b 63 3b 0d 1f 34 3a 83 d0 03 bb 3b 36 11 bc
       0.003468236 0.0006871082 -0.0020113296 -0.008863027
000020 2b 58 0a 3c 87 be e8 3a f3 78 92 3b 1d d0 0f 3b
       0.008443872 0.0017756977 0.0044699847 0.0021944114
000030 ff 80 36 3e 06 5b a8 bd 50 a5 80 3c 09 01 94 3b
       0.17822646 -0.08220486 0.015703827 0.004516725
000040 52 1f c1 3a 0b e6 db ba ec 55 b4 3b c5 0b 2b bb
       0.0014734066 -0.0016776932 0.0055034067 -0.0026099544
000050 92 82 a5 3b 2e 03 d4 3a 37 ad 99 bb 40 7e 03 3b
       0.0050509656 0.0016175264 -0.0046898383 0.0020064265
000060 81 58 18 3e b8 ec 52 3c ea 43 ab bd b0 60 82 3b
       0.14877512 0.012873821 -0.08362563 0.003978811
000070 72 78 96 3a 83 0f 24 bb 5a 5b 42 3c aa cc 9e bb
       0.0011479987 -0.002503366 0.0118626 -0.004846175
000080 b2 76 02 bc f2 0f 25 3b 44 54 17 ba d6 55 83 3b
       -0.0079628695 0.0025186506 -0.00057727494 0.004008035

dense_5/bias f4 [40]
000000 b1 dd 59 bd a5 fb ea 3d e7 9d 21 bd d9 17 0a bc
       -0.053189937 0.11473779 -0.039457228 -0.008428537
000010 4a d2 70 bc b1 53 3a bd 8c 30 d1 3d 40 87 81 3e
       -0.014698574 -0.04548997 0.10214338 0.252985
000020 5c ed 27 bd 2d f6 3b bd e8 e1 00 bd c8 b9 8f bd
       -0.040997848 -0.04588907 -0.03146544 -0.07017857
000030 63 39 26 bb ea 50 b5 bd 59 9e 4b bd 78 59 93 39
       -0.0025363795 -0.08853324 -0.04971156 0.00028104684
000040 d9 cb 79 bd dd df a9 bd 36 f4 7f 3e cc 33 f8 bc
       -0.06098542 -0.08294652 0.24995503 -0.030298136
000050 2b db 84 bd 58 a8 a7 3b 84 df 6d bd 3b b4 33 bd
       -0.064871155 0.0051165037 -0.05807449 -0.043873053
000060 6f f5 0a bd da ab 99 bd d5 a1 35 bd f1 e5 2d bc
       -0.03392547 -0.07503481 -0.04434379 -0.010613904
000070 ff c5 08 bd 7f e9 a3 bc b7 ee 5b bd 47 d1 1b bd
       -0.03339195 -0.0200088 -0.053694453 -0.03804138
000080 da f9 4e 3e 27 c6 06 bd 43 cb 18 bd bd 7c 92 bc
       0.20212498 -0.032903817 -0.03730322 -0.017881745
000090 77 d1 f0 bc 6d 9a 2d 3e c4 dc 1f 3e b8 bd e8 bc
       -0.029396756 0.1695344 0.15611559 -0.028410777

dense_4/bias f4 [40]
000000 a2 52 3d bb b5 a3 92 bb 17 c9 2b 3c 3a 77 1d 3d
       -0.0028888364 -0.004475082 0.010484955 0.03844378
000010 de 98 95 3d 30 cc a1 bc 5e dd 22 3e 0e ab cd 3b
       0.07304548 -0.019750684 0.15904757 0.006276495
000020 e5 91 40 bd db df 9c bc df c6 b5 bd a2 d4 31 bd
       -0.047014136 -0.019149711 -0.08875822 -0.043415673
000030 52 f4 8e 3c ba 2d a2 3d 01 dc 39 bd 66 e7 8b 3d
       0.017450485 0.07918878 -0.045375828 0.06831245
000040 09 79 ad 3c 66 46 58 3b e5 b1 58 bc e4 e4 8d 3e
       0.021175878 0.0033000945 -0.013226007 0.27713692
000050 9e a2 70 bd ce f0 15 3b ac b4 78 bd 38 40 8f 3d
       -0.058748834 0.0022879126 -0.060719177 0.06994671
000060 1b 06 2d 3e 9b de e5 bb 50 0b 95 3c 35 f1 92 3e
       0.1689686 -0.007015062 0.01819387 0.2869965
000070 e3 45 c9 3d 14 c0 c5 3d 4f d7 73 3c 60 f4 09 bd
       0.09827783 0.096557766 0.014882877 -0.03368032
000080 1b b4 39 bd 53 76 69 bd c4 40 a3 3e fd d3 aa bc
       -0.045337778 -0.05699761 0.3188535 -0.020853037
000090 e5 fd 56 3b 4b cc 77 bd 92 f7 af 3d bf 9b 0b bd
       0.0032805142 -0.060497563 0.08592142 -0.034084078

dense_3/bias f4 [40]
000000 75 3d 0c bd cb 3b e8 3c 44 62 e8 b8 f0 68 1b 3e
       -0.034238297 0.028348824 -0.000110809255 0.15176749
000010 c0 cd 13 3e c4 d2 ce bc de ac 72 bc 52 8f ab 3d
       0.14433956 -0.025246985 -0.014811723 0.083769456
000020 29 34 2a 3c 41 f5 0c 3e dd ca c4 bb 43 f8 52 3d
       0.0103884125 0.13765432 -0.0060056285 0.051506292
000030 26 00 d8 bc bb c6 35 3e 26 c7 58 3d 73 1e 0b 3d
       -0.026367258 0.17751591 0.052924298 0.033964586
000040 bb 7f 9e bd bd 76 69 3c 2e db cc bc 04 8a 76 3d
       -0.077392064 0.014249501 -0.025006857 0.060190216
000050 18 8f b2 3c a5 1d c5 3e 67 cb 04 3d 23 77 af bb
       0.021796748 0.3849918 0.032420542 -0.0053547784
000060 09 e2 ac bc 10 3c 3f bd f4 4c a2 3e af 28 0c bd
       -0.021103876 -0.04668814 0.31699336 -0.034218486
000070 46 be f0 3c dc 78 43 3e 15 79 c6 3d 92 19 6d 3c
       0.029387604 0.19089073 0.09691063 0.0144714285
000080 33 8b c7 bd 47 ba df bc 62 1e 89 3e 2b 81 7c bd
       -0.09743347 -0.027310504 0.26780993 -0.06164662
000090 76 40 cd 3c 4e 5f 49 3d 3a d7 1e 3d 47 99 a4 bc
       0.025055151 0.049163155 0.038779475 -0.02009262

dense_22/bias f4 [45]
000000 cc 0f e4 3d b2 47 29 bb 3f 8d 7d 3b 63 69 86 bb
       0.111358255 -0.0025830087 0.0038688926 -0.0041019185
000010 69 52 81 bb a3 3e 3e 3b 7b 45 2b 3b 4e d8 32 3b
       -0.0039465916 0.0029029034 0.0026133943 0.0027289572
000020 e7 6b ac ba c6 a5 8c bb d0 a4 c3 bb 34 19 4c b9
       -0.0013154716 -0.0042922227 -0.005970575 -0.00019464345
000030 83 e8 37 3f ac 8a 42 bd 5b a8 23 3d 79 6a 83 3c
       0.7183916 -0.04749553 0.03995548 0.016041981
000040 bc fc 98 bb 24 1e 70 b9 b9 80 d4 ba 2c a0 bd 3a
       -0.0046688 -0.00022899412 -0.0016212679 0.0014467291
000050 28 90 18 37 06 fb d9 bb a0 80 c8 3b c8 f2 ea 3b
       9.09347e-06 -0.006652239 0.006118849 0.007170055
000060 1a 67 9f 3b 44 83 82 bb 18 2b b5 39 96 24 88 bd
       0.0048645856 -0.0039829332 0.00034555118 -0.06647603
000070 57 5f 2c 3f e6 92 f5 bc 5d 4c 20 ba fa f8 e4 ba
       0.6733298 -0.029977273 -0.00061148946 -0.001746922
000080 e8 ac 0a bc e4 57 66 b9 4b 81 88 bb eb 2f 53 bb
       -0.008464076 -0.00021967251 -0.0041658035 -0.0032224606
000090 6e fa 57 39 1b 13 a9 ba ee 03 a3 bb eb 39 8c bb
       0.0002059729 -0.0012899371 -0.0049748337 -0.0042793653
0000a0 b9 b4 e4 3a 50 d3 90 3b 78 58 57 bd b3 d7 f9 bc
       0.0017448879 0.0044197217 -0.052574605 -0.030498361
0000b0 5f 9b 0c 3f
       0.5492458

dense_21/bias f4 [40]
000000 bb 28 0d bb 1b 1c 05 bb bb 16 1b bd 90 9d 71 ba
       -0.002153917 -0.0020310942 -0.037863474 -0.0009216899
000010 cb 1e 36 bd 09 6c 17 bd c1 f1 c4 3d 65 d6 fb 3b
       -0.04446296 -0.036968265 0.096164234 0.00768547
000020 4f 08 40 bd 14 14 5b bd 05 97 2b bb 37 1b a7 bc
       -0.046882924 -0.053485945 -0.0026182544 -0.02039872
000030 02 fb 01 bd 72 0f e8 bc 91 49 7b bc d0 25 85 bd
       -0.03173352 -0.028327677 -0.015337364 -0.06501353
000040 15 b9 d3 3b 8d a2 01 bb 13 00 53 bd 18 f3 88 3e
       0.0064612725 -0.0019780726 -0.051513743 0.26747966
000050 9d ae 15 bd fc d9 e0 b9 c6 08 dc bc 5d 12 e2 bc
       -0.036543477 -0.0004288702 -0.026859652 -0.027596647
000060 70 60 77 bd 74 e5 c4 3b aa fe 9b bc 31 d7 d2 3b
       -0.060394704 0.0060087983 -0.019042332 0.006434344
000070 3b 0f 38 bd db b8 95 bc ef 4e 2f bd 03 21 a2 bc
       -0.0449364 -0.018276623 -0.042799886 -0.019791132
000080 46 8f 26 bd 08 26 b1 3b c1 8a 4a bd 53 f3 7d bd
       -0.04066398 0.005406145 -0.049448732 -0.06199963
000090 f4 0f e3 bc 95 77 81 bd 3a ae 8b 3e 8a b5 35 bd
       -0.027717568 -0.063216366 0.27281362 -0.044362582

dense_20/bias f4 [40]
000000 da 59 26 b9 31 f6 4e bd f0 2e f0 bb 7b 36 4c bc
       -0.00015864466 -0.050527755 -0.007329814 -0.012464161
000010 64 55 f3 3b b5 23 e9 bc 48 66 36 bd f2 8d 32 bd
       0.007425951 -0.02845941 -0.044531137 -0.0435924
000020 2c cd 2b bd 42 17 6d bd 83 1a 93 bb cb e3 94 3d
       -0.041943714 -0.05788351 -0.0044892444 0.072700106
000030 61 23 f0 bc d0 12 7b 3c c4 8e 1a bd c7 0c 3b bb
       -0.029313745 0.0153243095 -0.03773381 -0.0028541551
000040 a6 b9 af bc d5 a2 af bc fe b4 99 3d fd 41 19 bd
       -0.021450829 -0.021439949 0.07505225 -0.037416447
000050 19 f5 86 3d c9 74 a0 bc b8 63 bf bd f3 07 f9 3b
       0.065897174 -0.019586938 -0.09345192 0.0075998246
000060 e3 e9 0a 3c 9d e8 41 3c d1 a4 84 3c a7 3c a9 bc
       0.0084786145 0.0118352445 0.016191872 -0.020658804
000070 2f 8d 26 bd 06 91 16 3e a2 00 41 3e 96 3f d1 3c
       -0.040661987 0.1470376 0.18847898 0.025543015
000080 d3 35 21 3d ff 95 9e bd e4 2d 83 bc ca c3 18 bd
       0.03935797 -0.07743453 -0.016013093 -0.037296094
000090 10 a4 a0 bd 6d 38 f3 3d 76 8c e9 3d b5 5e 3f 3d
       -0.078437924 0.11875997 0.11403744 0.04672118

dense_2/bias f4 [40]
000000 09 8c b2 bc d7 16 9d b9 6e a0 89 3e 1e 39 f0 3d
       -0.02179529 -0.0002996239 0.2688021 0.11729644
000010 3f c6 f3 bc 20 1c 2d 3e 20 21 b2 3d 4c 77 a6 3d
       -0.029757617 0.1690526 0.08697724 0.08128223
000020 2c 65 fb 3d 8e e8 9c 3d 27 0c 27 3d 67 1c 8e bd
       0.122751564 0.07661544 0.040783074 -0.06939011
000030 d3 9b 8a bd d8 aa 5c 3e 5e 46 15 3e 60 c2 eb ba
       -0.06768002 0.21549547 0.14577624 -0.0017987005
000040 85 d7 08 bd d0 0d e5 3d d7 08 1c 3d 8e ac a6 bc
       -0.03340866 0.11184275 0.038094368 -0.020345952
000050 03 51 71 3d b2 ee 81 bd c0 17 be bd 95 41 2b 3e
       0.05891515 -0.06344356 -0.09281874 0.16724236
000060 41 90 06 3e 95 b7 36 3d 76 7f 08 3d 84 43 7b 3d
       0.13140966 0.04460867 0.03332468 0.061343685
000070 e3 6e 8d 3c ea 65 17 ba 58 f5 2a bd 99 8a 3d bd
       0.017264789 -0.0005775379 -0.041737884 -0.046274755
000080 d2 2f b9 bc 23 e8 02 bd 8c 95 5f bd bb 56 4d 3e
       -0.02260581 -0.031959664 -0.05458598 0.20052616
000090 3e 2c 31 bd 96 22 b3 3d 65 91 87 3b 59 98 90 3d
       -0.043255083 0.08746831 0.0041372054 0.07060308

dense_19/bias f4 [40]
000000 3d 72 87 3c 30 ac 6d bd f6 f2 92 bc 56 a0 c8 3d
       0.016533965 -0.05802554 -0.017938118 0.09796207
000010 e7 24 7d bd 2e 54 45 3e b8 12 4b 3e 09 88 bd 3d
       -0.06180277 0.19270393 0.1983136 0.09254462
000020 c7 42 6a bd c8 4f f9 3d 97 5b 9b bd 82 61 26 3e
       -0.05719259 0.1217342 -0.07585829 0.16248134
000030 49 6f ba bd 53 98 3b 3e 93 ed 02 3e f1 c0 01 3d
       -0.09103257 0.18319826 0.1278594 0.031678144
000040 9d 32 88 3d cb 45 a7 3e 63 f0 82 bb a1 9a 8f bc
       0.06650279 0.32670435 -0.0039959415 -0.017529787
000050 0e 0e 66 3b d6 72 d6 3d 0a de a2 3d 1a 8a 09 3e
       0.0035103592 0.10471122 0.07952507 0.13431588
000060 2e 32 ad 3d fd 34 d7 3d 78 df ab bc 51 44 7d 3e
       0.08456837 0.105081536 -0.020980582 0.24733092
000070 8a 76 1a 3c 9f 25 3d 3d a4 2e 41 bd de 45 9a 3d
       0.009427676 0.046178456 -0.04716362 0.07532857
000080 2e 15 20 bd 50 29 8d bc 28 c4 45 3d e7 c8 f8 bc
       -0.0390827 -0.017231613 0.048282772 -0.030369235
000090 9d 80 2a 3d a7 84 92 3d 29 22 bb 3d 7a 73 88 3e
       0.04162656 0.07154208 0.09137375 0.26650602

dense_18/bias f4 [45]
000000 96 cd 99 3e fc e1 4c 3d 53 51 9e 3d 81 34 15 bb
       0.30039662 0.050020203 0.07730355 -0.002276689
000010 4a 67 1c bb 6b c9 80 bb ba bd 66 3b 24 88 35 bc
       -0.0023865276 -0.003930261 0.00352083 -0.011079822
000020 39 5d ed 3a 8a bb 5f 3b 26 17 ef 3a 8e 53 84 bb
       0.0018109448 0.0034138882 0.0018241152 -0.004038281
000030 ac 57 f8 3e 1c 0b c9 3c b5 66 b3 bc 80 81 a7 3e
       0.48504388 0.02454143 -0.02189956 0.32715988
000040 be e8 23 be a6 2e 95 3d 3b 84 0c 3b e7 82 0b bb
       -0.16006753 0.07284288 0.002144112 -0.002128774
000050 1f c5 86 3b c3 5c 7a 3b b2 e1 db ba 28 e1 49 ba
       0.004112854 0.0038202263 -0.0016775636 -0.00077010924
000060 3d 44 fc ba 88 cb 25 3b 74 1a 9f bb 7b c2 28 be
       -0.0019246411 0.0025298316 -0.0048554484 -0.16480438
000070 55 62 b6 3e 5b bc 12 be f5 bd 84 3e e7 8b b1 3c
       0.35621896 -0.14329664 0.25926176 0.021673156
000080 11 52 29 be 6a a6 9c bb d0 6c c7 bb 37 57 32 3b
       -0.16535212 -0.0047805803 -0.0060859695 0.0027212629
000090 39 8f b0 bb dc 68 e9 3b e3 3e 9d 3a 40 f8 22 37
       -0.005388167 0.007123096 0.0011996891 9.713753e-06
0000a0 cf ed 8b bb e7 2f a2 3b f1 02 24 be 08 cb 0e be
       -0.0042702924 0.004949558 -0.16016747 -0.13944638
0000b0 da 83 c9 3e
       0.39358407

dense_17/bias f4 [40]
000000 7c 89 46 3e 97 02 1e bd 0e 3a b9 bc 81 d5 63 be
       0.19388384 -0.03857669 -0.02261069 -0.22249414
000010 24 b5 fa bc b1 86 c6 3e f5 84 93 3d 51 93 f2 3d
       -0.030603953 0.38774636 0.07203094 0.118445046
000020 79 e7 87 bc 04 79 62 bb 3f c9 81 bc 7d bb 61 bd
       -0.016589867 -0.0034556994 -0.015843032 -0.055110443
000030 eb 77 7d bc 5f 77 67 bd 1e aa 19 bd 0e ca 45 bd
       -0.015470485 -0.056510326 -0.037515752 -0.048288397
000040 ea 24 61 bd be 7b fe bc 9b d7 d5 bb 5e 74 5e bd
       -0.054966845 -0.031064864 -0.0065259463 -0.054310195
000050 4f c4 3c be 40 75 89 bd 64 d4 7a 3e f8 0c 2a bd
       -0.18434261 -0.06711817 0.24495083 -0.041516274
000060 0e 86 ae 3b 2b ea a3 bd ce 84 3c bd af 1d 4e bd
       0.005326039 -0.08003648 -0.04602509 -0.050321277
000070 0c 47 c3 3b 89 7a 11 bd 29 38 03 bd c3 3f 57 bd
       0.005959397 -0.03551725 -0.03203598 -0.052551042
000080 a6 04 61 bd 7d 76 a4 3c 98 03 7e ba ec 1b 07 3c
       -0.054936074 0.02007603 -0.00096898666 0.008246403
000090 43 a2 09 3c 24 ca 3b 3b fd 26 ee bc f2 82 e2 3d
       0.008400503 0.002865442 -0.029071325 0.11060132

dense_16/bias f4 [40]
000000 5f 29 fb bc b7 25 27 bc a9 d3 e4 bc d5 b3 1f bd
       -0.030659376 -0.010201863 -0.027932959 -0.03898986
000010 38 4a a0 3e d3 c0 1a bd f0 34 4e bd 51 5d cd 3b
       0.31306624 -0.037781548 -0.050343454 0.0062672277
000020 b7 ab 21 3c 5c 8f c9 bd cd ec 4b ba b3 68 50 bd
       0.0098676 -0.09841797 -0.00077791215 -0.0508811
000030 16 cb 0e 3d 39 55 c3 bc be 6e 2e bd 6d 80 a1 bb
       0.034861647 -0.023844348 -0.04258608 -0.0049286396
000040 5c 7d a6 bd 1f ec a5 bd 37 90 76 bd eb 9e 42 bd
       -0.08129379 -0.08101677 -0.060196128 -0.047514837
000050 a9 06 24 bd 4a 86 b8 bd 98 86 49 bd 60 ec 14 be
       -0.040045414 -0.090099886 -0.049200624 -0.14543295
000060 8f 45 03 bd ba 9b 4a 3b bf 5a 5e bb 9c 58 8e bc
       -0.032048758 0.0030915574 -0.00339286 -0.017376237
000070 6f 8b 98 bd 7c 05 de bc 86 59 b0 bd cc 79 41 bc
       -0.0744847 -0.027102225 -0.08610825 -0.011808824
000080 0e f3 7b 3b ba 9e 61 bb 9c 60 ab ba 69 73 ee 3d
       0.0038444432 -0.0034426884 -0.0013075056 0.116431065
000090 33 f5 8f bd 3c ea 8a bd fb a5 85 bc 9d 31 97 bd
       -0.0702919 -0.06782958 -0.016314497 -0.0738251

dense_15/bias f4 [40]
000000 34 48 85 bd 42 c9 e2 bd bd e4 36 be f3 6b 0e bd
       -0.06507912 -0.11073543 -0.17860694 -0.034770917
000010 db 18 3c 3e 32 11 42 ba 30 1d 00 bb 5a 01 52 bd
       0.18368857 -0.0007403075 -0.0019548647 -0.05127082
000020 6d ae 4d bd af b5 7a 3e 8a b8 5a bd d9 5e da 3e
       -0.050215174 0.2448337 -0.053398646 0.42650488
000030 f2 bf f2 bc d0 10 92 ba 8a 82 5f bd 5f b8 2c bd
       -0.029632542 -0.0011143927 -0.05456785 -0.042168017
000040 f7 05 5c 3e 0f 50 87 bd 07 cd 6e bd d5 a2 6f 3c
       0.2148665 -0.06607067 -0.058300998 0.0146262245
000050 f2 aa 93 3a 92 e9 0e be 57 cc d8 bc 7a 48 10 3d
       0.0011266156 -0.13956288 -0.026464624 0.03522537
000060 8f 87 02 bd db ec 3d 3c 42 08 ac 3d f4 3f 69 be
       -0.03186756 0.011592115 0.084000126 -0.22778302
000070 94 83 43 3e 3d 5d 8e bb 23 f8 11 be f9 bf 2f bd
       0.19093162 -0.004344611 -0.14254813 -0.04290769
000080 02 ba f2 bc a4 02 e5 bc 82 4b 74 bd be ef a6 3d
       -0.029629711 -0.02795536 -0.059642322 0.08151196
000090 6d 58 31 bd 39 72 88 bd 3b 36 38 3d 9d fa 87 3d
       -0.04329722 -0.06662411 0.044973593 0.066395976

dense_14/bias f4 [45]
000000 57 76 9d 3e d8 02 0c 3d 3a 0b 35 3d 0b 5a 58 3b
       0.3075435 0.0341824 0.04420016 0.0033012654
000010 27 63 9e bb c9 e4 c4 3b d9 d5 40 3b 92 01 ad 3b
       -0.004833597 0.0060087186 0.0029424338 0.005279728
000020 b3 56 22 bc d4 7c 45 ba 25 fd b0 bb 5e 06 88 39
       -0.009908366 -0.00075335545 -0.005401271 0.00025944685
000030 c8 3e 0e 3f d3 e8 13 bd 79 8b 97 3d 3a 01 83 3e
       0.55564547 -0.03611071 0.07399649 0.25586873
000040 2d 6b 80 bc b7 3b 46 3d 0f 29 74 3b 02 40 fb 3b
       -0.015676105 0.048396792 0.0037255918 0.0076675424
000050 f0 a7 25 bb f1 91 db bb 4c a9 e4 ba 25 35 cd 3b
       -0.00252771 -0.006700747 -0.0017445474 0.006262439
000060 1c 7a 20 bc ea c9 42 3b fa e1 77 bb 0e 5d 72 be
       -0.009794738 0.00297224 -0.0037823902 -0.2366831
000070 d1 2a 1d 3f 84 ce 4b bd 81 31 4b 3e bc 62 81 bc
       0.6139346 -0.049757496 0.19843103 -0.01579415
000080 1c 00 97 bd a3 f2 60 bb 94 c8 2f 3b 96 52 8a b8
       -0.07373068 -0.003432431 0.0026822435 -6.5957356e-05
000090 4e 48 1f 3c 8f f2 d1 bb 82 db bb bb 96 48 36 3b
       0.009721829 -0.006407089 -0.0057329545 0.002781426
0000a0 ad 6a 22 bb 70 e0 e2 3b da 6f 1f 3c 24 a0 b0 bd
       -0.0024782822 0.0069237277 0.009731257 -0.086242944
0000b0 b5 dc 8f 3e
       0.28098074

dense_13/bias f4 [40]
000000 20 17 52 3e 4b bc cd bc 18 e5 18 bd d1 49 5e bd
       0.20516634 -0.0251142 -0.037327856 -0.054269616
000010 6c 4b 77 bc ea a4 04 3b 21 66 b5 bc b8 0b 62 3b
       -0.015093666 0.0020239898 -0.022143425 0.0034491848
000020 66 12 c9 bc e8 e6 79 3a f8 aa 16 bd 80 b1 ea 3a
       -0.024544906 0.0009533004 -0.036784142 0.0017905682
000030 e1 10 1f 3c 1b f1 44 bd 99 0f bf bc 25 dd 21 bd
       0.009708614 -0.0480815 -0.023322867 -0.03951754
000040 cb c3 f4 3d 0c 25 6f bd a7 b3 cc bc e3 14 6a bd
       0.11951407 -0.05838494 -0.024988009 -0.057148825
000050 b0 93 16 3e c3 a5 94 3b 9f 2d 4a bd 8c b7 49 bd
       0.14704776 0.004536362 -0.049359914 -0.04924731
000060 6d 3b 5f 3e 31 0e 79 3e f0 6c 34 bd bb 90 80 b8
       0.21800013 0.2432182 -0.044049203 -6.130474e-05
000070 a6 10 4e 3b 38 b2 bf bc 4b f9 72 bd fa ff 57 bc
       0.0031443029 -0.023400411 -0.059319776 -0.013183588
000080 1e 9e 42 be 7f 30 01 be 97 df 06 b9 6f 20 18 bd
       -0.1900563 -0.12616156 -0.0001286253 -0.037140306
000090 ed 94 0b 3e c5 b1 76 bd 6c a3 b7 bc 5e 38 2c 3b
       0.1363103 -0.060228128 -0.022416793 0.0026278715

dense_12/bias f4 [40]
000000 2c c6 7c bd 37 3c ab 3d e3 9b 8c bd 53 59 cb bd
       -0.06171243 0.083610944 -0.068656705 -0.099291466
000010 0b 6f 8a bd bf 4c 22 bd 29 ac 30 3e a8 4a aa 3c
       -0.06759461 -0.039623972 0.17253174 0.020787552
000020 80 da 93 3b bf 4a a7 3b 2f 3e 8f 3b 19 21 b6 3d
       0.004512131 0.005105346 0.0043714265 0.088930316
000030 b8 ec 8e bc 55 8d 95 3c 51 a2 5b bc 92 86 12 bd
       -0.01744686 0.018255869 -0.0134053985 -0.035772868
000040 68 66 cb bb 64 20 8f 3c 17 46 4b 3c 03 80 b8 bd
       -0.006207276 0.0174715 0.012406847 -0.09008791
000050 67 c9 6e bd 90 b4 91 3c f1 67 93 bd fd e7 80 3e
       -0.05829754 0.017786294 -0.071975596 0.25176993
000060 c9 3f 90 3d 2a aa e4 3b 38 b6 a0 3e a2 36 b2 bd
       0.07043416 0.006978293 0.31389022 -0.08701827
000070 45 25 a1 3d 2d 0b 83 bc 51 1e 96 3c b0 71 74 3b
       0.07868437 -0.01599654 0.018325003 0.0037299208
000080 5b a1 a3 bc cc 91 17 3d 36 2c 9f bc 03 da 2c bd
       -0.019974401 0.037004277 -0.019430261 -0.0422001
000090 5b 30 4e 3c 44 c6 00 bd 0e a1 74 bc 1f 9e bf bb
       0.012584771 -0.03143908 -0.014930977 -0.005847707

dense_11/bias f4 [40]
000000 a8 0b 80 bd 2c 6a a4 bc bb f9 c8 3c ea a7 d6 3c
       -0.06252223 -0.020070158 0.024533143 0.026203115
000010 a9 f5 85 3d c2 02 7c 3d 31 ae 45 bc 84 d6 67 3c
       0.065409966 0.061526068 -0.012065456 0.014150266
000020 8c 17 0f bc d5 06 98 bc 92 8f e8 bd 91 04 31 bd
       -0.008733641 -0.018557945 -0.11355509 -0.043217245
000030 08 b5 f8 3e 24 37 00 3e 5e d9 c9 3c 4b 6d 5c 3e
       0.48575616 0.12521034 0.024639782 0.21526067
000040 df 09 4c bc 56 c0 18 bc 37 2a ce 3c ed ff 20 3d
       -0.012453525 -0.0093232 0.025166614 0.03930657
000050 ed 66 51 3c 97 67 a8 3c 86 c6 dc ba cc 05 9c 3c
       0.012780887 0.020557208 -0.0016843833 0.019045733
000060 e3 b5 cf bc 74 c7 e9 3c 0c c0 f1 bc cb 2c e1 bc
       -0.025355285 0.02853749 -0.02951052 -0.02748718
000070 5f 17 a2 bd cb 6d ce 3c 24 46 22 be 36 d7 3c be
       -0.07914614 0.025198838 -0.15847069 -0.18441471
000080 3d 06 e4 bd d4 aa a4 3c b0 99 51 bd 92 0d 0c 3e
       -0.11134002 0.020100988 -0.05117196 0.13677052
000090 f4 c6 b1 bd 19 56 9b bd 0b 12 b8 bd 43 c9 60 bd
       -0.086805254 -0.07584781 -0.089878164 -0.054879438

dense_10/bias f4 [45]
000000 77 80 69 3e a8 2c c5 3d b3 c2 98 3d 24 e9 8c 3b
       0.22802912 0.09627658 0.07459011 0.0043002535
000010 ba b5 8e 3a 68 d9 c1 3b e4 8e e1 3a c1 9e b1 bb
       0.0010887899 0.0059158094 0.0017208722 -0.0054205363
000020 0f 19 eb 3b c2 f0 2a 3b 4b 60 7a 3a 01 1a 1f bb
       0.007174618 0.0026083444 0.0009551092 -0.0024276974
000030 cb f9 af 3e 18 55 2c bc 64 35 98 bb 4b 78 a6 3e
       0.34370264 -0.010518335 -0.0046450365 0.3251365
000040 05 93 95 bd ab a8 4e 3d 66 36 b0 3b db f7 9b 39
       -0.073034324 0.050453823 0.0053775785 0.0002974857
000050 d8 00 49 bb b6 eb 22 ba bd 97 9e 3c b3 a8 e4 bb
       -0.003067067 -0.0006214933 0.019359464 -0.0069781183
000060 f4 9d 89 ba 35 90 a5 3b fa ee d2 3a a6 89 2a be
       -0.0010499344 0.005052591 0.0016092949 -0.16654071
000070 07 17 5c 3e f5 7e 9b bd b2 b7 76 3e 4e 02 2b 3d
       0.21493159 -0.075925745 0.24093512 0.041750245
000080 19 a4 70 be c6 b1 5e bb 38 83 04 bb 3c 54 42 3b
       -0.23500098 -0.0033980473 -0.0020219814 0.0029652258
000090 1e dc 36 bb df ec cb bb 98 0d aa bb b2 1d cb 3b
       -0.0027902196 -0.0062233056 -0.005189609 0.0061986083
0000a0 6b b0 25 3b 11 c9 61 ba cd 8b d1 bd d6 ab ee bc
       0.0025282155 -0.000861303 -0.10231743 -0.029134672
0000b0 20 83 9a 3e
       0.30178165

dense_1/bias f4 [40]
000000 13 cd 48 3e 57 d6 fa 3d 06 53 97 3d 00 b8 e2 3c
       0.1960948 0.12247913 0.07388882 0.027675629
000010 91 fa a5 3d be 16 03 3b 64 91 94 3d 07 2b b5 3d
       0.081044324 0.002000257 0.072542936 0.088460974
000020 58 39 b3 3d 5b 5c 53 bd 5b 6e 0b 3e 36 c4 8c ba
       0.08751172 -0.05160175 0.13616316 -0.0010739628
000030 5f 8b c4 bc 11 b4 1e 3b 86 03 3d 3d 40 32 89 bd
       -0.023992239 0.0024216215 0.04614594 -0.066990376
000040 34 a1 5c 3e f5 73 ca bd a9 06 46 3c 2b 2b b3 3d
       0.21545869 -0.09885398 0.012086549 0.08748468
000050 00 ef 13 bb 41 11 99 3e b6 1a 97 bd c3 f0 6b bd
       -0.0022572875 0.29895976 -0.073781416 -0.057602655
000060 fa 30 49 bd e3 51 01 bd 1c ca 29 3e 45 d9 31 3d
       -0.049118973 -0.031572234 0.16581005 0.043420095
000070 50 7f 8b 3d e8 87 37 bd 10 e6 0c 3d 9e 37 b0 bd
       0.06811392 -0.044807345 0.034399092 -0.08604358
000080 bc ee 8d 3c 5a 46 10 3e 5c d7 90 bb d9 21 13 3e
       0.017325751 0.14089337 -0.004420204 0.1436838
000090 b7 50 f3 3d 0d 92 76 3e 71 e9 70 bc 23 80 0c bd
       0.118806295 0.24079151 -0.014704094 -0.03430189

dense/bias f4 [40]
000000 3b 10 93 3d 05 06 e7 3c 57 0b cd bd 1c 68 72 bd
       0.0718083 0.028201113 -0.100119285 -0.059181318
000010 89 dc 79 bd a2 dc 2b bd bd b1 eb 3d c1 cb a3 3d
       -0.061001334 -0.04195846 0.1150851 0.07997847
000020 79 26 ba bd 8d a9 67 3e dd 76 f1 3d 16 43 d2 3d
       -0.09089369 0.22623272 0.117902495 0.10266702
000030 fb 29 05 3e 71 51 a0 3d 50 c5 a1 3c fb b6 ba 3d
       0.13004296 0.07828034 0.019747406 0.09116932
000040 d8 bd b4 bc bf 48 56 3d de 1e 3d 3c 0c 9d 32 bd
       -0.02206318 0.05231547 0.011543004 -0.043606803
000050 50 0d 6d 3b db 49 b1 3d ca 42 9c 3d a7 60 bc bd
       0.0036171265 0.08656665 0.076299265 -0.091981225
000060 c0 8d 82 3d 6b 98 c9 bc d9 b3 01 3d ca 0d 21 3d
       0.06374693 -0.024608811 0.031665657 0.03931979
000070 17 22 36 3d 18 f4 b5 3d 50 05 2e 3e 39 24 f1 3d
       0.044466104 0.08884448 0.16994214 0.11774487
000080 09 b8 0a 3e 97 36 db bd 02 cf be 3d 67 36 0a 3e
       0.13546766 -0.107037716 0.09316827 0.13497315
000090 84 96 12 3d f6 bf 18 3e 2a 0e bb 3d 0a b0 86 bd
       0.035788074 0.14916977 0.09133561 -0.065765455

bias/bias f4 [15]
000000 3d d1 db 3d 6a 95 49 bd ca 10 6b 3d ce 37 5f 3e
       0.107332684 -0.049214758 0.05738906 0.21798632
000010 ff d1 e0 bd d6 1f 47 3d 38 bf 99 3e b9 93 18 bd
       -0.109775536 0.048614345 0.300287 -0.037250254
000020 1b 3e 37 bd 98 c4 4f 3e 13 a4 84 bd 97 44 4f ba
       -0.044736963 0.20289838 -0.06476607 -0.0007906644
000030 ff 94 b9 3d 5c c0 8d bc cd 66 1d 3d
       0.09061622 -0.017303638 0.038428117

model_1/dense_11/MatMul f4 [40, 15]
000000 32 b6 9e b7 38 cd 7c 36 65 a7 9b 38 aa 05 1c b8
       -1.8919909e-05 3.767038e-06 7.4221556e-05 -3.7198573e-05
000010 d4 a9 da b7 c8 ea cd b7 34 e3 d4 36 5f c2 08 38
       -2.6066708e-05 -2.4547233e-05 6.3445423e-06 3.260595e-05
000020 0c 7b 97 36 1a 73 15 38 fc b6 d3 b7 2c 09 e5 37
       4.514475e-06 3.5631565e-05 -2.5238369e-05 2.7303198e-05
000030 b0 74 51 37 d4 31 ab b7 10 19 46 b5 c8 58 c0 37
       1.2484539e-05 -2.0407992e-05 -7.379722e-07 2.2929526e-05
000040 58 d8 2a 37 a9 db 37 b8 3c 8f 59 b7 a7 a7 d6 37
       1.0183161e-05 -4.3835174e-05 -1.2967557e-05 2.5588857e-05
000050 c4 5c 2c 38 f7 f1 17 37 17 8a a4 b7 1a 85 12 37
       4.109439e-05 9.056638e-06 -1.9614627e-05 8.733268e-06
000060 ea 37 5a 36 aa 3d 77 b7 9c a0 07 38 d0 4f 94 b7
       3.2517078e-06 -1.47367045e-05 3.2336087e-05 -1.768014e-05
000070 fc 00 4b 38 5f 2f 97 37 6d e1 3a b8 8f f4 07 38
       4.839989e-05 1.8022662e-05 -4.45558e-05 3.241427e-05
000080 ae 0f 29 38 b8 b5 dd b6 b8 a3 4d 37 98 f7 3f b9
       4.0307343e-05 -6.607468e-06 1.2257071e-05 -0.00018307415
000090 5a bc 16 38 a0 84 4c b5 54 ac bd b6 92 c0 22 37
       3.5938203e-05 -7.6188917e-07 -5.6527006e-06 9.700789e-06
0000a0 30 b7 d1 b4 7f 80 22 38 7d f0 86 37 2d c6 82 b7
       -3.906257e-07 3.874348e-05 1.608603e-05 -1.558949e-05
0000b0 ee 7f 30 36 50 32 9c 38 59 e1 48 38 f1 50 71 37
       2.6300509e-06 7.448031e-05 4.7893587e-05 1.4383565e-05
0000c0 f9 c1 d2 38 01 c8 82 38 80 9e 10 36 82 6a 4c b7
       0.000100497105 6.236137e-05 2.1549931e-06 -1.2184146e-05
0000d0 fe d6 63 b7 4b 39 8f b8 1d 96 a0 37 d8 62 b5 b7
       -1.3580311e-05 -6.829443e-05 1.9143388e-05 -2.162291e-05
0000e0 c0 5e 57 b7 ec 45 1d 38 9c 20 14 b7 80 1b d8 37
       -1.2837059e-05 3.7496837e-05 -8.82908e-06 2.5762012e-05
0000f0 23 46 14 38 a4 ac b5 b7 ec a2 4d 38 33 ac 2f 38
       3.535127e-05 -2.1657273e-05 4.902754e-05 4.1883624e-05
000100 92 54 20 38 b6 b1 34 b7 a0 d2 1c b8 c0 4d 80 38
       3.8225735e-05 -1.0770213e-05 -3.7389458e-05 6.117998e-05
000110 c8 7a 13 37 17 25 1f b7 7c 86 d0 b7 be 68 b8 37
       8.79047e-06 -9.485774e-06 -2.4858156e-05 2.1983284e-05
000120 46 d4 6f 38 e6 8e 87 b7 5c 04 82 36 74 a7 cd 38
       5.7179735e-05 -1.6159796e-05 3.8748094e-06 9.806352e-05
000130 38 a3 4a 38 c3 75 40 b9 95 a5 bc 38 76 93 ad b8
       4.8312562e-05 -0.00018354417 8.9953806e-05 -8.2767496e-05
000140 d0 db a1 37 58 30 53 36 fb 05 03 38 e0 f0 69 b6
       1.9295054e-05 3.146959e-06 3.1238404e-05 -3.4859913e-06
000150 32 e7 43 b7 6b e6 97 38 96 bf be 38 36 54 01 39
       -1.1676735e-05 7.24316e-05 9.095592e-05 0.0001233377
000160 be 54 54 b7 1c f1 ba 37 58 7d 5e b5 d4 83 5b 37
       -1.2655915e-05 2.2285203e-05 -8.2883844e-07 1.3084111e-05
000170 c4 9e b1 b6 7d 04 c2 37 c7 6d b5 38 94 94 0d b7
       -5.293494e-06 2.3128692e-05 8.6512e-05 -8.438848e-06
000180 98 77 28 38 d0 97 2c b7 ba 53 c1 37 68 63 58 b7
       4.01657e-05 -1.02873455e-05 2.3046381e-05 -1.2897748e-05
000190 de c7 f3 b7 fe 17 1e b8 a0 a8 b8 b5 ea ce 52 37
       -2.9060928e-05 -3.769248e-05 -1.3758145e-06 1.2565151e-05
0001a0 48 2f 43 b8 ea 4d e8 b7 7e 46 94 b7 80 bb bb b8
       -4.6535657e-05 -2.7692837e-05 -1.76758e-05 -8.9517795e-05
0001b0 74 a4 13 37 ee b6 8a b8 13 d3 10 b8 64 91 9b 37
       8.8001725e-06 -6.614426e-05 -3.4528854e-05 1.8545143e-05
0001c0 00 df 42 b6 84 61 e9 37 fe d0 0e 37 a1 3d 99 37
       -2.9038056e-06 2.7821174e-05 8.512519e-06 1.826772e-05
0001d0 39 d4 3b 38 1c bf b0 b6 41 cb 5e 38 22 96 ca 37
       4.4781922e-05 -5.267457e-06 5.311822e-05 2.4150188e-05
0001e0 8c bf 6d b7 ef 9f f2 b7 2c c2 c6 b6 16 8e 49 b7
       -1.4170899e-05 -2.8923123e-05 -5.9234644e-06 -1.2013616e-05
0001f0 10 45 16 b7 2e cf a2 b8 40 65 92 37 c7 e6 74 b7
       -8.956777e-06 -7.763352e-05 1.7451704e-05 -1.4597265e-05
000200 79 94 35 b7 d5 ca 01 b8 39 d6 7f 37 25 ed 24 b7
       -1.082301e-05 -3.09449e-05 1.5249062e-05 -9.830376e-06
000210 86 ee 9f 37 c2 c0 57 38 70 a8 1d b8 a4 63 b7 b7
       1.9065348e-05 5.1439514e-05 -3.7588587e-05 -2.1861699e-05
000220 22 0c 29 b8 9c 6e 8b b7 80 4b b8 b5 00 32 4b 36
       -4.030404e-05 -1.6621598e-05 -1.3731042e-06 3.027846e-06
000230 8b ea 59 37 0d 33 c8 37 c8 ca 93 b6 c0 25 22 35
       1.2988817e-05 2.386563e-05 -4.4045482e-06 6.0404636e-07
000240 3c b8 3b b8 9c 73 c1 36 44 9e 24 37 02 2b 0f 38
       -4.4755856e-05 5.765307e-06 9.812011e-06 3.413391e-05
000250 7f d3 ef 37 a8 24 a3 b7 33 70 29 3b 4d 68 16 3c
       2.8589506e-05 -1.9448184e-05 0.002585423 0.009180141
000260 85 16 6e 3b 23 91 1d 3e 33 d9 0c 3c ba d3 ed be
       0.003632934 0.15387397 0.008596706 -0.46450597
000270 06 3e 32 3a 16 77 24 bb 64 a7 91 39 e2 6d 49 3b
       0.00067994033 -0.0025095395 0.0002778127 0.0030735661
000280 86 62 99 3b de 75 bc bb ab 64 a2 3b 72 35 f5 ba
       0.0046809344 -0.0057513556 0.004955848 -0.0018707945
000290 e1 ff 32 bb 30 9b 0f b6 22 75 19 38 e8 75 30 38
       -0.002731316 -2.1398992e-06 3.658713e-05 4.207148e-05
0002a0 9e 99 64 37 15 42 d7 37 23 ef 2a 37 b0 35 be b5
       1.3625626e-05 2.566077e-05 1.0188468e-05 -1.4171728e-06
0002b0 7b 9e c8 b7 ad bb 23 38 84 c1 8f b5 34 27 c4 37
       -2.3915656e-05 3.9037015e-05 -1.0710651e-06 2.3383276e-05
0002c0 04 17 cd b6 4a 24 88 b7 36 e5 8f b7 2d 30 da b6
       -6.1121555e-06 -1.6229362e-05 -1.7153663e-05 -6.5025147e-06
0002d0 ae de 45 3d 89 06 11 ba 4a 39 8a 3b 2b 14 ec be
       0.048308067 -0.0005532285 0.004218255 -0.46109137
0002e0 f6 ed fd 3d 92 7c 88 3e 14 6d 19 bc 86 77 96 3b
       0.12398903 0.2665754 -0.009364385 0.004591885
0002f0 23 d6 2d 3b a1 46 b2 bb 70 dc 28 bc 0c 97 48 3c
       0.002652534 -0.0054405485 -0.010306463 0.012243044
000300 ef da 4f bb 6c 0f 82 3a 36 7e 2e 3b cb be cc 3d
       -0.0031716188 0.0009922809 0.002662552 0.09997328
000310 48 7d 93 b9 1c 83 d1 38 a2 b6 5b bb e9 98 e7 bb
       -0.00028131367 9.9903176e-05 -0.0033525606 -0.007067789
000320 77 67 6e 3b 92 85 22 ba e2 94 fc 39 bc fb ae 3a
       0.0036377588 -0.0006199713 0.00048176112 0.0013350169
000330 f5 4a 1c ba 5b e0 84 3a 37 99 66 ba dd 95 d1 ba
       -0.0005962097 0.0010137664 -0.00087966345 -0.0015990097
000340 89 ba 24 3b ac 8d da 39 22 02 82 37 74 aa c0 b7
       0.0025135598 0.00041685754 1.54982e-05 -2.2967557e-05
000350 58 2b 6d 38 d0 6c 7a b5 4f c1 00 b8 12 a8 9a 37
       5.654557e-05 -9.32906e-07 -3.069761e-05 1.8436494e-05
000360 ae 19 c8 b8 c9 75 49 37 58 b9 c1 b7 f8 f3 8d b7
       -9.5415264e-05 1.2007958e-05 -2.30937e-05 -1.6922117e-05
000370 f2 7f 89 b7 ad 5f 27 b7 7d 61 11 37 ee 99 29 37
       -1.6391252e-05 -9.976252e-06 8.665372e-06 1.01090245e-05
000380 94 ee 31 37 03 a2 20 3c 73 b8 db 3b 72 27 36 3b
       1.060557e-05 0.009804252 0.0067053377 0.0027794507
000390 34 27 4e be 59 b7 2e 3e bb ed 48 3c ad 3d 91 3b
       -0.20132142 0.17062129 0.012263711 0.004432401
0003a0 29 bd 06 bc 44 48 c2 3b d2 d2 f9 3b b3 7d b9 bb
       -0.00822381 0.005929025 0.0076240087 -0.0056607365
0003b0 ea e9 48 ba a7 82 fe 3b af 27 fd 3b 99 7e 7b bc
       -0.00076642504 0.00776704 0.007725678 -0.015350007
0003c0 4f b8 55 37 0c 6a 96 37 78 cb 22 38 6e 96 3b 37
       1.2738702e-05 1.7930775e-05 3.8813305e-05 1.1181093e-05
0003d0 2e 3f ab 37 b7 fd 4a b7 15 f3 f9 b6 16 e3 2b 38
       2.0414209e-05 -1.2099211e-05 -7.4490767e-06 4.0981067e-05
0003e0 bb 84 14 37 e0 91 3c b6 00 94 fe 31 90 70 02 b8
       8.852391e-06 -2.8099093e-06 7.4091986e-09 -3.1099247e-05
0003f0 f9 61 aa 37 bb 77 53 b7 d8 48 ed b6 be ae d7 b7
       2.0311201e-05 -1.2604457e-05 -7.0716305e-06 -2.5711368e-05

model_1/dense_12/MatMul f4 [40, 40]
000000 24 74 37 b9 9a 00 1f b8 0c 06 58 38 7f 24 61 38
       -0.00017495506 -3.7909114e-05 5.1504045e-05 5.367817e-05
000010 02 82 8f b8 05 36 ed b8 6e 1a a3 36 d8 5c 58 38
       -6.842987e-05 -0.000113111026 4.8608554e-06 5.158488e-05
000020 2e 85 07 38 40 83 f0 37 b8 af a7 b6 6e 73 06 b8
       3.231054e-05 2.8671348e-05 -4.997444e-06 -3.2055592e-05
000030 c0 3c e3 b8 d9 bc 91 b8 80 4e 0a 39 3f 34 ca 37
       -0.00010835519 -6.9493144e-05 0.00013189949 2.4104605e-05
000040 47 8c 97 37 60 f2 7d b8 d4 75 f8 38 68 23 d3 35
       1.8065924e-05 -6.054563e-05 0.00011847509 1.573103e-06
000050 66 40 ba b7 ee 98 f1 38 40 25 fe 36 f4 87 67 b7
       -2.2202916e-05 0.00011520261 7.5741264e-06 -1.3800327e-05
000060 a8 6c 2c 37 d0 fa bc 36 40 07 25 36 38 ee 7e 36
       1.0277297e-05 5.632035e-06 2.4591136e-06 3.798761e-06
000070 03 d9 8c 37 7e f5 36 b8 bc 22 9d b8 4c 6b 01 b8
       1.6790354e-05 -4.3620814e-05 -7.492813e-05 -3.0855925e-05
000080 14 1b b1 38 18 ff d3 35 d5 fa 60 b8 5d 51 da 37
       8.4450614e-05 1.5794967e-06 -5.3639367e-05 2.6025513e-05
000090 04 39 82 38 be 7c 1d b9 1e 5a 8e 39 46 8b 63 b8
       6.209503e-05 -0.00015019157 0.00027151493 -5.4250726e-05
0000a0 ee 24 f3 b7 45 30 84 37 4d 66 bb 38 08 b1 e7 b7
       -2.8985054e-05 1.5758103e-05 8.93591e-05 -2.7619782e-05
0000b0 30 27 75 38 5c c7 40 39 19 b0 f8 b6 bb 2e 0f 39
       5.8449048e-05 0.00018384814 -7.4114764e-06 0.00013654951
0000c0 68 6e a7 b7 5f 35 a9 38 5b 61 59 bb 70 fd cc b5
       -1.9959363e-05 8.068489e-05 -0.00331696 -1.5272944e-06
0000d0 b6 b9 d7 3b ae ad 3e 3a 24 e8 b6 38 48 67 84 3b
       0.0065834178 0.0007273805 8.721676e-05 0.0040406324
0000e0 39 74 57 b8 d8 f9 33 b7 64 3c 5d 38 48 eb 12 39
       -5.1368235e-05 -1.0727403e-05 5.274675e-05 0.00014011294
0000f0 1a 1d 8d bb 5a 92 c9 38 d6 ce 9a ba b0 f2 07 39
       -0.0043064477 9.611687e-05 -0.001181091 0.00012965011
000100 1b bf 8d 3e de d6 e2 38 5f 73 b1 b7 06 d2 83 b8
       0.27684864 0.00010816542 -2.1153768e-05 -6.285687e-05
000110 6d 8e 16 bb 8a 7c 50 bb 06 8d 05 bb 16 ec 60 bd
       -0.0022973076 -0.0031812512 -0.0020378246 -0.05491265
000120 e0 1f 47 3e 7b b9 f2 bc 08 3b 40 37 a1 81 a2 ba
       0.19445753 -0.02962946 1.1457836e-05 -0.0012398252
000130 5b 56 36 37 de a4 7d bb d2 3e e8 bb 30 2f 97 b8
       1.0868152e-05 -0.0038703005 -0.007087567 -7.2090304e-05
000140 d9 2f 53 37 04 24 02 37 65 1b bc 37 f2 7a d9 37
       1.258772e-05 7.756989e-06 2.2424103e-05 2.5925667e-05
000150 64 ed 79 36 28 37 9f b5 fe 4a 3f b7 7a b5 94 b7
       3.724207e-06 -1.1862476e-06 -1.1401948e-05 -1.7727481e-05
000160 7f ab 1b b7 a6 f2 a8 b6 0a f8 95 37 9e 0b dd b7
       -9.2786495e-06 -5.035038e-06 1.7877686e-05 -2.6350663e-05
000170 fc 3a 13 b7 22 7e f4 35 5f eb a3 b8 f0 6e dc b7
       -8.775616e-06 1.8216126e-06 -7.816287e-05 -2.6277703e-05
000180 c2 28 bd 37 51 6d 50 b7 00 b2 39 34 c5 7e 2a b7
       2.2549535e-05 -1.2423218e-05 1.7294224e-07 -1.0162305e-05
000190 ff e0 83 b6 86 44 f5 b7 f2 3b 83 b7 41 f0 a1 b7
       -3.930297e-06 -2.9238185e-05 -1.5644331e-05 -1.9304573e-05
0001a0 c2 66 c1 b7 72 27 ae b7 c1 5b 05 b8 54 e9 e6 36
       -2.3055243e-05 -2.0760785e-05 -3.1795124e-05 6.881697e-06
0001b0 62 bf 40 b8 ce a6 ab b7 14 55 68 b8 80 c6 05 34
       -4.5954606e-05 -2.0462463e-05 -5.5392346e-05 1.2458804e-07
0001c0 16 16 8f b7 18 69 7b 37 ae 16 e2 b7 5c 94 07 b7
       -1.7057213e-05 1.4985235e-05 -2.695186e-05 -8.08117e-06
0001d0 34 80 84 b6 56 e3 62 b6 ca 76 7a b6 00 24 4d b3
       -3.9488314e-06 -3.3808951e-06 -3.7322047e-06 -4.7763024e-08
0001e0 e7 bf b8 37 66 5b 8b 36 f1 11 4c 39 73 73 74 39
       2.202387e-05 4.153163e-06 0.0001946164 0.00023312662
0001f0 00 52 91 b5 d7 ef 94 39 65 09 1b 38 d1 02 39 39
       -1.0827207e-06 0.00028407454 3.696363e-05 0.00017644024
000200 8e dc 39 37 12 05 19 38 16 43 a6 bb c8 1c 54 38
       1.1078211e-05 3.6482765e-05 -0.0050739152 5.0571543e-05
000210 90 b0 80 bd e8 b2 7b 3b e6 58 e0 38 c1 21 33 3b
       -0.062836766 0.0038406197 0.00010697711 0.0027333351
000220 52 d3 43 b7 b6 09 5d b8 f4 d8 6c 39 9a 8b 91 b9
       -1.1672108e-05 -5.269955e-05 0.00022587535 -0.00027760566
000230 d6 ad 2b 3d c0 90 8b 38 b0 d1 d3 39 da c9 9f 39
       0.04191383 6.654998e-05 0.00040401286 0.00030477234
000240 33 c1 c2 bb 66 d2 05 ba 7c 17 7b b8 32 f8 8f 37
       -0.0059434413 -0.0005104899 -5.9864935e-05 1.7162503e-05
000250 b8 2f e4 39 15 6d 66 3c 0c 53 c5 3a cd 89 fd 3e
       0.00043523102 0.014064093 0.0015054657 0.49519196
000260 25 4d 10 bc 89 2d ed 3b 5a f9 a8 39 c0 8d fa 37
       -0.008807455 0.007238094 0.00032229238 2.986833e-05
000270 0c df 2c b8 93 2f 95 bb 6d 98 09 3e 16 46 ae 36
       -4.1215724e-05 -0.0045527904 0.13437052 5.193763e-06
000280 68 da 10 b7 ac b4 03 38 f2 a2 3b b9 cc df f8 b8
       -8.6339205e-06 3.1401098e-05 -0.00017894412 -0.00011867247
000290 a1 18 12 38 0e b6 8a 38 80 2f 8d 36 78 d3 5b 38
       3.483205e-05 6.614263e-05 4.207657e-06 5.2410614e-05
0002a0 36 f3 5b 37 62 47 7a b7 e1 b1 70 3b 43 71 15 b7
       1.3110044e-05 -1.4917781e-05 0.0036727118 -8.907463e-06
0002b0 1e ec 99 bb c2 8f c5 b9 74 e8 38 b9 fd d6 ec 39
       -0.004697337 -0.00037681876 -0.00017634203 0.00045173606
0002c0 52 ae 62 b7 80 e5 d7 36 10 9d 06 b9 4d 80 0c b9
       -1.3511237e-05 6.4342166e-06 -0.00012837746 -0.00013399236
0002d0 a6 40 86 3a 83 96 36 b8 18 fe 03 39 7a b7 1c b9
       0.0010242655 -4.3532356e-05 0.00012587791 -0.0001494567
0002e0 aa e3 95 3c 3e e8 13 37 4c f4 90 b8 f0 4d a0 37
       0.018297035 8.815956e-06 -6.911959e-05 1.9109779e-05
0002f0 d8 94 5a b9 f2 e8 31 b9 59 dc 0d 3b 3e 19 29 3b
       -0.00020845549 -0.00016966814 0.002164623 0.00258024
000300 e5 22 2c 3d db 55 b1 3e cc 9d 7c 3a 66 43 ba b8
       0.042025466 0.34635815 0.00096365507 -8.881725e-05
000310 ef 29 32 38 0a 87 4c 3b f3 b0 98 3a c0 82 90 38
       4.247756e-05 0.003120842 0.0011649415 6.890809e-05
000320 e4 ee 4a b5 b4 c4 65 36 8f b6 e5 37 0b 7c 5b b7
       -7.5598496e-07 3.4238155e-06 2.7383938e-05 -1.3082298e-05
000330 f2 02 17 37 26 dd 20 38 f2 f4 f7 37 c8 32 56 36
       9.000987e-06 3.8352933e-05 2.9558756e-05 3.1918044e-06
000340 17 d2 c6 37 c0 a5 c4 36 88 63 06 b6 3b ae ac b7
       2.370127e-05 5.860551e-06 -2.002549e-06 -2.058513e-05
000350 9b 01 01 b7 65 2f d9 36 5a ce b6 b8 fe 11 5c b8
       -7.689373e-06 6.4726214e-06 -8.716872e-05 -5.2468844e-05
000360 e2 d2 3c b7 b8 fb f6 36 ea ff d3 b7 3a c3 80 38
       -1.1254773e-05 7.360675e-06 -2.527233e-05 6.1398794e-05
000370 7a 38 37 37 c1 8c 54 b8 4a 0a 21 36 8e 3e fc b7
       1.09207995e-05 -5.0675826e-05 2.3996859e-06 -3.006987e-05
000380 46 66 9b b8 e4 d5 25 37 e4 77 b1 b7 c0 6a 97 b7
       -7.410026e-05 9.884567e-06 -2.1155873e-05 -1.8050312e-05
000390 66 55 03 38 e6 45 7f b7 35 56 2a b9 70 5d 4b 36
       3.1312367e-05 -1.5215459e-05 -0.00016244578 3.0303745e-06
0003a0 08 83 31 b7 c8 76 d3 35 f7 e9 90 b8 a6 37 8d b7
       -1.058053e-05 1.5755295e-06 -6.9100344e-05 -1.6834423e-05
0003b0 13 b0 86 37 c4 11 03 b7 ea 04 e6 37 be c8 8d 37
       1.6056036e-05 -7.812345e-06 2.7420425e-05 1.6901988e-05
0003c0 6e c7 f2 b7 10 32 8b 36 d5 cb 02 b9 f7 57 a9 b8
       -2.8941515e-05 4.148351e-06 -0.000124737 -8.074933e-05
0003d0 fc 36 19 b8 9b c3 95 38 2c 34 ca b7 06 61 67 b9
       -3.652925e-05 7.141308e-05 -2.4104571e-05 -0.00022066021
0003e0 22 90 a8 b6 66 07 c2 37 66 2f 46 ba 50 b9 9a 37
       -5.0235694e-06 2.3130047e-05 -0.00075601635 1.8444523e-05
0003f0 99 7d a1 3a b4 2f 71 b7 08 71 1e b7 28 9e 19 3a
       0.0012320756 -1.4375826e-05 -9.443851e-06 0.0005860054

model_1/dense_13/MatMul f4 [40, 40]
000000 73 32 c0 37 5b e2 af ba b6 cc 16 37 32 cd 16 bd
       2.2911676e-05 -0.00134189 8.98836e-06 -0.036816783
000010 c9 09 a4 be 92 99 41 37 04 bb 14 3e dd 70 7c b9
       -0.32038715 1.1539452e-05 0.14524466 -0.00024074638
000020 98 e1 b0 36 9e 81 39 39 44 1c 25 b9 c4 5b 64 bb
       5.2714713e-06 0.00017691261 -0.00015746156 -0.0034844736
000030 e2 89 d6 bc 6c 7c 0c b9 50 cc ef b7 2b 99 b9 b7
       -0.026188795 -0.00013397791 -2.858616e-05 -2.2125043e-05
000040 ec 4b 8c b7 9a 72 29 ba aa 73 d1 b8 25 9d 82 b7
       -1.6724654e-05 -0.00064639153 -9.987441e-05 -1.5570384e-05
000050 80 e2 2d 38 0f 73 52 ba 94 9f 37 bd 3b a0 fe 3b
       4.145736e-05 -0.00080280093 -0.04482992 0.007770566
000060 f7 06 1e 3d 4c b7 ee 36 df 85 b0 be 40 3e 15 bc
       0.03858086 7.1142913e-06 -0.34477136 -0.00910908
000070 a6 e6 af ba e2 06 68 38 3a d1 59 b8 ec 90 83 b8
       -0.0013420179 5.531952e-05 -5.193169e-05 -6.2735606e-05
000080 79 c7 b7 b8 6f f3 f4 b9 ea d2 ac b7 80 6d a6 35
       -8.763275e-05 -0.0004672068 -2.0602212e-05 1.2399832e-06
000090 58 bc bd bb e9 f0 2f b8 46 69 34 bb 0f 36 f8 b6
       -0.0057902746 -4.1947616e-05 -0.0027528568 -7.397269e-06
0000a0 50 79 76 b7 28 af ce b8 dc 45 69 37 1d 49 b1 39
       -1.4690988e-05 -9.855471e-05 1.3904148e-05 0.00033814544
0000b0 ee 42 b4 39 85 ff 93 b9 3c c4 1d b8 e4 53 f7 37
       0.00034382142 -0.00028228402 -3.7614474e-05 2.948376e-05
0000c0 14 c7 c0 36 39 b4 7b 39 a5 78 72 39 27 11 19 b8
       5.7452216e-06 0.00024004364 0.00023123862 -3.6494017e-05
0000d0 a7 14 00 3a 20 a2 3a b9 61 36 a1 39 77 ba a7 b9
       0.000488589 -0.00017798739 0.00030748828 -0.0003199165
0000e0 93 05 98 b9 cf d5 ff 39 98 d4 93 39 16 e9 3e 38
       -0.00028995852 0.0004879669 0.0002819642 4.551661e-05
0000f0 02 13 a5 b8 4c 78 24 b9 71 75 14 39 9e a9 09 b8
       -7.8713536e-05 -0.00015685073 0.0001415813 -3.2821314e-05
000100 43 67 17 39 fd 74 d4 37 56 ff 0d 39 c9 09 80 b9
       0.0001443895 2.5326846e-05 0.00013541928 -0.00024421353
000110 24 39 bb b8 cd b9 1f b9 b3 b5 18 38 3a 4b 35 b9
       -8.927498e-05 -0.00015232638 3.6408845e-05 -0.00017289529
000120 41 50 24 b9 72 b8 07 39 5b 24 ed 38 0d e0 23 39
       -0.00015670156 0.00012943315 0.000113078124 0.00015628357
000130 fb 46 30 3a c2 e1 8f b9 02 6c 3c b9 0e cc c1 37
       0.0006724444 -0.00027443288 -0.00017969313 2.3102413e-05
000140 84 ac 8e b8 ac 73 9e b8 f0 53 57 38 bc 32 42 39
       -6.803221e-05 -7.555573e-05 5.1338167e-05 0.00018520182
000150 60 83 38 b6 bd 3b 8f 39 70 4d 43 b7 10 e4 b2 b6
       -2.7494607e-06 0.00027319594 -1.1640936e-05 -5.3313634e-06
000160 da 03 7e 39 d4 21 43 b8 9c b1 29 b9 86 1d 91 b7
       0.00024224762 -4.6523128e-05 -0.0001618326 -1.7299095e-05
000170 00 c9 61 b5 fc 22 df b8 38 ca d4 38 f4 b5 3a 38
       -8.4111525e-07 -0.00010639985 0.00010146614 4.4515313e-05
000180 50 0c 06 b9 6e c4 08 b9 f8 c0 1c b8 fc f8 86 b9
       -0.00012783823 -0.00013043146 -3.7373014e-05 -0.0002574398
000190 f2 27 86 39 99 c3 3e 39 7d d7 86 b9 b8 19 df 38
       0.00025588233 0.00018192678 -0.00025719023 0.00010638259
0001a0 90 54 7a 38 e1 f3 09 b8 f0 2d b4 b7 28 c3 26 39
       5.96834e-05 -3.2890475e-05 -2.1479063e-05 0.00015903695
0001b0 34 b7 32 39 26 80 47 39 7d ef 17 38 ee 81 6f 39
       0.00017043651 0.00019025858 3.6224246e-05 0.00022841219
0001c0 c4 2f a5 39 c2 67 f0 38 c2 7a 90 39 ca bf d4 38
       0.0003150684 0.00011463418 0.00027557282 0.00010144671
0001d0 78 5d 34 38 83 a8 64 b8 15 ee b4 b8 b0 52 cf b6
       4.3002394e-05 -5.4516375e-05 -8.627415e-05 -6.178707e-06
0001e0 24 fb 2f 37 c2 b5 0a b6 40 52 41 37 4e 86 8a b8
       1.0489286e-05 -2.06694e-06 1.1522847e-05 -6.605369e-05
0001f0 72 0f ea b8 7f 61 48 b7 56 69 1b 36 8b ec a2 37
       -0.000111608664 -1.1943629e-05 2.3158113e-06 1.9422054e-05
000200 78 b3 5f 37 62 a0 1a b9 71 42 4b 39 ad ae 75 b7
       1.3333622e-05 -0.00014746332 0.0001938434 -1.4643808e-05
000210 53 bf d7 37 03 68 db b9 0c e9 09 37 b7 8a 5a 38
       2.571909e-05 -0.0004184843 8.220097e-06 5.210444e-05
000220 81 13 e8 37 48 6c 92 38 37 15 42 38 6c 86 c7 36
       2.7665637e-05 6.9819915e-05 4.6272962e-05 5.946311e-06
000230 c1 2d a2 37 c8 f7 28 37 52 c5 1d b8 d0 8c fc b5
       1.933321e-05 1.0071271e-05 -3.7615486e-05 -1.8816445e-06
000240 e0 99 62 b7 f2 02 41 38 ee d3 0a b8 dd b7 a1 b5
       -1.35064765e-05 4.601753e-05 -3.309914e-05 -1.2048946e-06
000250 00 1f cf b3 63 97 be 37 d9 31 06 b7 14 e3 a9 b7
       -9.6448275e-08 2.272026e-05 -7.9986285e-06 -2.0252111e-05
000260 3c a4 8d 36 88 cf 18 b7 bd dc 14 38 ec 5d a7 b7
       4.221247e-06 -9.108226e-06 3.549153e-05 -1.9951687e-05
000270 10 3b 38 38 68 70 0d 38 b8 1e 61 b6 36 0a 4a 37
       4.3924025e-05 3.3721706e-05 -3.3545493e-06 1.2042516e-05
000280 54 5d f7 38 40 2e ce b6 d5 a3 0f 37 4d 8a 39 b8
       0.000117952615 -6.1446626e-06 8.561609e-06 -4.423624e-05
000290 af db 7c 38 40 94 17 38 fe 23 1d b6 b4 77 41 b7
       6.028608e-05 3.6139274e-05 -2.3415773e-06 -1.1531567e-05
0002a0 a0 29 22 36 50 3b 4a b6 c4 f9 92 b9 c7 8c aa b6
       2.416411e-06 -3.013487e-06 -0.0002803338 -5.0827834e-06
0002b0 25 42 02 b7 7a b9 b3 37 fe 28 06 39 45 e5 0e b8
       -7.764004e-06 2.1424832e-05 0.00012794507 -3.4068962e-05
0002c0 1c fd 3a b7 1b 05 07 39 68 5b bc b8 15 62 7c b8
       -1.1145396e-05 0.00012876505 -8.981564e-05 -6.0172828e-05
0002d0 a0 3b 66 36 f4 f1 9c 38 ca c6 ae 38 10 10 aa 37
       3.4307377e-06 7.483727e-05 8.333994e-05 2.0273059e-05
0002e0 a0 17 36 b4 02 e9 40 b7 f6 5b 0c b7 a7 58 cd b8
       -1.6958666e-07 -1.1498343e-05 -8.366062e-06 -9.7916745e-05
0002f0 e0 20 4d b6 86 c6 b0 b7 88 8c b4 36 13 21 47 b8
       -3.0566516e-06 -2.107328e-05 5.380778e-06 -4.74761e-05
000300 3f 05 0c 39 78 6e d5 36 19 1e 67 38 78 39 47 37
       0.00013353395 6.360755e-06 5.5102722e-05 1.1874705e-05
000310 5a c1 8d b6 ec ab fa b7 b8 5e 89 b7 a8 e8 ac b5
       -4.2246365e-06 -2.988238e-05 -1.637578e-05 -1.288271e-06
000320 10 c2 ed 38 12 55 93 b8 9e 89 e2 38 4f fe 27 b8
       0.000113371876 -7.025352e-05 0.00010802153 -4.0052746e-05
000330 a0 9f ce 37 ec 00 b7 b8 e6 b2 40 b8 0c 24 34 37
       2.4631445e-05 -8.726292e-05 -4.594298e-05 1.0737229e-05
000340 7d 61 28 b9 1e b3 47 b9 c2 2e a5 b8 94 5b 81 b6
       -0.00016058046 -0.00019044845 -7.8765224e-05 -3.8551607e-06
000350 86 3d 43 b9 74 32 40 39 68 b4 60 38 25 17 e0 b7
       -0.00018619568 0.00018329342 5.3573778e-05 -2.6713658e-05
000360 b4 3c 91 b8 37 64 8f b8 02 34 02 b9 21 ed 4d b8
       -6.9254456e-05 -6.837438e-05 -0.0001241714 -4.9096652e-05
000370 90 ba ef 37 f8 4f 27 b8 c7 36 85 39 ca 2f d7 38
       2.8577895e-05 -3.989038e-05 0.0002540855 0.000102609
000380 7a f6 1d b9 fa f3 07 b8 94 a5 0b b8 00 75 01 39
       -0.00015064506 -3.241373e-05 -3.329439e-05 0.00012345985
000390 c0 e8 8e 35 16 36 9b 38 c8 9c 85 36 92 f3 68 b8
       1.0647564e-06 7.40105e-05 3.9819606e-06 -5.5539953e-05
0003a0 90 37 b1 b7 ac a5 5b 38 d4 04 b9 b7 80 5a ff 37
       -2.1125918e-05 5.2367963e-05 -2.2055967e-05 3.0440511e-05
0003b0 80 66 8e 37 54 07 fc 37 66 58 e0 b8 8b 11 c8 b8
       1.697545e-05 3.0044153e-05 -0.00010697618 -9.540011e-05
0003c0 e2 74 b3 b8 e8 9f e6 b7 34 25 ea b6 50 08 77 b7
       -8.557156e-05 -2.7492599e-05 -6.9780745e-06 -1.4724283e-05
0003d0 04 3f 14 b9 2e 1f 44 38 a0 27 82 36 b5 f3 98 38
       -0.00014137855 4.675908e-05 3.878915e-06 7.293319e-05
0003e0 75 ab 18 b8 f6 55 59 b9 dc dd 1f 39 c8 66 6b b8
       -3.6399306e-05 -0.00020726756 0.0001524607 -5.612409e-05
0003f0 d2 20 03 38 54 c1 1e b9 70 99 5a b7 8f 17 db 38
       3.12634e-05 -0.00015140075 -1.30295375e-05 0.00010447122
