3tier-app/learnt_model/gcp_model/model_3tier_final.tflite (tflite, 142712 bytes, 48 tensors)

dense_9/bias f4 [40]
-0.02492099 -0.06279581 -0.05988545 -0.06417898 0.09912458 0.0677692 -0.04841227 0.17830707
-0.029328946 0.21722545 -0.091791235 0.19339189 -0.033597764 -0.026422294 -0.047840577 -0.024025615
0.056604292 -0.03150111 -0.049538285 -0.06612484 -0.004119674 -0.033104055 -0.056771364 -0.02027922
0.03603459 -0.055544954 -0.0017077642 -0.056520943 0.103399396 -0.008893492 -0.02027599 -0.04753759
-0.015712028 -0.012016264 -0.033307124 0.010431474 -0.025668016 0.19118506 -0.004388153 -0.011427835
00000000: 1b27 ccbc 179b 80bd 724a 75bd 4570 83bd
00000010: d401 cb3d 94ca 8a3d f24b 46bd 2196 363e
00000020: 4243 f0bc 5970 5e3e 0bfd bbbd 8608 463e
00000030: cf9d 09bd 9173 d8bc 7bf4 43bd 5ed1 c4bc
00000040: e7d9 673d 4f07 01bd a8e8 4abd 766c 87bd
00000050: 55fe 86bb 1e98 07bd 1789 68bd 9b20 a6bc
00000060: 0299 133d 1b83 63bd 0fd7 dfba 8182 67bd
00000070: 10c3 d33d 02b6 11bc d519 a6bc c7b6 42bd
00000080: 83b6 80bc dddf 44bc 0d6d 08bd c6e8 2a3c
00000090: bb45 d2bc 04c6 433e 7fca 8fbb d03b 3bbc

dense_8/bias f4 [40]
0.19034325 0.009175073 0.29314363 -0.03106584 -0.021851167 -0.0031495993 -0.05706886 0.029510234
0.10494922 -0.06490426 -0.06922844 0.15638065 -0.030396229 0.07399188 -0.10863237 -0.0640078
-0.031537116 -0.1261363 0.2843191 -0.0077442937 -0.033616696 0.059747428 -0.013154612 -0.065194845
-0.18400092 -0.06946183 0.03761506 -0.025815656 -0.06653883 0.05560418 0.19068362 -0.040239383
-0.050490756 0.010945801 -0.041305203 -0.05885401 -0.05364423 -0.05279443 0.010723268 0.2929271
00000000: 57e9 423e 0c53 163c ec16 963e ca7d febc
00000010: 3801 b3bc 8269 4ebb 09c1 69bd 72bf f13c
00000020: 9eef d63d 86ec 84bd a4c7 8dbd 4022 203e
00000030: 8301 f9bc 0e89 973d a67a debd 8516 83bd
00000040: 102d 01bd e029 01be 4692 913e d8c3 fdbb
00000050: a9b1 09bd b8b9 743d 7186 57bc e084 85bd
00000060: bd6a 3cbe 0142 8ebd 4012 1a3d 5b7b d3bc
00000070: 8345 88bd 35c1 633d 9142 433e 0dd2 24bd
00000080: 65cf 4ebd 0456 333c a52f 29bd e710 71bd
00000090: 0dba 5bbd f93e 58bd a5b0 2f3c 8afa 953e

dense_7/bias f4 [40]
0.08621965 -0.07119015 0.019398352 -0.19813055 -0.005673829 -0.024869675 0.027983632 -0.024257218
-0.08172297 0.06908354 -0.08005992 0.08081344 -0.12276432 -0.114489384 -0.052026667 0.0779213
-0.01345377 0.035459157 0.061277844 -0.06799957 -0.093911156 0.08754555 -0.009712166 0.048530765
0.10131571 0.20280735 0.005326075 0.12552284 0.011390515 -0.038401075 -0.027764589 0.05338933
-0.0038207045 -0.23127016 0.13700745 0.0755463 0.29072687 -0.087264076 0.057364747 -0.075103275
00000000: ee93 b03d 24cc 91bd 4be9 9e3c bce2 4abe
00000010: 87eb b9bb 7dbb cbbc ee3d e53c 13b7 c6bc
00000020: 5f5e a7bd ac7b 8d3d 75f6 a3bd 8481 a53d
00000030: dc6b fbbd 6979 eabd ea19 55bd 3495 9f3d
00000040: 346d 5cbc 9f3d 113d 7afe 7a3d 5c43 8bbd
00000050: 7e54 c0bd 154b b33d c71f 1fbc 32c8 463d
00000060: 9c7e cf3d bbac 4f3e 5b86 ae3b 0f89 003e
00000070: 489f 3a3c 724a 1dbd 9072 e3bc c5ae 5a3d
00000080: c964 7abb 16d2 6cbe ae4b 0c3e 05b8 9a3d
00000090: 27da 943e 82b7 b2bd 4cf7 6a3d bfcf 99bd

dense_6/bias f4 [36]
0.046158396 0.17357242 -0.026045296 0.0057473024 -0.0066919564 -0.0043186718 0.0014111255 -0.0033325916
0.008811483 0.007180428 -0.0025754527 -0.006625909 0.06368702 -0.087314114 0.11747346 0.0011278494
0.0059373975 -0.0035064737 -0.003270633 -5.4137316e-05 -0.0027854922 0.005703304 -0.0055684033 0.007602831
-0.016294051 0.014123544 -0.13553843 -0.003840759 -0.0028712323 -0.0014284607 -0.003897772 0.005581857
-0.010825822 -0.0032240911 0.0028519868 0.009315538
00000000: 9610 3d3d f8bc 313e f25c d5bc de53 bc3b
00000010: 3348 dbbb a583 8dbb 84f5 b83a 9c67 5abb
00000020: 0a5e 103c cc49 eb3b edc8 28bb 271e d9bb
00000030: 576e 823d bed1 b2bd ed95 f03d 59d4 933a
00000040: 808e c23b decc 65bb 1e58 56bb 8011 63b8
00000050: ce8c 36bb c8e2 ba3b 2777 b6bb 2b21 f93b
00000060: 1a7b 85bc 7066 673c 96ca 0abe 3eb5 7bbb
00000070: 492b 3cbb 303b bbba c371 7fbb 03e8 b63b
00000080: ca5e 31bc 464b 53bb 66e8 3a3b 33a0 183c

dense_5/bias f4 [40]
-0.030316783 -0.05329901 -0.015332256 -0.025881289 -0.06289015 -0.023374107 -0.010124821 -0.00017077754
0.093844414 0.0048311003 -0.040625185 -0.028407024 -0.01978079 -0.010011837 -0.033467855 -0.049606703
-0.018943455 0.004722618 0.020674502 -0.057972148 0.25380915 0.0012175826 -0.057951964 -0.041925337
-0.010222257 -0.03898837 0.039896794 -0.011438006 -0.0074044336 -0.022744557 -0.016320135 0.0058204522
-0.052457042 -0.050333314 -0.019012792 -0.02925627 0.19880012 0.019270256 -0.07371669 -0.014328728
00000000: e75a f8bc 1050 5abd 2534 7bbc ff04 d4bc
00000010: 8dcc 80bd 0e7b bfbc 94e2 25bc bf12 33b9
00000020: 8031 c03d 354e 9e3b 9866 26bd d9b5 e8bc
00000030: 530b a2bc b008 24bc 9715 09bd 6630 4bbd
00000040: 4e2f 9bbc 31c0 9a3b 935d a93c 3474 6dbd
00000050: 46f3 813e 4b97 9f3a 0a5f 6dbd e7b9 2bbd
00000060: 417b 27bc 45b2 1fbd d26a 233d 7966 3bbc
00000070: e4a0 f2bb cb52 babc ceb1 85bc 7eb9 be3b
00000080: 32dd 56bd 4e2a 4ebd b7c0 9bbc d8aa efbc
00000090: 4292 4b3e a8dc 9d3c c7f8 96bd 0bc3 6abc

dense_4/bias f4 [40]
-0.021057174 -0.06371403 0.013343515 -0.071281776 -0.040783748 0.06012175 0.15478984 -0.050930776
-0.039868955 0.11860805 -0.01663765 0.11308655 0.006036275 -0.008183608 -0.006196171 0.07136169
0.1604479 -0.04753412 -0.06143179 0.12963842 -0.035635747 -0.08175631 0.018050665 -0.01439317
0.020934824 -0.07873185 -0.040712357 -0.10861687 0.025115622 -0.04556413 0.22286052 -0.050012197
-0.005353514 -0.06990641 -0.023439746 -0.084071256 0.047982637 -0.0025315068 0.0040621264 -0.060486116
00000000: 1880 acbc 807c 82bd c29e 5a3c 2efc 91bd
00000010: dc0c 27bd 3942 763d 3a81 1e3e ca9c 50bd
00000020: a14d 23bd c7e8 f23d ae4b 88bc ec99 e73d
00000030: f2cb c53b 8a14 06bc 4009 cbbb 1426 923d
00000040: 744c 243e 23b3 42bd e79f 7bbd efbf 043e
00000050: caf6 11bd da6f a7bd fdde 933c 55d1 6bbc
00000060: 827f ab3c 2a3e a1bd 00c2 26bd 8672 debd
00000070: 47bf cd3c 74a1 3abd 8c35 643e 97d9 4cbd
00000080: 886c afbb 182b 8fbd b604 c0bc 8d2d acbd
00000090: 7189 443d a3e7 25bb 961b 853b 4ac0 77bd

dense_3/bias f4 [40]
0.02534631 -0.0021641226 0.01936833 -0.06163237 0.076076075 0.009098481 -0.034945138 -0.022133237
-0.03273961 0.010334098 -0.01921593 -0.013733718 0.06957838 -0.077069536 0.060832247 0.21532474
-0.013978223 0.376837 0.0327387 0.0127375135 -0.057703316 -0.03817729 0.09060321 -0.022952234
-0.019719342 0.0011905454 -0.017524911 -0.047625758 0.0352864 -0.03103645 -0.07673389 -0.02631942
0.015729578 -0.04264475 0.040959634 -0.09352953 0.06628997 -0.063476935 -0.015900366 -0.017488778
00000000: 11a3 cf3c f4d3 0dbb 55aa 9e3c 3972 7cbd
00000010: c6cd 9b3d cc11 153c a222 0fbd c350 b5bc
00000020: f819 06bd 5950 293c ba6a 9dbc 6303 61bc
00000030: 1c7f 8e3d a2d6 9dbd 3c2b 793d 177e 5c3e
00000040: eb04 65bc c7f0 c03e 0419 063d 01b1 503c
00000050: 505a 6cbd ca5f 1cbd 2d8e b93d 5306 bcbc
00000060: 758a a1bc 130c 9c3a 6790 8fbc 3a13 43bd
00000070: 7988 103d 2740 febc a826 9dbd d39b d7bc
00000080: 51db 803c 43ac 2ebd 4ac5 273d 698c bfbd
00000090: 09c3 873d 3200 82bd 7c41 82bc a044 8fbc

dense_22/bias f4 [45]
0.061635308 0.10436659 0.06465447 0.014161081 -0.009478293 -0.008124687 -0.01968292 0.009817395
0.009922336 0.007138351 0.009146395 -0.007911743 0.5195579 -0.09710045 -0.012137616 0.07187982
-0.074827224 0.13080998 -0.012621312 0.004954718 0.00991397 0.009683562 0.0011522821 -0.0024117718
-0.006723068 0.0063145678 0.0024191486 -0.11434242 0.35166305 -0.10851297 0.10338265 -0.007388432
-0.13224243 -0.010327658 0.0009632565 0.004713465 -0.0035925494 0.0002513788 -0.0010380093 0.0014240881
-0.0031407417 -0.001029477 0.059800833 -0.12769623 0.3070702
00000000: 4e75 7c3d 27be d53d 9069 843d e103 683c
00000010: d84a 1bbc 681d 05bc 133e a1bc 24d9 203c
00000020: 4b91 223c d4e8 e93b c3da 153c 41a0 01bc
00000030: bf01 053f 9adc c6bd dadc 46bc ba35 933d
00000040: 043f 99bd 0df3 053e 9fc9 4ebc 305b a23b
00000050: 346e 223c cea7 1e3c 2c08 973a d10e 1ebb
00000060: 2f4d dcbb 6fea ce3b 948a 1e3b 5c2c eabd
00000070: 2e0d b43e 0c3c debd 48ba d33d a91a f2bb
00000080: 8f6a 07be 5635 29bc 0d83 7c3a 6973 9a3b
00000090: fa70 6bbb 7ecb 8339 d00d 88ba 78a8 ba3a
000000a0: e7d4 4dbb 84ef 86ba b8f1 743d cdc2 02be
000000b0: 4e38 9d3e

dense_21/bias f4 [40]
-0.05139057 0.021089828 -0.03298106 -0.07771006 -0.011501303 -0.034775548 0.0016597572 0.09868531
-0.047594223 -0.0013709682 -0.06310642 -0.010513944 0.0057707485 0.15390773 0.10370858 0.08844965
0.019136215 -0.021705538 -0.0019177655 -0.053820573 0.17087662 -0.049615573 -0.06296399 -0.023222575
-0.048996523 -0.04783144 0.0030756749 -0.033825323 0.06782179 0.02769091 -0.021377832 -0.068195134
0.02827021 -0.004717164 -0.011389078 -0.027234115 -0.015606503 0.13574392 -0.008596784 0.06620726
00000000: eb7e 52bd 93c4 ac3c 2617 07bd 7426 9fbd
00000010: f66f 3cbc ce70 0ebd 368c d93a 861b ca3d
00000020: 29f2 42bd 0fb2 b3ba f03d 81bd ad42 2cbc
00000030: 8c18 bd3b fd99 1d3e 2a65 d43d 1725 b53d
00000040: 8dc3 9c3c d0cf b1bc 885d fbba f672 5cbd
00000050: 48fa 2e3e b339 4bbd 44f3 80bd 453d bebc
00000060: 94b0 48bd e6ea 43bd 4391 493b 6c8c 0abd
00000070: 27e6 8a3d 0cd8 e23c 9020 afbc e4a9 8bbd
00000080: ed96 e73c 7192 9abb 4199 3abc 141a dfbc
00000090: 6bb2 7fbc 7400 0b3e 87d9 0cbc ac97 873d

dense_20/bias f4 [40]
-0.026238285 0.0463945 0.15043695 0.014042568 0.03484256 -0.017892173 0.088824555 -0.002227293
0.035871975 0.04799166 0.010154168 -0.00040190597 0.32345033 -0.00406309 -0.06791712 0.115182586
-0.04651526 -0.017965825 -0.023479626 -0.006462477 0.010539789 -0.088015184 -0.056346312 -0.09915956
0.08696899 -0.014444602 0.007487792 -0.040107585 0.054589067 -0.0430664 0.060874954 -0.03643858
-0.067135684 0.07183203 -0.008874612 0.03039109 0.005468698 -0.03280015 -0.0035953813 -0.05540935
00000000: acf1 d6bc 2908 3e3d 250c 1a3e cd12 663c
00000010: 12b7 0e3d 9b92 92bc a6e9 b53d c7f7 11bb
00000020: 7eee 123d e792 443d ab5d 263c e8b6 d2b9
00000030: 489b a53e ab23 85bb 2218 8bbd d9e4 eb3d
00000040: c986 3ebd 112d 93bc 5858 c0bc 30c3 d3bb
00000050: 14af 2c3c 4e41 b4bd 64cb 66bd 2b14 cbbd
00000060: cc1c b23d 0da9 6cbc 275c f53b da47 24bd
00000070: c998 5f3d 6566 30bd 0458 793d 9f40 15bd
00000080: 6f7e 89bd ac1c 933d d266 11bc bcf6 f83c
00000090: c432 b33b 7359 06bd 7da0 6bbb eaf4 62bd

dense_2/bias f4 [40]
-0.08254117 0.09155954 0.039991006 0.1144559 -0.0043998426 -0.071893975 -0.060477883 0.07885381
0.042979263 0.058424365 -0.015651256 -0.0017736334 0.032673765 0.077290505 -0.12993626 -0.021107092
-0.03754053 -0.02173855 -0.011229266 -0.043728914 0.14501724 -0.07144327 -0.08678342 -0.10375154
-0.022061214 -0.035717815 -0.05009582 0.075370006 0.13077897 -0.012714895 0.004736113 -0.032134466
-0.019183563 0.13472469 0.046197284 0.10529383 -0.041889295 -0.020056292 0.03376565 -0.03245874
00000000: 580b a9bd 9183 bb3d 9ccd 233d db67 ea3d
00000010: 8e2c 90bb 263d 93bd a8b7 77bd 1b7e a13d
00000020: 060b 303d 634e 6f3d 1037 80bc 4379 e8ba
00000030: edd4 053d 7c4a 9e3d 030e 05be c8e8 acbc
00000040: 19c4 19bd 0b15 b2bc f5fa 37bc 171d 33bd
00000050: 667f 143e d950 92bd 81bb b1bd b07b d4bd
00000060: b8b9 b4bc d84c 12bd 4631 4dbd 975b 9a3d
00000070: ecea 053e 2352 50bc 6531 9b3b 6e9f 03bd
00000080: d926 9dbc 45f5 093e 5d39 3d3d 4ba4 d73d
00000090: 1c94 2bbd 184d a4bc da4d 0a3d 75f3 04bd

dense_19/bias f4 [40]
0.02475705 0.058027845 -0.07678937 -0.0133799 0.26274663 -0.02901698 0.043686636 0.032376714
-0.03859626 0.0967823 0.26694116 0.015717102 0.25487003 0.04580713 -0.05149997 0.09363361
0.0011021469 -0.11325406 -0.072179645 0.20403026 0.012286748 -0.08465654 -0.10606216 0.034059722
-0.05013107 -0.27835605 0.008812589 -0.012882513 0.14438365 0.11322095 0.07537394 -0.08827314
0.030369725 0.09407725 0.090750255 -0.022479508 0.17122322 0.09950474 0.012514071 0.03235229
00000000: 4ccf ca3c 9bae 6d3d bf43 9dbd 5e37 5bbc
00000010: ba86 863e 05b5 edbc c2f0 323d 729d 043d
00000020: 1d17 1ebd cc35 c63d 83ac 883e 27c1 803c
00000030: 537e 823e 42a0 3b3d a2f1 52bd fac2 bf3d
00000040: ea75 903a bff1 e7bd ecd2 93bd 4fed 503e
00000050: 5b4e 493c 6860 adbd 1e37 d9bd 3582 0b3d
00000060: 3d56 4dbd af84 8ebe ad62 103c 2d11 53bc
00000070: 4fd9 133e 63e0 e73d a75d 9a3d 8cc8 b4bd
00000080: eec9 f83c 93ab c03d 45db b93d f226 b8bc
00000090: 2455 2f3e 24c9 cb3d d107 4d3c d683 043d

dense_18/bias f4 [45]
0.060343735 0.22406799 0.062982954 -0.002129589 -0.00018185325 -0.009167115 -0.01304375 0.0018815895
-0.0065062656 0.005112678 0.0011973274 -0.012819331 0.42100936 -0.10153092 -0.12640563 0.14715475
-0.1465169 0.0897953 0.0014578148 -0.0023872652 -0.0017504919 0.00814135 -0.0019050045 0.009684188
0.0012809748 -0.0032664358 -0.0014825794 -0.060975585 0.2770893 -0.040769815 0.10943407 0.0478798
-0.13478804 0.011633141 -0.011622021 -0.003454858 0.00012138777 -0.0024488466 0.0031232664 -0.0053880173
0.007910878 -0.0011309172 -0.035344586 -0.0875422 0.29967493
00000000: fe2a 773d 1472 653e 35fd 803d 9390 0bbb
00000010: dcaf 3eb9 ab31 16bc 74b5 55bc ab9f f63a
00000020: 8332 d5bb 4088 a73b a4ef 9c3a 2c08 52bc
00000030: 8a8e d73e 71ef cfbd 7a70 01be bcaf 163e
00000040: 8708 16be 99e6 b73d 2614 bf3a aa73 1cbb
00000050: c370 e5ba 4c63 053c 58b1 f9ba 6eaa 1e3c
00000060: 62e6 a73a b311 56bb 1c53 c2ba 89c1 79bd
00000070: a6de 8d3e 40fe 26bd f81e e03d 9c1d 443d
00000080: e005 0abe ee98 3e3c 4a6a 3ebc e66a 62bb
00000090: 9091 fe38 d47c 20bb b7af 4c3b f78d b0bb
000000a0: a19c 013c 493b 94ba 7cc5 10bd 5349 b3bd
000000b0: fe6e 993e

dense_17/bias f4 [40]
0.054016583 -0.07280266 0.25610912 0.10784394 0.2022459 -0.014907597 -0.05744933 0.1516519
0.04284489 -0.041470237 0.041038595 -0.08887074 -0.049567137 0.12310679 -0.00599654 0.20301184
0.14769663 0.18483683 -0.04614256 -0.07939308 -0.053453147 -0.010777056 0.0030820922 -0.018069794
0.10313934 0.03811713 0.008389436 0.0952814 0.08695793 -0.01709843 0.025462154 0.101045094
-0.013744563 -0.04525999 0.050463542 0.1387718 -0.06685741 0.06260407 0.067465626 0.02507898
00000000: 7e40 5d3d 9019 95bd bc20 833e 49dd dc3d
00000010: 8d19 4f3e fe3e 74bc fd4f 6bbd a34a 1b3e
00000020: 207e 2f3d b2dc 29bd 1618 283d dd01 b6bd
00000030: e906 4bbd 6a1f fc3d a07e c4bb 56e2 4f3e
00000040: c93d 173e de45 3d3e fbff 3cbd d798 a2bd
00000050: b0f1 5abd 4092 30bc edfc 493b 1b07 94bc
00000060: b83a d33d b520 1c3d d873 093c e522 c33d
00000070: 0017 b23d 0212 8cbc 0296 d03c bbf0 ce3d
00000080: e030 61bc 8a62 39bd dcb2 4e3d 321a 0e3e
00000090: 8aec 88bd 9036 803d 6b2b 8a3d 6f72 cd3c

dense_16/bias f4 [40]
0.1524007 -0.11482539 -0.044423528 0.15824977 -0.0293274 -0.072103955 -0.052324023 -0.07316592
0.024496095 0.13116902 -0.034553226 0.07348252 0.18250014 -0.029937908 -0.08244005 -0.052549995
0.006305633 0.08356126 -0.0016629596 -0.0014496278 -0.025501812 0.017053943 0.18790434 0.0930551
-0.03286702 -0.056408186 -0.0177579 0.23340476 -0.011768533 -0.0045873825 -0.042717088 -0.017536266
0.07770251 0.09925709 -0.107292496 0.17815416 -0.0042530564 -0.049935043 0.12001439 -0.0001105812
00000000: ee0e 1c3e 9329 ebbd 72f5 35bd 3a0c 223e
00000010: 0440 f0bc 3dab 93bd b751 56bd 04d8 95bd
00000020: 09ac c83c 2c51 063e af87 0dbd 017e 963d
00000030: 51e1 3a3e 5840 f5bc 54d6 a8bd aa3e 57bd
00000040: 7c9f ce3b 2a22 ab3d aaf7 d9ba 7001 beba
00000050: 2de9 d0bc b6b4 8b3c ff69 403e ac93 be3d
00000060: 929f 06bd 450c 67bd 0479 91bc a801 6f3e
00000070: ced0 40bc c151 96bb 1df8 2ebd 37a8 8fbc
00000080: 7e22 9f3d 4d47 cb3d 2bbc dbbd 0b6e 363e
00000090: 395d 8bbb b088 4cbd 1bca f53d d4e7 e7b8

dense_15/bias f4 [40]
0.011323164 0.07195145 0.050781026 -0.065197825 -0.074632294 -0.02227664 -0.06445169 -0.0780566
-0.12811129 -0.025583537 -0.10308933 -0.017906444 0.22958516 -0.079150155 0.03304184 0.13621767
0.0057273195 0.033538576 0.047985766 -0.04709996 0.13732229 -0.07428079 0.16414963 -0.1274981
0.2133154 -0.03463052 -0.10014585 -0.07618807 -0.09344713 0.09251921 0.08164426 -0.052741818
0.17925066 -0.041373014 0.02661424 0.018556828 0.20627776 0.0103871655 0.07456867 0.009126026
00000000: cb84 393c 485b 933d c4ff 4f3d 7086 85bd
00000010: d1d8 98bd 807d b6bc 3fff 83bd 24dc 9fbd
00000020: 9b2f 03be 9194 d1bc 8020 d3bd 89b0 92bc
00000030: 5f18 6b3e 7a19 a2bd e156 073d a57c 0b3e
00000040: 3dac bb3b bf5f 093d b98c 443d e3eb 40bd
00000050: 379e 0c3e 8720 98bd d716 283e dd8e 02be
00000060: 5a6f 5a3e bbd8 0dbd 4419 cdbd 7e08 9cbd
00000070: 3561 bfbd b67a bd3d 1b35 a73d ce07 58bd
00000080: 7c8d 373e c076 29bd 1b06 da3c 7d04 983c
00000090: 7a3a 533e ee2e 2a3c 75b7 983d 5485 153c

dense_14/bias f4 [45]
0.06409911 0.20853297 0.043668915 0.0084392615 0.011354313 -0.016732791 -0.014754388 -0.021515468
0.021714699 0.00199686 -0.0076245884 -0.00400225 0.29811215 -0.058178537 -0.057513643 0.11133631
-0.1681397 0.079425745 0.017325962 -0.009287006 0.0017219305 0.009409824 -0.0015570192 -0.023964662
-0.008583505 0.0025626146 0.0005960245 -0.12374934 0.17393135 -0.044739682 0.07134422 0.091084495
-0.12786752 -0.012161373 0.016684437 -0.0030114602 0.004289839 -0.017381491 0.019427767 0.008380766
-0.014391616 0.013978994 0.010088377 -0.037281375 0.16642608
00000000: 6546 833d ab89 553e 2dde 323d d444 0a3c
00000010: 7107 3a3c 3513 89bc 63bc 71bc 3541 b0bc
00000020: 06e3 b13c c0dd 023b afd7 f9bb 4e25 83bb
00000030: 28a2 983e 9e4c 6ebd 6d93 6bbd 4b04 e43d
00000040: d02c 2cbe f7a9 a23d 2def 8d3c 8728 18bc
00000050: 66b2 e13a aa2b 1a3c e514 ccba 8a51 c4bc
00000060: d4a1 0cbc 8af1 273b 873e 1c3a 4b70 fdbd
00000070: 0f1b 323e f540 37bd eb1c 923d 828a ba3d
00000080: b4ef 02be 7f40 47bc cdad 883c eb5b 45bb
00000090: c791 8c3b a163 8ebc fb26 9f3c 7b4f 093c
000000a0: d0ca 6bbc 2708 653c b849 253c 5bb4 18bd
000000b0: 996b 2a3e

dense_13/bias f4 [40]
0.092439584 -0.018502532 -0.036819514 -0.03619075 0.05431371 -0.0046836236 0.022367457 0.025495104
-0.07463197 0.20822601 0.1351907 -0.106840946 0.10564945 -0.0087842755 0.021915233 -0.042044867
0.20941402 0.24895039 0.05026785 0.003420902 -0.013925177 -0.009279016 -0.03137226 -0.0025621895
-0.07952306 -0.042894315 -0.04774475 -0.042206753 -0.00079800666 -0.07211798 -0.0468487 -0.038195487
0.01922319 -0.021772955 0.1580378 0.023181427 0.07966603 0.11505949 -0.05052921 -0.014512467
00000000: f750 bd3d 9f92 97bc 0fd0 16bd c03c 14bd
00000010: 0e78 5e3d 1579 99bb f53b b73c 1cdb d03c
00000020: a5d8 98bd 3339 553e 6e6f 0a3e 6dcf dabd
00000030: bd5e d83d eceb 0fbc 9387 b33c 3d37 2cbd
00000040: a170 563e daec 7e3e a9e5 4d3d 3631 603b
00000050: 6d26 64bc 0407 18bc 3380 00bd 68ea 27bb
00000060: fcdc a2bd f3b1 2fbd 0090 43bd fde0 2cbd
00000070: 5231 51ba 97b2 93bd 6ce4 3fbd df72 1cbd
00000080: f479 9d3c 325d b2bc a9d4 213e fae6 bd3c
00000090: f227 a33d 4fa4 eb3d b8f7 4ebd b3c5 6dbc

dense_12/bias f4 [40]
-0.06656266 -0.0140602235 0.08574928 0.110667735 0.1540064 0.08798667 -0.01803408 -0.03538265
-0.2090082 -0.044681024 -0.12361413 -0.017069286 -0.08685104 -0.03957762 -0.08702649 -0.06996877
-0.0419112 0.020755893 -0.039897688 0.20592763 -0.07132652 0.08124854 -0.021971105 -0.00024109833
-0.029541597 -0.038907476 0.019231306 -0.016163994 -0.04646346 -0.028117102 -0.018075626 0.2990773
-0.0044798506 -0.12103085 -0.05064453 0.045080725 -0.08105161 0.082272 0.31275958 -0.07950666
00000000: 0152 88bd da5c 66bc 529d af3d c4a5 e23d
00000010: dbb3 1d3e 5b32 b43d 35bc 93bc 66ed 10bd
00000020: 3f06 56be 7303 37bd 6829 fdbd e3d4 8bbc
00000030: f5de b1bd 241c 22bd f23a b2bd c94b 8fbd
00000040: 14ab 2bbd 4308 aa3c c26b 23bd b1de 523e
00000050: a313 92bd a265 a63d bffc b3bc 57cf 7cb9
00000060: 3801 f2bc 725d 1fbd f98a 9d3c 5a6a 84bc
00000070: 7850 3ebd d655 e6bc 5613 94bc a920 993e
00000080: b6cb 92bb 06df f7bd a470 4fbd 91a6 383d
00000090: 63fe a5bd 397e a83d 0622 a03e 63d4 a2bd

dense_11/bias f4 [40]
0.068244055 0.17899574 -0.19645564 -0.14710204 0.13980888 -0.15690526 -0.13359967 -0.009528845
0.102068305 0.0031644017 0.055000924 -0.101423554 0.14978302 -0.004168232 -0.27412575 0.053416874
-0.1943558 0.005899893 0.1506318 0.06290356 -0.11533077 0.06713595 0.1803807 0.072558664
0.13793674 -0.06928978 -0.05471376 0.10057085 -0.08116829 0.03981311 0.15760544 -0.10419836
-0.13508068 -0.018028237 0.041918147 -0.05447216 -0.0004322877 0.11153321 0.18908346 -0.18446581
00000000: 8ac3 8b3d a94a 373e ab2b 49be eba1 16be
00000010: 0f2a 0f3e c6ab 20be 5ace 08be df1e 1cbc
00000020: 3009 d13d da61 4f3b a648 613d 27b7 cfbd
00000030: b860 193e aa95 88bb 365a 8cbe a7cb 5a3d
00000040: 3505 47be e453 c13b 393f 1a3e 95d3 803d
00000050: 8a32 ecbd 937e 893d b8b5 383e a399 943d
00000060: 4a3f 0d3e cde7 8dbd 891b 60bd 17f8 cd3d
00000070: 8f3b a6bd 1213 233d 5263 213e f365 d5bd
00000080: 9752 0abe f4af 93bc 5db2 2b3d 331e 5fbd
00000090: aca4 e2b9 866b e43d 189f 413e 9be4 3cbe

dense_10/bias f4 [45]
0.029093573 0.23205097 -0.015933102 0.010991729 -0.019918269 0.006955478 -0.0071657607 -0.014452604
0.015226076 0.013663127 -0.0033604703 -0.014899819 0.17861022 0.019311117 -0.0130805075 0.068532184
-0.1328379 0.14539374 -0.00018184527 -0.0012651843 -0.013240608 -0.004236278 0.0070402706 -0.0044694482
0.009071451 -0.006076983 -0.0029522085 -0.024393653 0.1965996 -0.071854785 0.038067304 0.027380202
-0.20819478 0.0016999848 0.010269449 0.002513888 -0.00032606273 -0.010516058 -0.0025598018 -0.002332706
0.0039877384 0.007640438 0.11708956 -0.03503114 0.25694856
00000000: a555 ee3c c59e 6d3e 2386 82bc a716 343c
00000010: a32b a3bc c7ea e33b c2ce eabb 9dca 6cbc
00000020: cb76 793c 4fdb 5f3c 563b 5cbb 5f1e 74bc
00000030: 99e5 363e 5932 9e3c a04f 56bc 9a5a 8c3d
00000040: a906 08be 19e2 143e b8ad 3eb9 8ad4 a5ba
00000050: 23ef 58bc 7ad0 8abb 12b2 e63b 7374 92bb
00000060: 6ca0 143c 6e21 c7bb d779 41bb 33d5 c7bc
00000070: 6851 493e 9a28 93bd 76ec 1b3d 724c e03c
00000080: 0331 55be 06d2 de3a 3141 283c 0bc0 243b
00000090: 66f3 aab9 8b4b 2cbc 59c2 27bb 50e0 18bb
000000a0: 93ab 823b a45c fa3b a7cc ef3d d07c 0fbd
000000b0: c38e 833e

dense_1/bias f4 [40]
0.027442377 -0.090079404 0.04078867 0.02225856 -0.002551609 -0.001054184 0.007522363 -0.0092804255
0.0049361098 -0.0031439783 -0.004552489 -0.0011851506 0.07879281 -0.047126222 -0.03586431 -0.0067840354
0.022469161 -0.0289135 0.04501237 0.05643145 0.005035572 0.016276091 -0.008220284 -0.033629935
0.0084590195 -0.057810504 -0.0965656 -0.016768169 -0.0029365008 -0.038516507 -0.046265297 0.18728344
-0.02466617 -0.06479857 -0.035471857 -0.060953084 0.0031172875 0.10657492 0.14914079 0.03949251
00000000: d6ce e03c 8d7b b8bd 0512 273d 9557 b63c
00000010: e538 27bb 8c2c 8aba 287e f63b ed0c 18bc
00000020: 17bf a13b 340b 4ebb 0c2d 95bb 0e57 9bba
00000030: 205e a13d 6d07 41bd 74e6 12bd 9d4c debb
00000040: 3f11 b83c 01dc ecbc e45e 383d aa24 673d
00000050: 7101 a53b 7055 853c 5fae 06bc 8bbf 09bd
00000060: b397 0a3c b5ca 6cbd 2fc4 c5bd 665d 89bc
00000070: 4f72 40bb 7cc3 1dbd ae80 3dbd 3bc7 3f3e
00000080: b510 cabc 1db5 84bd f04a 11bd f1a9 79bd
00000090: 684b 4c3b f443 da3d 5db8 183e e6c2 213d

dense/bias f4 [40]
-0.011219594 -0.09512395 0.018403487 -0.095892586 -0.11554621 0.08699264 -0.040548317 0.020899976
-0.0043748985 -0.04396795 -0.024251077 -0.23636766 -0.028922161 0.0516265 0.06713432 0.07386965
-0.03665258 0.08572048 -0.05817306 0.05287753 0.052873686 -0.0038986031 -0.083071224 0.08404408
-0.007625249 0.0301106 -0.03260524 0.06315111 -0.06708301 -0.10299461 -0.059424803 0.02350903
-0.12371397 -0.063183546 0.006981535 -0.016244905 -0.08747728 0.0070497612 -0.07865884 -0.07923949
00000000: 63d2 37bc 58d0 c2bd e9c2 963c 5563 c4bd
00000010: 7ea3 ecbd 3229 b23d fe15 26bd 6d36 ab3c
00000020: 4f5b 8fbb bd17 34bd 32aa c6bc 5d0a 72be
00000030: 2bee ecbc 4f76 533d b87d 893d f948 973d
00000040: 0421 16bd 388e af3d e046 6ebd 1c96 583d
00000050: 1492 583d b57f 7fbb 3f21 aabd 4d1f ac3d
00000060: 3add f9bb 81aa f63c 128d 05bd 5f55 813d
00000070: d162 89bd d7ee d2bd 6c67 73bd 0296 c03c
00000080: c05d fdbd 6066 81bd 5cc5 e43b 0914 85bc
00000090: 4a27 b3bd af01 e73b e317 a1bd 5048 a2bd

bias/bias f4 [15]
-0.033765472 -0.10846791 -0.082301706 0.09563748 -0.016896836 -0.10724646 0.09566133 -0.0014277017
-0.12073028 0.10273203 -0.030949093 -0.090899706 0.07734768 -0.057905413 -0.16922338
00000000: aa4d 0abd 6c24 debd cc8d a8bd 95dd c33d
00000010: 3c6b 8abc 08a4 dbbd 16ea c33d b821 bbba
00000020: 7041 f7bd 2c65 d23d f488 fdbc a029 babd
00000030: 7668 9e3d 3a2e 6dbd e548 2dbe

model_1/dense_11/MatMul f4 [40, 15]
0.08338347 -0.04716138 -0.021599928 -0.25601894 -0.03726951 -0.351698 -0.016963288 0.0038299602
0.017867893 -0.0037088222 -0.06394268 0.047226444 -0.0032799328 -0.008088357 -0.03927488 -0.0010226537
-0.08652397 0.03457015 -0.022239324 -0.00082372944 -0.007446721 0.04918994 -0.00060905115 -0.20472072
-0.11047137 0.0069071054 0.13416353 -0.10277206 0.0006119677 -0.044333983 0.11159492 -0.17245828
0.16952088 0.17048094 0.103332356 -0.7366993 -0.006270647 0.053165462 -0.011516747 0.113023296
0.011452653 0.08141758 -0.067084454 -0.149419 -0.13054425 -0.15293734 -0.18285075 0.08783441
0.14017332 -0.06378378 0.12312015 -0.002446854 0.0059903054 -0.030315578 0.0034759291 0.0022294563
-0.0011022303 -0.007513138 -0.000511205 -0.030934744 -0.0034634196 0.0055939006 0.0790272 0.045370106
0.051625077 0.00055394374 -0.10198612 -0.010521021 0.0022355116 0.041330367 0.0043429327 0.05759509
0.0010983591 0.08460811 -0.1142528 0.0029269413 -0.04264439 -0.07764353 -0.39311182 0.10815394
0.007615336 0.01364658 -0.011893998 0.018278187 0.012017004 -0.015577123 0.0031245162 0.0030073477
0.0019277139 -0.0048785014 -2.399565e-05 0.0769149 4.187158e-05 5.417929e-06 -2.1061187e-05 -1.24017615e-05
1.879462e-05 -3.1020296e-05 -5.0964896e-05 -9.621071e-06 9.040139e-06 4.436877e-06 3.265326e-06 -2.3443532e-05
-1.3956622e-05 -0.23886943 -0.41066653 0.106579736 -0.05293798 0.192156 -0.050463244 0.02663529
-0.021117814 -0.047586344 0.0041424655 0.042233095 -0.044369537 -0.0518981 0.03371103 -0.006832333
-0.055807486 0.00052984606 0.15611741 0.0003412601 0.0015417724 -0.15534891 0.015215645 -0.002117797
-0.0022902985 -0.004964295 -0.0074294643 0.012257058 0.010131792 -0.0004246387 -0.0031041864 0.07115684
-0.08224834 -0.036782525 0.027136216 -0.4406886 0.13323581 -0.0034745047 0.011237693 -0.008871602
0.05935904 0.0036364663 0.019361062 0.017864542 -0.0020331992 -0.014567766 -0.008470728 0.14299725
-0.00918211 -0.0012450188 0.0018721727 -0.014906423 0.0067795627 0.0038101312 -0.008408662 0.0018305354
-0.09377756 -0.0010939286 0.004934984 -0.022981754 0.0033986014 -0.0006152289 0.1544178 0.025440078
-0.00013752044 -0.06502335 0.120553024 0.021652713 -0.008322232 0.004663371 0.045833778 4.6651177e-05
0.04301321 -0.008723657 0.009262032 0.0002756485 0.012443555 0.084729046 -0.0065046633 -0.017016204
0.023379086 -0.34898537 -0.06429754 -0.057803955 -0.0086406255 8.046511e-06 -0.00089315465 0.03607267
-0.035499882 -0.01340017 0.012063816 8.987554e-07 -0.00033163876 -0.07496878 -0.14034463 -0.031174082
0.0023707913 -0.07023638 0.12376482 0.04961802 0.0025906153 0.0036709774 -0.0020120107 0.058394007
-0.0025172096 -0.0029113651 0.12953596 -0.26583895 -0.45729968 -0.38624611 0.029296363 0.2194148
0.06840209 -0.03062066 0.04215091 -0.056300126 -0.027670113 0.035207316 0.04553936 0.034995448
-0.0070919488 0.07653517 0.0053876303 0.083156325 0.0025126103 -0.0022145982 0.04706138 -0.07387213
-0.00034615226 -2.454759e-05 0.0003762172 0.0002948281 0.03986318 0.00053325715 -0.110271506 -0.0050068693
0.05760099 -0.053960256 -0.052510817 0.2571818 -0.19966787 -0.1563718 -0.0138325775 0.008561568
0.034932073 0.00501539 0.013560385 -0.064515926 0.0073484457 -0.01108799 0.087681614 -0.073192626
00000000: f4c4 aa3d 4b2c 41bd 55f2 b0bc ea14 83be
00000010: eaa7 18bd c311 b4be 98f6 8abc 1200 7b3b
00000020: b05f 923c b60f 73bb 61f4 82bd 8470 413d
00000030: 24f4 56bb 0785 04bc b2de 20bd 900a 86ba
00000040: 7b33 b1bd 6e99 0d3d 3e2f b6bc 8cef 57ba
00000050: a003 f4bb 647b 493d bba8 1fba 4fa2 51be
00000060: d03e e2bd 0055 e23b 2a62 093e 287a d2bd
00000070: 756c 203a 8d97 35bd e18b e43d e798 30be
00000080: e296 2d3e 8e92 2e3e ea9f d33d 5398 3cbf
00000090: 007a cdbb 07c4 593d bdb0 3cbc c278 e73d
000000a0: e9a3 3b3c 43be a63d 9363 89bd 4b01 19be
000000b0: 64ad 05be 9b9b 1cbe 3a3d 3bbe 87e2 b33d
000000c0: 9889 0f3e 12a1 82bd 6b26 fc3d 665b 20bb
000000d0: 534a c43b 6058 f8bc 6acc 633b 121c 123b
000000e0: b678 90ba c530 f6bb 6302 06ba dc6a fdbc
000000f0: 8afa 62bb 0a4d b73b 03d9 a13d 01d6 393d
00000100: d174 533d 8936 113a 19de d0bd 5c60 2cbc
00000110: a981 123b 084a 293d 294f 8e3b d4e8 6b3d
00000120: d1f6 8f3a 0447 ad3d 5ffd e9bd edd1 3f3b
00000130: e2ab 2ebd 9203 9fbd f445 c9be d07f dd3d
00000140: 128a f93b e895 5f3c 0bdf 42bc 23bc 953c
00000150: f8e2 443c 3037 7fbc afc4 4c3b ec16 453b
00000160: 58ab fc3a d6db 9fbb 444a c9b7 8f85 9d3d
00000170: 449f 2f38 a8cb b536 8eac b0b7 2911 50b7
00000180: 24a9 9d37 ca1b 02b8 24c3 55b8 2f6a 21b7
00000190: 1aab 1737 7ce0 9436 e021 5b36 9aa8 c4b7
000001a0: 3c27 6ab7 309a 74be e242 d2be 7a46 da3d
000001b0: 7fd5 58bd 8bc4 443e 8cb2 4ebd 4032 da3c
000001c0: 44ff acbc e6e9 42bd 85bd 873b 9cfc 2c3d
000001d0: d5bc 35bd 1a93 54bd 9414 0a3d c3e1 dfbb
000001e0: 6496 64bd 5ee5 0a3a 3edd 1f3e 28eb b239
000001f0: 4c15 ca3a c913 1fbe 0a4b 793c bdca 0abb
00000200: d518 16bb 86ab a2bb dd72 f3bb d4d1 483c
00000210: d1ff 253c 0ba2 deb9 9b6f 4bbb adba 913d
00000220: d171 a8bd 46a9 16bd c54c de3c f0a1 e1be
00000230: f86e 083e 84b4 63bb 4d1e 383c 325a 11bc
00000240: 7722 733d c851 6e3b 179b 9e3c a958 923c
00000250: 6c3f 05bb a4ad 6ebc cfc8 0abc df6d 123e
00000260: 9070 16bc e62f a3ba b163 f53a 123a 74bc
00000270: 1827 de3b 65b3 793b 7cc4 09bc 93ee ef3a
00000280: 730e c0bd 2762 8fba a5b5 a13b 3b44 bcbc
00000290: 12bb 5e3b 5047 21ba b31f 1e3e b667 d03c
000002a0: 5d33 10b9 f62a 85bd 81e4 f63d 0861 b13c
000002b0: f959 08bc 31cf 983b 33bc 3b3d 52ab 4338
000002c0: 9f2e 303d abed 0ebc c7bf 173c ea84 9039
000002d0: 0de0 4b3c 6c86 ad3d 1225 d5bb 9165 8bbc
000002e0: 7f85 bf3c 36ae b2be 6eae 83bd d7c3 6cbd
000002f0: 6991 0dbc 80ff 0637 9822 6aba f0c0 133d
00000300: 5368 11bd 638c 5bbc 50a7 453c 0042 7135
00000310: cddf adb9 3b89 99bd 81b6 0fbe ca60 ffbc
00000320: 475f 1b3b 17d8 8fbd 6978 fd3d 443c 4b3d
00000330: 50c7 293b c894 703b f0db 03bb 8e2e 6f3d
00000340: c5f7 24bb 9acc 3ebb 13a5 043e 0b1c 88be
00000350: 2f23 eabe 0dc2 c5be edfe ef3c 46ae 603e
00000360: 6516 8c3d 2ed8 fabc 6fa6 2c3d f69a 66bd
00000370: 6fac e2bc 8c35 103d 7b87 3a3d 6357 0f3d
00000380: 9463 e8bb 79be 9c3d b88a b03b dd4d aa3d
00000390: 9baa 243b cb22 11bb 6fc3 403d 454a 97bd
000003a0: c57b b5b9 8ceb cdb7 053f c539 2893 9a39
000003b0: 9347 233d 48ca 0b3a 07d6 e1bd aa10 a4bb
000003c0: 04ef 6b3d 6e05 5dbd 9515 57bd 55ad 833e
000003d0: bc75 4cbe ee1f 20be 09a2 62bc d245 0c3c
000003e0: ef14 0f3d 2458 a43b 612c 5e3c ed20 84bd
000003f0: 3bcb f03b 67aa 35bc 6b92 b33d 04e6 95bd

model_1/dense_12/MatMul f4 [40, 40]
-7.387096e-05 5.9531496e-05 -4.2913554e-05 -3.995072e-05 -1.84061e-05 -4.2845895e-05 2.8702385e-05 2.12671e-05
-5.036995e-05 -9.947062e-06 -1.3624722e-05 6.628739e-06 8.229388e-06 -6.0816536e-05 2.1931563e-05 -5.562098e-05
2.563853e-05 -1.697622e-05 0.00015310869 -1.0471729e-05 2.2071392e-05 -2.0701602e-05 4.790089e-05 -7.069917e-05
4.3338085e-05 8.155854e-05 -2.5180376e-05 2.0667094e-05 6.8327405e-05 -0.0001702573 -1.6061655e-05 -2.8525403e-05
-2.5937125e-05 2.5875659e-05 3.7807717e-05 6.37785e-06 2.9436906e-05 -5.9920705e-05 -6.1972787e-07 -6.0372586e-05
2.6969763e-05 -2.7053535e-05 1.3673527e-05 -5.2103147e-05 1.2481932e-05 4.4069715e-05 -4.4603014e-05 -8.599393e-06
-1.3070493e-05 1.6990392e-05 -0.00015716137 3.338244e-05 4.221289e-05 -1.2627256e-06 4.352073e-05 -5.9068843e-06
4.8010577e-05 -1.9329469e-05 2.561474e-05 2.5247093e-05 2.2876462e-05 2.412735e-06 3.975828e-05 -5.27945e-05
-7.434072e-05 0.00011503619 -1.7427505e-05 -6.0704442e-05 -2.181672e-05 1.5332665e-05 5.703654e-06 2.2530276e-06
1.844819e-08 1.8426304e-05 -1.5629186e-05 -4.7656413e-06 3.509994e-05 -2.9835768e-05 7.0529877e-06 6.129394e-05
-0.0022377155 0.0009233644 0.039976917 8.976415e-05 0.09683681 -0.0029445174 1.3667886e-08 -0.0027065424
-0.040991534 -0.087139465 -0.00019787614 3.617983e-05 -0.0014991077 -0.002247678 -0.0020799614 0.04143861
-0.00019847188 -0.037657745 0.0021862497 0.029326675 -0.0010197698 -0.0001389064 0.000175264 -0.0011929078
0.00017332178 7.0077534e-05 -0.0031979438 -4.050795e-05 0.0009315072 -0.00039194865 -0.0963164 -0.00024758987
0.0012589138 -0.0011481197 -0.0016901686 0.0013661876 -4.2386055e-06 -0.0025608127 -0.0027832119 -9.0139685e-05
-0.004381463 0.13252734 -0.09816696 0.0015231598 -0.00062205974 0.0015032185 -1.4233816e-05 -0.0008354351
-0.0017269205 -0.036812022 -0.0008195968 -0.028459333 -0.0042757783 0.00076837256 -0.030186992 0.00055047404
0.0001951863 -0.00012350106 -0.0023171601 0.056560177 0.00021840431 -0.0034488908 -0.02582269 0.00026214297
-0.008439064 -8.9744164e-05 0.00022335908 0.00047279563 -0.0005017108 0.0012410069 -0.009821361 0.0014283508
-0.009953012 0.0011975098 -0.0014834093 4.374741e-05 -0.00013941433 0.007914115 -0.20076302 -0.0012697381
0.23112375 0.12892616 -0.075464 -0.055061866 0.0019619574 0.0015805967 -6.265596e-05 0.00052602915
-0.05745255 0.0002556037 -0.0006183039 0.06806944 -0.00041089277 0.09095357 -0.13527524 0.00025997998
-0.2040014 -0.05202123 0.006695052 0.009940606 -0.145603 0.0810284 0.0017877307 0.13927
0.010924996 -0.008664601 -0.14922863 -0.046028957 0.19678833 -0.013267647 -0.02863698 -0.017854158
0.0032166783 0.005745657 0.18669292 0.017402343 0.0018210337 0.06956434 -0.3445376 0.00022395473
0.0013960311 -0.0006609404 -0.0024042288 3.2665266e-05 0.00014452313 0.0014958617 -0.0001631484 -0.03718991
-0.0034030916 -0.0023224312 -0.0008649689 -6.0935145e-05 -0.0029216565 0.047423653 -0.0011946384 -0.0072284467
-0.0013603393 -0.0022383477 0.00014590986 0.00075194787 -0.000117709336 -0.0050810114 -0.0019074267 0.15547153
-0.0026866046 0.00024519954 -0.0023462947 0.13219695 0.0025290744 0.00026131718 -0.2071948 -0.0019288483
-0.047830716 0.0006269351 0.0011925785 -0.000377533 0.07636541 0.0026719547 -0.08931769 -0.0011517586
-7.672542e-06 -3.1264199e-06 -2.948893e-05 -9.55892e-06 5.6865054e-05 8.381982e-05 -7.884853e-05 1.6292279e-05
-1.3791887e-05 -2.1332167e-05 -2.7570704e-06 -3.747577e-05 5.6328513e-06 -6.425432e-05 -1.0668031e-05 -6.397811e-05
00000000: 2beb 9ab8 75b1 7938 14fe 33b8 c290 27b8
00000010: cc66 9ab7 6eb5 33b8 e7c5 f037 c066 b237
00000020: 5244 53b8 4ee2 26b7 bc95 64b7 6f6c de36
00000030: f410 0a37 4215 7fb8 acf9 b737 934a 69b8
00000040: 5312 d737 2868 8eb7 cd8b 2039 bcaf 2fb7
00000050: f425 b937 5aa8 adb7 30e9 4838 5444 94b8
00000060: eac5 3538 680a ab38 723a d3b7 3f5e ad37
00000070: ff4a 8f38 1987 32b9 24bc 86b7 d649 efb7
00000080: 8d93 d9b7 8e0f d937 ba93 1e38 5001 d636
00000090: 46ef f637 5e53 7bb8 605b 26b5 9238 7db8
000000a0: 203d e237 06f1 e2b7 5a67 6537 5489 5ab8
000000b0: 7d69 5137 7fd7 3838 1f14 3bb8 1d46 10b7
000000c0: 5749 5bb7 9786 8e37 afcb 24b9 1f04 0c38
000000d0: bf0d 3138 ec7a a9b5 078a 3638 c033 c6b6
000000e0: f75e 4938 b825 a2b7 3cdf d637 b8c9 d337
000000f0: d4e6 bf37 79ea 2136 21c2 2638 aa6f 5db8
00000100: 5fe7 9bb8 963f f138 4831 92b7 e69c 7eb8
00000110: 0d03 b7b7 a69e 8037 0462 bf36 b832 1736
00000120: 0078 9e32 3092 9a37 6c1b 83b7 8ce8 9fb6
00000130: 4638 1338 d347 fab7 b4a8 ec36 ef8a 8038
00000140: a3a6 12bb f00d 723a d6be 233d c33f bc38
00000150: 6152 c63d cef8 40bb 00d0 6a32 3f60 31bb
00000160: bde6 27bd 2d76 b2bd f97c 4fb9 ccbf 1738
00000170: b57d c4ba c84d 13bb f64f 08bb 88bb 293d
00000180: e41c 50b9 023f 1abd 2f47 0f3b 7f3e f03c
00000190: cca9 85ba 67a7 11b9 12c7 3739 585b 9cba
000001a0: b6bd 3539 97f6 9238 9894 51bb 15e7 29b8
000001b0: 6430 743a 757e cdb9 8841 c5bd f3ce 81b9
000001c0: 2302 a53a 817c 96ba a688 ddba a611 b33a
000001d0: 5839 8eb6 4fd3 27bb 8c66 36bb 6009 bdb8
000001e0: 6092 8fbb 3fb5 073e c20b c9bd c3a4 c73a
000001f0: b911 23ba a507 c53a c6cd 6eb7 1a01 5bba
00000200: d659 e2ba 34c8 16bd 36da 56ba 8c23 e9bc
00000210: d41b 8cbb 9c6c 493a b64a f7bc b04d 103a
00000220: ecaa 4c39 1080 01b9 7fdb 17bb a5ab 673d
00000230: 7603 6539 c906 62bb 1b8a d3bc 3c70 8939
00000240: 0044 0abc 0835 bcb8 7f35 6a39 8ee1 f739
00000250: 3e85 03ba 48a9 a23a c6e9 20bc 8037 bb3a
00000260: f511 23bc c3f5 9c3a f56e c2ba 6c7d 3738
00000270: c02f 12b9 34aa 013c d294 4dbe 576d a6ba
00000280: b4ab 6c3e 3805 043e df8c 9abd 8d88 61bd
00000290: 2f94 003b 062c cf3a 2a66 83b8 38e5 093a
000002a0: 5d53 6bbd 8c02 8639 ac15 22ba fe67 8b3d
000002b0: 186d d7b9 de45 ba3d 9885 0abe ec4d 8839
000002c0: bee5 50be 3714 55bd 2b62 db3b ecdd 223c
000002d0: f418 15be 38f2 a53d 4a52 ea3a cb9c 0e3e
000002e0: c1fe 323c f8f5 0dbc 64cf 18be dc88 3cbd
000002f0: e182 493e 8b60 59bc 1a98 eabc e242 92bc
00000300: e8ce 523b 1046 bc3b 6e2c 3f3e 5c8f 8e3c
00000310: c0af ee3a c077 8e3d 3b67 b0be 64d5 6a39
00000320: 08fb b63a f642 2dba 4490 1dbb 1002 0938
00000330: 228b 1739 ca10 c43a d112 2bb9 7254 18bd
00000340: 6706 5fbb ee33 18bb 15bf 62ba 9d94 7fb8
00000350: 4379 3fbb 4e3f 423d 6a95 9cba 9bdc ecbb
00000360: 6a4d b2ba 3eb1 12bb 61ff 1839 5e1e 453a
00000370: b8da f6b8 9d7e a6bb 9f02 faba ee33 1f3e
00000380: bf11 30bb 208e 8039 4bc4 19bb a35e 073e
00000390: d4be 253b 6601 8939 e02a 54be 69d1 fcba
000003a0: 24ea 43bd e758 243a 4b50 9c3a 9fef c5b9
000003b0: 7865 9c3d f61b 2f3b 31ec b6bd 9bf6 96ba
000003c0: 51b9 00b7 7ccf 51b6 ff5e f7b7 405f 20b7
000003d0: 6382 6e38 6cc8 af38 7b5b a5b8 67ab 8837
000003e0: b463 67b7 7bf2 b2b7 1c06 39b6 4d2f 1db8
000003f0: d301 bd36 46c0 86b8 d8fa 32b7 fc2b 86b8

model_1/dense_13/MatMul f4 [40, 40]
-1.7852835e-06 -0.00011454814 -0.0016904004 -0.0027670085 -0.011362869 -0.04159916 -6.0937426e-05 -7.807996e-05
0.00037943863 -8.0997124e-05 0.0013439406 -3.177721e-05 -0.12101206 1.6626998e-05 -2.1171354e-05 -6.202804e-05
-0.048490997 -2.740501e-05 -3.519198e-05 0.07510218 2.9684874e-05 -0.31881082 -4.8127185e-05 3.460218e-06
0.0015350122 4.3305197e-05 -0.015376515 -0.00011856076 6.2986386e-05 0.00030791244 0.031721488 0.026517728
-0.0030757452 -9.1077076e-05 -0.0023679584 0.028378744 0.00018183878 -0.000170107 0.124401964 -3.009826e-05
-9.156873e-05 -0.0001473579 0.00084800017 0.00021580394 -0.00039049896 -0.00016577748 0.00012628114 3.127852e-05
0.00015594263 1.3422912e-05 0.00015065951 -3.8334056e-05 -0.0024040944 -0.000101246005 6.419502e-05 6.841884e-05
-0.00039977767 2.2030532e-05 -1.7661067e-05 -0.00073154765 0.00013051141 -1.3383784e-05 -3.939869e-06 -0.00015736624
-0.00011156018 0.0005304935 -0.0008959318 0.00015138168 -9.521459e-07 -0.00016784118 -3.5249956e-05 0.0010628334
-6.192907e-05 0.00013101508 0.00014631564 0.0002018715 -1.6280348e-05 -0.00034134093 0.09353662 0.000101890946
0.00033497196 0.0001786727 3.331253e-05 -2.950402e-05 4.3941553e-05 -9.53889e-07 -8.348622e-05 8.3718856e-05
-0.00013192336 8.021937e-05 -9.245953e-06 -7.2328476e-05 -1.6052827e-05 -9.578419e-05 3.5346617e-05 -3.0512143e-05
-2.6950265e-05 3.734666e-05 7.413439e-05 6.845911e-05 0.000112835914 -4.0126608e-05 1.049582e-05 -1.8326464e-06
5.4358537e-05 0.00015156435 3.393743e-07 0.00019482628 0.00012967322 -5.2502306e-05 -4.8817514e-05 2.785416e-05
-2.7041253e-05 -0.00036700923 7.094313e-05 -4.078657e-06 0.00017442748 2.0008556e-05 -1.3553017e-05 8.918217e-05
3.8859107e-05 0.00015219081 -9.709498e-05 -6.625768e-05 -3.6506113e-05 0.00012352923 -1.1823489e-05 -1.7826915e-05
4.77026e-05 -4.864312e-05 -2.457479e-05 2.5477635e-05 -8.0726284e-05 -4.3525797e-05 -2.718043e-06 8.3898776e-05
3.634567e-05 -3.2937533e-07 2.8471226e-05 9.4858206e-07 -2.8279805e-05 -2.9829009e-05 -8.676281e-05 -0.000102427555
-2.323909e-05 5.6119097e-05 4.4176144e-05 -9.6435164e-05 -0.0001222141 0.0002330181 -2.5494219e-05 1.9272415e-05
-8.849332e-05 0.0002218986 -4.6252484e-05 2.3717881e-05 -7.750211e-05 0.0001056725 -9.278699e-05 1.8095569e-05
7.175705e-05 -4.38759e-05 0.047368206 -0.0040449733 0.096952476 -9.497604e-05 -1.5840898e-05 -2.0464131e-05
-0.26699 0.00076608214 0.023326596 -8.039815e-05 0.27164507 -1.27086505e-05 -2.351815e-06 -1.7380167e-05
-0.0039038784 0.00043535526 5.2871485e-05 -0.0026357938 8.494346e-06 -0.014019591 7.4898053e-06 -6.488249e-05
-0.0024225963 -0.00018812364 -0.2425458 -3.5111361e-06 -3.2038995e-05 -1.1594442e-05 -0.0005351891 -0.08789906
-0.036311153 0.00023160482 -0.0070907883 -0.00044659906 0.00014418198 -0.0012833885 -0.044357553 -3.349455e-05
3.265947e-05 2.4875739e-05 0.08382695 -0.00080759334 0.010064602 0.005536975 -2.1370179e-05 4.8875205e-05
0.05854748 -2.7756192e-05 0.15769792 -0.00014677653 0.029393783 3.4563305e-05 2.3384022e-05 -2.4599449e-06
0.00049365166 -0.0004275652 -2.9430194e-06 0.012990839 4.622846e-05 0.19222 1.9734236e-05 5.2789248e-05
0.0024588625 8.528388e-05 0.08069383 0.00010550034 -1.4151741e-05 -9.240985e-05 0.002241328 0.0036728343
-0.01912219 0.00015001527 -0.0032142752 0.0056463443 0.00036999784 0.0024516755 -0.2782884 -2.4199198e-06
3.2025313e-05 7.923751e-05 0.0002579571 -0.00044023912 -0.0029402135 -0.00055292115 2.3267567e-06 6.961713e-05
-0.004025528 -1.6321941e-05 -0.0047543175 -1.1243028e-06 -0.04189937 -4.1360487e-05 3.136428e-05 0.0001209135
00000000: e09d efb5 9039 f0b8 6d90 ddba b356 35bb
00000010: 542b 3abc e163 2abd 1097 7fb8 dcbe a3b8
00000020: 64ef c639 00dd a9b8 2a27 b03a 8548 05b8
00000030: 2cd5 f7bd 357a 8b37 2399 b1b7 0d15 82b8
00000040: 7f9e 46bd d0e3 e5b7 1a9b 13b8 2ccf 993d
00000050: c803 f937 2c3b a3be 2cdc 49b8 1836 6836
00000060: 7632 c93a 9aa2 3538 c7ed 7bbc d3a3 f8b8
00000070: 8f17 8438 4f6f a139 64ee 013d b53b d93c
00000080: 7192 49bb a200 bfb8 c02f 1bbb 8a7a e83c
00000090: faab 3e39 c05e 32b9 75c6 fe3d 857b fcb7
000000a0: 9608 c0b8 1684 1ab9 544c 5e3a 6e49 6239
000000b0: e2bb ccb9 8ed4 2db9 566a 0439 0e31 0338
000000c0: 8884 2339 f832 6137 5bfa 1d39 e1c8 20b8
000000d0: 038e 1dbb 0954 d4b8 70a0 8638 167c 8f38
000000e0: 4099 d1b9 35ce b837 da26 94b7 55c5 3fba
000000f0: e4d9 0839 ea8a 60b7 3833 84b6 ae02 25b9
00000100: 6af5 e9b8 d110 0b3a f7dc 6aba 36bc 1e39
00000110: f896 7fb5 86fe 2fb9 5ad9 13b8 c54e 8b3a
00000120: ebdf 81b8 1861 0939 4e6c 1939 78ad 5339
00000130: c891 88b7 01f6 b2b9 2190 bf3d 49ae d538
00000140: 2d9f af39 165a 3b39 0fb9 0b38 677f f7b7
00000150: e24d 3838 6007 80b5 5315 afb8 3892 af38
00000160: e854 0ab9 723b a838 111f 1bb7 0eaf 97b8
00000170: 2fa9 86b7 bfdf c8b8 2441 1438 54f4 ffb7
00000180: 4113 e2b7 aca4 1c38 9978 9b38 b491 8f38
00000190: 52a2 ec38 9e4d 28b8 3417 3037 40f9 f5b5
000001a0: 09ff 6338 3fed 1e39 4033 b634 484a 4c39
000001b0: e4f8 0739 ec35 5cb8 68c1 4cb8 5aa8 e937
000001c0: a6d6 e2b7 256b c0b9 4ec7 9438 66db 88b6
000001d0: 85e6 3639 0cd8 a737 c461 63b7 5007 bb38
000001e0: a6fc 2238 6995 1f39 789f cbb8 d2f3 8ab8
000001f0: 241e 19b8 a087 0139 805d 46b7 028b 95b7
00000200: 4714 4838 2706 4cb8 f625 ceb7 ceb8 d537
00000210: 984b a9b8 788f 36b8 a067 36b6 d0f2 af38
00000220: de71 1838 00d5 b0b4 7ed5 ee37 10a2 7e35
00000230: 6b3a edb7 4f39 fab7 6ef4 b5b8 60ce d6b8
00000240: 91f1 c2b7 6c61 6b38 c649 3938 3c3d cab8
00000250: 9926 00b9 5256 7439 6bdc d5b7 32ab a137
00000260: 7d95 b9b8 74ad 6839 3aff 41b8 c3f5 c637
00000270: a188 a2b8 7e9c dd38 a396 c2b8 f0cb 9737
00000280: 467c 9638 6407 38b8 2a05 423d b28b 84bb
00000290: 058f c63d e02d c7b8 12e2 84b7 63aa abb7
000002a0: eab2 88be e7d2 483a 6b17 bf3c 6e9b a8b8
000002b0: 1015 8b3e 3d37 55b7 e0d3 1db6 a0cb 91b7
000002c0: 36d8 7fbb 6540 e439 53c2 5d38 48bd 2cbb
000002d0: f082 0e37 6db2 65bc f050 fb36 8611 88b8
000002e0: 6cc4 1ebb 0e43 45b9 ed5d 78be dca0 6bb6
000002f0: 9c61 06b8 c085 42b7 ef4b 0cba 6c04 b4bd
00000300: 01bb 14bd f2da 7239 d859 e8bb 8325 eab9
00000310: 8e2f 1739 5f37 a8ba 44b0 35bd 807c 0cb8
00000320: d7fb 0838 3eac d037 77ad ab3d acb4 53ba
00000330: 00e6 243c 836f b53b 1c44 b3b7 5aff 4c38
00000340: 7bcf 6f3d f8d5 e8b7 907b 213e 06e8 19b9
00000350: 3bcb f03c 11f8 1038 ce28 c437 8815 25b6
00000360: 6768 013a d42a e0b9 b080 45b6 87d7 543c
00000370: 6ee5 4138 52d5 443e f38a a537 066a 5d38
00000380: de24 213b 6fda b238 cf42 a53d 1040 dd38
00000390: 446d 6db7 29cc c1b8 3ee3 123b efb3 703b
000003a0: 24a6 9cbc 6b4d 1d39 97a6 52bb f804 b93b
000003b0: 45fc c139 4aac 203b d17b 8ebe e865 22b6
000003c0: eb52 0638 502c a638 6a3e 8739 e5cf e6b9
000003d0: 99b0 40bb e9f1 10ba 6025 1c36 69ff 9138
000003e0: 94e8 83bb 1aeb 88b7 1bca 9bbb c0e6 96b5
000003f0: ac9e 2bbd 7c7a 2db8 248d 0338 f192 fd38

model_1/dense_14/MatMul f4 [45, 40]
-0.005074852 -0.0012056944 -0.00011281503 1.0967753e-05 0.04622949 0.022026699 -0.0023349042 -0.0022504425
1.4748134e-05 -0.021540701 -0.010993552 0.039553974 -0.17516637 0.0004560058 0.42470157 -8.489116e-05
-0.07856165 -0.16729142 0.007235225 1.0209478e-06 2.7669557e-06 -0.00031166227 -6.3598665e-05 -0.0027573996
0.0004254569 8.384913e-06 3.324888e-05 -1.1647717e-06 0.00011596296 -2.9983896e-05 0.008515471 0.00082700653
-0.044240575 0.00548093 -0.09073773 0.09039179 -0.027154557 -0.0145181855 -2.570207e-05 -2.025332e-06
0.12630953 -0.0004957757 -6.921001e-05 1.7841285e-05 -0.06017569 0.003393773 0.15272312 -0.00019110438
-1.9986528e-05 -6.291334e-05 -0.0015296658 -0.09664473 0.009560383 0.00066974317 -0.061101813 -0.00017539797
0.115037225 0.6506423 0.3794188 8.821614e-05 1.8083985e-05 5.2197e-05 7.2343195e-05 -0.00084808137
-0.0006735678 -6.6332987e-06 0.00010299198 2.3441917e-05 6.0603932e-05 -3.1084546e-06 -0.24286598 -0.0033618726
0.16939944 0.3995737 0.46199828 -0.009881109 0.14378795 0.25698176 -8.227946e-06 -1.6055616e-05
-0.061422866 -0.00089433417 -4.108566e-06 3.4370016e-05 0.61814326 -0.0043949233 -0.0036087243 -0.1354092
4.89813e-06 -0.16425632 -0.049563285 0.339555 0.2172128 0.029011348 -0.09320789 0.00015071922
0.08698514 -0.2672015 -0.006951684 -3.059635e-05 4.9286067e-05 4.7956884e-05 -8.18053e-05 -0.0025627234
0.00049520173 1.7455495e-05 0.00012672182 -5.0622086e-05 -0.00010138801 -2.8131035e-07 0.11635539 0.002219873
0.0038063284 0.023724627 -0.15239015 0.11936986 0.0055441163 -0.004545315 -0.000101377496 -3.675512e-05
-0.0026580088 9.57327e-05 7.3471674e-06 1.7512235e-05 0.014057667 -0.018998774 -0.004075895 7.1237446e-05
2.463652e-06 0.0054744184 0.0039315308 0.018856972 -0.0839956 6.4509513e-06 -0.003390585 -1.7234539e-05
0.006861832 0.0077372626 -0.00096756744 4.29895e-05 -0.0002630165 0.000102457 -6.7869565e-05 -0.00015387416
0.00023366846 -4.4792487e-05 -0.00013439062 -5.66919e-05 -3.568787e-05 5.558947e-05 0.0145918 0.0007934597
0.009414485 0.062228832 -0.0021458017 0.04904133 0.002634715 -0.049645916 3.7434285e-05 -1.6866104e-05
0.0018611697 5.396867e-05 -6.833789e-05 -2.2419852e-05 -0.004591501 0.0065717185 0.0034488426 -0.0017750541
-2.709289e-05 0.002462997 -0.063066594 -0.024100678 0.00069059595 0.0019901658 -0.00220825 -9.982679e-05
-0.0015013226 -0.006122139 0.0006952962 9.123124e-05 0.00014025022 9.662143e-05 -2.7936208e-06 -0.002032423
5.568539e-05 -9.959043e-06 -4.7906342e-05 9.916008e-06 -6.362798e-05 -3.1252064e-05 -0.014248174 -5.4061325e-05
-2.6826121e-05 -0.007432079 0.0005291894 0.00061222276 -0.027844347 -0.0014882677 -6.0773427e-06 1.1487262e-05
9.4136725e-05 0.00039166736 -1.4728375e-05 5.3203185e-05 -0.005204113 -0.0027662166 -3.920737e-05 -0.00037488306
-1.0843405e-05 -0.008683108 -0.059967585 0.0141963735 0.022224205 -0.0012581609 0.008520556 -8.150571e-05
0.017544223 0.052287035 0.0016364313 -0.00028868113 9.972219e-05 -2.1404801e-05 -4.3647833e-05 0.0017284757
-0.00020887257 -2.7421895e-05 0.00012919903 -1.7561382e-05 -4.730831e-05 -1.9287589e-05 0.00039620034 -0.0010105743
-0.008799621 0.10526877 -0.04234051 -0.00958038 -0.02586988 -0.0024717161 -6.748036e-06 4.2109725e-05
-0.002470034 0.00015944909 -7.705187e-05 5.0556653e-05 0.001394473 0.049179826 -0.00047230825 0.00195552
3.775805e-05 0.00506711 0.053079605 -0.013608821 0.0037513094 -0.0008664837 -0.049123228 -2.0012463e-05
00000000: f24a a6bb 6408 9eba 1c97 ecb8 2402 3837
00000010: 225b 3d3d 5671 b43c 3105 19bb 297c 13bb
00000020: c16e 7737 2076 b0bc 4d1e 34bc 5903 223d
00000030: d05e 33be 1014 ef39 7c72 d93e 9807 b2b8
00000040: eee4 a0bd 714e 2bbe 7715 ed3b 8007 8935
00000050: f0af 3936 9a66 a3b9 4660 85b8 7db5 34bb
00000060: dc0f df39 edac 0c37 b774 0b38 4055 9cb5
00000070: 2431 f338 ed85 fbb7 7984 0b3c 78cb 583a
00000080: 9b35 35bd 6099 b33b b4d4 b9bd 551f b93d
00000090: 3c73 debc afdd 6dbc c69a d7b7 f0ea 07b6
000000a0: 4957 013e f2f6 01ba d724 91b8 dea9 9537
000000b0: c97a 76bd 106a 5e3b 7363 1c3e 3163 48b9
000000c0: bea8 a7b7 58f0 83b8 117f c8ba aced c5bd
000000d0: 27a3 1c3c b491 2f3a e545 7abd 09eb 37b9
000000e0: a398 eb3d 7e90 263f 2e43 c23e ae00 b938
000000f0: 10b3 9737 1aee 5a38 f5b6 9738 c751 5eba
00000100: 5f92 30ba 9a93 deb6 66fd d738 22a5 c437
00000110: fa30 7e38 d89a 50b6 dcb1 78be dd52 5cbb
00000120: 0c77 2d3e ed94 cc3e 0a8b ec3e 60e4 21bc
00000130: 263d 133e 1d93 833e c20a 0ab7 2caf 86b7
00000140: 8b96 7bbd c071 6aba 50dc 89b6 8628 1038
00000150: a33e 1e3f 4a03 90bb 5980 6cbb b6a8 0abe
00000160: 9e5a a436 cf32 28be df02 4bbd 27da ad3e
00000170: 086d 5e3e 35a9 ed3c c7e3 bebd 620a 1e39
00000180: 4425 b23d a3ce 88be f4ca e3bb 9554 00b8
00000190: 83b8 4e38 5025 4938 e38e abb8 5df3 27bb
000001a0: 6dd0 013a 646d 9237 a1e0 0439 0d53 54b8
000001b0: 46a0 d4b8 0007 97b4 bc4b ee3d 4a7b 113b
000001c0: 9873 793b 265a c23c 2a0c 1cbe 2f78 f43d
000001d0: 6bab b53b def0 94bb a19a d4b8 8229 1ab8
000001e0: fd31 2ebb 1ac4 c838 b087 f636 3de7 9237
000001f0: 2152 663c 51a3 9bbc 168f 85bb 5065 9538
00000200: 3855 2536 c062 b33b 12d4 803b f079 9a3c
00000210: e305 acbd 4075 d836 9434 5ebb e492 90b7
00000220: 38d9 e03b dd88 fd3b 5aa4 7dba a04f 3438
00000230: 7ae5 89b9 2fde d638 3255 8eb8 4859 21b9
00000240: e604 7539 91df 3bb8 35eb 0cb9 77c8 6db8
00000250: 8faf 15b8 bd28 6938 7212 6f3c 2e00 503a
00000260: 363f 1a3c a9e3 7e3d 94a0 0cbb 90df 483d
00000270: 2fab 2c3b 8459 4bbd c202 1d38 af7b 8db7
00000280: 7ef2 f33a 6b5c 6238 a050 8fb8 4412 bcb7
00000290: 4d74 96bb 9257 d73b fa05 623b efa8 e8ba
000002a0: 8a45 e3b7 3c6a 213b 0f29 81bd c96e c5bc
000002b0: 1c09 353a 716d 023b 4ab8 10bb 1a5a d1b8
000002c0: 07c8 c4ba 399c c8bb 8a44 363a 6653 bf38
000002d0: 2210 1339 3ca1 ca38 0a7a 3bb6 6632 05bb
000002e0: bb8f 6938 c415 27b7 0bef 48b8 ee5c 2637
000002f0: 0370 85b8 a614 03b8 2c71 69bc e8bf 62b8
00000300: a808 e1b7 cc88 f3bb 4db9 0a3a 937d 203a
00000310: d419 e4bc fa11 c3ba faeb cbb6 6ab9 4037
00000320: 456b c538 b458 cd39 e419 77b7 7c26 5f38
00000330: 4487 aabb 6a49 35bb 9872 24b8 f48b c4b9
00000340: 12ec 35b7 9843 0ebc 92a0 75bd e897 683c
00000350: 890f b63c e0e8 a4ba cd99 0b3c 0bee aab8
00000360: e7b8 8f3c ee2a 563d 867d d63a 205a 97b9
00000370: f121 d138 768e b3b7 8112 37b8 058e e23a
00000380: ce04 5bb9 1208 e6b7 9a79 0739 c850 93b7
00000390: e96c 46b8 c8cb a1b7 1cb9 cf39 3f75 84ba
000003a0: 492c 10bc 2797 d73d 3e6d 2dbd 07f7 1cbc
000003b0: 12ed d3bc 84fc 21bb 306d e2b6 f99e 3038
000003c0: 4be0 21bb ca31 2739 e896 a1b8 cb0c 5438
000003d0: c0c6 b63a c970 493d 24a0 f7b9 2e28 003b
000003e0: 665e 1e38 000a a63b 006a 593d 88f7 5ebc
000003f0: 87d8 753b bd24 63ba 7035 49bd 70e0 a7b7
