3tier-app/learnt_model/gcp_model/model_3tier_final.tflite (tflite, 142712 bytes, 48 tensors)

dense_9/bias f4 [40]
00000000: 1dad a63e 1e74 903c b75a f6bc df95 143c
00000010: 69de 2bbc 39cd 17bc f0a7 28bd 9dac cebb
00000020: 71bb ed3b 2af5 92bc 3bcf 343c 812d 3dbd
00000030: 8e39 a9bc bc57 0ebd 43c7 0f3c f288 293e
00000040: 8cd6 65bd ab63 acbc 743a 153c ae55 143c
00000050: cba0 89bd 870c 61bc 082e 2dbd 441b 163c
00000060: fbd4 85bc b4a5 cebc a339 c13e 5347 273e
00000070: 8e1e b2ba 0a12 6abb d2a8 8ebc 42be 533d
00000080: 1a04 57bd 7f8b 1a3e ad0e 663b d80b 6b3e
00000090: 3b5f 02bc 309e b4bc d91a e2bc cd92 3c3c
0.3255395 0.017633494 -0.030072553 0.009068935 -0.010490038 -0.0092652375 -0.041175783 -0.006307198
0.007255011 -0.017939169 0.011035736 -0.046185974 -0.020657327 -0.03475164 0.008775535 0.16556147
-0.05611281 -0.02104362 0.009108175 0.009053631 -0.06720122 -0.013735897 -0.042280227 0.009161774
-0.016336909 -0.025225498 0.37739286 0.16335802 -0.0013589428 -0.0035716319 -0.017414484 0.051695116
-0.052494146 0.15092276 0.0035103962 0.22953737 -0.007957275 -0.022048086 -0.027600693 0.011509609

dense_8/bias f4 [40]
00000000: 3867 08bd fe13 9b3b f1f9 22bb ea13 f4bc
00000010: bb3a 0ebd e330 013d 17c7 bebc e134 db3d
00000020: 21bb 6a3c 1146 a0bb 35d8 2dbc ebaa 08bd
00000030: ab27 04bd 111b 6d3b 9c8f 063c cdd2 da3b
00000040: 9324 2dbd 32a7 043d c8ee d2bc 2f78 39bc
00000050: 259b 25bd 8e00 d73c 6978 38bd 035e fd3c
00000060: e7a6 1c3d b953 c2bd 90e2 3e3c 19b4 3cbd
00000070: b704 05bd 21ca 73bd 56b7 c33e b5c9 ef3c
00000080: 997e 743c 8b2c ef3c 04bb 74bc 8ef1 a93e
00000090: 08bc a73c 36d1 763e 39df dab9 d182 bfbc
-0.033301562 0.004732608 -0.0024868215 -0.029794652 -0.03472398 0.031540763 -0.023288293 0.10703445
0.014326842 -0.004891165 -0.01061063 -0.033366125 -0.032264393 0.0036179463 0.00821295 0.0066779614
-0.042271208 0.032386012 -0.025748625 -0.011320158 -0.04043116 0.026245382 -0.045036707 0.030928617
0.038245108 -0.09488625 0.011650696 -0.046070192 -0.0324752 -0.059518937 0.38225812 0.029270986
0.014922761 0.029196044 -0.014937166 0.33192104 0.020475402 0.24103245 -0.00041746514 -0.023377808

dense_7/bias f4 [40]
00000000: 6766 c3b9 9cd9 3dbd 4c7f cf3c 95fa 8a3c
00000010: 0be3 cc3d 6bd0 ef3d 4c07 9e3d a37f ec3c
00000020: 1c71 163e a727 c43c 06f9 023e 6934 493c
00000030: 4114 6c3c c7cd e0bc 89ab f1bc d63f 1f3d
00000040: e3a8 cbbc d6bb 2b3d 1e97 1abd cce6 05bd
00000050: 0480 f43d 4fa9 1fbe f648 a43d 0596 a23c
00000060: e4b9 283e e402 3b3d 30b3 c63d 7077 bfbd
00000070: 504f 483d 68b0 163e c10f e6b9 48e7 153d
00000080: fc50 28bd ee84 2d3e 6df6 12bc aad0 3a3d
00000090: 55f3 b3bb 0a08 c93b 4453 533d 3636 fdbc
-0.00037269594 -0.046350107 0.025329255 0.01696519 0.100042425 0.117096744 0.077162355 0.028869456
0.14691585 0.023944689 0.12790307 0.012280562 0.014409126 -0.027441872 -0.02950074 0.038879238
-0.024860805 0.04192718 -0.037741773 -0.03269081 0.119384795 -0.1559193 0.08021729 0.019846926
0.16477162 0.045657054 0.09702146 -0.09348953 0.048903763 0.14715731 -0.00043880756 0.03659752
-0.041092858 0.1694524 -0.008969885 0.045609154 -0.005491654 0.0061349915 0.05159308 -0.030909639

dense_6/bias f4 [36]
00000000: d3b3 983d b1ad de3d a7b4 03bd 8340 b53b
00000010: 9a1d f73a e20c 59bb 9583 84bb 9233 92bb
00000020: 60f3 943b fcbb 343c 329f 67bb 4874 b3bb
00000030: 657b a53d 882c d3bd 1d2e dd3d 3262 c23b
00000040: 674a a73b 1c99 fb3b 70ad c1bb da85 083b
00000050: 571d 5c3b 5faa 8f3b cdbc 42bb 27bf 5fbb
00000060: d586 39bc a73e a43c 010d b4bd 3870 13bb
00000070: 6097 2739 8d6b 0a3b 5be5 0e3b eb1d 89bb
00000080: 144f 933a eb2c 3dbc 52d9 72bb 5aa0 293b
0.07456174 0.10872973 -0.032154705 0.005531372 0.0018853426 -0.003311925 -0.004044006 -0.004461714
0.004545614 0.011031147 -0.003534269 -0.0054765083 0.08080176 -0.10311228 0.10799811 0.005932116
0.005105305 0.007678164 -0.005910568 0.0020831735 0.0033586824 0.0043843235 -0.0029714585 -0.0034141035
-0.01132365 0.020049406 -0.08791543 -0.0022497308 0.00015982753 0.0021121234 0.0021804187 -0.0041844747
0.0011238777 -0.011546354 -0.0037055803 0.002588293

dense_5/bias f4 [40]
00000000: 4351 f5bc 4b65 17bd f6d2 d23c 1404 2e3c
00000010: b830 fdbc be06 eebc f754 7ebb 237e babc
00000020: 6c16 ae3c 5700 04bd 2f2e 40bd 8f64 e4bc
00000030: 53bd 0eba 67c8 723c 7a29 e63b ce73 79ba
00000040: aaa2 5e3c 50e5 aebb 19a9 e03c c148 af3e
00000050: ca64 11bc 10a6 f93a 69f1 18bc 8722 673c
00000060: 371a 7abd 5444 50bd e375 f4bc a345 e3bc
00000070: d7cf 5ebc e00f 923d 738f 753c 07f2 863d
00000080: 08d3 f9bc 8b9f 1ebd b195 1bbc 8686 e8bb
00000090: f8a6 a8bb 54d9 ae3d 254a 11bd 44b5 ddbc
-0.029945975 -0.036961835 0.02573536 0.0106210895 -0.03090702 -0.02905595 -0.0038807967 -0.022765225
0.021250926 -0.032226887 -0.046919044 -0.027879981 -0.00054450816 0.014818287 0.0070239874 -0.00095158524
0.013588587 -0.005337395 0.027424382 0.34235194 -0.008874128 0.0019046683 -0.0093349 0.014107353
-0.061060157 -0.050846413 -0.029841369 -0.027743166 -0.013599358 0.07131934 0.014987814 0.06589132
-0.030496135 -0.03872637 -0.009496138 -0.0070961146 -0.0051468574 0.08537546 -0.0354711 -0.027063973

dense_4/bias f4 [40]
00000000: f486 f73c ef49 ae3b f7e3 4ebd 26cd b8bc
00000010: 7d55 c0b9 88e8 d1bc 898a fabc 7f28 e33c
00000020: 7d26 4a3d 0f24 b03c 4f92 873d 7a75 d9bc
00000030: 3016 f9bc cca5 78bd 4d75 c4bb 6a9b e23c
00000040: c11e ad3a 780c 0d3d d171 f63b 4d73 cd3c
00000050: 0d3b 3abd 50b7 f9bc f941 123d 0d09 663e
00000060: e6d7 babc cf20 6bbc da18 55bd 22d4 8e3e
00000070: d2f7 c2bc 284f c13b 9597 223d a568 81bd
00000080: 371b e13c dcd5 43bd 6320 46bc 4959 4c3c
00000090: b61d 87bb 9782 c13d d845 01bc 5845 7fbd
0.030215718 0.005318872 -0.050510373 -0.02255876 -0.00036684787 -0.025623575 -0.030583637 0.027729271
0.04935311 0.02150157 0.06619703 -0.026545275 -0.030406088 -0.06070499 -0.0059954287 0.027661998
0.0013208018 0.03443572 0.007520892 0.025079394 -0.04546647 -0.030482918 0.035707448 0.2246439
-0.022808027 -0.014351084 -0.052025653 0.2789622 -0.02379981 0.0058993287 0.03969534 -0.063187875
0.027478797 -0.047811374 -0.0120926825 0.012472459 -0.004123415 0.09448736 -0.007890187 -0.06232199

dense_3/bias f4 [40]
00000000: c85d 27bd 868f 48bd cdb6 5d3c f1bb 7b3c
00000010: 1b1a 05bd 5ef5 db3c 1654 af3a 7763 143e
00000020: 5f32 9fbb db07 663d ce65 ec3c b771 4e3d
00000030: 3656 5d3e a77a 59bd 01e1 523d cb18 023d
00000040: 6c54 28bc ea3d e43c 3b42 673c e63e 18bd
00000050: eb1a 393d 58fd 91bd 037c 603d e666 85bc
00000060: 0f10 4e3c efb1 053c 7551 4c3e 6fd5 af3d
00000070: 6c94 3b3d d858 e5bc be97 53bb 94e3 a3bd
00000080: 4b53 6abd f8cd 093e 7f04 383d 0590 473e
00000090: b39b 3a3c 16c2 1f3d f38f 453e cad5 cb3d
-0.04086092 -0.048965 0.013532353 0.015364633 -0.0324956 0.026850399 0.00133765 0.14491068
-0.0048582996 0.056159835 0.028857138 0.050401416 0.21614918 -0.053095486 0.05148411 0.031761926
-0.010274034 0.027861554 0.014114912 -0.03716936 0.045191687 -0.071283996 0.054805767 -0.016284417
0.012577071 0.008160098 0.19952948 0.08585631 0.045795843 -0.027996466 -0.003228649 -0.080023915
-0.05720834 0.13457477 0.044926163 0.19488533 0.011389661 0.039003454 0.19293194 0.099528864

dense_22/bias f4 [45]
00000000: cd66 853d 7e49 7a3c 99ff b03c 7db7 b1ba
00000010: 60ea 8c3b 59cc b1ba 64fe dfbb 8d08 d7ba
00000020: 77e2 9c3b 80c1 adb9 d573 593b ef56 d8bb
00000030: eb8c 413f 598b 67be 2b8d 40be d244 df3d
00000040: 3b20 2ebc 0397 c83c 8067 62b9 0da0 b0bb
00000050: 5440 0d3b 7814 94bb 92c7 b43a 8ba9 08bb
00000060: f436 4bba 7336 9bbb d373 193b 3e60 2bbe
00000070: 56ff 0c3f f362 63be 3601 023e 6f90 29bc
00000080: 7a04 5dbd eca4 163b 8d88 31b9 eacd f6bb
00000090: e21c 30bb fa4b 0abb 5b51 a3bb e1fd c1bb
000000a0: ee66 c53b 6641 653b 35eb 97bd 1eb2 3dbe
000000b0: 56e2 fb3e
0.06513748 0.015276311 0.021606253 -0.0013558712 0.0043004006 -0.0013564929 -0.0068357456 -0.0016405747
0.004787739 -0.000331413 0.0033180614 -0.00660216 0.7560565 -0.2261175 -0.18803851 0.10901798
-0.0106278015 0.02448607 -0.00021591596 -0.0053901733 0.0021553235 -0.0045190416 0.0013792387 -0.0020853009
-0.0007752024 -0.0047367155 0.0023414984 -0.16735932 0.5507711 -0.22205715 0.12695774 -0.010349377
-0.053959347 0.0022986485 -0.00016930905 -0.007531871 -0.0026872684 -0.0021102414 -0.0049840636 -0.0059201573
0.006024233 0.0034981607 -0.07417909 -0.18524978 0.49196118

dense_21/bias f4 [40]
00000000: 2361 7cbb 5010 47bc ab2c c43c 265c b43b
00000010: c99a 1fbd 8187 fd3c fa0f 783c 360d 19bc
00000020: 9f33 863c 40c9 823c eced 81bc 5a16 603d
00000030: 07bc efbc 30f0 7f3c ae41 8b3d 94b1 60bc
00000040: 5c75 853e 7414 84bb 0b03 23bd d5a6 8f3c
00000050: 9394 e9bb 5c71 923c 49cb 4cbd 9783 773c
00000060: 5e48 51bd d445 933c f948 053e 5f87 8e3c
00000070: 5b89 843c 4d25 8c3c c123 10bb 7e7f 56bc
00000080: 35df 003c 2197 753e 7555 c33c ae30 9c3c
00000090: 52e1 b6bb e31e 9b3c d84c 263e 204b fd3d
-0.0038510046 -0.012149885 0.02394708 0.005504149 -0.038965974 0.030948402 0.015140528 -0.009341529
0.016382037 0.015965104 -0.01586052 0.054708816 -0.029264463 0.01562123 0.06799637 -0.013714213
0.260661 -0.0040307585 -0.039797824 0.017535606 -0.007128307 0.01787632 -0.049998555 0.015107057
-0.051094405 0.017977633 0.13016118 0.017398534 0.016178777 0.01710763 -0.0021993967 -0.01309192
0.007865717 0.23983432 0.02384446 0.019066181 -0.0055810595 0.018935626 0.16240251 0.123678446

dense_20/bias f4 [40]
00000000: da30 293c 5c50 0fbc 34a3 5b3e 5a8f 46bc
00000010: 281b 58bd de0d 23bd 9bca 043e 4934 4e3d
00000020: c08b 89bb 84d6 f13c 4b15 603d 4b38 f33c
00000030: e8b2 ec3d 679a 64bd 2c5a fd3d 9586 24bb
00000040: 581e b13c 3016 5ebc dd3f 03bd 174d 493d
00000050: 2c62 303c 2061 883d 10df 203e ffa2 45bd
00000060: 5329 093e 04a4 50bc 35f4 c9bc 3d87 0bbd
00000070: 8e2b c43b 8545 193d b1bd 0bbd 3d3f 8f3e
00000080: cbb4 853b 9628 3cbc 68b1 72bb 985e a6ba
00000090: c400 cdbc 40e5 ff3d 87be 18bd 98df 41bd
0.0103265885 -0.0087471865 0.21448976 -0.012119139 -0.052760273 -0.039808147 0.12967913 0.05034283
-0.0041975677 0.029521234 0.054707807 0.029689929 0.11557561 -0.055811312 0.123707145 -0.0025104631
0.021620914 -0.013555095 -0.032043327 0.049145784 0.0107655935 0.0665915 0.15710092 -0.04825115
0.1339467 -0.012734417 -0.02465258 -0.03406452 0.0059866374 0.037419815 -0.03411645 0.27977934
0.00408039 -0.011484286 -0.0037032012 -0.0012692986 -0.02502478 0.12494898 -0.037291076 -0.047332376

dense_2/bias f4 [40]
00000000: 63d4 d83d 94ac ed3c fc65 9f3d f3fb cebd
00000010: eedf 32ba f092 cebc 78d7 343c 8e71 45bd
00000020: fe10 7c3d e25f 9cbc 61c4 debc 4901 0dbc
00000030: fb34 6abd 6bf4 2fbd 96e9 003e ffc2 103e
00000040: ba4c 91bc 3a25 09bd 0a75 50ba 701d 85bb
00000050: 5c0d ca3d 869b b83c 43e8 8d3d 3779 06bd
00000060: 5194 303d 197e b5bc 5a5c 953d 759e 77bd
00000070: 96fd 893d 089b 2d3d 450c 89bd f82f 24bd
00000080: 2dcb 253d 559c b2bd 3b3f 663d 2b97 a7bc
00000090: a728 05bd c47d 333e 0b22 c4bc 2872 abbc
0.105873846 0.029012956 0.07783124 -0.10106649 -0.0006823529 -0.02521655 0.0110377 -0.048203997
0.061539643 -0.01908869 -0.02719325 -0.008606263 -0.057179432 -0.042957705 0.12589106 0.14136885
-0.017736781 -0.033482768 -0.00079520105 -0.004062347 0.09865829 0.022535097 0.06929066 -0.032830443
0.043110196 -0.022154855 0.07293005 -0.06045385 0.06737821 0.042384177 -0.06691793 -0.04008481
0.040476967 -0.08721224 0.056212645 -0.020457825 -0.032509472 0.17528445 -0.023942014 -0.020928457

dense_19/bias f4 [40]
00000000: 83c7 4d3d 54c8 1d3d 8b31 573d 6ef4 d33d
00000010: e1ac 83bc 6cc6 3a3d 539f 3e3e 91ca aa3d
00000020: 2fca 913d d107 18bd 33a3 57bc a6e9 b4bd
00000030: 449f 44bb c0a0 613e 1be8 913d 5f07 083e
00000040: 9b57 1e3e 3707 413d 1fb7 603e bf63 bb3b
00000050: e820 99bc dba7 c63d a3a5 59bc 3a93 403e
00000060: 0c92 c23e 7bfe c73d ed99 27bd 77f3 af3d
00000070: 8bfa 98bc f45a 3b3b 8f57 b83d 13e5 b6bb
00000080: 0433 f63e 102d e5bb 02ef 0a3e 73ba 583e
00000090: bf30 633d 643b 913d bf15 dbbc 334d 6c3e
0.050239097 0.038521126 0.052537482 0.10349356 -0.016073646 0.045599386 0.18615465 0.08339418
0.071186416 -0.03711683 -0.013161468 -0.088336274 -0.0030002156 0.22033978 0.07124349 0.13284062
0.15463106 0.04712602 0.21944855 0.005718678 -0.018692449 0.09699985 -0.01328412 0.18806162
0.3800205 0.09765335 -0.04091828 0.08591359 -0.018674156 0.0028588148 0.090010755 -0.005581507
0.48085797 -0.0069938973 0.13567737 0.21164875 0.05546641 0.07091406 -0.026743768 0.23076324

dense_18/bias f4 [45]
00000000: f709 1d3e 7fea 193e e9fb 753d 22e9 b33a
00000010: 94b7 543a 064a f3bb 5c64 84bb 9431 8f3b
00000020: e8c1 6a3b f031 693c 6a85 cb3a f24f 9fbb
00000030: b718 dd3e 84f1 8ebd 9ac7 aabc 3592 c83d
00000040: 4c2b 83bd 66e0 733d 38d6 5bb9 8388 c6ba
00000050: 5edf 593b 72cc 6cba e818 323b 82e7 ddb9
00000060: 07cc 76ba e0d7 4a3b f220 0c3b 78e6 f2bc
00000070: 3bec a23e cd2f 8ebc 8b1f 903d 61a0 8c3b
00000080: 1d36 e9bd 9bf7 5d3b a87e e03b 42ca 4fbb
00000090: 7490 3d3b 1cd9 4cbb f09f a4b8 b01f afbb
000000a0: 421d f63a 4500 a9ba 2e38 ecbb 78e3 d3bd
000000b0: 2b36 4a3e
0.15335833 0.1503086 0.060054693 0.0013726095 0.00081145135 -0.0074245958 -0.004040284 0.004369924
0.0035821144 0.014233097 0.0015527431 -0.004861825 0.43182918 -0.06979659 -0.02084713 0.09793512
-0.064047426 0.059540175 -0.0002096527 -0.0015146885 0.003324471 -0.000903315 0.002717549 -0.00042324892
-0.0009414558 0.0030951425 0.0021381942 -0.029650912 0.31820855 -0.017356778 0.07037266 0.0042915796
-0.113872744 0.0033869508 0.006851036 -0.0031706248 0.0028925212 -0.0031257337 -7.84992e-05 -0.0053443536
0.001877703 -0.0012893757 -0.0072088456 -0.103461206 0.19747226

dense_17/bias f4 [40]
00000000: 5bf6 e7bc a24c 183c afc5 033c 5888 2ebd
00000010: 7885 7bbd 5bc3 80ba 36a1 b8bc b4ad 383c
00000020: feb4 123c e620 fa3b 24ac 3f3b bdf1 113c
00000030: a916 2cbc 10e0 0bbd cd3c fb3b 1556 a33d
00000040: 8a60 a43e e673 793e 09d6 863e 39d9 29bc
00000050: 2755 933e a819 133e 9c91 063c c731 14bd
00000060: eada a23c 2aa5 16bb 0966 69bd 045d 5dbd
00000070: ab56 44bc b00e 4fbc 0229 7cbd ecbc b7b8
00000080: e447 4dbd 19b1 86bc 7a60 9c3e 9b0e 2dbd
00000090: c9cc e1bc f26d abbb 54c6 75bc 8b98 173c
-0.028315714 0.009295614 0.008042737 -0.042610496 -0.061406583 -0.0009823845 -0.022537809 0.011271883
0.008954285 0.0076333163 0.002924689 0.008907733 -0.0105034495 -0.03414923 0.00766716 0.07975403
0.32104903 0.24360618 0.2633517 -0.010366731 0.28775904 0.14365256 0.008213427 -0.036180284
0.019879777 -0.002298663 -0.056982074 -0.054043785 -0.011983554 -0.012637779 -0.061562546 -8.7613094e-05
-0.05011739 -0.016441869 0.30542356 -0.042250257 -0.02756347 -0.0052316124 -0.015000898 0.009252678

dense_16/bias f4 [40]
00000000: cecb 35bd 4809 7a3c 4dbe ce3d 51ed 19bd
00000010: 8c23 a3bc 96c5 49bd 4bb8 1b3d 04b5 913e
00000020: 91de 233d a1db 683e 909a aebc 072e f6bc
00000030: cbeb 6b3e 6fd8 90bd 71d3 bc3c 7f71 49bd
00000040: 862a 03bd dd45 5cbc 872e 15bc 9f52 783d
00000050: bec3 00bd ca2f 32bd e6c1 e3bc 956a 66bc
00000060: a7d3 34bd 90a1 3cbc d001 2e3d 45f5 0f3c
00000070: ca3f 063c 3d1b 233c 41df d23b a118 b33c
00000080: 0443 32bd c451 523d d426 153d ad40 3bbc
00000090: b917 8ebd 5394 ac3e cf10 cebc ba1c a83d
-0.044383816 0.015261002 0.10094891 -0.03757984 -0.019914411 -0.0492607 0.038017552 0.28458416
0.040007178 0.22740032 -0.021313936 -0.030051244 0.23039167 -0.070725314 0.023050042 -0.049180504
-0.032022975 -0.013444391 -0.009105331 0.06062567 -0.031436674 -0.043502606 -0.027802419 -0.014063497
-0.04414716 -0.011513129 0.042482197 0.008786504 0.008193919 0.009955225 0.0064353053 0.02186233
-0.043520942 0.05134751 0.036413983 -0.011428994 -0.069381185 0.33706912 -0.0251545 0.08208604

dense_15/bias f4 [40]
00000000: 5f90 413c 15fa e9bc b467 dcbb 0ed7 05bd
00000010: c7f3 573d 0a9b aa3e b343 d4bc ea6e ca3d
00000020: 4763 0abd 2e46 8bbe 992b 463e ea79 bf3b
00000030: 201d 053d eec8 0b3e 4e5d cfbb d852 16bd
00000040: 4ee1 d8bd 1ef3 be3c 77fc ce3d 63bb 943e
00000050: 3bad fabc 6f8d a73c b627 48bc ff13 e03d
00000060: 64b3 67bd f2e5 833e 21be 963c c7cf b03d
00000070: 1061 893d 5da4 1bbd 6be8 19bb 6b37 983c
00000080: b136 613d d7b4 563e 8f94 48bc 31f9 1cbd
00000090: be20 493e 4d12 6a3c d851 4b3e fec6 00bd
0.011814206 -0.028561631 -0.0067262296 -0.032675795 0.05272272 0.3332141 -0.025911188 0.098844364
-0.033786085 -0.2720198 0.19352569 0.0058433907 0.03249848 0.13650867 -0.0063282615 -0.0367001
-0.105898485 0.023309287 0.101067476 0.29049215 -0.03060018 0.020453183 -0.012216499 0.10941314
-0.056567565 0.25761372 0.018401207 0.086333804 0.06707966 -0.037998546 -0.002348448 0.018581113
0.0549838 0.20967422 -0.01224245 -0.038323585 0.19641396 0.01428659 0.1985544 -0.031439774

dense_14/bias f4 [45]
00000000: eb51 043e 29c1 233e 9103 393d 2f22 9f3b
00000010: 2bd5 953b 6d4f a6bb 3536 d3bb 4cad 2d3b
00000020: b052 a03b fe42 143b 3ea2 b5bb f4a5 10bc
00000030: 247d 133f 5c27 913b 3c84 84bc 805f 033e
00000040: 4b85 98bd 1afa a23b f33e f73b 1c95 dc3a
00000050: 50e8 e438 f3f3 7a3a 5672 913b 02a7 15bb
00000060: 59cd e63a 370d 7c3a cea8 b2ba 6f6b adbd
00000070: 8c13 483e f2a9 a43d 61cd 8c3d 8424 05bc
00000080: f55b 27bc 1c5d bdba f102 863b 45de 2e3b
00000090: 8c6a 9d3b d9f0 1c3b 113f 4d3b 64a9 95bb
000000a0: 330f bd3a 8828 223b d9b1 4cbd d53e 7abd
000000b0: fc18 783e
0.12921874 0.15991654 0.045169417 0.00485637 0.0045725307 -0.0050753863 -0.006445671 0.0026500998
0.0048926696 0.0022622938 -0.0055430224 -0.008828629 0.57612824 0.004429741 -0.016176336 0.12829399
-0.074472986 0.004973662 0.007545346 0.0016829106 0.00010915159 0.00095730944 0.0044386787 -0.002283514
0.0017608806 0.0009615006 -0.001363063 -0.08467757 0.19538707 0.08040227 0.068751104 -0.008126382
-0.010214795 -0.0014447304 0.004089706 0.0026682776 0.004803961 0.0023947267 0.0031318108 -0.004567312
0.0014424085 0.0024743397 -0.049974296 -0.061095078 0.24228281

dense_13/bias f4 [40]
00000000: 080a 3b3e 62c9 2ebd 22d1 d13b 3663 553b
00000010: 426f 803e df25 6abc a1e3 c23b 697c 283c
00000020: 7443 efbc fdab 983c baff 033c c1a8 933e
00000030: eb01 9bbd 4d1c 54bd 033b 90bd a2e5 2fbb
00000040: 301f e0bb 8ec4 113d fa43 1c3c b50d 27bc
00000050: 6062 c5bc 5de6 343d 1b69 d2bb 8193 38bd
00000060: 76d4 0fbd 1e9d 7f3e ca1e edbb f654 503c
00000070: 7e70 f93b a95a 9a3e de8e 2abd 2c1e 24bd
00000080: 6865 773e 5d9b 16bd 40fc 1dbb 0d68 853b
00000090: f310 22bd eb8e 05bd 0cc0 05bd bf09 85bb
0.18265545 -0.042672522 0.0064031044 0.0032560355 0.25084883 -0.014291256 0.0059475456 0.010283568
-0.029206969 0.018636698 0.008056575 0.28839687 -0.07568725 -0.051784802 -0.070425056 -0.0026839753
-0.0068396553 0.03558784 0.009537691 -0.010196139 -0.02409476 0.044165004 -0.006421221 -0.045062546
-0.035114728 0.24962279 -0.0072363364 0.012715569 0.007612287 0.30147293 -0.041640155 -0.040067837
0.24159777 -0.03676926 -0.0024106652 0.0040712417 -0.039566945 -0.032607 -0.032653853 -0.0040599997

dense_12/bias f4 [40]
00000000: e58f b53d ebda 7e3c e734 f5bc 26e0 0dbd
00000010: 8f96 06bd 499b 073c e334 ee3d f86a 463c
00000020: 9932 d2ba 4418 d7bc 991d 8f3e e17c 99ba
00000030: 0122 5f3e a09e a7bd ec1d d7bd 9533 473c
00000040: 6e2e 4fbd de43 17bd 7e32 9ebd 2497 4f3d
00000050: be1d dcbc fed5 ccbc ce44 d8bc b0b6 763c
00000060: f777 843c dbe8 2b3c 51e1 ac3e ce8c 433d
00000070: 24aa 76b9 4421 893b 912d 383d d9c5 26bd
00000080: 65e0 643c 2e23 24bd 5df4 e53b 75ed 32bc
00000090: edfb c43d 120e 9ebd 4eb7 02bd 2132 923e
0.08865336 0.015555124 -0.029932452 -0.034637593 -0.032858428 0.008276769 0.11631181 0.012110464
-0.0016036808 -0.026256688 0.2795227 -0.001171019 0.21790315 -0.08184552 -0.10503754 0.012158294
-0.05058139 -0.036929958 -0.07724474 0.05068125 -0.02686965 -0.025004383 -0.026399996 0.0150582045
0.016170485 0.010492529 0.33765653 0.047741704 -0.0002352377 0.004184874 0.04496533 -0.040716026
0.013969515 -0.040072612 0.0070176558 -0.010920872 0.096183635 -0.077175274 -0.031913094 0.2855387

dense_11/bias f4 [40]
00000000: 74e3 ce3e 8240 51bd e33b 2b3d 1f15 773d
00000010: 1088 e8bb 4624 ac3d 7f57 6abd 1c5a 6cbc
00000020: c68c d23e 2ee2 213d 4c11 3abd d6de a73b
00000030: 0966 75bc 7732 c43d a107 fb3d 6e4c 043c
00000040: def5 d6bc 9a29 9fbc ed7a 97bd 98d7 863e
00000050: 8893 f83d 2df2 8dbc 651a d03b f01f 44be
00000060: 4b10 ba3c 549e 123d 59a8 98bd 9833 a13d
00000070: 0abf d83d a754 bfbc 6874 053d 0de9 a8bc
00000080: 3b65 a33d 10fb a1bb 5392 06bd b662 a63d
00000090: 01ff 233d 3430 afbb d951 47be 93ca dbbb
0.40407908 -0.05108691 0.04180516 0.060322877 -0.007096298 0.08405356 -0.05721235 -0.014425781
0.41123027 0.039522342 -0.04542665 0.0051229997 -0.01497794 0.09579938 0.122573145 0.008074863
-0.026240285 -0.019429017 -0.07396493 0.2633636 0.12137514 -0.017327392 0.0063508027 -0.19152808
0.022712847 0.035795525 -0.07453985 0.07871169 0.10583313 -0.023355795 0.032581717 -0.02061894
0.079782926 -0.004943259 -0.03285439 0.08124296 0.040038113 -0.0053463224 -0.19464816 -0.0067074983

dense_10/bias f4 [45]
00000000: f532 d13c 9731 8b3e 2e5b 963c a6ba 98bb
00000010: 29c6 993a e2fe 69bb 19b5 c1bb 3c88 3fbb
00000020: 7256 a53b a2f9 c03b 27c9 0bbc c765 baba
00000030: 35a0 973e ecb3 973c cb76 e7bc d12b cf3d
00000040: 479c 20be 8b39 bb3d 58fa ec3b 1d8b 2fbb
00000050: c9cf b1bb fec8 93bb 0584 e4bb d0e4 7f3b
00000060: 057e 613b f85f bc3b 886c bcbb 7d83 59bd
00000070: a33f 903e f387 8ebc 4cc7 c93b 6bee b33b
00000080: 2f25 3cbd 6553 babb 9b5a 82bb b20a 3f3b
00000090: 9b8b 0f3b 0331 963b be57 67ba ff15 13bb
000000a0: 34d2 f3b9 f7d7 1c3c f4af ba3d c624 6dbc
000000b0: 494a 4d3e
0.025536994 0.27186272 0.018354025 -0.004660922 0.001173203 -0.00357049 -0.005911481 -0.002922549
0.0050457055 0.0058891336 -0.008531845 -0.0014221006 0.29614416 0.01851841 -0.028254887 0.10115779
-0.15684615 0.09141835 0.0072319917 -0.00267858 -0.0054263812 -0.004510044 -0.0069737458 0.0039046295
0.003440739 0.005748745 -0.0057502426 -0.053103913 0.2817355 -0.01739881 0.0061577912 0.005491068
-0.0459339 -0.005686211 -0.003978086 0.0029150662 0.002190328 0.0045834794 -0.0008825025 -0.002244353
-0.00046505185 0.009572974 0.09115592 -0.0144740995 0.20047869

dense_1/bias f4 [40]
00000000: 4fc5 a33c ea4d 5bbb 4257 343b 4edd a53c
00000010: 8c5f 03bd 9ccf ddbb fe3e 9b3b f1bd 7dbd
00000020: a5a8 b8bd 8023 90bd a934 44bd 1871 63bd
00000030: 510b 8a3d 5064 f1bc c5d7 5c3d 077c fcbc
00000040: d17a 463d 7abe 3f3d e122 5cbc 43b0 1abd
00000050: 1f45 273d d400 213d 5eae f93d 9ed6 b03c
00000060: 2b71 8cbc c550 73bd 5eda d2bc 7920 b93d
00000070: b435 82bd 9e90 0bbd 3738 c33d 028e 263c
00000080: ff6f 57bc ca6f eebb 9f52 9ebc 7c89 41bc
00000090: 2c1d 9bbc da80 4abd 729d a5bc cf82 de3d
0.019991545 -0.0033463188 0.002751783 0.020247128 -0.032073542 -0.0067691337 0.004737734 -0.06194872
-0.090165414 -0.07038021 -0.047901783 -0.055527776 0.0674044 -0.029466778 0.05391671 -0.03082086
0.04845697 0.046812512 -0.01343605 -0.037765753 0.040837403 0.03930743 0.12191461 0.021586712
-0.017143806 -0.0594032 -0.025738891 0.09039397 -0.06357899 -0.034073465 0.095322065 0.010165693
-0.013149261 -0.00727651 -0.019326506 -0.011812564 -0.018934809 -0.04943929 -0.020216677 0.108647935

dense/bias f4 [40]
00000000: 1cc1 fbbb 1815 6f3e 376d ef3d 4c76 aabc
00000010: c10e 1ebd 9897 e2bd eeef 82bd 5df9 babc
00000020: b736 8e3c 7583 87bd 72e7 373d 3afe f83c
00000030: e437 273e 60ba 0039 389d 19bd 08b0 143c
00000040: f260 1f3d ebe4 82bd e72a 033c 0eeb 82bd
00000050: 07ac 083e 7b6f a13b 443e 0a3e 4469 f7bc
00000060: 84a8 f1bd 8767 54bd 218e 04be 7ac7 713e
00000070: debc 07bd 5400 173e 882c 36bd 8d9c 333e
00000080: f468 1ebd 72d2 4bbd 1e98 55be 663e 7f3d
00000090: 246e 9d3d 9cec e0bc 463c 0fbd c7c7 313d
-0.0076829325 0.2334789 0.11690753 -0.020808361 -0.03858829 -0.110640705 -0.06393419 -0.022823984
0.017360074 -0.0661687 0.044898458 0.030394662 0.16329914 0.00012276461 -0.03750345 0.009075172
0.038910814 -0.06391319 0.008005834 -0.063924894 0.13346873 0.0049266196 0.13500315 -0.030201562
-0.1179972 -0.051856544 -0.12944843 0.2361125 -0.033139102 0.14746219 -0.044476062 0.17540188
-0.03867431 -0.049761243 -0.2085881 0.062315367 0.07687023 -0.027456574 -0.03496959 0.043403413

bias/bias f4 [15]
00000000: cfad 67bd 9329 0dbe 489f a23d 4d21 053c
00000010: 0ff6 e2bc 824a a6bd 7044 053d ba24 cfb9
00000020: a287 aebd c19d a53d f33f 3ebd 86da 01be
00000030: 3111 bb3c 16c3 35bd e8a1 bdbd
-0.05656224 -0.1378539 0.07940537 0.008125615 -0.02770522 -0.0811968 0.03253597 -0.0003950948
-0.08521964 0.0808673 -0.046447705 -0.12681016 0.022835346 -0.0443755 -0.09259397

model_1/dense_11/MatMul f4 [40, 15]
00000000: 207a cebb 0af0 acbb e4a7 7bbd b41a 55ba
00000010: 1b6d 66bd 59f1 6c3e 65bc 013b fc08 e0bb
00000020: 22ab 593b 3c18 a03a 4f8b 443b 4515 e9bb
00000030: 3014 3cb9 9eb6 f83a 3c5a 2abb ba05 33b7
00000040: 843d 7bb8 2ab8 beb7 7633 8f37 c82f eb35
00000050: e448 00b7 3046 97b5 64db a0b8 7c5a b237
00000060: 74e8 6d37 2674 7db8 d09e ecb8 5a74 89b8
00000070: 5246 c0b8 b037 39b8 7a26 87b9 8581 72b8
00000080: 2835 9c39 705f ce37 3149 00b8 5a0c 1739
00000090: af07 b338 d841 04b9 d01e 8fb9 e6bd 5cb8
000000a0: b684 c238 5789 07b9 085b 9736 a02c 8138
000000b0: 0008 b034 12e7 0838 3f3b 1ab8 5fc6 9338
000000c0: 8849 ae37 5a6d e6b7 e427 7837 d595 8938
000000d0: 0c59 18b8 655a 23b8 a648 2538 6813 0db8
000000e0: b5c7 0339 6a21 19b8 81d0 60b8 e08c 4436
000000f0: 6778 f2b7 4d86 e138 5b39 6f38 400f 1b39
00000100: 0435 bc35 8c40 5f37 886e 59b7 c0e9 1035
00000110: f056 b6b7 600d 1f38 a8cb 1736 08cf 9238
00000120: a67f b438 2018 1736 0000 7fb1 a2b5 fcb7
00000130: da69 b9b7 0060 4937 1946 02b8 8026 f4b4
00000140: 28af 11b8 c3ac 9ab8 73cd 6c38 a4db aab7
00000150: 6886 2838 5487 b5b7 adbb 7eb8 2903 a738
00000160: 2a26 b6b8 cbfa a438 3286 1cb8 ef90 fb38
00000170: f61a 5038 338c a938 4aee 3438 4094 94b8
00000180: 0995 e3b7 7aeb bab8 9283 52b8 0c7d dc37
00000190: 5bc4 dbb7 1630 0f38 1436 93b8 2227 a038
000001a0: d4cc c6b8 094c 5fb8 b682 2a38 40b9 2fb5
000001b0: e05e f4b6 8216 1239 d66c 8637 b807 5db7
000001c0: 8056 c4b6 deb0 d6b6 8c64 9938 ea85 cbb7
000001d0: f0df 19b8 e630 5db8 2ea1 91b8 6b06 afb7
000001e0: ce54 183c 50c5 c8bc 8c84 e43e ee87 2ebb
000001f0: 7952 d23c e07d 9a3b 82c1 e93b bab5 893a
00000200: 1f6e adbb 9dc1 ccba 9023 cabb 1651 273c
00000210: eed4 37bc 02c4 b13b b30c 863b 4e14 6bb8
00000220: f424 0b3c d04d 5f37 8637 9437 fa7c db37
00000230: 5409 5c38 2903 9938 9a21 38b8 c2e8 82b8
00000240: 4032 6236 c108 16b7 804f 2a35 e2cd 5c38
00000250: 7c68 dfb7 c059 f336 33ed b2b8 d662 2038
00000260: 3422 55b8 6a1c 4839 7a77 11b8 fe5e 2739
00000270: 4478 70b8 e11e c0b8 baee 6538 aadc adb8
00000280: 2024 2c38 423c fab7 9422 8238 0442 7237
00000290: 007a 8e34 e0e5 3eb8 47a5 4838 c89b bb36
000002a0: 6b62 2738 586a 6eb7 8c06 43b8 3a90 fdb7
000002b0: d900 f837 1fbd 1a38 7049 ad34 2322 b637
000002c0: e84e b338 32ad a3b8 4676 d537 b3c4 cd37
000002d0: 05ed ca37 6404 07b6 ae87 9837 34c2 ae37
000002e0: 2852 9f34 9572 8c38 024d dab7 7987 2f38
000002f0: 20c1 19b6 5877 cd38 6139 04b9 f6f8 bb37
00000300: 6bca 3f38 e8f0 aa37 8071 c1b7 3d60 ba38
00000310: aa05 b1b8 a6dc 4238 7092 ff36 4a07 cdb8
00000320: 70a2 6936 12c9 4c38 226c f838 a900 ae38
00000330: 1ab7 a838 1cad aa37 7aed b938 2af1 8d37
00000340: 7527 7db8 d616 c536 50f6 5138 098c 4138
00000350: 466c b1b8 4a7c bf38 3594 84b8 bd79 5e38
00000360: b612 0bb9 7168 e237 2058 bfb7 f094 b6b5
00000370: 1878 6337 4a09 0039 e083 d4b6 b3ae 4638
00000380: 63c6 d0b8 fc60 73b8 1dd6 4038 c85a b637
00000390: 4ce2 ff37 e230 8938 4a5f 8539 32b3 db37
000003a0: 5bf3 e938 e43b 0d39 ca56 6138 bc39 4339
000003b0: 28f7 d9b8 04dd dc38 b244 3337 4774 3639
000003c0: 04e3 89b8 7209 6c38 802c 4fb8 09a2 78b7
000003d0: 7640 92b8 29b5 10b8 9e72 3fb8 179e 38b8
000003e0: 917d 4838 52be 68b7 0cb7 0eb8 06e7 33b6
000003f0: b8c6 d3b8 74f9 33b8 df7d 9238 912f 9637
-0.0063011795 -0.0052776383 -0.06143941 -0.0008129284 -0.056256395 0.23138942 0.001979613 -0.0068370085
0.0033213575 0.0012214254 0.002999026 -0.007113131 -0.00017936598 0.0018975323 -0.0025993725 -1.0670565e-05
-5.9900354e-05 -2.2735523e-05 1.7070892e-05 1.7522771e-06 -7.646366e-06 -1.1270804e-06 -7.670259e-05 2.1261389e-05
1.4180423e-05 -6.0428072e-05 -0.00011282938 -6.554341e-05 -9.1683716e-05 -4.41593e-05 -0.00025777874 -5.781792e-05
0.00029794243 2.4601555e-05 -3.0585743e-05 0.00014405083 8.536816e-05 -0.0001261303 -0.00027298043 -5.2628944e-05
9.27536e-05 -0.00012925766 4.510748e-06 6.1595114e-05 3.2788375e-07 3.2640128e-05 -3.677164e-05 7.046456e-05
2.0776657e-05 -2.7469057e-05 1.479124e-05 6.5605775e-05 -3.6322555e-05 -3.8946415e-05 3.9406725e-05 -3.3635093e-05
0.0001256753 -3.6509162e-05 -5.3599946e-05 2.9288276e-06 -2.8904715e-05 0.000107538515 5.7035457e-05 0.00014787633
1.4022521e-06 1.3306864e-05 -1.2959943e-05 5.398433e-07 -2.1736574e-05 3.792101e-05 2.2619297e-06 7.000385e-05
8.606845e-05 2.2514796e-06 -3.7107384e-09 -3.012532e-05 -2.210301e-05 1.2002885e-05 -3.10597e-05 -4.5476554e-07
-3.473382e-05 -7.3754716e-05 5.6458124e-05 -2.0367857e-05 4.0179497e-05 -2.1639898e-05 -6.0733106e-05 7.963769e-05
-8.685545e-05 7.866843e-05 -3.7318277e-05 0.00011995609 4.9616174e-05 8.084662e-05 4.313727e-05 -7.084804e-05
-2.7129909e-05 -8.913032e-05 -5.0190436e-05 2.6284273e-05 -2.619827e-05 3.413864e-05 -7.019579e-05 7.6366836e-05
-9.479528e-05 -5.3238156e-05 4.0652892e-05 -6.5462154e-07 -7.2828116e-06 0.0001393203 1.6024725e-05 -1.3174424e-05
-5.851325e-06 -6.398287e-06 7.314337e-05 -2.4261844e-05 -3.66866e-05 -5.2736046e-05 -6.944161e-05 -2.0864614e-05
0.009297563 -0.024508148 0.44632375 -0.0026631313 0.025674092 0.0047147125 0.0071336636 0.0010506429
-0.0052926685 -0.0015621666 -0.00616879 0.0102122035 -0.0112202 0.0054249773 0.0040908693 -5.6047276e-05
0.008492697 1.3309953e-05 1.766883e-05 2.6165031e-05 5.2460775e-05 7.296197e-05 -4.3900312e-05 -6.2422376e-05
3.3705874e-06 -8.942735e-06 6.344562e-07 5.264383e-05 -2.6632326e-05 7.2524126e-06 -8.531883e-05 3.823902e-05
-5.081501e-05 0.00019084071 -3.4681965e-05 0.00015961748 -5.7332465e-05 -9.161025e-05 5.4820186e-05 -8.290385e-05
4.104164e-05 -2.9830382e-05 6.205324e-05 1.44396945e-05 2.6538328e-07 -4.5513618e-05 4.7837642e-05 5.5911696e-06
3.990756e-05 -1.42106655e-05 -4.649772e-05 -3.0227111e-05 2.9564299e-05 3.6892594e-05 3.2277194e-07 2.1711987e-05
8.5500826e-05 -7.804706e-05 2.5446654e-05 2.45295e-05 2.4190647e-05 -2.0119123e-06 1.8182993e-05 2.083285e-05
2.9675834e-07 6.697063e-05 -2.6023485e-05 4.184942e-05 -2.291119e-06 9.797391e-05 -0.00012609876 2.2408069e-05
4.5726465e-05 2.037776e-05 -2.3060245e-05 8.887097e-05 -8.441073e-05 4.64587e-05 7.61664e-06 -9.7765194e-05
3.4814257e-06 4.882465e-05 0.00011845703 8.2970895e-05 8.0449696e-05 2.034619e-05 8.865721e-05 1.692081e-05
-6.0356648e-05 5.873716e-06 5.005888e-05 4.6145204e-05 -8.460185e-05 9.13074e-05 -6.321856e-05 5.3042302e-05
-0.00013263043 2.6989934e-05 -2.281001e-05 -1.3603403e-06 1.3558216e-05 0.00012210492 -6.3334446e-06 4.736958e-05
-9.955165e-05 -5.802604e-05 4.5975776e-05 2.1738364e-05 3.0503747e-05 6.541774e-05 0.00025438733 2.6190279e-05
0.00011155634 0.00013469119 5.372501e-05 0.00018618157 -0.00010393403 0.00010531585 1.0685226e-05 0.00017400189
-6.574954e-05 5.627558e-05 -4.939409e-05 -1.4819679e-05 -6.973829e-05 -3.4500994e-05 -4.5644694e-05 -4.401625e-05
4.780066e-05 -1.387259e-05 -3.4025914e-05 -2.6807552e-06 -0.00010098278 -4.2909247e-05 6.985268e-05 1.7903543e-05

model_1/dense_12/MatMul f4 [40, 40]
00000000: acb2 ef37 fede f037 feee 97b8 285d dab6
00000010: 8013 2036 96b5 c2b8 f5fe 65b9 34a0 4eb8
00000020: 5032 4ab6 c2fe 33b8 ce86 0b38 169a ff38
00000030: 0e5b c138 acd8 9938 640d 2239 daf0 dbb8
00000040: d7df 00b7 1a03 3638 deec 2b39 c3bb 16b8
00000050: 2d44 34b9 dcb0 8eb8 af1e d937 e2ed ecb8
00000060: cc83 41b8 0834 deb8 a0c3 8437 2a49 5e39
00000070: 6f4b f138 5d94 5938 d6c2 3e39 e999 bdb7
00000080: af8f 22b8 2816 ca37 3cc4 05b9 dc43 a1b7
00000090: ae99 5138 c795 de38 967a 80b8 4ad8 3039
000000a0: 510f a5b8 a48e 8737 df70 7038 7cda ce37
000000b0: ddf2 c038 9e98 3d38 08df 1437 085d ab36
000000c0: d09f 98b8 f511 9cb8 6892 fcb6 44ed 4f39
000000d0: ab52 6738 c0cf 5db6 6857 feb7 e7f8 3138
000000e0: c00d d036 8e81 6338 4d28 b238 d213 5eb8
000000f0: ac5b 15b8 8d2d a538 6033 74b6 3b21 eeb8
00000100: 9860 af37 559d dab7 00d1 0035 b087 10b9
00000110: be6b 9fb7 540c 9cb8 ce5a 99b7 131a b038
00000120: 044e 4a38 1c20 30b8 30c4 58b6 884a cb37
00000130: 44e1 3537 568e 2a38 a1ef a838 bcd7 92b8
00000140: 7409 02b9 b085 2f36 309e d2b8 285f 37b8
00000150: f7d0 13b9 70a7 d6b7 29ed 1eb9 76a4 09b8
00000160: a992 8e38 e090 01b7 8166 dab8 d498 b038
00000170: 34c7 33b9 b06b dcb7 c8f5 38b9 3c23 93b7
00000180: c036 3839 8d85 44b9 8ea3 1639 bcf3 b0b9
00000190: 21e1 27b9 b4dc c537 5892 2fb9 7df1 b5b8
000001a0: fd98 a9b8 0b6a 0239 de66 e5b8 ce4e 0238
000001b0: 4419 a2b8 11f2 de38 c0be d538 6fed 9eb9
000001c0: c523 8138 961c 6cb8 4853 d337 ac83 36b9
000001d0: 6895 9438 d46b 7338 c15e c4b9 1bb0 bc38
000001e0: d86c 9e35 383d 4338 00fc 9a35 2fc5 d0b7
000001f0: 14bf 2539 70fd f2b7 8ed7 6037 a578 3938
00000200: 365c 0638 6603 dc37 62a5 cf38 8e2d ba37
00000210: 5e18 93b7 75f3 0338 2232 3338 8ee4 a037
00000220: 752e 49b8 37de f937 1ee7 85b8 9c3f 97b6
00000230: a06f 06b7 c8e9 bfb7 26fc 88b8 2dbf 4bb8
00000240: db02 ed37 8042 29b7 d740 ad38 033e a9b7
00000250: 00eb e134 9691 3038 3af5 2037 0d1d 5737
00000260: c660 7f38 b8a1 3737 08f4 b4b8 f654 f337
00000270: 0ac4 7237 7704 89b8 6055 f935 2a01 16b8
00000280: 1cfa 41b9 8002 ba38 e27b af38 ccb3 b937
00000290: 3450 0ab7 9b5d 0bb9 7265 3637 facb 1db8
000002a0: 7fe0 92b8 c69e ccb7 946b fbb8 335b 0839
000002b0: 16f5 17b9 4e6c 1b38 3fd9 0e39 14ba 1738
000002c0: b848 b1b7 3cc7 f238 f0ec 06b9 aae3 7f38
000002d0: e8a0 9bb7 109c 3338 2dcd 70b8 0a1c 0a39
000002e0: 864a 8b38 e825 4338 f4d2 d3b8 24a7 fc37
000002f0: 630e 8eb8 9422 2d39 3345 9fb8 e9b8 ebb7
00000300: 3cfb f2b6 e47c b2b7 78de 06b8 7c9a b737
00000310: 0014 fab4 5490 80b9 885f 4739 e420 c5b7
00000320: f2a8 e0b8 6038 83b7 663f 16b9 7c8b 2137
00000330: 78b0 a8b8 6c4d 0bb8 ec50 6ab7 884e 6237
00000340: 3a30 26b9 20b4 b236 fa26 b9b8 6889 7e39
00000350: dfa9 b7b8 272e 67b9 7f57 36b9 d03c bc37
00000360: 572d 8838 78a9 e336 f905 17b9 6bb4 4839
00000370: 71b6 d6b8 e4ab ab38 acda 2eb8 e3d1 a638
00000380: b000 1737 725e c638 9e54 1bb8 301b be38
00000390: 8496 3b39 8492 3539 54ed a4b9 6080 81b8
000003a0: f1be ee37 58d4 0038 26ca 89b7 ac28 f4b8
000003b0: fe76 9db7 4c03 a6b7 e25d 61b8 6ab4 ec38
000003c0: 20f4 5e37 7b90 91b8 da5a e3b8 8c1a e038
000003d0: a9a9 3c39 e485 89b6 f8a7 acb8 6c88 e9b7
000003e0: a5b7 d4b9 e369 5638 f87e e8b6 7881 1938
000003f0: 46d0 1a38 d8a8 dc38 9746 1838 709d 4639
2.857422e-05 2.8714068e-05 -7.244757e-05 -6.507751e-06 2.3853208e-06 -9.284464e-05 -0.00021934121 -4.9263428e-05
-3.0129631e-06 -4.2914187e-05 3.326573e-05 0.00012188048 9.2199174e-05 7.335967e-05 0.00015454512 -0.00010487596
-7.681511e-06 4.339507e-05 0.0001639607 -3.5937654e-05 -0.00017191535 -6.80403e-05 2.5882704e-05 -0.00011297666
-4.613753e-05 -0.000105954765 1.5826721e-05 0.00021198826 0.00011505826 5.1875006e-05 0.00018192394 -2.2602226e-05
-3.8757626e-05 2.4090594e-05 -0.00012756971 -1.9224295e-05 4.997261e-05 0.00010613683 -6.126349e-05 0.00016865242
-7.870666e-05 1.6159676e-05 5.732558e-05 2.4658853e-05 9.20051e-05 4.5203247e-05 8.873416e-06 5.1070274e-06
-7.277692e-05 -7.4420044e-05 -7.527229e-06 0.00019829447 5.5151682e-05 -3.3052493e-06 -3.0319861e-05 4.2431897e-05
6.2004838e-06 5.4241675e-05 8.495208e-05 -5.2947384e-05 -3.5609744e-05 7.8762976e-05 -3.6388737e-06 -0.00011354914
2.0906606e-05 -2.6060889e-05 4.798785e-07 -0.00013783458 -1.9004448e-05 -7.440956e-05 -1.8281306e-05 8.397191e-05
4.823321e-05 -4.1991574e-05 -3.2300704e-06 2.4234192e-05 1.0840889e-05 4.066372e-05 8.0554986e-05 -7.002006e-05
-0.00012401288 2.6154848e-06 -0.00010043045 -4.371922e-05 -0.00014096858 -2.5588757e-05 -0.00015156403 -3.281651e-05
6.798405e-05 -7.7227305e-06 -0.00010414143 8.4208004e-05 -0.00017144979 -2.627619e-05 -0.00017639168 -1.7540173e-05
0.00017568003 -0.00018741768 0.00014366044 -0.00033750932 -0.00016010228 2.3587003e-05 -0.00016743818 -8.675733e-05
-8.087044e-05 0.0001243727 -0.000109387314 3.1067808e-05 -7.729468e-05 0.00010630873 0.000101921614 -0.0003031301
6.157862e-05 -5.6293407e-05 2.5191941e-05 -0.00017405924 7.085019e-05 5.8036137e-05 -0.0003745463 8.997341e-05
1.1803595e-06 4.6548637e-05 1.1547236e-06 -2.4887353e-05 0.00015806808 -2.8966664e-05 1.3401628e-05 4.4219796e-05
3.2033968e-05 2.6227626e-05 9.901334e-05 2.2194141e-05 -1.7535112e-05 3.145957e-05 4.2723615e-05 1.9179915e-05
-4.79654e-05 2.978659e-05 -6.384983e-05 -4.507556e-06 -8.013012e-06 -2.2877837e-05 -6.531952e-05 -4.8577018e-05
2.8253931e-05 -1.0088668e-05 8.26136e-05 -2.0175246e-05 4.20805e-07 4.2097257e-05 9.593839e-06 1.28217625e-05
6.0886865e-05 1.0945303e-05 -8.628523e-05 2.900742e-05 1.4469968e-05 -6.533501e-05 1.8576793e-06 -3.576387e-05
-0.00018499087 8.869637e-05 8.367725e-05 2.2137443e-05 -8.244115e-06 -0.00013290944 1.0871665e-05 -3.7621685e-05
-7.003638e-05 -2.439263e-05 -0.00011988651 0.00013003945 -0.00014491784 3.7055746e-05 0.00013623106 3.6174504e-05
-2.1133907e-05 0.000115765695 -0.00012867502 6.1008766e-05 -1.8552368e-05 4.282227e-05 -5.7411544e-05 0.00013171151
6.6419176e-05 4.6526926e-05 -0.00010100557 3.0118572e-05 -6.7737674e-05 0.00016511447 -7.5946e-05 -2.8100289e-05
-7.2414095e-06 -2.127741e-05 -3.215528e-05 2.1887237e-05 -4.658068e-07 -0.00024521595 0.00019013707 -2.3499546e-05
-0.00010712621 -1.5642669e-05 -0.00014328733 9.628824e-06 -8.043734e-05 -3.3212287e-05 -1.3966328e-05 1.3488934e-05
-0.0001584896 5.3257827e-06 -8.8287474e-05 0.00024274515 -8.757761e-05 -0.0002204707 -0.00017389467 2.2439664e-05
6.4934306e-05 6.784856e-06 -0.00014402707 0.00019140697 -0.000102382975 8.1859325e-05 -4.1688487e-05 7.954591e-05
9.000461e-06 9.4589675e-05 -3.7033686e-05 9.06497e-05 0.00017889781 0.00017316086 -0.0003145734 -6.175111e-05
2.8460725e-05 3.071534e-05 -1.6425805e-05 -0.000116424024 -1.8771269e-05 -1.9790277e-05 -5.3731615e-05 0.00011286962
1.3289071e-05 -6.9410504e-05 -0.00010841126 0.00010686097 0.0001799228 -4.098505e-06 -8.232886e-05 -2.783929e-05
-0.00040572617 5.112019e-05 -6.92892e-06 3.659862e-05 3.691043e-05 0.00010521867 3.6305366e-05 0.00018941402

model_1/dense_13/MatMul f4 [40, 40]
00000000: 6829 c5b9 5eb4 0db9 4093 f237 94a5 ca37
00000010: 445b 4637 c870 0eb9 4e27 3cba 5abf 3938
00000020: d06b e0b6 285a 4338 40fc 193b 7185 d9b7
00000030: 0f6c fdb9 bacd bab8 2043 083c b530 1e3e
00000040: bbc9 8fbe 6620 c837 c0e5 7237 6eef 27ba
00000050: 9854 37b8 9731 e3b8 4325 feb8 6a47 6638
00000060: ddd6 c8b9 ae35 cd37 2770 333e c2c2 06ba
00000070: 50b8 d5b5 9b03 2ab9 c805 85ba 0005 9438
00000080: 90dc b5b5 382f f8b7 0e01 0039 bf13 7938
00000090: 568f 5aba ec9f 45b7 5571 cb38 690a a13c
000000a0: 5a33 7eb9 0807 6238 0eb6 9bb9 5313 8db8
000000b0: 9258 95b8 a180 d138 8417 c738 7437 b239
000000c0: ddfc 92b9 e026 2c37 00f4 9038 c9a1 5638
000000d0: 8856 8b37 409d f737 d82a 3539 6e4a dc38
000000e0: 92c2 cfb8 8f68 85b8 9e1d 6637 24c8 70b8
000000f0: 1aca c439 e00a 01b8 f4ae 5038 7007 3fb9
00000100: 5665 d538 e99f 22b7 7598 c2b8 08e9 0cb8
00000110: 54d1 40b9 a74b 9cb8 0254 d739 609f f037
00000120: 2b89 2538 1ca4 51b9 d38e 8bb9 a819 5d38
00000130: 6ea2 6f38 f301 a938 9a17 a939 0b19 2eb8
00000140: 872b 86b9 5be6 b239 26aa f137 3013 9a38
00000150: 7290 f5b8 ef0b f839 414d 7539 a843 1539
00000160: b4dd 0db9 7240 a3b8 a604 df37 c338 4ab8
00000170: 40a0 65b7 35a6 00ba 7a1b f039 ec49 98b9
00000180: 0075 7433 0ead 0038 6e67 4939 40d0 0fb9
00000190: a03c 0bb8 06b1 68b9 ded5 e438 0811 9438
000001a0: df2f 3739 355c a5b8 88cd 3837 979b 3a38
000001b0: f634 02b9 443f f3b8 ea3d 053a 1579 f539
000001c0: 2850 97b7 c21d 5db9 4084 9a37 2669 3a39
000001d0: fc37 c839 00fc 08b8 70c9 6737 a4a3 7937
000001e0: 96bd 5d38 b6ee ac38 92e1 82b8 a587 23b8
000001f0: 7e78 1f39 1d2a 29b9 84df e037 caf1 40b8
00000200: 2b35 52b8 c0cb 6db7 d9bc adb8 c89a 2b36
00000210: 728a 21b8 c7ef 7fb8 9a07 0439 7038 8d38
00000220: 87b8 54b8 007e 3fb4 8026 c0b6 6e25 5b37
00000230: 2a17 cf39 4524 a3b8 122c 37b9 b0c8 16b9
00000240: 5e95 4339 8586 6239 c404 9c37 9261 05b8
00000250: fab1 93b9 2cfa dbb8 a42f f738 45d9 6b39
00000260: 101a 80b9 fa7e c338 d09c e9b8 1a72 beb8
00000270: 0a0a 0438 018c a538 e418 b5b9 40b9 60b7
00000280: d03f 03bb 622f a7ba fc93 b838 4c60 1437
00000290: 506e 0ab8 6d93 78b9 0608 edba dcbc c8ba
000002a0: 046b 99b8 caa9 b8b7 2bee 3f3e 30fc fc35
000002b0: fff1 473e 0dec aab8 5450 04bf a857 35bb
000002c0: b1da 3cbe 783d e136 2e4a f938 6874 20ba
000002d0: 4a3e bc39 4e17 5fb8 6ea3 28b9 0ab0 b3ba
000002e0: e43a 95ba e5e2 c1ba c7c9 0fbc b07f feba
000002f0: abfc 9c38 22e5 2fb9 f33b cbba c6b1 4cb9
00000300: ae0c 16bb 3e47 3038 f949 07bb 003a fab6
00000310: 8c65 d0ba 6279 b638 bc53 eb37 1485 72bb
00000320: ba3f d338 133c 9838 6e1c 3439 c090 2e35
00000330: 13f0 a7b9 3922 9839 4230 063a 006a 68b6
00000340: 70ff 9837 59bf 1339 3c45 83b9 70d9 9ab9
00000350: 0408 db38 5823 93b8 60ad e138 d253 1a3a
00000360: 4914 8fb9 9ac3 0838 6bde 89b9 4503 a839
00000370: 5914 d3b9 e458 1d39 1a0b 303a 5c18 23b9
00000380: b840 4d39 1a37 aeb9 40df 6eb7 0c3f a9b9
00000390: a4b0 143a d415 a4b8 b8a6 52b8 a0fb 8138
000003a0: 40d8 3837 c03f 83b9 a45a 9f38 b73c 4139
000003b0: 90bf d038 5567 6b39 3548 d6b9 6792 d439
000003c0: 912c c537 e46e 5db8 bc51 feb7 7407 9e37
000003d0: b88c 79b7 0c7a ebb8 3f6d 21b7 4ac9 be38
000003e0: 1aa4 3938 0042 0eb9 62a1 9d37 8b31 f238
000003f0: 9f85 f93b 3478 ccb7 725e dfb8 c428 aeb8
-0.00037605618 -0.00013514 2.8917217e-05 2.415738e-05 1.1822969e-05 -0.0001358419 -0.0007177488 4.4285647e-05
-6.6882712e-06 4.6575587e-05 0.00234963 -2.5930554e-05 -0.0004833643 -8.907491e-05 0.008316785 0.15448268
-0.28083596 2.3856945e-05 1.4477817e-05 -0.0006406222 -4.3709384e-05 -0.0001083344 -0.00012118604 5.4902783e-05
-0.00038307058 2.4462901e-05 0.17523251 -0.00051407155 -1.5923379e-06 -0.00016213807 -0.0010148818 7.058121e-05
-1.3549743e-06 -2.9585892e-05 0.00012207424 5.9384616e-05 -0.0008337399 -1.177935e-05 9.700904e-05 0.019658284
-0.00024242458 5.3889147e-05 -0.00029699545 -6.727003e-05 -7.121371e-05 9.9898556e-05 9.4934396e-05 0.00033992121
-0.00028035688 1.026105e-05 6.9119036e-05 5.117225e-05 1.6610386e-05 2.951792e-05 0.00017277466 0.00010504281
-9.906771e-05 -6.36141e-05 1.3715964e-05 -5.7406854e-05 0.0003753461 -3.0766125e-05 4.9754002e-05 -0.0001821795
0.00010175507 -9.693184e-06 -9.279038e-05 -3.359563e-05 -0.00018388528 -7.452751e-05 0.00041070586 2.8684444e-05
3.9466813e-05 -0.00019992929 -0.00026618558 5.27144e-05 5.7133315e-05 8.058911e-05 0.00032251776 -4.1508156e-05
-0.00025590902 0.00034122434 2.880867e-05 7.346866e-05 -0.000117094154 0.00047311137 0.000233938 0.00014234951
-0.00013529399 -7.7844496e-05 2.6585836e-05 -4.8213416e-05 -1.3686775e-05 -0.0004907579 0.0004579684 -0.00029046775
5.6917088e-08 3.0678748e-05 0.00019207384 -0.00013715122 -3.3196644e-05 -0.0002219119 0.00010911723 7.060362e-05
0.00017470073 -7.884988e-05 1.1015109e-05 4.449076e-05 -0.00012417496 -0.00011598927 0.0005082773 0.00046820255
-1.8037928e-05 -0.00021087288 1.8419814e-05 0.00017777513 0.00038188684 -3.265962e-05 1.3815574e-05 1.4879657e-05
5.286707e-05 8.2460625e-05 -6.240899e-05 -3.8988557e-05 0.00015208308 -0.00016132784 2.6806963e-05 -4.600155e-05
-5.0117418e-05 -1.417374e-05 -8.2844585e-05 2.557108e-06 -3.851433e-05 -6.1020048e-05 0.00012591333 6.733916e-05
-5.0716593e-05 -1.78341e-07 -5.726528e-06 1.3062132e-05 0.00039499375 -7.7792014e-05 -0.00017468657 -0.00014379877
0.00018652293 0.00021603152 1.8598868e-05 -3.180054e-05 -0.00028170628 -0.00010489332 0.000117867516 0.00022492286
-0.0002443348 9.321976e-05 -0.000111395144 -9.081159e-05 3.1480602e-05 7.893891e-05 -0.00034541555 -1.3394572e-05
-0.002002705 -0.001275521 8.801368e-05 8.843908e-06 -3.30045e-05 -0.00023706043 -0.0018084056 -0.0015315074
-7.315542e-05 -2.2013573e-05 0.18743198 1.8848859e-06 0.19525908 -8.1501996e-05 -0.5168507 -0.0027670655
-0.18442799 6.7126784e-06 0.00011887062 -0.00061208615 0.00035904563 -5.3189047e-05 -0.00016082611 -0.001370908
-0.0011385349 -0.0014792351 -0.008776135 -0.0019416716 7.485723e-05 -0.00016774659 -0.0015505537 -0.00019521182
-0.0022895741 4.202802e-05 -0.0020643456 -7.4573327e-06 -0.0015899404 8.7010456e-05 2.8053175e-05 -0.003700559
0.00010073134 7.2591145e-05 0.00017176729 6.503069e-07 -0.0003203159 0.00029017197 0.00051188853 -3.4632394e-06
1.823876e-05 0.00014090295 -0.0002503785 -0.00029535173 0.00010444227 -7.0160895e-05 0.0001076113 0.0005887124
-0.000272902 3.2607095e-05 -0.0002629639 0.00032045893 -0.00040260216 0.00015005801 0.00067155214 -0.00015553966
0.00019574433 -0.0003322892 -1.4237885e-05 -0.00032281165 0.00056720735 -7.824195e-05 -5.022317e-05 6.198068e-05
1.1017604e-05 -0.00025033765 7.598594e-05 0.00018428532 9.953894e-05 0.0002244984 -0.0004087106 0.0004054487
2.3504983e-05 -5.279378e-05 -3.031722e-05 1.8838538e-05 -1.487432e-05 -0.00011228406 -9.621784e-06 9.097399e-05
4.426027e-05 -0.00013566762 1.8791008e-05 0.00011548687 0.007614806 -2.4374669e-05 -0.000106510604 -8.30456e-05
