3tier-app/learnt_model/gcp_model/model_3tier.tflite (tflite, 148092 bytes, 48 tensors)

dense_9/bias f4 [40]
000000 6d 8b e7 bc 40 2d 18 3e d6 83 38 bd fa 8f 69 bd
       -0.028264726 0.14861012 -0.045047604 -0.057022072
000010 b9 02 5a bc 97 bc e5 bc d0 21 0d bd d1 74 83 3a
       -0.013306313 -0.028044028 -0.034456074 0.0010029321
000020 fe a5 98 3b 43 8c 85 3e cf 3b ae 3b d4 f5 8e bc
       0.0046584597 0.26083574 0.0053171883 -0.017451204
000030 8e b7 0a bd 36 9c 54 ba 96 e4 03 bc 95 1d 98 bc
       -0.033866458 -0.00081104354 -0.008050105 -0.018568793
000040 0b 98 9e bc 72 04 c0 ba 37 a3 6b 3c 57 e1 9f 3b
       -0.01935961 -0.0014649762 0.014382175 0.0048791575
000050 c4 ed 58 bb 52 2f b5 3e b1 a0 a5 3b ab f9 58 bb
       -0.0033100704 0.35387665 0.0050545563 -0.0033107798
000060 b4 9a 08 3c 41 f0 18 bd a3 56 f8 bc a5 09 62 bc
       0.008337665 -0.0373385 -0.03031475 -0.013796245
000070 c2 2e ab 3b 32 19 db 3d c5 6b b9 bc 3a bd 97 3d
       0.00522408 0.10698165 -0.022634396 0.07409139
000080 f1 39 8c b9 52 5b df bc 37 38 7c bc 86 76 29 be
       -0.0002674605 -0.027265225 -0.015394262 -0.1654912
000090 c5 bf ff 3b 68 86 94 3d 1a 9f ee bc b8 f7 57 bb
       0.007804843 0.072521985 -0.0291286 -0.0032954048

dense_8/bias f4 [40]
000000 dd 92 4e bd a2 96 1e bc 6c 09 2d 3e 86 38 a9 bc
       -0.05043303 -0.009679468 0.16898125 -0.020656835
000010 6a ba 71 3b b7 3d 3f bd 66 81 09 bd 14 f3 8e bc
       0.0036884793 -0.046689715 -0.03357067 -0.017449893
000020 d7 1e 16 3b 26 f0 b5 3e b7 55 ed bd 28 9d cd bd
       0.0022906566 0.3553478 -0.115886144 -0.10039741
000030 ae 88 63 3b b2 a7 6f bd ef c0 fd bc d9 b4 55 3b
       0.0034718919 -0.058509536 -0.030975787 0.0032609014
000040 eb c0 d9 3e 4d 30 11 bd 88 19 62 bc c3 50 8f 3b
       0.42529997 -0.035446454 -0.013800032 0.004373641
000050 66 6e 94 3b 50 15 e7 3b 3a b9 6a 3b ed ba 1e 3d
       0.004529762 0.007052101 0.003581597 0.038752485
000060 78 eb 3c bc 15 42 af 3c be bd c9 bc 7d 58 9c bd
       -0.0115307495 0.021393815 -0.024626609 -0.07634065
000070 1b b7 88 bc f4 8f c6 3c f6 42 66 3d 72 e7 d1 3a
       -0.016688874 0.024238564 0.056216203 0.0016014411
000080 b7 a2 8a bd 02 8b 6c bd a5 21 77 bd 08 9d 7d bd
       -0.06769317 -0.057749756 -0.06033482 -0.061917335
000090 9c c1 c8 3b 52 e6 86 bd ee 31 1d 3e 83 58 0f bd
       0.0061265957 -0.06586899 0.15351078 -0.03499652

dense_7/bias f4 [40]
000000 72 72 f9 3c c8 a6 a7 be 85 bf cd 3b 9e 05 16 bc
       0.03045008 -0.32744431 0.0062789344 -0.009156613
000010 45 a9 e0 3b 01 d4 72 bc 00 4b 82 3e e6 48 ee 3b
       0.006856116 -0.0148210535 0.25447845 0.0072718738
000020 34 a4 e3 3b 37 f5 03 bd e5 a4 f7 bc 56 d2 10 be
       0.006947065 -0.032216277 -0.030229995 -0.14142737
000030 d7 f4 59 3d d4 fb a6 bd 1b f8 11 3c 47 fa dd 3b
       0.053212013 -0.08153501 0.008909251 0.00677422
000040 85 87 cc 3b 91 a8 10 bd dc 15 e8 3b f8 4b e0 3b
       0.006241741 -0.035317007 0.007082684 0.0068449937
000050 2d fc fd 3b 1d a5 db 3b 1a c6 9f bd 5b 66 16 be
       0.007751009 0.0067030326 -0.07801457 -0.14687483
000060 9a 09 f7 3b a6 1c 3d bd 76 e9 e8 3b b8 00 4d 3d
       0.0075389864 -0.0461699 0.007107909 0.050049514
000070 43 33 c9 bc 35 12 f4 3b 54 19 eb 3b 8e 7c d9 3b
       -0.024560576 0.0074484595 0.00717465 0.0066371625
000080 32 6b a1 bd db a4 b3 3e 40 fd d7 3d 15 a4 d8 3b
       -0.07881774 0.35086712 0.105463505 0.006611357
000090 3c 75 90 bc 04 4c f6 3b 3f 89 4c bd fc 9c 58 be
       -0.017634027 0.007516386 -0.049935576 -0.21153635

dense_6/bias f4 [36]
000000 7e 0d a0 3e c2 77 e5 3d ee 0d bf 3c c6 0d 00 bc
       0.31260294 0.112044826 0.023322072 -0.007815784
000010 94 90 54 bb 75 54 8e 3b 93 1f 21 ba 8b b7 99 bb
       -0.0032434808 0.004343564 -0.00061463675 -0.0046910695
000020 da 4c 7e 3b 5e f3 b2 bb 9f 22 f0 3b 3e dc aa 3b
       0.0038803131 -0.0054611405 0.007328346 0.005214243
000030 b4 50 5c 3e 4d d3 4a be 7e 56 1b ba d3 fe c5 bb
       0.21515161 -0.19807167 -0.0005925669 -0.0060423403
000040 7f 0d 24 39 07 33 71 3a 07 89 9b 3b e2 9d c7 ba
       0.00015645286 0.0009201024 0.0047465595 -0.0015229548
000050 68 fd 3e bb 1b 96 07 3c ee ba 9a bb 4c 32 1e bc
       -0.002914274 0.008275534 -0.004721991 -0.009655546
000060 53 51 80 3e ba 2a 7c 3e 49 92 88 bd 32 0a a2 3b
       0.25062045 0.24625674 -0.06668527 0.004945063
000070 fe 20 fc 3a 60 1b b2 3a 61 63 dc bb f3 89 bc 3b
       0.0019235907 0.0013588481 -0.006725714 0.0057537495
000080 fd e7 85 bb 0c 9f d4 3b ee c4 0f 3b 41 d6 81 39
       -0.004086493 0.0064886864 0.0021937448 0.0002476443

dense_5/bias f4 [40]
000000 4a 37 00 bb 26 3b 77 3e 90 70 7d bd 4f f0 4e bd
       -0.0019564205 0.24143657 -0.061874926 -0.050522145
000010 97 0b 43 bd 36 2f 6d bc 27 03 0e bd 56 84 0a 3c
       -0.047618475 -0.014476588 -0.034670975 0.008454403
000020 b3 17 1c bd 52 90 44 bd f5 70 89 bd e7 2f 3d bd
       -0.03810854 -0.047989197 -0.06710998 -0.04618826
000030 9c d9 a5 bc c9 61 3d bd ec 4b 8e bc a2 50 42 bd
       -0.020245366 -0.046235833 -0.017370187 -0.04744018
000040 e0 55 11 3d 2e 42 03 bd 6c 98 07 3c cf ea 40 bd
       0.035482287 -0.032045536 0.008276086 -0.04709893
000050 64 3d 42 bd e8 bc c6 3c 97 fa 42 bc 78 e6 23 bd
       -0.047421828 0.02426 -0.011900566 -0.040014714
000060 61 8a f9 3d 52 3b 37 3c 35 b5 27 bd 2f 2d 24 bc
       0.12184597 0.011183577 -0.040944297 -0.010020538
000070 5b 70 93 bd d4 9b d7 3b 02 74 6e bd 54 56 84 ba
       -0.071991645 0.0065798555 -0.058216102 -0.0010096529
000080 a8 cb f5 3b 2a 75 88 bd 14 8f e0 bc 78 14 2c bc
       0.0075010844 -0.06662972 -0.027411975 -0.010502927
000090 72 c0 8a bd a8 df 5b bd 67 cb 86 bd 56 e6 82 3e
       -0.06774987 -0.053680092 -0.06581765 0.25566357

dense_4/bias f4 [40]
000000 bd 4e 3a bd 98 ff 74 3c c9 a2 30 3c 93 6f 3e bd
       -0.045485247 0.014953516 0.0107809985 -0.046493124
000010 d1 c3 92 bd de 7d 72 3c f4 d7 92 bc 7f 34 2e 3c
       -0.07166255 0.014800517 -0.01792524 0.010632633
000020 19 ce aa bb 72 0d 40 bc ed b2 25 bc bb 78 3d 3c
       -0.005212557 -0.011721956 -0.01011346 0.011564429
000030 e3 39 98 3d 05 68 72 bd c8 ed ba bd 92 5a 81 bd
       0.07432916 -0.059181232 -0.091273844 -0.06316103
000040 5c 1f 58 3c d9 f9 f4 3c 2b 91 d0 bc ef 07 87 3c
       0.01319107 0.029904293 -0.025459846 0.016483275
000050 80 21 f8 3c 2b 3b 43 bd c3 01 fb bc f3 43 3a bd
       0.030289412 -0.04766385 -0.030640488 -0.045474958
000060 18 65 c3 bc 25 63 0f 3e 72 bc 06 bd b6 a1 19 bd
       -0.023851916 0.14002664 -0.03289456 -0.037507735
000070 dc b7 8e 3c c9 5d 84 bd 35 57 5f bd 06 17 08 be
       0.017421655 -0.064632006 -0.054526526 -0.13290033
000080 af cf 0f bd 16 ba ac bb 14 7f 13 bd dd 5f d2 bb
       -0.035110172 -0.0052712066 -0.036009863 -0.006420119
000090 b1 fa da 3e fe c5 2e 3c 0c c0 50 3c 14 f8 0a 3c
       0.42769387 0.010667322 0.0127411 0.008481998

dense_3/bias f4 [40]
000000 b0 0c 0d 3d 7d b5 70 bb 10 9e 85 3c fa ba 1e bd
       0.034435928 -0.003672927 0.016310722 -0.038752533
000010 c6 61 92 3d 93 e2 e1 3d bd 49 b1 bc 04 dd 0b 3e
       0.07147555 0.11029544 -0.021641606 0.1365853
000020 7b 37 a2 3d 44 f9 97 3c e2 8e f7 bb 54 57 1b be
       0.07920738 0.018551476 -0.0075548748 -0.15170032
000030 9f 55 c9 bc ea bf 62 bd b5 2c b4 3c e3 5a 14 3c
       -0.02457696 -0.055358805 0.021993974 0.009054872
000040 c6 b4 a9 bc b9 97 24 bd 9e a6 b2 bc 69 7b 2a bd
       -0.020716082 -0.040183757 -0.021807965 -0.0416216
000050 e9 59 8e 3c 7d 0d 97 bc 6d 83 78 3c d9 47 48 3c
       0.017376857 -0.018439049 0.015168053 0.012224161
000060 6d 06 20 3c 3c b1 b7 bb 66 e4 28 3d 4f 2c 65 3d
       0.009767157 -0.005605845 0.041233443 0.05595046
000070 cc c3 1b 3e e0 1c ed 3e fb d5 84 bd 2b 4c 00 3d
       0.1521141 0.46311092 -0.06486126 0.03132264
000080 d9 a2 92 bb 8d 40 40 bd a2 b8 34 3c 92 92 da bc
       -0.0044749794 -0.04693656 0.011030348 -0.026681218
000090 6f 1d 1b 3d 5a 35 4f 3d ac 2a 7f 3c 49 0d 59 be
       0.037869867 0.05058799 0.015574139 -0.21196474

dense_22/bias f4 [45]
000000 b9 1e b5 bb e5 45 2f 3c 0b 3d 3c bc cf 56 84 bb
       -0.005527344 0.0106978165 -0.011489163 -0.0040386687
000010 b8 0e 8f bb 6e 22 60 bb 76 30 b2 3b 2e 83 1d bc
       -0.0043657683 -0.003420021 0.005437906 -0.009613795
000020 14 ab 16 3c 20 22 ee 37 11 c9 b4 3b 00 01 ba 38
       0.009196062 2.8387702e-05 0.005517133 8.8693574e-05
000030 5d 5e 77 3f 1d 2a 3a bc 11 49 3d 3c 64 08 54 3e
       0.9662836 -0.01136258 0.011553065 0.20706326
000040 93 6d 8c 3b b2 c2 bc 3b 6c 66 44 ba 9a e5 f0 b9
       0.004285523 0.005760514 -0.00074920687 -0.00045947434
000050 06 1a 2f b9 8a 57 3b bc 80 c7 c5 3b 73 1c 8a ba
       -0.00016698995 -0.011434445 0.006035745 -0.0010537043
000060 e8 24 9a bb 12 9f 17 ba ce 12 29 bb 1d 05 dd bd
       -0.0047041066 -0.0005783896 -0.0025798562 -0.10791991
000070 48 da 56 3f 5f fa 55 bc 69 9f 1f 3d 76 6d a5 3c
       0.8392682 -0.013060181 0.038970385 0.020193797
000080 d6 65 9b bb 88 0b 77 3c f5 3d 28 bb 11 76 ec bb
       -0.0047423644 0.015078433 -0.0025671695 -0.007216223
000090 21 3d e8 3a a0 13 09 3c 37 e7 40 bc 42 d1 f4 b9
       0.0017718413 0.008366495 -0.011773876 -0.00046695216
0000a0 72 61 7f 3b b8 57 dc 39 06 fb 1e bd 93 40 22 bd
       0.0038967994 0.00042027025 -0.038813613 -0.039612364
0000b0 2e 12 6f 3f
       0.93387115

dense_21/bias f4 [40]
000000 60 61 0b bd 01 fc 85 3d 0f 79 46 bd e2 7a 4f 3c
       -0.03402841 0.065422066 -0.048455294 0.012663575
000010 81 c4 d7 bc 0f 18 7a 3c 0e 7a 57 bc 16 88 c4 bc
       -0.026338818 0.015264525 -0.013151659 -0.023990672
000020 7f ee 23 bd 4c 16 c0 bb e7 7f 04 bb 79 d1 7d 3c
       -0.04002237 -0.005862033 -0.0020217837 0.015491837
000030 bc 05 24 bd cf 9d 8e ba cf db 77 3c f4 b0 88 bc
       -0.04004453 -0.0010880771 0.01512809 -0.01668594
000040 65 aa 8b 3c 5c 22 18 bc 48 4a 06 bd f0 ed 82 3a
       0.017049024 -0.009285536 -0.032785684 0.0009989124
000050 3f d1 4b bd eb e7 11 bd 6a b2 4a bd cc 15 bb bc
       -0.0497601 -0.035621565 -0.049486555 -0.022837542
000060 fd e2 73 3c 23 b6 10 bd 7c 7b 7b 3c fb 4c 07 3d
       0.014885661 -0.03532995 0.015349265 0.0330324
000070 e1 c5 ff ba d7 f2 74 3c 00 09 6a bc 47 3f 39 bd
       -0.0019513929 0.014950476 -0.014284372 -0.04522636
000080 0d 6d ad bd 8e da fa bb 57 02 d3 3c de 12 2e 3d
       -0.084680654 -0.0076554483 0.025757952 0.042498462
000090 9d 08 80 3e 98 c7 46 ba f6 1d 6e 3c ca 77 e4 bc
       0.2500657 -0.00075828424 0.01453351 -0.027889151

dense_20/bias f4 [40]
000000 f7 6c 27 3e 2e 13 b7 bc ba de 21 bc e5 62 9b 3c
       0.1635016 -0.022348013 -0.009879762 0.018968055
000010 f0 b9 91 3a 2b aa 28 bd 82 cc 00 3d 38 6f 4a 3e
       0.0011118036 -0.04117791 0.031445034 0.19768989
000020 6e 5f 9a bc 61 70 3c bd f1 62 7d 3d bb 06 3c 3d
       -0.018844333 -0.04600561 0.061861936 0.045904856
000030 c6 e2 4c bd fe 22 a5 3a 39 35 87 3d cd ff b8 3c
       -0.050020956 0.001259893 0.06601948 0.022582913
000040 b6 31 47 bd 19 72 25 3e f9 97 fd bb a0 64 24 bd
       -0.048631392 0.16156806 -0.007739064 -0.040135026
000050 5b 0a 14 bd 96 a4 63 3e 8e eb 29 3e d0 42 3f 3d
       -0.03614269 0.22230753 0.16593763 0.046694577
000060 06 2f bc 3c 59 34 18 3b 3a 2d 26 bc bb 79 9c bb
       0.022971641 0.002322456 -0.010142619 -0.0047752536
000070 8c 86 b4 3d fb 4f 52 3c 52 7d ed bc c0 a7 a1 3d
       0.08814725 0.012836452 -0.028990421 0.07893324
000080 a4 0d 01 bc 6f 7a a0 3d 4e bb b9 3d bf b7 93 bc
       -0.007876787 0.07835852 0.09068929 -0.018031953
000090 54 8f 16 bb b3 96 5e 3c 21 40 62 bd d7 41 e7 bc
       -0.0022973614 0.013585734 -0.05523694 -0.028229637

dense_2/bias f4 [40]
000000 0a b4 1c bd a2 69 63 bc 53 fd 15 bd 72 e1 a4 3d
       -0.038257636 -0.013880165 -0.036618542 0.08050813
000010 a4 cc 83 ba c6 93 eb bc eb 95 22 bd 78 ab b1 3d
       -0.0010055494 -0.028756987 -0.039693754 0.08675283
000020 b0 0f 82 b7 f2 07 ba 3a d4 6a fd bc e1 f2 a8 bc
       -1.5504513e-05 0.0014193042 -0.030934729 -0.020623626
000030 31 46 0d bd cd 61 86 bd e6 2b a2 3d 43 0e 32 3d
       -0.034490768 -0.06561623 0.07918529 0.043470632
000040 87 f6 fc bc 4a 90 03 3e ee ff 2f 3e aa d0 cd 3d
       -0.030879272 0.1284801 0.17187473 0.10049565
000050 b5 91 26 bd 12 e1 a6 bc 5b db 5a 3d 2e b5 19 be
       -0.0406663 -0.020370994 0.05343185 -0.15010521
000060 1c 83 c2 bc 40 ae 77 bc 46 16 83 bd b0 a1 01 3e
       -0.023744158 -0.015117228 -0.06400733 0.12659335
000070 ce 54 a8 3d 4d 96 aa bc 93 58 17 3e 34 2b bd bc
       0.082193 -0.020823622 0.14779882 -0.02309189
000080 86 24 39 3d 9e f9 83 bc 60 b2 b2 bc 1c 7f 7d bd
       0.045200847 -0.016110238 -0.021813571 -0.0618888
000090 7d f2 58 bc b2 c2 19 bd d5 06 47 3e 22 27 f7 3d
       -0.013241407 -0.03753919 0.194362 0.12068011

dense_19/bias f4 [40]
000000 a0 e0 56 3d 66 c4 94 bd 6d b9 37 3e 95 bb 83 3d
       0.052460313 -0.072640225 0.17941828 0.06432263
000010 23 96 9a bc 4f b9 ad bc 48 e1 fc 3c 86 14 01 bd
       -0.018870419 -0.021206526 0.030869141 -0.031513713
000020 5b 0c 44 3e e7 33 2b 3e 86 76 de 3c 48 0d 23 3e
       0.19145338 0.16719018 0.027156126 0.15923035
000030 c4 2f 1e bc dd 38 c4 3c e6 e2 bf 3d 3b 5b 8e 3d
       -0.009654943 0.023952896 0.09369449 0.069509946
000040 2c 68 9e 3d 99 72 4d 3b c9 3a 61 3e 20 56 96 3d
       0.07734713 0.0031348823 0.21995081 0.07340646
000050 7a a7 ab bd 92 83 0e bd 1b de 8f 3d 04 d6 c2 3d
       -0.08381553 -0.034793444 0.07024785 0.095134765
000060 4f ae 81 bb 1d 52 21 3e 98 42 f7 bb 2a ef 45 3e
       -0.003957547 0.1575398 -0.0075457804 0.19329515
000070 8e fc c5 3b 4f d9 b2 3e 6d 5b 1a 3e 03 44 cb 3d
       0.0060420698 0.34931418 0.15073939 0.099250816
000080 65 7d 4f 3e c2 79 8d 3d 02 2b ef 3d 8a e4 62 3d
       0.20262678 0.06907989 0.11678125 0.055393733
000090 2d 7f 88 3d 10 d2 25 3e 4c 6f a5 bd a6 cf 22 3d
       0.06664882 0.16193414 -0.08077869 0.03974881

dense_18/bias f4 [45]
000000 5a 84 41 3e 7d e7 a0 3d 42 28 f1 3c ed 83 17 3c
       0.18898144 0.07856653 0.029438142 0.009247762
000010 71 31 70 3b 5e d9 28 3b 6f fe 89 3a 94 39 65 bb
       0.0036650563 0.0025764327 0.0010528098 -0.0034976946
000020 4e 0a a5 3b 40 fa b4 3b 21 87 d0 3a ee db 09 bb
       0.005036629 0.005522996 0.0015909412 -0.002103563
000030 43 0e 3d 3f 4a 30 6b 3d d8 74 db 3d b7 cd 10 3e
       0.73849887 0.0574191 0.107156456 0.14140974
000040 a9 61 04 bd 68 fd 09 bc 97 90 00 bb 0a 61 04 bb
       -0.0323197 -0.008422233 -0.0019617432 -0.0020199441
000050 25 47 4b 3a 31 68 86 bb 68 b9 e4 3b 69 b6 81 3b
       0.0007754437 -0.004101776 0.00698011 0.0039585126
000060 c4 04 91 b9 b4 6c 23 bb f3 b6 8f 3b 86 9c 99 bb
       -0.00027660106 -0.0024936618 0.004385823 -0.0046878485
000070 3e 4c 3e 3f 9e 79 3d bd bd 2a ab 3d 83 80 0e 3d
       0.74335086 -0.04625856 0.08357761 0.034790527
000080 e3 ff 4e 3c e8 cf e3 37 68 f0 0c 3b 0c c5 5b 3b
       0.01263425 2.7157323e-05 0.0021505598 0.0033534197
000090 18 be 22 ba 74 55 fd bb 44 5e 17 bb ea 2e fb b9
       -0.0006208136 -0.007731134 -0.0023096958 -0.00047909404
0000a0 5c 2b 4d 39 65 3c 75 3b 7d 31 b3 3d c9 e0 6e 3c
       0.00019566476 0.003742003 0.087496735 0.01457996
0000b0 cf 16 0b 3f
       0.5433168

dense_17/bias f4 [40]
000000 9d eb d7 3d f0 68 58 bc 1d 54 05 3e 9e 33 e0 bc
       0.105429865 -0.013208613 0.13020368 -0.027368363
000010 4a ed 00 bd fb 1c 4b bd 7b 03 04 3c 38 c6 06 3c
       -0.031476296 -0.049588185 0.00805747 0.00822597
000020 13 de 1a bd 4e ed c4 bc c9 6f 86 bd 17 56 5a bd
       -0.037809443 -0.024038937 -0.0656429 -0.053304758
000030 b7 1e 95 bc 36 0e 1d bd 4e f1 fd 3b 87 bc df 3c
       -0.018203123 -0.03834363 0.007749713 0.027311577
000040 66 8c 10 3c 08 63 f5 bc 8a f8 0b 3c a8 7c a1 3b
       0.008822536 -0.029954448 0.008543143 0.0049281903
000050 21 79 18 bc 28 65 96 3e cf eb 08 3c 2e cb c4 bb
       -0.009306223 0.2937405 0.008357002 -0.006005666
000060 18 b4 d0 3e ec e5 5a bd 3d b7 82 bd 3f 8c d6 bc
       0.407624 -0.053441927 -0.06382606 -0.026189921
000070 92 c6 6d bd 4c 33 fb bb 7e a6 6a bc 5b 44 4c bc
       -0.0580507 -0.007666027 -0.014321921 -0.012467469
000080 50 11 a0 bc b2 e1 91 39 ab f0 07 3c e5 08 53 bd
       -0.019539505 0.0002782471 0.008297126 -0.051522154
000090 73 96 ac bc 8f 0d f9 ba 9b 35 0a 3c 5f 3b 31 bd
       -0.021067834 -0.0019001233 0.008435632 -0.04326951

dense_16/bias f4 [40]
000000 e1 1d 36 bd e2 3f 94 3c 0e b5 f4 3c 8e 05 00 bd
       -0.04446209 0.018096868 0.02987149 -0.031255297
000010 88 61 e7 3d d3 93 0a bd f6 a4 4c bd 1a e3 1b 3e
       0.112978995 -0.033832382 -0.049962007 0.15223351
000020 d9 20 1b bd da 24 98 bc 09 18 87 ba 9c 7b e8 bc
       -0.037873123 -0.01857226 -0.0010306846 -0.028379254
000030 bd 16 53 3d cd 13 21 bc b0 f2 14 3c dd ac 0d 3d
       0.051535357 -0.009831381 0.009091064 0.034588683
000040 da b7 9b bc b1 86 1e bc c6 8e 27 3c c2 cd 97 3d
       -0.019008566 -0.009675668 0.010226911 0.07412292
000050 e8 32 92 bd a2 4a 59 3d 5b c8 df 3d 07 ba 0d 3f
       -0.07138616 0.05304969 0.10926887 0.5536198
000060 f8 8e 77 bc a7 b3 9d bc 92 4b a0 bd c2 b0 19 bd
       -0.01510977 -0.019250704 -0.07826914 -0.037522085
000070 ad 77 a0 bc c3 4e 2f bd b6 73 8f ba 6f 37 2e bc
       -0.019588316 -0.042799722 -0.0010944519 -0.010633334
000080 b8 01 98 bd ef a9 d7 bb 85 51 21 bd 4c 93 17 3c
       -0.07422203 -0.006581537 -0.039384384 0.009251427
000090 ac 07 b5 ba 57 e2 0a 3c e3 29 13 3e ff f4 16 bd
       -0.001381149 0.008476815 0.14371447 -0.03685474

dense_15/bias f4 [40]
000000 b7 58 df 3c dc 09 cf 3d b9 a1 01 bc ea ee 07 3d
       0.027263982 0.101093024 -0.007912093 0.03318683
000010 b7 0f 3a 3d cb 20 a0 bd 8d 6b 17 3e cf c0 47 bd
       0.045425143 -0.07818755 0.14787121 -0.04876786
000020 b9 4a a7 3c 6f 20 46 bc 20 95 8b 3c ad 8c 9a 3c
       0.020421373 -0.012092694 0.017038882 0.018865908
000030 f0 fd 0f bd e6 a2 f7 3c e2 91 05 be ad 9b 22 be
       -0.035154283 0.030229043 -0.13043931 -0.15879698
000040 62 25 bf bd 8f af 95 be ea ae 3a bd a8 f1 02 3e
       -0.09333302 -0.29235503 -0.045576967 0.12787497
000050 82 a1 66 3d 1a 9e 88 3d a8 d2 bf bc e9 a1 d0 3d
       0.05630637 0.066707805 -0.023415878 0.10187132
000060 cd 98 06 bd eb 0f 91 3c 65 40 22 3f 13 f2 a8 3c
       -0.032860566 0.017707786 0.6337951 0.020623242
000070 79 78 72 3c a0 1c b2 3b b0 db da bc fa b0 8a 3c
       0.014799231 0.0054355413 -0.026716083 0.016930092
000080 78 61 85 3c d0 c2 36 bc ff 56 5e 3d 47 7b 22 bc
       0.016281828 -0.011154845 0.054282185 -0.009917087
000090 81 8c d3 3c 27 23 8e 3c 05 d5 2b 3d 8f a6 aa bc
       0.025823833 0.017350746 0.041951198 -0.020831374

dense_14/bias f4 [45]
000000 35 0c 10 3e 38 10 63 b9 92 ae 23 bb a7 34 a7 3b
       0.14067157 -0.00021654449 -0.0024975878 0.005102712
000010 59 4d 40 3b a0 22 87 bb 1a 3e 09 bb 01 2f 96 bb
       0.0029342978 -0.0041240007 -0.0020941556 -0.00458324
000020 3a eb d8 ba 3a ae bf 3b 73 eb c5 39 e6 68 31 3b
       -0.0016549595 0.005849627 0.0003775019 0.002707058
000030 0d 5f 68 3f 69 d4 11 be 22 77 53 bc 28 17 a6 3e
       0.90770036 -0.14241184 -0.012906821 0.32439542
000040 28 af 27 3c 41 3a 95 3b 40 fa dc ba a7 17 67 3a
       0.010234632 0.0045540635 -0.0016859248 0.0008815475
000050 8a b9 8d 3b f1 3e 3e bb e2 9a b9 3b b3 27 59 bb
       0.0043250965 -0.0029029215 0.0056642154 -0.0033135235
000060 21 7f d6 bb 42 9b 5d bb 3d ac 0a 3b 26 72 48 be
       -0.0065459167 -0.0033814465 0.002115979 -0.19574794
000070 cf b2 4a 3f f8 36 58 bd a3 43 d8 bc 2e 90 01 bc
       0.7917909 -0.052786797 -0.02639944 -0.00790791
000080 f2 27 3a 3c 1e 9f 93 ba e0 bd 2d bb b7 82 bc 3b
       0.011362063 -0.001126263 -0.002651088 0.005752887
000090 ca 14 04 ba 5e 43 dd 38 a8 35 06 bb e7 ca 5c bb
       -0.0005038498 0.00010550649 -0.002047876 -0.0033690275
0000a0 85 03 10 3c 4a e0 b6 b8 31 96 19 3c 2d 0d 21 bc
       0.008789902 -8.7202134e-05 0.009374187 -0.0098298015
0000b0 e5 59 66 3f
       0.8998092

dense_13/bias f4 [40]
000000 e6 32 f5 3b 1c 08 aa 3b 3d 8b 8e bd 98 05 fc b9
       0.007482874 0.005188955 -0.06960151 -0.00048069353
000010 06 c5 de 3b 6c bb dc 3b fe b3 f5 3b 1c 0e ab 3c
       0.0067983894 0.0067362096 0.0074982634 0.020880751
000020 83 6f 23 bd 0b 1c b2 3b 9a 9e e5 3b e9 92 4e bd
       -0.039901268 0.005435472 0.007007432 -0.050433073
000030 9b e9 e2 bc 9a a6 36 bd 5c 78 26 bc a7 29 3a bd
       -0.027699282 -0.044592477 -0.010160532 -0.04544988
000040 62 20 49 bd bc 2a 30 bc 51 82 4f 3e 15 19 d9 bc
       -0.04910315 -0.010752376 0.20264556 -0.026501218
000050 1b 17 3b bd 61 02 51 bd 66 4a 26 bb 0a fd 00 bd
       -0.045676332 -0.05102766 -0.0025373935 -0.031491317
000060 b1 c7 56 bc c8 f8 48 bd c6 e1 82 bc f9 ce 4a bd
       -0.013109134 -0.04906538 -0.015976798 -0.04951379
000070 50 60 5b bc 27 fc 32 bd 39 c0 43 bd be 78 d6 bc
       -0.013389662 -0.043697502 -0.04779074 -0.026180621
000080 02 04 61 bc 73 4d 95 bc 31 be 6c bc cc 28 e6 3b
       -0.013733866 -0.018225407 -0.014449642 0.0070239063
000090 1d 0d c0 bc f9 a0 91 bd 09 21 7d bd 38 ba 9b 3e
       -0.023443753 -0.07110781 -0.061799083 0.3041551

dense_12/bias f4 [40]
000000 8e ea 22 bd 1c 9d cf bc 74 94 a5 bc e4 0a f1 3d
       -0.03977447 -0.02534347 -0.02021239 0.11769655
000010 a3 65 66 bd 4e 6b 61 3c fa 45 48 bc 3e b1 81 bb
       -0.056249272 0.013758494 -0.012223715 -0.0039578965
000020 48 c9 8d bd 1a f2 41 3c 99 d3 00 3d 6d 19 f3 3d
       -0.06923157 0.011837507 0.031451795 0.11870084
000030 2a d9 3a bd 12 43 ae 3a 5e ef 25 ba a5 d9 b9 bc
       -0.04561726 0.0013295135 -0.0006329919 -0.022686789
000040 04 9b 0e 3d 22 da c2 bb 26 eb da bc cc ef 4d bc
       0.034815803 -0.0059464136 -0.026723456 -0.012569379
000050 1c 5e be bc 1a b4 84 bc d4 13 93 bc 8f a0 98 bc
       -0.023238234 -0.01619916 -0.01795379 -0.018631248
000060 96 c7 4d bd 68 63 f9 ba eb 58 bf 3d bc 09 80 bd
       -0.050239168 -0.0019026818 0.09343132 -0.06251857
000070 e5 b9 3d bd 77 1b 33 bd 00 8b 0d 3e 69 1c 69 3c
       -0.04631986 -0.043727364 0.13822556 0.014227965
000080 5a 19 8b bc 2d 09 25 bc 55 aa f1 3d 23 a2 03 3e
       -0.016979862 -0.010072988 0.118000664 0.12854819
000090 77 38 3f bc 51 1c 7e bc c4 55 55 3c e3 4a 7e bc
       -0.011671177 -0.015509681 0.013020936 -0.015520784

dense_11/bias f4 [40]
000000 49 fb e8 3c 25 51 3a 3e e8 74 2b 3e 30 1b 83 bd
       0.028440135 0.18195017 0.16743815 -0.0640167
000010 41 0b 24 3e 34 9e 5f 3d ea 4b 50 bd 83 08 91 bc
       0.16019918 0.054594234 -0.050853647 -0.017704254
000020 f6 4f 58 3d 3b 7d ac 3d 0d 90 c6 bd 6f d6 09 bd
       0.05281063 0.08422323 -0.09695444 -0.033651765
000030 8e ee b2 bd fb 6e 7a 3c 66 a4 b2 3c 59 83 4d 3d
       -0.08736907 0.015285249 0.021806907 0.05017409
000040 c3 5a 13 3e 57 15 95 bd 92 54 3c 3c 99 4a 07 3d
       0.14390092 -0.07279461 0.0114947725 0.033030126
000050 e7 f9 e7 bd a6 e4 87 3c 7f 34 88 bd 3a 20 f2 bc
       -0.11326962 0.01658852 -0.06650638 -0.029556382
000060 8d f5 58 3e e7 77 14 3d 04 a9 1d 3e e3 0e 7e 3d
       0.2118742 0.03624716 0.15396506 0.062025916
000070 0e f8 a7 bc 04 30 34 3e 7d d5 f6 3d 71 05 95 3c
       -0.020504024 0.17596442 0.120524384 0.018191071
000080 fd 5e a5 bc 41 10 93 bc 4b ca ce bd 9d 03 04 3e
       -0.020186896 -0.017952086 -0.10097178 0.12892003
000090 cf 37 98 bd 45 e2 1e 3f 14 5e 96 3d b1 b0 0f 3e
       -0.0743252 0.6206401 0.07342163 0.14032246

dense_10/bias f4 [45]
000000 ab 6b 70 3e 27 e4 6f 3e df 26 dc 3d d9 32 05 ba
       0.23478572 0.23426877 0.107496016 -0.0005081124
000010 40 c9 49 3b c1 61 95 3b b1 c9 61 3a 50 a0 08 bb
       0.003079012 0.0045587723 0.0008613123 -0.0020847507
000020 ee 15 d5 39 34 fe 86 3a 72 e9 c4 b9 55 b5 33 bc
       0.00040642865 0.0010299147 -0.00037557964 -0.010968526
000030 48 b6 05 3f fc 0c ce 3c 9b 1c 8b bd e1 57 08 3f
       0.52231264 0.025152676 -0.067925654 0.5325909
000040 66 48 48 be f3 9d 1f bd f0 95 79 3a 67 24 a5 3a
       -0.19558868 -0.03896899 0.00095209386 0.001259935
000050 b4 9d 9f 3a b0 c5 a0 ba 3b 07 43 3b 6d 10 ba bb
       0.0012177736 -0.0012265947 0.0029758948 -0.0056782276
000060 93 0e 74 bb 8a 1f 69 ba e9 07 25 3c 9d e2 c3 bd
       -0.0037240132 -0.00088929443 0.010072687 -0.095647074
000070 0f 8c 51 3e 18 b5 8d 3d d0 9b 44 3d b8 62 f9 3e
       0.20463584 0.069193065 0.048000157 0.4870813
000080 76 5c b9 bd 72 76 c1 3a 96 1f 63 bb 42 be cf 39
       -0.09050839 0.0014760031 -0.0034656278 0.0003962387
000090 aa a2 a8 bb 7d bf c6 3b 5f bb a8 ba 79 75 45 3b
       -0.005146344 0.0060653077 -0.0012873224 0.0030129834
0000a0 a6 2e 1b bc d6 c6 17 39 21 25 d5 bd e6 72 ae 3d
       -0.009471571 0.00014474554 -0.104074724 0.08518009
0000b0 b2 e2 af 3e
       0.34352642

dense_1/bias f4 [40]
000000 77 a2 b8 bb c4 13 90 3b e7 64 70 3c 0a 7a e5 bb
       -0.0056346017 0.0043968875 0.0146724945 -0.0070030736
000010 7d 0c 57 bd 2f 8a a2 bc 22 e7 eb bc af 46 6c bb
       -0.052502144 -0.019841282 -0.028796736 -0.0036052873
000020 ff dd a0 3b 4f 4b 01 bc bc e3 0b ba a8 82 02 3d
       0.0049092765 -0.00789149 -0.0005336364 0.031862885
000030 2f 72 2e bd 3f a0 a3 3b 39 d8 8c 3b d6 4a 53 bd
       -0.042589363 0.004993468 0.0042982367 -0.05158504
000040 80 89 e2 bc 09 5d 26 bd ab 3d ef bc 2a 5e 60 bd
       -0.027653456 -0.04061607 -0.02920421 -0.0547773
000050 06 5d c3 3d 26 14 06 3b 44 13 76 3d 8c bd b4 3d
       0.09539227 0.0020458787 0.060076967 0.08825216
000060 cc b6 12 3b c7 e5 f5 bc 6a ee 83 bd ff e9 e3 ba
       0.0022386787 -0.030016793 -0.06441958 -0.0017388462
000070 e4 e8 9e 3d fe a1 7e bb 82 aa f6 ba 42 5e 87 bd
       0.07759264 -0.003885388 -0.0018819126 -0.06609775
000080 de 54 83 3c 18 4d b8 3b 4f 88 b4 bc ca c6 df bb
       0.016031679 0.0056244247 -0.022037653 -0.0068291174
000090 13 82 4f 3c da ed 2d bd f0 d1 9f bc 24 ef 40 3d
       0.012665289 -0.04246316 -0.019509286 0.047103062

dense/bias f4 [40]
000000 20 5f 75 3e 96 a2 89 bc 04 62 40 3e 09 b1 d9 bd
       0.23962069 -0.01680116 0.1878739 -0.1062947
000010 88 86 c6 3b 2d f8 36 3d 8b 28 72 bc 61 1e c3 bd
       0.006058518 0.044670273 -0.014780174 -0.09527279
000020 c4 82 bd 3b ab 06 2f bc 02 66 cc bd a5 91 86 3b
       0.0057834107 -0.010682742 -0.09980394 0.0041067176
000030 21 6e 8c 3c 70 eb 31 3c e5 c6 a3 3b 8d 29 bf 3d
       0.017142357 0.010859355 0.0049980753 0.09334097
000040 bf 50 8c bc 0b 7b 1f bd 94 5f 41 3c a5 31 e3 3d
       -0.017128346 -0.038935702 0.011802573 0.11093453
000050 3a e3 d4 3d 3c 4a 8b bb a3 e9 01 be 57 25 2e bd
       0.103949025 -0.004250793 -0.12686782 -0.04251608
000060 0d 2e d1 3b 98 b2 12 3c f9 ab 82 3e fc ea 40 3d
       0.0063836635 0.008953713 0.2552183 0.0470991
000070 62 8d e2 3d 3b 0b a0 bd 56 1e 1e bd 6d cc 56 3e
       0.11062123 -0.07814642 -0.03860315 0.2097642
000080 14 1d b2 3e fa 5b 18 bd 40 53 e9 3c 6a 97 a5 3a
       0.3478781 -0.03719709 0.02848208 0.0012633626
000090 13 8c 89 bd 54 4a cd 3c 81 af 3d b9 9b 27 ff 3b
       -0.0671617 0.025059856 -0.00018089825 0.0077867038

bias/bias f4 [15]
000000 87 69 e0 3d fa b8 f7 bd 01 a7 9b bd dd 44 9c 3e
       0.10957628 -0.12095828 -0.07600213 0.3052129
000010 14 07 09 be ea 3e 89 bd 2b b4 22 3e 79 64 df bd
       -0.13381606 -0.06701453 0.15889041 -0.109078355
000020 c9 7f 2a 3d d6 c3 27 3e a4 ae be bd 28 f7 6e bd
       0.04162577 0.16383299 -0.09310654 -0.058341175
000030 7c b0 a5 3d cc 3b 76 bc 91 51 e3 bc
       0.08090302 -0.015028905 -0.027748855

model/dense_11/MatMul f4 [40, 15]
000000 6b 42 24 39 10 22 d5 35 3a 48 7a 38 f8 82 3c 38
       0.00015665001 1.587965e-06 5.967191e-05 4.4944667e-05
000010 14 14 9a 38 5e cb 6d b8 5d 8b 73 b8 40 60 c5 b7
       7.347032e-05 -5.6694604e-05 -5.8065507e-05 -2.352905e-05
000020 04 ca cb 37 43 ca 81 b8 d5 cb 37 b8 f0 f4 22 b8
       2.4293557e-05 -6.1888735e-05 -4.3820433e-05 -3.8851926e-05
000030 69 9a 7d 37 9b 62 55 b9 58 53 2f b7 10 a1 38 b7
       1.51159265e-05 -0.00020349996 -1.0450218e-05 -1.1004755e-05
000040 18 36 5a b8 e2 34 8d b7 d2 e4 14 b8 16 8d cb b7
       -5.202563e-05 -1.6833135e-05 -3.5499055e-05 -2.4265184e-05
000050 b2 ca 38 b8 93 13 9a b8 0e 12 92 37 10 b0 59 b6
       -4.4057793e-05 -7.346938e-05 1.7412964e-05 -3.2438002e-06
000060 41 cc ce b8 4c 2f 60 37 10 72 78 37 3e ff b2 36
       -9.860891e-05 1.3362453e-05 1.4808509e-05 5.3345275e-06
000070 80 df 06 38 11 93 63 37 80 14 05 b5 26 d7 1d b8
       3.215624e-05 1.3564496e-05 -4.957619e-07 -3.763209e-05
000080 c6 6e 51 38 b2 5c 16 b8 1e a7 d3 b7 b4 55 07 b9
       4.993265e-05 -3.5849116e-05 -2.523098e-05 -0.0001290653
000090 80 33 ef b7 c2 5a 10 38 78 64 91 37 b2 ca 16 b7
       -2.8515002e-05 3.44168e-05 1.7332131e-05 -8.98789e-06
0000a0 b9 02 ea 37 69 4b 12 b8 0e 0f ab b7 26 55 74 b8
       2.7896242e-05 -3.4879344e-05 -2.0391799e-05 -5.8253434e-05
0000b0 55 54 a6 b8 20 44 1d 38 78 25 81 36 14 4f 93 b8
       -7.931205e-05 3.7495163e-05 3.8488615e-06 -7.024236e-05
0000c0 58 c9 bc 38 be 83 7e b8 af d7 41 b7 d4 f2 5f 38
       9.002042e-05 -6.0681014e-05 -1.1553914e-05 5.3393494e-05
0000d0 98 48 07 b8 6c 7e 06 b6 08 3d 11 37 e0 e5 41 b8
       -3.2254116e-05 -2.0041143e-06 8.656883e-06 -4.6228874e-05
0000e0 98 f5 0d 38 aa 7e d2 b8 06 a7 1a 38 2e 43 e4 38
       3.3845747e-05 -0.00010037173 3.6872014e-05 0.000108844004
0000f0 34 dc 05 b7 7e c8 19 37 7c 9f ac 36 82 2c 45 b8
       -7.978688e-06 9.166191e-06 5.144566e-06 -4.700991e-05
000100 ae a7 db b6 60 dd fe b6 e1 ab e4 b7 c1 3e 00 37
       -6.546229e-06 -7.5955613e-06 -2.7259755e-05 7.644006e-06
000110 9c b3 60 38 a2 0d db 37 04 f3 7e 38 50 0d 03 b8
       5.3573036e-05 2.6113183e-05 6.0784645e-05 -3.1245232e-05
000120 dc b0 88 37 00 02 e5 b6 3b e8 8d b8 05 af ad 37
       1.629482e-05 -6.8249647e-06 -6.76666e-05 2.0704707e-05
000130 72 98 99 37 85 cd 52 37 0b 72 96 b8 a0 8e 1e b6
       1.831001e-05 1.2564827e-05 -7.1737995e-05 -2.3626853e-06
000140 f0 ea 8d 35 da be 5c 37 b4 f9 42 38 f8 d9 64 38
       1.0573694e-06 1.3157458e-05 4.648576e-05 5.4562435e-05
000150 e3 12 79 37 c0 7c d0 35 ed 3a 70 38 1d 02 97 38
       1.4845954e-05 1.5533515e-06 5.7275338e-05 7.200635e-05
000160 66 32 c0 b6 9c 17 8f 36 14 d4 4e b9 d6 e1 81 37
       -5.727913e-06 4.2644806e-06 -0.00019724696 1.5483161e-05
000170 78 56 3a b7 bc c1 ae 38 36 b0 03 b9 f0 30 9f 37
       -1.11065965e-05 8.3330524e-05 -0.00012558777 1.8977065e-05
000180 86 d6 04 38 69 6e 54 38 cc f7 a7 b7 90 fb c3 38
       3.1671043e-05 5.0647566e-05 -2.002334e-05 9.345182e-05
000190 d8 46 bb 36 c6 0d d0 b8 a4 c6 98 37 54 9c c0 b8
       5.5812816e-06 -9.9207784e-05 1.8212311e-05 -9.184392e-05
0001a0 cf a6 16 b7 08 b1 e4 b8 ae 80 30 b8 44 86 88 37
       -8.979535e-06 -0.00010904862 -4.2081512e-05 1.6274986e-05
0001b0 7f fc e7 b8 65 dd b2 b7 2a d1 c4 37 f3 16 00 39
       -0.000110619694 -2.1322348e-05 2.346242e-05 0.0001221558
0001c0 ab 0a 5d 38 d6 31 1b 39 af 38 38 38 d8 14 69 b7
       5.270044e-05 0.00014800517 4.392181e-05 -1.3892735e-05
0001d0 b0 33 be b8 1f 30 e2 38 9d d4 88 b9 27 9a 9d 38
       -9.0695336e-05 0.00010785483 -0.0002609835 7.5150565e-05
0001e0 66 c7 05 38 be ac 88 b8 36 e8 cb b7 60 6e a6 b5
       3.1895375e-05 -6.517161e-05 -2.4307617e-05 -1.2400087e-06
0001f0 ec 3d 63 36 c2 ec 7b b8 43 ca d5 b8 96 43 7d 38
       3.386168e-06 -6.006356e-05 -0.00010194306 6.0382845e-05
000200 64 54 85 b8 1e 72 c0 b7 d2 4b c0 37 74 0f 14 b8
       -6.357653e-05 -2.2941324e-05 2.292349e-05 -3.530034e-05
000210 bb c7 1f b8 14 e8 a3 b8 32 69 08 38 01 cd 6c b8
       -3.8094568e-05 -7.8156736e-05 3.2522898e-05 -5.645771e-05
000220 1e 6c 9f 37 e8 93 c0 b6 82 bb db b7 5d 76 16 b8
       1.9004623e-05 -5.7392645e-06 -2.619415e-05 -3.587302e-05
000230 ce 60 b3 b7 02 7e 4e b8 4d f6 de 38 fa 26 1a 38
       -2.1383541e-05 -4.923158e-05 0.00010631662 3.675276e-05
000240 5c 9d 13 b8 cf 44 4c b8 7c 5a c9 b7 74 9c 5c 36
       -3.5194083e-05 -4.8701473e-05 -2.4003202e-05 3.2873622e-06
000250 da 86 a2 b7 54 4e ab b7 8e 1d 8f 38 fa 62 19 39
       -1.93747e-05 -2.0421263e-05 6.824276e-05 0.00014628089
000260 c8 a2 b5 35 d8 a2 86 37 60 16 67 38 2a ad 4d b8
       1.3532926e-06 1.6049875e-05 5.509553e-05 -4.903708e-05
000270 fe bf 42 38 76 ee 88 b7 6c cd c2 38 62 5e 26 b8
       4.643201e-05 -1.6323505e-05 9.288904e-05 -3.9665385e-05
000280 5c 73 c3 37 02 0e 20 39 19 89 61 39 7d 51 56 b7
       2.329953e-05 0.00015264007 0.00021508745 -1.2774367e-05
000290 7b 79 f2 38 64 a9 88 38 4f a0 02 b8 70 56 16 b5
       0.00011562087 6.516537e-05 -3.1143714e-05 -5.600514e-07
0002a0 7c a0 9e 36 00 9c fa b4 46 9b 9f 38 76 9e e9 b8
       4.72745e-06 -4.6679634e-07 7.610633e-05 -0.000111398214
0002b0 f4 3e a1 b8 b6 e9 43 38 1c 34 01 38 0e e8 e8 38
       -7.688804e-05 4.6709283e-05 3.0804527e-05 0.000111058456
0002c0 ea de 97 38 24 36 1b b7 6b 06 c2 37 6e 22 a8 37
       7.241762e-05 -9.2513255e-06 2.312959e-05 2.0043193e-05
0002d0 88 dd 5e 35 79 3a e6 b7 e6 24 51 37 0b 86 91 b7
       8.3023815e-07 -2.7445365e-05 1.2465962e-05 -1.7347766e-05
0002e0 d4 da 6e 38 d4 56 ea b7 92 61 91 b7 8f 96 d0 b8
       5.694742e-05 -2.7935406e-05 -1.7330782e-05 -9.9462566e-05
0002f0 8a 33 a9 36 b6 b7 1b b8 00 ab a9 b7 40 0c 97 b7
       5.0425924e-06 -3.7125974e-05 -2.0225998e-05 -1.8006307e-05
000300 f2 d0 ab b7 70 67 a5 36 c4 66 af 38 8c 38 d5 b7
       -2.0482086e-05 4.929425e-06 8.363792e-05 -2.541791e-05
000310 52 7a ad b7 3d a6 92 b8 a4 85 c0 b8 9b e0 87 b8
       -2.0680167e-05 -6.992787e-05 -9.180166e-05 -6.479138e-05
000320 96 0d b7 38 85 9e 96 b8 94 1f e1 b8 78 72 c0 38
       8.7286506e-05 -7.182084e-05 -0.00010734718 9.176595e-05
000330 b2 b6 45 b6 6a ee 82 37 2a f5 db b7 d7 f2 37 b8
       -2.946163e-06 1.5608228e-05 -2.6220998e-05 -4.3856762e-05
000340 f0 6d 14 38 3e d5 89 36 00 75 18 b7 9a 0e 9a b8
       3.5388337e-05 4.107743e-06 -9.087147e-06 -7.346012e-05
000350 ad b7 98 b8 90 75 53 38 aa 68 2c 37 14 f6 5d 38
       -7.282137e-05 5.041581e-05 1.0276368e-05 5.2919684e-05
000360 16 10 4d 37 03 cb 19 b7 1f c7 f3 b8 de df b4 b8
       1.22226975e-05 -9.166778e-06 -0.00011624232 -8.624767e-05
000370 62 0a 2e b7 53 62 30 b9 f0 6c 50 b8 f8 e6 9d 38
       -1.0373626e-05 -0.00016821297 -4.969252e-05 7.529365e-05
000380 d4 a6 38 38 da 24 b3 b7 ec 35 64 36 c0 db fa 35
       4.402439e-05 -2.1355623e-05 3.4006034e-06 1.8690407e-06
000390 fa 28 22 38 c0 ff 4c b7 31 8f 12 38 f5 c3 97 38
       3.8661972e-05 -1.2218894e-05 3.494247e-05 7.236741e-05
0003a0 be 3d 66 b7 68 83 97 b7 d9 fd 43 b8 ee 4c a1 38
       -1.3723444e-05 -1.8061794e-05 -4.6728037e-05 7.6914075e-05
0003b0 f6 25 3b b7 b8 78 88 38 89 27 aa 37 92 c4 80 37
       -1.1154907e-05 6.507471e-05 2.028399e-05 1.5350324e-05
0003c0 10 11 84 b8 54 8a 3b 37 b2 3a 9b 36 60 44 a8 35
       -6.2974286e-05 1.1178276e-05 4.626193e-06 1.2536875e-06
0003d0 4a dd 28 38 0a 1a 09 b8 ce 7b 75 b8 5a 77 87 38
       4.0260413e-05 -3.2687596e-05 -5.8527854e-05 6.4595326e-05
0003e0 5c bf 54 37 ab 44 43 b7 c5 12 a6 b7 66 88 8f 37
       1.2680739e-05 -1.1638894e-05 -1.9797482e-05 1.7110444e-05
0003f0 75 c9 1d b8 40 8b 2e 38 88 b6 e5 b6 a0 21 34 38
       -3.761934e-05 4.161452e-05 -6.8459813e-06 4.294666e-05

model/dense_12/MatMul f4 [40, 40]
000000 5c 50 09 b8 e6 ce b1 b7 33 00 93 b8 2b 64 84 38
       -3.2738186e-05 -2.1196389e-05 -7.009543e-05 6.312908e-05
000010 44 ce 87 b7 26 69 ec b8 45 7b a0 b9 29 6b 06 b9
       -1.6189304e-05 -0.00011272942 -0.0003060942 -0.00012819156
000020 c2 ed b3 36 3e e3 7e 35 22 f8 a9 b8 b6 40 ab b7
       5.3622944e-06 9.4953054e-07 -8.104766e-05 -2.0414922e-05
000030 8d b4 11 39 40 be b8 b7 d3 19 4c 39 64 97 ae 38
       0.00013895538 -2.2023101e-05 0.00019464576 8.325165e-05
000040 a3 39 f6 b7 ba 72 0d 39 7f 71 6c 38 d4 bf c2 38
       -2.9352324e-05 0.00013489547 5.6372486e-05 9.286372e-05
000050 f7 4f 86 b8 a8 3c d5 b7 d2 04 8a 38 db 13 d0 b8
       -6.4045125e-05 -2.5419824e-05 6.581251e-05 -9.921911e-05
000060 22 12 22 37 a4 39 d2 b7 10 ea f9 b8 56 b9 90 b8
       9.660174e-06 -2.5060792e-05 -0.00011916843 -6.9009766e-05
000070 20 6a 19 b6 1a 18 40 38 39 19 5a b8 3b c1 7f b8
       -2.286055e-06 4.5798814e-05 -5.199874e-05 -6.0976698e-05
000080 76 12 98 b8 d0 ed d6 b9 41 ba a4 b8 28 05 0e 37
       -7.2513634e-05 -0.00040994445 -7.854822e-05 8.46506e-06
000090 f6 73 a0 b9 3c df c2 38 37 75 9d 37 27 8b 15 38
       -0.00030603976 9.2922215e-05 1.877044e-05 3.5653964e-05
0000a0 f2 ca 13 b9 a7 4a 93 b8 6b 00 03 b8 b8 8d a4 b6
       -0.00014094615 -7.023411e-05 -3.1233223e-05 -4.904079e-06
0000b0 cf 28 d4 38 c4 04 23 b9 9f 0b 8c 38 c0 d3 49 37
       0.00010116549 -0.00015546667 6.677885e-05 1.20298355e-05
0000c0 7c 15 64 b8 f1 a6 63 38 38 13 9f 38 7c 4e 02 b6
       -5.4379445e-05 5.4276494e-05 7.5852906e-05 -1.9417193e-06
0000d0 ad 63 a6 38 14 0e 0d 38 68 5a 45 37 17 e1 e5 38
       7.934063e-05 3.363013e-05 1.1763164e-05 0.00010961497
0000e0 3b 3b 6d 37 c4 f6 cf 36 28 c9 bb 37 5a b8 53 b8
       1.41400915e-05 6.197808e-06 2.2385808e-05 -5.047801e-05
0000f0 60 10 4f b9 28 1f fc b7 24 c7 06 b9 7c 17 df b8
       -0.00019747159 -3.005525e-05 -0.00012853422 -0.00010637843
000100 58 e4 9b 37 c3 69 dc 39 c4 49 d2 38 67 f1 31 39
       1.858377e-05 0.00042040469 0.0001002732 0.00016969965
000110 73 c2 59 38 e7 68 5f 38 c8 4e 23 b7 a6 79 dc 38
       5.1917927e-05 5.326504e-05 -9.7339e-06 0.00010513076
000120 f4 00 21 38 b6 12 89 38 58 ba 4a 37 8c e3 5b 37
       3.838628e-05 6.536154e-05 1.2083525e-05 1.3106397e-05
000130 ec 38 c0 b8 78 e3 04 39 70 aa c1 38 1f 80 1b 38
       -9.165876e-05 0.0001267324 9.2347036e-05 3.7074202e-05
000140 b8 a2 b6 37 96 aa 8b b9 9e 86 8a b8 52 7d d8 b8
       2.1771863e-05 -0.00026639242 -6.605427e-05 -0.00010323025
000150 0a 06 4a 39 9c 9b 95 b8 c4 05 83 39 3d ae bd 39
       0.00019266471 -7.133858e-05 0.00024990563 0.00036178707
000160 a8 b9 c8 b8 58 3a 28 b8 24 2c 05 ba 5c 71 bc b8
       -9.571324e-05 -4.0108658e-05 -0.0005080125 -8.9856534e-05
000170 84 12 32 39 1f 4b 53 39 b6 01 3c 39 46 b7 07 38
       0.000169823 0.00020150513 0.00017929715 3.2357195e-05
000180 fc 6f 04 ba 60 fa 82 b7 a0 1d 2d 38 72 7f 7e 39
       -0.00050520874 -1.5613798e-05 4.1274005e-05 0.00024270805
000190 03 37 82 b9 b0 51 3e b9 25 d0 22 b9 b6 f5 41 39
       -0.0002483652 -0.00018150243 -0.00015527064 0.00018497449
0001a0 cb c7 69 b9 64 43 04 38 d5 18 10 3a 80 f3 0d b8
       -0.0002229504 3.1534015e-05 0.00054968643 -3.3843797e-05
0001b0 42 4f 07 b8 61 34 b7 38 34 a5 74 39 dc 5a ff b8
       -3.2260323e-05 8.735876e-05 0.00023331196 -0.000121762714
0001c0 a4 fb 53 39 e0 c8 5a 37 80 84 05 b7 d0 e9 32 37
       0.00020216272 1.3040582e-05 -7.958268e-06 1.06640655e-05
0001d0 56 19 23 b9 b6 f8 49 39 72 8d ea 38 be 87 c1 38
       -0.0001555433 0.00019261506 0.00011184336 9.228241e-05
0001e0 6b 5a 68 b9 56 02 93 3b 5c e6 98 3b 4e f5 b6 38
       -0.00022158927 0.0044863624 0.004666133 8.724128e-05
0001f0 e7 3c a8 3b d7 c8 a9 3a 2a c3 0f 38 2f b5 ea b7
       0.0051342133 0.0012953532 3.4275618e-05 -2.7979344e-05
000200 9e 7b 1a 3b 22 73 21 3b b8 41 50 b6 24 02 e8 38
       0.0023572217 0.0024635275 -3.1032669e-06 0.00011063021
000210 80 e4 8d 36 a0 33 6b b9 5e e3 17 b9 77 17 ec 3a
       4.2287284e-06 -0.00022430578 -0.00014485183 0.0018012364
000220 24 1b 04 3c 4a 6d 8c 38 08 c7 fc b8 30 dd 45 37
       0.008063111 6.696077e-05 -0.00012053369 1.1793614e-05
000230 33 1a a0 b8 74 95 39 b8 20 3b eb b7 bb 7a 22 b8
       -7.6342745e-05 -4.4246626e-05 -2.8041715e-05 -3.873811e-05
000240 0a 4c 38 3b 7f d6 d8 3a 82 09 27 3f b0 88 cb 3a
       0.0028121495 0.0016543417 0.6524888 0.0015528407
000250 38 b7 1a 39 24 91 34 3b 67 f2 67 3b a9 88 ba b8
       0.00014754839 0.002755233 0.0035392286 -8.894626e-05
000260 c9 c3 8c b8 b8 9b d4 b7 66 73 2c b7 33 df 62 3b
       -6.712188e-05 -2.5344882e-05 -1.0278867e-05 0.00346179
000270 58 63 0e b8 2b ac 09 be 28 48 27 3b 62 37 4b 3b
       -3.394796e-05 -0.13444583 0.0025525186 0.0031008353
000280 34 55 5b b8 2c a0 6e b7 e7 4f e0 b8 ed aa 5b b9
       -5.229302e-05 -1.4223198e-05 -0.00010696035 -0.00020949142
000290 54 0b 29 b9 ca 6c 9e b7 ae 42 e5 b8 a0 7f 51 37
       -0.00016121316 -1.8885727e-05 -0.00010931991 1.2487086e-05
0002a0 ba 73 67 39 98 47 18 b9 d4 da 64 37 0c d0 48 b8
       0.00022072988 -0.0001452252 1.3640809e-05 -4.7877475e-05
0002b0 95 b8 da 38 d4 b1 31 39 21 63 46 b9 92 32 0d b9
       0.00010429431 0.00016946282 -0.0001891968 -0.00013465647
0002c0 59 0b d8 38 fe 35 11 b8 d0 0c d0 36 f0 f2 9a b8
       0.00010301796 -3.4620978e-05 6.2003746e-06 -7.388543e-05
0002d0 43 4e 24 39 3e 8d a2 b9 e4 bd 8c 39 74 0d 42 38
       0.00015669414 -0.00031004281 0.0002684436 4.6265734e-05
0002e0 e6 48 32 39 18 2f 08 38 85 5f ec 37 63 4f 08 38
       0.0001700256 3.2468786e-05 2.8177872e-05 3.249886e-05
0002f0 b8 ac 9e 38 c6 a1 b3 b8 40 72 fb 37 5d 83 76 38
       7.5661985e-05 -8.565518e-05 2.9974733e-05 5.8773312e-05
000300 51 aa 0d 38 e9 45 25 b9 46 ef c6 b8 c2 db 4e b9
       3.377564e-05 -0.0001576167 -9.485944e-05 -0.00019727557
000310 d3 59 0f b9 3a 0e e9 b9 91 89 99 39 3d 2a 6a b8
       -0.00013671005 -0.00044451823 0.0002928493 -5.5829285e-05
000320 5a d4 f5 38 20 be c5 38 f8 11 12 38 f0 cf 5c b7
       0.00011722064 9.4291056e-05 3.4825847e-05 -1.3161436e-05
000330 93 a0 b0 b7 9c 62 65 b8 41 23 0f 39 2a 34 02 b8
       -2.1055608e-05 -5.468969e-05 0.00013650676 -3.1042997e-05
000340 27 93 45 39 20 cc 80 37 04 5e 6d b8 3c dc e7 b8
       0.00018842203 1.5353842e-05 -5.6592762e-05 -0.0001105596
000350 ec eb 6b b7 88 fe 25 b9 1f 44 f0 38 82 fd 3d 38
       -1.4062021e-05 -0.00015830447 0.0001145678 4.529721e-05
000360 d8 3c 41 b7 b4 cf 26 b7 90 cb a6 38 44 35 3c 37
       -1.1517863e-05 -9.942731e-06 7.953413e-05 1.1218075e-05
000370 93 44 7b 38 1d f7 01 b9 ca fd 62 b8 e8 1c 30 37
       5.9906928e-05 -0.00012394456 -5.411896e-05 1.0497148e-05
000380 e2 cd 03 38 6b a2 a8 37 31 b6 12 39 58 b9 09 b9
       3.1424577e-05 2.0102792e-05 0.00013991517 -0.00013134384
000390 94 f0 eb b7 78 d7 12 b9 79 2f 86 38 90 79 57 38
       -2.8126211e-05 -0.00014003913 6.3984604e-05 5.137321e-05
0003a0 c0 fb 18 b9 96 a4 17 38 49 94 7f b8 9a a0 14 38
       -0.00014589634 3.6154488e-05 -6.093484e-05 3.543552e-05
0003b0 20 87 b0 b6 dc c0 20 39 4f 68 09 b9 94 63 c9 36
       -5.2609394e-06 0.00015330635 -0.00013104196 6.001859e-06
0003c0 10 6b db 36 60 cf 17 36 ee d2 00 38 3c 9b bc 37
       6.5391723e-06 2.2621462e-06 3.071402e-05 2.2483633e-05
0003d0 97 81 bc 38 04 d8 02 b8 3b 12 b6 b9 03 71 3b 38
       8.9886766e-05 -3.1195596e-05 -0.00034727328 4.4689525e-05
0003e0 18 24 3d b8 96 35 c9 b8 16 84 b6 b8 78 be 72 37
       -4.5094726e-05 -9.594408e-05 -8.703039e-05 1.4468671e-05
0003f0 40 d2 94 38 c7 e5 4a b9 4e 94 8e b8 9a a8 a7 38
       7.096352e-05 -0.0001934982 -6.7987115e-05 7.994585e-05

model/dense_13/MatMul f4 [40, 40]
000000 9c 25 2d 38 ba ea 8b b8 28 48 14 b9 12 3b 9a 37
       4.128144e-05 -6.671758e-05 -0.0001414126 1.8385737e-05
000010 9f f8 0a 39 e0 88 c1 b7 1b b3 49 38 b0 ac 1c 37
       0.00013253324 -2.307113e-05 4.808894e-05 9.3385315e-06
000020 36 3e 40 b8 1a b0 68 38 f0 49 e7 38 b2 df 8f b8
       -4.5834306e-05 5.5477118e-05 0.0001102871 -6.860438e-05
000030 c0 ec 90 36 ee 21 45 38 b3 33 85 38 49 1b 98 b9
       4.3190958e-06 4.700006e-05 6.351564e-05 -0.00029012028
000040 86 7a 42 38 e3 ff 11 b8 a2 77 aa b9 23 5e 41 b8
       4.6367313e-05 -3.4809007e-05 -0.0003251406 -4.6102457e-05
000050 51 46 9d 36 9b cd f1 b7 20 38 e5 36 50 db af 37
       4.6871505e-06 -2.8825181e-05 6.8312656e-06 2.0963751e-05
000060 4c 5e ba b8 80 29 64 b4 6e 82 6f b8 8a 4b 0b 39
       -8.886735e-05 -2.1249252e-07 -5.7103513e-05 0.00013284213
000070 fc a8 09 b9 ea 4b b8 b9 34 20 52 38 15 04 3a b8
       -0.0001312829 -0.00035151775 5.0097893e-05 -4.4349657e-05
000080 f9 10 83 b9 5b f3 08 b9 c2 48 ac 38 36 9f b5 37
       -0.00024998913 -0.00013060628 8.215151e-05 2.165102e-05
000090 16 92 85 38 dd 57 8d b8 0d 50 a9 37 72 27 fd b8
       6.369145e-05 -6.73977e-05 2.0183646e-05 -0.000120713274
0000a0 73 b4 e2 b8 6a 2d 9c 38 3a c2 46 b9 56 01 15 38
       -0.00010810131 7.447119e-05 -0.00018955106 3.5525612e-05
0000b0 a0 78 23 b8 3d 62 a0 b7 d0 3c 9e 35 70 96 29 b7
       -3.897457e-05 -1.9119232e-05 1.1789616e-06 -1.0108211e-05
0000c0 56 c1 3e b9 4c 4b 8b 38 7c d6 54 b8 a8 0f 8c 37
       -0.00018191835 6.6420616e-05 -5.0744493e-05 1.6696591e-05
0000d0 07 0f 4d 39 2d 7d f0 b7 cc 8d 74 b7 1b d0 ae 38
       0.00019555922 -2.8668519e-05 -1.4576548e-05 8.335729e-05
0000e0 c8 8c d5 b6 a4 39 8b b8 02 61 00 ba 48 ed df b8
       -6.3642838e-06 -6.638773e-05 -0.0004897268 -0.00010677666
0000f0 d3 a3 60 38 b4 8d ec b8 e0 81 55 38 2c 5d 5b 39
       5.3558335e-05 -0.00011279751 5.0904113e-05 0.00020920177
000100 98 2f 2e 38 5b 57 51 38 76 ea fd 37 ec fa 8b b9
       4.1529158e-05 4.991084e-05 3.026913e-05 -0.00026699097
000110 32 01 53 b8 86 2b 0f b9 90 15 80 36 b2 44 6b b6
       -5.0307433e-05 -0.00013653756 3.8172075e-06 -3.5057715e-06
000120 6c 72 8b b7 97 ba 04 b8 d8 d5 c8 b5 8a 2b 0e b7
       -1.6623373e-05 -3.1645028e-05 -1.4963398e-06 -8.473997e-06
000130 76 cb 57 38 80 09 f2 b7 65 fb 31 38 f4 0a 26 b9
       5.1449482e-05 -2.8853072e-05 4.2434218e-05 -0.00015835074
000140 cc 80 28 39 ac a7 23 39 97 fb 10 39 0d 6b 6b 37
       0.00016069709 0.00015607354 0.00013826635 1.4032016e-05
000150 e0 6c ae 35 ca 6f a1 b8 e4 2b b1 38 6d 03 27 38
       1.2995697e-06 -7.6979006e-05 8.448193e-05 3.9819093e-05
000160 f0 1a d3 b7 88 c7 28 b9 e5 bf 49 b9 b7 d8 81 38
       -2.5165704e-05 -0.0001609606 -0.0001924034 6.1915656e-05
000170 98 b2 33 37 3e 5e 7f 37 85 77 67 38 cd 2b 32 38
       1.07108135e-05 1.5221127e-05 5.5186003e-05 4.24793e-05
000180 f2 c1 82 b8 7a d0 cb 38 90 7d 43 39 f6 38 2b b8
       -6.235008e-05 9.718626e-05 0.00018643425 -4.0822626e-05
000190 f3 05 8b b7 f8 89 a3 b8 f8 66 f2 38 d4 31 a4 b9
       -1.6572862e-05 -7.798144e-05 0.00011558639 -0.00031317642
0001a0 80 ef f3 35 0c 97 ec 38 46 fe 86 37 ba c5 c6 b8
       1.8174615e-06 0.000112814916 1.609245e-05 -9.478205e-05
0001b0 b0 6b 21 38 09 2f 2b 39 20 07 e5 b4 bc 1c 60 b8
       3.8485683e-05 0.00016325353 -4.2659758e-07 -5.3432523e-05
0001c0 d4 79 42 b8 5d 87 82 b7 1a ab 40 b8 f8 bf ed 39
       -4.6366666e-05 -1.5560241e-05 -4.5935718e-05 0.0004534719
0001d0 c1 bf 41 38 5e 8d 1e 39 08 98 8d 37 14 f0 5f b8
       4.619337e-05 0.00015120718 1.6879305e-05 -5.3390933e-05
0001e0 f5 d4 1d 39 8e 46 9c 38 49 59 47 39 80 84 54 36
       0.0001505202 7.4518015e-05 0.0001901138 3.1667587e-06
0001f0 40 c8 7e b8 8f 5a 37 b8 16 3a a2 38 8e f5 19 37
       -6.0744816e-05 -4.371494e-05 7.735581e-05 9.176683e-06
000200 a2 aa a7 b9 84 99 ba 38 90 a0 ad 37 e2 e3 3b b7
       -0.00031979854 8.897766e-05 2.0697975e-05 -1.1199127e-05
000210 4f 5b e3 38 b5 60 d5 37 75 6f 8b b7 ac af 0a b8
       0.00010841211 2.5436611e-05 -1.6621992e-05 -3.306537e-05
000220 3e 41 8b 37 e8 7d 0a b9 8a 47 82 39 6e 90 1f 38
       1.6600472e-05 -0.0001320761 0.00024848833 3.8043065e-05
000230 41 7e 0e 38 74 cd 3f 38 dc 80 06 b7 90 23 11 b8
       3.397302e-05 4.572929e-05 -8.017025e-06 -3.4603814e-05
000240 49 55 3e 39 3d 8d 66 b8 be 1f 35 38 28 45 77 b9
       0.00018151583 -5.496781e-05 4.3183325e-05 -0.00023581518
000250 bc ba f1 b7 5c ba 2e b8 5a 37 0b b7 a7 40 06 38
       -2.8816394e-05 -4.1658393e-05 -8.297933e-06 3.20083e-05
000260 98 03 0c 38 d9 0b 10 39 49 7b 87 b7 ec e5 be b8
       3.3381948e-05 0.00013737324 -1.6150663e-05 -9.102732e-05
000270 92 37 f3 b9 e4 55 7f b8 41 f8 51 39 9a da 0f b9
       -0.00046389975 -6.087673e-05 0.00020024275 -0.00013718978
000280 bf 1d ba 38 66 b9 13 b9 65 7d f2 b9 f6 e5 13 37
       8.874712e-05 -0.00014088079 -0.00046251263 8.815425e-06
000290 35 c8 4e 39 7a e0 86 39 68 38 03 b9 7b 5f 99 b9
       0.00019720274 0.0002572572 -0.00012514147 -0.00029253573
0002a0 68 c1 07 b8 1b 09 2f 39 70 d2 2e 39 3c 1e f2 b8
       -3.236663e-05 0.00016692693 0.00016672327 -0.00011545091
0002b0 52 3f f0 38 46 4b 8f 38 91 12 20 b8 22 d6 71 b7
       0.00011455886 6.832792e-05 -3.8164264e-05 -1.4414576e-05
0002c0 08 b7 e3 b7 28 27 d5 37 cc dc c5 b8 6c d5 7b 37
       -2.714574e-05 2.5409812e-05 -9.434819e-05 1.5010457e-05
0002d0 20 9a f8 35 9a 22 86 39 e2 60 98 b7 ea 07 a4 39
       1.8522296e-06 0.00025584252 -1.8164927e-05 0.00031286414
0002e0 b0 c7 da b6 48 74 05 b9 d6 c8 78 b8 b6 37 cd 39
       -6.520153e-06 -0.00012727187 -5.931485e-05 0.00039142155
0002f0 c4 6d bf b7 7a ee 10 38 18 b9 00 b7 0c c3 de 38
       -2.2820088e-05 3.4554374e-05 -7.67249e-06 0.00010622115
000300 c0 7c de 37 e6 4e 07 b9 6d 16 8b 38 84 af 40 37
       2.6522554e-05 -0.00012903995 6.6322136e-05 1.1484957e-05
000310 a3 04 60 b9 4a 7a 90 38 d3 c5 5e b9 50 c2 b4 b6
       -0.00021364032 6.889233e-05 -0.00021245265 -5.387039e-06
000320 8c 97 c5 b8 8e 9b 87 39 90 37 74 36 a0 ac 4f b8
       -9.42192e-05 0.00025865104 3.6391175e-06 -4.9513415e-05
000330 00 d3 74 36 60 0a 84 b8 a7 97 2d 39 82 88 44 38
       3.6481651e-06 -6.296183e-05 0.0001655506 4.6857174e-05
000340 86 4f cd b7 a8 79 9b 38 88 24 bc 37 f3 cf cd b8
       -2.4474935e-05 7.413636e-05 2.2428358e-05 -9.813895e-05
000350 df b3 b7 39 dd 83 08 b9 78 28 cb b5 5d 6a d5 39
       0.00035038494 -0.00013019094 -1.5136457e-06 0.00040705773
000360 c4 f3 17 b9 fa 95 e9 37 8e d4 60 38 de 89 07 ba
       -0.00014491292 2.7845603e-05 5.360372e-05 -0.0005170385
000370 a0 51 e5 b7 6a 99 6f b7 da 84 32 b9 7a b0 a4 b9
       -2.7336937e-05 -1.428123e-05 -0.00017024894 -0.00031412003
000380 41 55 8d 39 bb e3 ae 38 6b 26 71 38 9e e6 80 b9
       0.00026957135 8.339385e-05 5.7494657e-05 -0.00024585886
000390 59 f2 86 b8 b0 b7 a8 39 00 be 26 35 f2 75 ac b9
       -6.434759e-05 0.00032180315 6.2116305e-07 -0.00032894273
0003a0 92 e5 3c b9 88 91 91 37 c8 ed 60 37 b5 0c c6 38
       -0.00018014599 1.7353115e-05 1.3406803e-05 9.4437426e-05
0003b0 b4 e0 ec 37 18 26 21 b7 0e 0e c1 38 4c b3 e0 37
       2.8238028e-05 -9.605217e-06 9.205575e-05 2.6786372e-05
0003c0 00 67 df 38 80 d4 25 36 a9 d5 0d 39 b0 b5 ef b7
       0.00010652654 2.4710607e-06 0.00013526402 -2.8575625e-05
0003d0 13 9b 0b b8 64 8d c4 38 bf 84 76 b8 1a ef 6b 38
       -3.3284607e-05 9.372344e-05 -5.87746e-05 5.6251047e-05
0003e0 9d f4 0b 38 86 2f 8a 37 6f 56 fd 37 44 0b 6e 37
       3.3367996e-05 1.6473012e-05 3.0200199e-05 1.4188528e-05
0003f0 e8 94 b2 38 88 09 36 37 0c bb 9d b4 84 20 96 b8
       8.5154374e-05 1.08502645e-05 -2.9379623e-07 -7.158614e-05
