3tier-app/learnt_model/gcp_model/model_3tier_exp.tflite (tflite, 142712 bytes, 48 tensors)

dense_9/bias f4 [40]
00000000: fd29 97be b90a 89bd 60b8 bebd 162e 813c
00000010: 7e87 803d 4eba ed3d 6427 053e 253e 99bc
00000020: a7f3 bb3d 6331 e03d 845b 88bc e038 0f3d
00000030: e47e 1c3e aab3 383b 0cfc 993d 1cb4 78bd
00000040: b117 acbc e511 52bd fe6a 0f3e 8e7b 833d
00000050: 385b e3ba 80e8 53bd 7032 17bd 9811 a9bd
00000060: cbdb aebd 5e6f bcbc 6111 3dbd e732 3a3b
00000070: 9c8e 65bd d0d4 d4bb 0ad4 8bbd 8b62 47bd
00000080: f825 15bc 903f 88bd c41c 23bd d46b 90bb
00000090: 90e3 3abd 96d1 ae3d 464f 06bd 7f3a 19bd
-0.29524222 -0.06691498 -0.093125105 0.015769046 0.06275843 0.116078004 0.13003308 -0.01870639
0.09177332 0.1094692 -0.0166452 0.03496635 0.1528278 0.002818326 0.07518777 -0.06071864
-0.02100739 -0.051286597 0.14005658 0.064200506 -0.0017345911 -0.0517354 -0.036913335 -0.08255309
-0.08538016 -0.023002323 -0.046159152 0.0028411688 -0.056044206 -0.006495096 -0.068275526 -0.048677962
-0.009103291 -0.066527486 -0.039822355 -0.0044073854 -0.045627177 0.08536069 -0.032790445 -0.0374093

dense_8/bias f4 [40]
00000000: 1ff1 783d c9b7 dcbd 8989 8abc 604a 923b
00000010: 9e50 403d f39f 4abd ad77 03bd cc01 a53e
00000020: 9acd 5cbd f2f4 ebbc f00a ffbd 912e b83e
00000030: 3816 21bd a0ff 1bbd 0854 69bd e715 53bd
00000040: 423e 14bc d86e ccbc 37ac a63d 77a3 793d
00000050: 26a9 92bd 8f8d 263d 62cb 92bd 6c83 163b
00000060: 0c30 5c3d 226e a0bd 3cf1 bcbd 2ddd 8dbc
00000070: 720c 21be db55 83bd 015a b2ba 1c80 003e
00000080: bad7 6cbd cab8 be3d 9f8a cebd f3fe ffbc
00000090: 4411 11bb 028f 883c 5777 ad3e c286 24bd
0.060776826 -0.10777242 -0.016911285 0.0044644326 0.046951883 -0.049468946 -0.032096554 0.32227933
-0.053907014 -0.028803322 -0.12453258 0.35973027 -0.03932783 -0.03808558 -0.056964904 -0.05153456
-0.009048047 -0.024955198 0.08138316 0.060946908 -0.07161169 0.040662345 -0.071676984 0.0022966517
0.05375676 -0.07833506 -0.09225699 -0.017317379 -0.15727404 -0.0641286 -0.0013607146 0.1254887
-0.05782292 0.093125895 -0.100850336 -0.031249499 -0.0022135535 0.016669754 0.33880112 -0.040167578

dense_7/bias f4 [40]
00000000: cfb3 4c3c 0dfd 50bd 5f28 fa3d 697b 873c
00000010: 2830 24be 1b83 a1bc bc1d c8bb 75fa e93d
00000020: ab10 e5bd fad8 4b3e 4682 093d 2e2b fc3d
00000030: 58da bf3d 951f f3bd 5d91 f3bc 9a8a 103e
00000040: b535 f53c 6b62 e53d 4245 65bc 717c 58bd
00000050: 9ed1 83bd bc10 573c 0bd7 0ebe 29f4 4fbb
00000060: ad59 62bc 463a 1ebd 9ef8 8dbd cc5d debc
00000070: ac9d 85bd 4169 29bd 36c7 6dbd 4a15 d13d
00000080: ed51 f23d f6c4 f8bc e8c9 c53d 978c 10bd
00000090: c488 a83c 70f1 9c3c 7358 ecbd 2005 c4bc
0.012494042 -0.051022578 0.122147314 0.016538339 -0.16033995 -0.019715836 -0.0061070602 0.11424724
-0.1118482 0.19906989 0.033571504 0.12312923 0.09367818 -0.11871258 -0.0297324 0.14115372
0.029932836 0.11200412 -0.013993563 -0.05285305 -0.06436466 0.013126548 -0.1394922 -0.0031731224
-0.013815326 -0.038629793 -0.069321856 -0.027144335 -0.06524214 -0.041360144 -0.05805131 0.10209139
0.11832032 -0.030367356 0.09657651 -0.035290327 0.020573027 0.019158095 -0.11540308 -0.023928225

dense_6/bias f4 [36]
00000000: 3f78 1c3e d59e e53d 3259 a93d 19dc 1b3a
00000010: 5b69 80bb 6fe5 ecbb 2e6e 28bb 6f00 ecbb
00000020: 7ee7 8dbb 04e6 a23a 0c8a cc3b 264b 00bc
00000030: b720 563d d783 7bbd 6672 143d cb1c 053c
00000040: ec33 b939 6f3a 5fbb 0444 15bb ce24 883b
00000050: 8737 99ba c6c8 ea3a ac12 283c 2f08 44bc
00000060: 7238 f23d a483 233d 89f6 cdbd f577 4b3b
00000070: 4d07 c5bb 8c98 153b 3630 e23a 50c2 9dbb
00000080: 2dd4 203a dc74 cebb e3a6 b0bb 3586 083c
0.15280245 0.112119354 0.08268966 0.0005945578 -0.0039188094 -0.007229499 -0.0025700438 -0.0072022
-0.0043305745 0.0012428169 0.0062420424 -0.007830417 0.052277293 -0.06140503 0.03624191 0.008124541
0.00035324635 -0.0034061929 -0.0022776136 0.004154778 -0.0011689522 0.0017912618 0.010258358 -0.011964842
0.11827172 0.039920464 -0.100567885 0.0031046842 -0.006012833 0.002282652 0.00172568 -0.0048144236
0.0006135132 -0.006300552 -0.005390988 0.008332779

dense_5/bias f4 [40]
00000000: e682 7c3d 06f7 a3bc 7d70 2fbd 2bf3 d9bc
00000010: 8d8c 44bd 50dc e5bc 9557 2f3d 589d 3abd
00000020: 3082 91bc d744 723e 44fa b83d ebd3 7bbc
00000030: 6adf acbc 058c 14bd 2378 b9bb a649 1bbd
00000040: 5515 ce3b ee69 273e b4eb 6c3e cb0e c4bd
00000050: 7efa 563e c0b9 c9bd c99e 89bd ca4e cd3b
00000060: c301 17bb 8dbd 26bd b851 4dbd fb85 e6bc
00000070: 6dfc 92bb c25d 59bd b401 4bbc d2ab ab3d
00000080: a874 323d 05ba 69bd cf92 5dbd 56d0 f9bc
00000090: f0ba 4c3e 8689 a7bc 53ed 18bd 4b70 e7bb
0.061648272 -0.02001525 -0.042831887 -0.02660521 -0.047985602 -0.028059155 0.042808134 -0.04556021
-0.017762274 0.23659073 0.090321094 -0.015370349 -0.021102626 -0.036266346 -0.0056600734 -0.037912033
0.006289164 0.16349003 0.23136789 -0.09573134 0.20993993 -0.09849882 -0.06719739 0.006265496
-0.0023041822 -0.040708113 -0.05012676 -0.028140059 -0.004485658 -0.05306793 -0.012390543 0.083823815
0.043568283 -0.057062168 -0.054095086 -0.03049485 0.19993186 -0.020451318 -0.037335705 -0.007062947

dense_4/bias f4 [40]
00000000: 1fc1 003e d9d7 a63c 10cc d5bc db63 40bd
00000010: f69f 973c 56eb 1dbd 6000 6dbd fe9f 5d3c
00000020: 610e 1a3e f645 03bd 20fe 3ebd f90d b53b
00000030: db5c 4f3e ee41 a13c 15f4 9c3c d1a6 d3bc
00000040: e66b f9bc a6a5 423e 3235 0fbd ba07 94bd
00000050: e747 83bc 057f b8bb 9f47 63bd ded4 11bd
00000060: 34cd d73d 6cd2 1abd 9c8f 06bd 062e 40bd
00000070: 81fa 573e 90d8 563d 58a3 ff3c a513 51bc
00000080: 3ae6 7dbc 8a89 e9bc df1d 123d 2693 0f3b
00000090: a56a 583e fc54 093d 88e9 74bd ee76 81bb
0.1257367 0.020366596 -0.026098281 -0.04697023 0.018508893 -0.038554512 -0.057861686 0.013526915
0.15044548 -0.03204914 -0.04662907 0.0055253473 0.20250265 0.019684758 0.019159356 -0.02583638
-0.030446958 0.19008502 -0.03496284 -0.07228036 -0.016025497 -0.0056303763 -0.055488225 -0.035603397
0.10537186 -0.03779833 -0.0328518 -0.04691889 0.21091653 0.052452624 0.031205818 -0.012761031
-0.015496785 -0.028507967 0.03567302 0.0021907776 0.21134432 0.033528313 -0.059793025 -0.003950945

dense_3/bias f4 [40]
00000000: 13fb 633d 9e36 a13e ede5 803c 54d6 ae3d
00000010: 2c6e 25bc 5f32 293e 8c2f b33c ffb5 a8bc
00000020: 725f 81bd 6c52 fb3a d9ec c63d c11c 0abc
00000030: bf0f 3e3d 4429 1cbd caea f53c 63eb 4f3d
00000040: 1857 e83d f210 2e3c 02bc bdbc 7c46 3d3d
00000050: 5857 0aba 4bcb 803e cb04 113e bc46 25bd
00000060: 2764 633e f887 87bb 177b a5bc b2bb 873d
00000070: cced 8abc 2142 e73d 9f62 1abd 5061 293d
00000080: fe9d 733a 2b13 a83c 3f23 7e3b f550 483d
00000090: 0387 553d 80e7 013d be92 2e3e 38aa 52bd
0.055659365 0.31486982 0.015734637 0.085369736 -0.010097068 0.16523121 0.021873258 -0.020594595
-0.06317033 0.0019174344 0.09713144 -0.008429707 0.046401735 -0.03812529 0.030019183 0.05076159
0.11344737 0.010624157 -0.023160938 0.046209797 -0.00052772975 0.251551 0.14161985 -0.04035066
0.22206174 -0.004136082 -0.020200295 0.06627597 -0.016959094 0.1129191 -0.03769171 0.04135257
0.0009293257 0.020516952 0.0038778333 0.04890533 0.05213071 0.031714916 0.17048165 -0.051431865

dense_22/bias f4 [45]
00000000: ecba 513e 6e04 153d 86b0 8a3d 7804 5d3b
00000010: 0847 e8bb 5a82 213b 4597 45ba 98f3 5a3b
00000020: 8c81 b73b c16c ed3a f552 bc3a dbde bf39
00000030: 3dae 113f 165e fabd 4761 f4bd 6a79 523e
00000040: 26ac 24bd b742 0f3c 20e1 6bb9 a400 bc39
00000050: e4e9 de39 38c3 e93a b0ec df3a d396 cbba
00000060: 0bea dfbb 0c87 d63a 6ce6 543a 1a21 d8bd
00000070: 855c bd3e b141 b6bd 9fe5 273e a443 8d3c
00000080: 0c6f 6bbd bc53 56bb 88a3 c83b da10 3c3a
00000090: 19ce 623b 1730 ad3b 3790 db3a 6ab9 c0ba
000000a0: 6035 beb9 a00e 68bb 5a54 ddbd cd74 79bd
000000b0: c001 dc3e
0.20481461 0.036381178 0.067719504 0.0033724587 -0.0070885457 0.0024644346 -0.00075374945 0.0033409353
0.00560016 0.0018114076 0.0014367985 0.000365964 0.5690649 -0.12224977 -0.11932617 0.20554128
-0.040203236 0.008743933 -0.00022495212 0.00035858632 0.00042517402 0.0017834669 0.0017084088 -0.001553262
-0.00683332 0.0016367151 0.0008121494 -0.105531886 0.3698465 -0.088992484 0.16396187 0.017244168
-0.05747895 -0.0032703718 0.00612301 0.0007174142 0.0034607707 0.005285274 0.0016751353 -0.0014703695
-0.00036279391 -0.0035409108 -0.108071044 -0.060902406 0.42970085

dense_21/bias f4 [40]
00000000: 53db 963d b33c 23bd e520 723e 8545 2d3c
00000010: 5e6c 09bc ef96 a4bd d03e 923b a256 debc
00000020: 8ff7 7bbc 6df8 87bd 2ce7 8abd e805 403d
00000030: b22e e6bc 681c 9ebb 4fd1 83bc 6901 003e
00000040: 9134 8ebd 6507 9f3a 3da5 16bd 5917 77bd
00000050: 4b9d 8fbc f7a8 b6bc 1018 52bd e6db c4bc
00000060: 808d 5ebd 1a89 e0bb 056d 513e 2647 ab3d
00000070: f467 aabb 1458 153c 8380 ddbb e068 2cbb
00000080: 8c8d 373c 60c7 4abd 1cc0 b93d 949f 24bd
00000090: 8a93 abbd 574e 7bbd 2a41 7fbc f98b 9bbc
0.073660515 -0.03985281 0.23645361 0.010575657 -0.008387653 -0.08036601 0.0044630542 -0.02714092
-0.015378847 -0.0663918 -0.06782374 0.046880633 -0.028098438 -0.0048251636 -0.016091017 0.12500538
-0.0694362 0.0012132941 -0.036778677 -0.060325 -0.017531058 -0.022297366 -0.05129248 -0.024030637
-0.054334164 -0.0068522813 0.20451744 0.0836318 -0.0052003805 0.009115238 -0.0067597046 -0.0026307628
0.011203181 -0.049506545 0.09069845 -0.040191248 -0.0837775 -0.061354008 -0.015579501 -0.018987643

dense_20/bias f4 [40]
00000000: 5c77 55bc 55ae 61bc 2f9d b3bc 3168 8f3b
00000010: 5819 3ebd 4c06 663d 2c79 e03b 705f c7bc
00000020: 8aac df3d 8965 79bc e178 9cbd bf55 c5bb
00000030: 2fcd c13d e87d 46bd 055b de3b 76ba 13bc
00000040: 0941 ff3c 4308 a53d a2ac 23bd ad3b 15bc
00000050: 7b73 83bd 4d99 49bc 1bbf 8ebd b7c6 533d
00000060: 9a83 11bd a7ec e8bb 2dcb a9bd 908a bcbd
00000070: ba61 10bd d9d0 9ebc 7f2e 833c 662e cc3b
00000080: 40a7 423e 0b3c 9bbd 41c2 5d3d 29ed 953d
00000090: 260a 5ebb f2e3 97bd 3bc3 873d fbd5 af3d
-0.013028946 -0.013774474 -0.021925537 0.0043764343 -0.04641089 0.05615835 0.0068503823 -0.0243375
0.10921581 -0.015221962 -0.07640243 -0.0060221846 0.09462964 -0.048459917 0.0067857527 -0.009016624
0.03115894 0.080582164 -0.039959557 -0.009108466 -0.064185105 -0.012304616 -0.06970044 0.05170318
-0.035525896 -0.0071082893 -0.08290706 -0.09206116 -0.03524945 -0.019386696 0.016013382 0.006231117
0.19009113 -0.07579812 0.054140333 0.07320625 -0.003388056 -0.07416524 0.06629034 0.085857354

dense_2/bias f4 [40]
00000000: d9bb 843c c176 11bd 3d65 1f3d eb8b 5bbd
00000010: 2813 77bc d188 803d e06b 023e 135e fabb
00000020: 1884 5d3b fb01 66be b39a b2bd 5d63 3a3c
00000030: 9d3a e03d 3ab9 28bd a186 603c 8fed 39bd
00000040: fd82 a3bc d9ec 113e a13a 5fbc 3da1 40bd
00000050: d736 663d 67ee 1dbd 793f 57bd ea68 d2bd
00000060: e02e a53d fdf1 083e 1d76 cc3d 7380 613e
00000070: 0dae 263e f462 043e cef0 ca3d 42ef d63d
00000080: fc0f 323d 6e15 1ebd 46a2 4ebd e067 de3b
00000090: 0eaf 2f3c ce46 253e 4cc8 613c 18d1 713d
0.016202854 -0.035513643 0.038914908 -0.053600233 -0.015080251 0.06276096 0.12736464 -0.007640609
0.0033800658 -0.22461693 -0.08720913 0.011376229 0.109486796 -0.04119227 0.013703973 -0.04539257
-0.019959921 0.14250506 -0.013624818 -0.04702877 0.056204643 -0.038557436 -0.052550767 -0.10273917
0.08065581 0.13373561 0.09983466 0.22021656 0.16277333 0.12928373 0.09909211 0.104948536
0.043472275 -0.038594656 -0.050447725 0.006787285 0.010722889 0.16140291 0.013780665 0.059037298

dense_19/bias f4 [40]
00000000: a4ab b43c 98a6 70bd ba87 133e 570c ef3d
00000010: d720 c93c ae6b 633e 489b eb3d 4874 47bd
00000020: 550f a33d e85f c6bc bdf3 963d 306b 3ebd
00000030: e4f4 5e3e b211 333e 7d8e 973c 206d ffbc
00000040: fe4c 8e3d 109f 823d 5fba 803d a19e b23b
00000050: 4d9a 8cbd dc08 1e3d f769 fd3c d68e fc3d
00000060: cacf 923c 3c3d 103e 7f7a 173e 3b5d 82bd
00000070: 3459 233c bfd2 05bd 266d a9bc 5dad 5f3a
00000080: 416a 42bd 43a0 08bc d1c7 19bd c058 2cbc
00000090: e62b cdbc 071c f9bc f97e cf39 f4f9 4cbd
0.0220545 -0.058752626 0.14407244 0.116722755 0.024551792 0.22209045 0.11504227 -0.04869488
0.07961909 -0.024215654 0.07370708 -0.04648894 0.21773106 0.17487219 0.01850056 -0.031179965
0.06948279 0.06377995 0.062855475 0.005451039 -0.06865368 0.038582668 0.030934317 0.12331931
0.017921347 0.14085859 0.14792822 -0.063654386 0.009969998 -0.032671686 -0.020681929 0.0008532608
-0.047464613 -0.008338991 -0.037544075 -0.0105192065 -0.025045346 -0.030408872 0.0003957672 -0.05004306

dense_18/bias f4 [45]
00000000: e675 523e 4a4b d83d cc26 943d c56f 6c3a
00000010: 27b6 0fba 2fb3 513c 5c0d 37bc 7edd 263c
00000020: 7216 703b 5085 90bb 73b3 8f3b 9c85 23bb
00000030: fd21 153f 7e9a 42be fa62 c7bd 05fc 3d3e
00000040: 90a8 50bd 76b0 1c3d 0d7f 9a3b 672e 593b
00000050: e8d9 0fbb 4554 c03a 8d6f 0f3c 18d5 05ba
00000060: d3fa b2bb f005 0f3b fe4c adba bf05 02be
00000070: 5686 a43e f432 71bd e7eb 373e 52e6 283d
00000080: 5786 a9bd 3297 bc3a 0cb3 d23a 7232 c4bb
00000090: 926c a63b 0778 a039 94a6 71bb c2a9 2139
000000a0: deb5 0cba 7453 473b a400 97bd 0aa0 5abd
000000b0: 347f bb3e
0.20552787 0.10561235 0.072339624 0.00090193405 -0.000548216 0.012799068 -0.011172619 0.010184644
0.0036634472 -0.0044104233 0.0043854057 -0.0024951464 0.58254987 -0.19004247 -0.09735675 0.18553169
-0.050942004 0.038254224 0.0047148527 0.003313923 -0.002194995 0.0014673552 0.008754623 -0.0005105301
-0.0054620295 0.0021823607 -0.0013221798 -0.12697504 0.3213374 -0.058886483 0.17961083 0.041235276
-0.082775764 0.0014388321 0.0016075089 -0.005987459 0.0050788606 0.00030607005 -0.003687297 0.00015417396
-0.00053676765 0.0030414732 -0.07373169 -0.05337528 0.36620486

dense_17/bias f4 [40]
00000000: 00cc 4a3e 3179 a33d ef64 7f3e 03f0 eebc
00000010: 2965 0ebc ebac 41bd de0f 15bd 0295 36bd
00000020: 55c4 a2bc 93f5 60bb 267d 78bd da0c 9abd
00000030: 776a a539 391c fdbc 8cda d6bd 8524 29bd
00000040: 9ca3 08bb 866c 083e cbdf 8abd 0ab6 49bc
00000050: 4689 84bc ef64 993b 6e0f 6b3e 2ec3 1a3d
00000060: ad9b b7bd 0e6c 94bc e1aa 853d 317c 43bd
00000070: ea70 a6ba 0d16 a13c c756 963d 5961 f3bc
00000080: 114b 2cbd 377a 8cbd c175 613d 4c45 2fbd
00000090: c220 69bd fd89 86bc 23db 4ebd 556d e3bc
0.19804382 0.079821 0.24940847 -0.02916718 -0.008691111 -0.047284048 -0.036392085 -0.0445757
-0.019869009 -0.003432606 -0.060666226 -0.075219825 0.00031550575 -0.030897247 -0.10490903 -0.041294593
-0.0020849472 0.13322648 -0.06780966 -0.012311468 -0.016178738 0.0046812217 0.22955105 0.037783794
-0.0896524 -0.01811793 0.06526733 -0.04772586 -0.0012698446 0.019663835 0.0734077 -0.029709505
-0.042063776 -0.06859248 0.05504394 -0.042790696 -0.056916006 -0.01642322 -0.050501954 -0.027762095

dense_16/bias f4 [40]
00000000: 68da 403d c33b 213d f927 c13c 2b21 e03d
00000010: 5468 db3c 88bb 033e 8490 6ebd 1a96 c53c
00000020: 2814 16bd 93c1 20bc 24e4 31bd d135 3b3e
00000030: d1ed c33d 1a90 fabc 1361 293e fc57 03bd
00000040: cad7 df3d 39cd fc3d d376 b93c ba6c c93c
00000050: c347 c53d 1173 0f3e 8653 8c3c 8552 15bd
00000060: 57ba e7bb 33e1 833c 9e37 67bd 611b 8bbd
00000070: 7044 67bd 20b2 403e fbf2 74bd c90d 56bc
00000080: 4a36 0dbd a6de 5dbc f73b 593d 2e5d 433d
00000090: 99d3 9cbc f71b dbbc 8f2d 03bd 1843 963d
0.04708329 0.039363634 0.02357863 0.10943826 0.026783146 0.12864506 -0.05824329 0.024119426
-0.036640316 -0.009811777 -0.043430462 0.18282248 0.09566844 -0.030586291 0.16540937 -0.03206633
0.1092983 0.123438306 0.022639668 0.024587978 0.09632828 0.14008738 0.01712967 -0.03645565
-0.007071774 0.016098594 -0.056449525 -0.067923315 -0.05646175 0.1881795 -0.059802037 -0.01306481
-0.034475602 -0.013541853 0.053035703 0.047696285 -0.019143866 -0.026746733 -0.03202587 0.07337016

dense_15/bias f4 [40]
00000000: 5a61 de3c fc59 06bc 1f1c 9fbd 2e35 00be
00000010: e5cf 7abc 9ac8 f53b f3ee 633d 55a4 3b3d
00000020: aded 8b3d 55ab 913d 60bc 143d 0258 213e
00000030: 1b06 393d 0431 debb b150 583c 53d4 17bd
00000040: 8b09 d2bd 3580 b73c 3394 873e a38f 95bc
00000050: dcd1 43bd 5b74 2cbc c9d2 c13c c1ad 3b3e
00000060: ffa7 7c3c 330c 9cbd ac5b e5bc a5c0 453e
00000070: 3a64 70bc c9a2 05be 5c15 383c e675 1c3d
00000080: 11e7 47bd d58d 783e 96fa 893d 631e 3f37
00000090: 4cfc 703d 0a24 ba3d c051 733d c421 a7bd
0.02714603 -0.008200165 -0.077690355 -0.12520286 -0.015308355 0.00750072 0.0556478 0.045811016
0.068324424 0.07112757 0.03631246 0.15756229 0.04517184 -0.0067807455 0.013202832 -0.037067723
-0.102557264 0.022400001 0.26480255 -0.018256968 -0.04780756 -0.010525788 0.02366008 0.18328
0.015420913 -0.07619514 -0.027997814 0.1931177 -0.014672333 -0.13050379 0.011235561 0.038198374
-0.048804346 0.24272855 0.067372486 1.1391562e-05 0.05883436 0.09088905 0.059404135 -0.08160737

dense_14/bias f4 [45]
00000000: ad66 393e d1f3 8b3d b268 813d 8066 81b9
00000010: 1aaa 03bb 90db 95bb 609d 043b 4da7 a0ba
00000020: b8c6 d2ba da58 d53a 4c6a 2dbb ac23 e1ba
00000030: 8a9a 053f 1f15 1bbe ddf0 b4bc 9c8e 573e
00000040: 2dce 94bc ecf0 0b3d 56c9 c5bb c430 efba
00000050: bc23 123b 9248 81ba 5013 d1bb ebb6 ff3b
00000060: 6528 f0bb e5a6 1c3c d9bb 99ba 2c75 fcbd
00000070: ea27 9f3e 8dac 92bc 40dd 123e 35e6 e2ba
00000080: a2a7 01bd 6e2a 4bbb 33aa e33a 4874 d9bb
00000090: 6bb0 23ba 266c e03b 76fe 5dba e273 bfba
000000a0: 833f 813b 56a8 433b e313 80bd 6113 3fbd
000000b0: d802 933e
0.18105574 0.06833614 0.06318797 -0.00024681166 -0.0020090402 -0.004573293 0.0020235404 -0.0012256891
-0.0016080951 0.001627709 -0.0026461063 -0.0017176769 0.5218893 -0.15144776 -0.022087509 0.21050495
-0.018164719 0.034165308 -0.006035964 -0.0018248786 0.0022299131 -0.0009863547 -0.006380476 0.007803788
-0.007329034 0.009561275 -0.0011728957 -0.12327036 0.3108514 -0.017904544 0.14342213 -0.0017311039
-0.031654008 -0.0031000632 0.0017369449 -0.0066361763 -0.0006244245 0.00684883 -0.00084683986 -0.0014606679
0.0039443388 0.0029854975 -0.06253793 -0.04664934 0.28713107

dense_13/bias f4 [40]
00000000: dc97 29bd 5bfe e93c 04d7 4f3c 5cfa 13bd
00000010: 110d 05bd 36a8 76bc 4d85 cebd 1973 363e
00000020: 937b 4e3d f731 58bd 8a50 4cba 9b2e f2bc
00000030: 48a3 3e3e b7cc 1cbd 34f2 4abd 4759 92bd
00000040: 5ae6 09bd a211 a8bc 18f7 bb3d 4b59 123e
00000050: b7f8 3fbd b44a a23d 4bcb 443e a10d b23d
00000060: d029 c3bc df22 bcbc 198b a63d 08b4 4c3e
00000070: ed90 8ebd 15b7 603c ba5c 34bd ec12 be3d
00000080: dc93 3cbe a4cb 1fbd 6c03 58bd 1e0b 64bd
00000090: f151 87bb 99c4 b7ba 1e0f 653d 43fa a3bc
-0.04140459 0.028563669 0.012685541 -0.036127433 -0.032483164 -0.015054753 -0.10084019 0.17817344
0.05041082 -0.052782025 -0.00077939837 -0.029563239 0.18616974 -0.03828117 -0.04954739 -0.071459346
-0.033666946 -0.02051622 0.09177989 0.14291875 -0.046868052 0.07924405 0.19218175 0.08694006
-0.023823649 -0.022965847 0.081319995 0.19990551 -0.06961236 0.013715525 -0.044033743 0.09280953
-0.18415779 -0.039012566 -0.05273764 -0.055674665 -0.004129641 -0.0014020383 0.05592262 -0.020016795

dense_12/bias f4 [40]
00000000: 75ec 743d 3657 28bd 67ac 2cbd 6030 413e
00000010: 7493 783d 6398 25bd 02fb 98bd 9f5b 76bd
00000020: 48b8 3ebd 4c84 b7bc 7c2c 09bd a328 82bd
00000030: bd28 80bd 71bc 50bd 9bdb bfbc 7016 7cbd
00000040: b8c7 4f3c d263 55bd 6220 973b ce94 b73d
00000050: f254 41bb b46a bfbc 74e8 02bc 95ad 263d
00000060: c8f5 a93d 52d9 b53d c4c4 63bd 2d2a a23c
00000070: bb85 8dbc c340 223e 8dbc f13c 6dcc ca3c
00000080: 0626 01bd 0140 15bd ffed 3e3d d813 993e
00000090: 1285 5ebd 8495 afbd 8e5f 95bc b367 663e
0.059795815 -0.041098796 -0.042156603 0.1886611 0.060687497 -0.04042853 -0.07469751 -0.06014597
-0.046562463 -0.022401951 -0.03348969 -0.06355407 -0.0625777 -0.05096096 -0.023420146 -0.061544836
0.012681894 -0.05209715 0.0046120146 0.08963929 -0.0029500094 -0.02336631 -0.007989991 0.040692884
0.08298832 0.08879341 -0.055607572 0.019795502 -0.017275682 0.15845017 0.029508853 0.024755681
-0.031530403 -0.036437992 0.04661369 0.29897952 -0.054326124 -0.0857344 -0.01823404 0.22500496

dense_11/bias f4 [40]
00000000: a576 033e 29e8 743d 2a66 153e ccc1 47bd
00000010: bad1 0bbd c592 b63c 7c15 9a3d 874a 3f3d
00000020: 2fb3 043d 1654 723d 7e73 a43d 9201 d5ba
00000030: 6e1b 373e 2dbf 3a3e 1a4f 1e3d df15 493e
00000040: c94d 943c b814 06bd 9258 3a3d 3cd5 4c3e
00000050: 5d96 9cbc 16dd 17bd 4337 26bd d901 953c
00000060: 35e2 093e 84db be3d 7e96 723e e700 99bd
00000070: b5a9 e1bc 572c 59bd 5b55 1b3d 180d 9cbd
00000080: c9a5 a2bc f889 7e3d f21e ce3d 3e15 453d
00000090: 42cd febd adb7 653d 6b66 16bc 419c 39bd
0.12838228 0.059791718 0.14589754 -0.048768803 -0.034135558 0.022286782 0.07523629 0.046701934
0.032397445 0.05916222 0.08029841 -0.0016251078 0.17881557 0.1823699 0.038649656 0.1963725
0.018103497 -0.032734603 0.045494623 0.20003217 -0.019114668 -0.03707608 -0.040580045 0.018189358
0.13465197 0.09319213 0.2369022 -0.07470875 -0.027546743 -0.0530208 0.0379232 -0.07619685
-0.019854443 0.062143296 0.10064496 0.04811596 -0.124414936 0.05608337 -0.009179692 -0.04531503

dense_10/bias f4 [45]
00000000: 4a40 1e3e 2cd2 dc3d a1fc 9b3d fc6a 89ba
00000010: 3213 a73b 1a15 e73a 9fa2 33ba 703d 1abb
00000020: 4e8f abba 393d 553b 83f2 c7ba 5853 373b
00000030: 0c5f e93e 8b1e 1ebc 36c7 c4bc c044 253e
00000040: e3ea c7bd ec3f ae3d 60cd b6ba 390b 0f3b
00000050: e081 a2bb 4548 08bc 422a 06bc 4624 633b
00000060: 757d 09bc ec72 093c b0b1 c9bb 93e6 dbbc
00000070: 4dfc f13d 1f6b 5ebd 585e 3f3e 0d9e 743d
00000080: d656 0ebe 4d7d 1b3c cfd7 95ba b40f 5fbc
00000090: da60 843b a610 b4bb 04d8 9cba fa97 0cbc
000000a0: 06bd fbb9 9fa7 d63b c4e3 abbd 911a aebd
000000b0: ca1a 9a3e
0.15454212 0.107822746 0.076165445 -0.0010484154 0.005098724 0.001763019 -0.00068525405 -0.0023535155
-0.0013088973 0.0032537712 -0.0015254769 0.002797326 0.45580328 -0.009650837 -0.024020772 0.16139507
-0.09761598 0.08508286 -0.0013946705 0.0021826758 -0.00495933 -0.008318012 -0.008188786 0.0034659072
-0.008391728 0.008389216 -0.006155215 -0.026843345 0.11815701 -0.054301377 0.18688333 0.05972104
-0.13900313 0.009490323 -0.0011432114 -0.013614584 0.004039866 -0.0054951487 -0.0011966233 -0.008581156
-0.00048015284 0.0065507437 -0.08393052 -0.08501161 0.30098563

dense_1/bias f4 [40]
00000000: fd64 e03b 2a05 1f3d 3692 07bd 9e13 cabc
00000010: 9a4e 9dbc f935 a13d b8b6 50bd aed3 193d
00000020: f5e7 c83d c2f3 393e 8fcd b13d 3562 dcbb
00000030: 04bf 75bc 4e25 023e ff54 513d cbd7 f1bc
00000040: 658a c5bd 2163 99bd 09ce 82bc 459a 34bd
00000050: 2bbd 073e 8096 f1bc 02ed 95bd 3495 44bc
00000060: ba54 e63c f84e 33bd c81f 3e3d a2a2 0abd
00000070: 98c4 a83b cbd3 823c 3710 cb3c ef40 973d
00000080: 337f 263d edac 553d e9cb dc3d 5ad8 5fbe
00000090: f31a 88bd 3d2f 74bd 2e1e b9bd c49f 6ebc
0.0068479762 0.038823284 -0.033098422 -0.024667557 -0.01920252 0.078716226 -0.050955504 0.03755539
0.09809867 0.18159392 0.08681785 -0.0067255744 -0.014999155 0.12709543 0.05110645 -0.029521843
-0.09645537 -0.074896105 -0.015967386 -0.044092435 0.13255756 -0.02949071 -0.07320596 -0.011998463
0.028116573 -0.043776482 0.046417028 -0.033846505 0.005150389 0.015970131 0.024788005 0.07385432
0.04064865 0.052166868 0.1078108 -0.21859875 -0.06645765 -0.059615362 -0.090389594 -0.014564458

dense/bias f4 [40]
00000000: c3df 803d 928e 2d3e 476e e6bd ecf1 be3c
00000010: d613 8bbd b03f a0bd a04d f6bc bed2 10bd
00000020: c69d f0bc 98cb 1e3d a25e 113d 2976 03be
00000030: bc82 25bc 178e 7c3d 5df2 0bbd 1c52 9b3d
00000040: 3fde a1bd e47a 0bbd 35dd 10bd 2aa3 d8bc
00000050: 4595 59be b3df e7bb a619 273d d514 2f3e
00000060: 0dc1 aa3d c5ec febc c208 b6bd 2070 6f3d
00000070: 5af2 49bd 2b90 333e 2892 30be c436 71bd
00000080: a01f c83d e528 85bd d7e6 963d 877b 41bd
00000090: d1d9 003e d0fe 3cbe b970 e4bd e116 d93d
0.06292679 0.16948918 -0.112515025 0.023308717 -0.06790893 -0.078246474 -0.030066311 -0.03535723
-0.029372107 0.03876838 0.03549064 -0.12838043 -0.01010197 0.061658945 -0.034166683 0.075840205
-0.07903718 -0.034052745 -0.03536721 -0.02644499 -0.21248348 -0.0070762276 0.040795945 0.1709779
0.08337603 -0.03111876 -0.08888389 0.05845654 -0.04930339 0.17535464 -0.17243254 -0.05889012
0.09771657 -0.06501941 0.07368248 -0.047236945 0.1258309 -0.18456578 -0.11154313 0.10600067

bias/bias f4 [15]
00000000: 4c35 c43d 166d b2bd 0e19 dabd a1ac 1f3e
00000010: 695c 26be 9642 03be 5822 583e 52f1 f1bd
00000020: 653d 12be 4337 453e 86c4 babd 5937 d0bd
00000030: 86b2 243e 2c88 eabd a400 acbd
0.09580478 -0.08712213 -0.1064931 0.15593196 -0.16246189 -0.1281837 0.21106851 -0.11813606
-0.14281233 0.19259362 -0.09119515 -0.10166807 0.16083726 -0.11451754 -0.0839856

model_1/dense_11/MatMul f4 [40, 15]
00000000: f57f fc3b 3471 14ba 7cdd 68bb c063 a9be
00000010: 9170 7b3e e6eb 3c3c 613f f73b 858a fbbb
00000020: 45f3 293b 70ee 9539 629b 95bd 9f8f 743a
00000030: 614d 273d 284c 8bba b2ec d4b9 785f ad3d
00000040: 725a f03a a7c1 6dba 6596 04be dc59 81bb
00000050: bf47 093d 26d2 acb9 142a fbb8 eef8 d0ba
00000060: ce8f 34bd bb5a bc3a bbc3 a5b9 d355 953b
00000070: a808 c2bb c545 63ba e9f2 1e3a ccc1 0038
00000080: f8a1 01bd 4332 bdbd 54bf e4ba 30b7 023d
00000090: 5593 15ba f673 07ba dd66 9c3a f6ce dd39
000000a0: 7ec5 f0ba 7b62 833a c83c 1c3a d8e2 b4b9
000000b0: a02c 10ba 8c18 80bc 8852 76bc cd72 dd3c
000000c0: 58c0 4fb8 ceb8 fbb6 8468 47b6 8e83 d3b6
000000d0: 5405 5f36 d39e 0038 908e edb6 1ad7 09b7
000000e0: 680c dbb7 91d5 53b7 4281 17b8 b70d a436
000000f0: 8972 84b9 5924 2b3a 8618 1aba 343c 2ab9
00000100: 0ea0 c5b9 a1c1 12bc c7fc 19bc 9eb0 013d
00000110: 1277 adba 329e ac3a 0ab1 9ab8 eee2 64b8
00000120: 6f58 9c3a 2122 8bba 1994 2db9 9df3 c4bb
00000130: b185 9a3d ac08 22bb b4d3 b1bb ced5 643c
00000140: 5ba5 dcbe 347a 143d 6566 fd3b 7df2 7fba
00000150: 8339 9d3b 97c8 b0bb 37ac 5ebb 0f7b 15bb
00000160: 5113 343b 70ba 013a 024f dfbc 16a4 093e
00000170: 102a 79ba 48ec 013b bf43 9e3b 2341 3ebd
00000180: 7a98 71b9 8601 1a3c b4ca 5abc 6122 25be
00000190: c588 57bb 7c39 223b b0fa 18bb 6916 753b
000001a0: 25c4 16bb 4fe8 a93d 244e b2ba b189 e53d
000001b0: fe77 b2bd e8a5 db3d d418 3fbe 44d1 863a
000001c0: a727 8ebb 8489 053b 520d aebb 978d 8f3b
000001d0: a83e 293b ec71 dbbb 7d20 803b c10e 843d
000001e0: eb0c 273e eb17 d0bb a7bf 62bd 69e6 093e
000001f0: 5d14 f13c 903c 54bf 0997 283b 97dd 5a3d
00000200: 534c cc3c 5577 9ebd 517d 223c 8e3e 53bb
00000210: dd3f ee3b c503 473c 4675 0abd 8837 1a3e
00000220: 4a6d 1f3e 1a4d f23c 554a ca3d 40e3 2b3e
00000230: 83b7 2ebf 31d5 d13d 6f3a 3abc 6f65 3fbc
00000240: ff9e 033e 2bc2 1e3e ca55 153e db09 1e3d
00000250: 8f25 a43b f774 283b 029e cfbd 8920 833e
00000260: 3433 d53d 280f 90ba 1b4d 413e c8df 893a
00000270: ecca d0bb c537 e83b f003 813d 0cf6 09bc
00000280: b3b7 6abd 2a77 6fbd 727c 51bd debe d83a
00000290: a6c9 d23b 413d 59b7 8f43 89b9 b54e 5638
000002a0: 22f4 83b6 28a4 b838 9f83 963b 24d8 deb7
000002b0: fda4 2d38 b5bc 5e37 d1a1 9937 c848 09b8
000002c0: a7cb 2139 64e7 88b8 6785 1e39 f54a c6b8
000002d0: 805d 473e 35f9 d93c 7a12 c83a 9386 123c
000002e0: efc3 babe 7a82 b1ba 36d1 85ba 3642 ceba
000002f0: 395e b23d 720c b838 5e79 a2b9 579f 35bd
00000300: 55a8 5c3b 0411 95bb bc4e 36ba 724b 383e
00000310: 3445 843d d101 1c3e 8b31 2e3c e5ce edbe
00000320: 1d94 5e3d 7b6f efbb 3f5e a53b c57c 6fbd
00000330: 38f3 1bbd 96e3 a5bd d358 36bd 2148 e13b
00000340: 3e2e b1bb de1b 84bc 025f 0cbb 1656 dc3c
00000350: f4ff af3d eb3e 97ba 3a30 aab8 b459 98bd
00000360: ceb9 f83c 4e10 eabd 9f86 aa3a 0e5e b6b9
00000370: f587 45bb 743d 5c39 77e0 01bb 143a 3dbc
00000380: 55a9 353b 3518 873d afe5 373e d36f ed3c
00000390: 6b95 aa3d d26b 4bbf 3f75 583d e0e6 16bd
000003a0: 6b91 93bd ad6d 75bd 7ec7 96bc d658 a83c
000003b0: ffcb d33b 170e 473b 8ac1 353c e8f4 c0bb
000003c0: 733e 1d3b c4b5 1f39 d4e7 9cb9 083c b13a
000003d0: 9c18 06bc dd80 c1ba 20a2 023b e55d 923c
000003e0: 0d34 b5bd ac29 b7ba 8c95 2a3b c44b 1eb9
000003f0: 12ed 213b dd83 8ebd 4d6c 003e bfe9 12bc
0.0077056834 -0.00056626205 -0.0035532406 -0.33083916 0.2455466 0.011530852 0.007545397 -0.007676425
0.0025932353 0.00028597144 -0.073050275 0.00093292625 0.04084528 -0.0010627555 -0.00040612143 0.08465475
0.0018337502 -0.0009069689 -0.12947996 -0.0039474797 0.033515688 -0.0003296297 -0.0001197645 -0.0015943327
-0.044082455 0.0014370302 -0.00031617083 0.00455735 -0.005921442 -0.0008669759 0.0006063418 3.0698066e-05
-0.031648606 -0.09238102 -0.001745204 0.031912982 -0.0005705853 -0.0005167121 0.0011932511 0.00042306603
-0.0018369404 0.0010023856 0.0005959985 -0.00034501287 -0.00054998137 -0.015636705 -0.015034325 0.02703228
-4.953178e-05 -7.501897e-06 -2.9714147e-06 -6.303605e-06 3.323269e-06 3.0665495e-05 -7.079747e-06 -8.215919e-06
-2.6112612e-05 -1.2626305e-05 -3.6121586e-05 4.8891775e-06 -0.00025262337 0.00065285485 -0.0005878288 -0.00016234891
-0.00037694018 -0.008957298 -0.009398646 0.031662576 -0.0013234338 0.0013169704 -7.376268e-05 -5.457078e-05
0.0011928211 -0.001061503 -0.00016553736 -0.0060104863 0.07545031 -0.0024724407 -0.0054268483 0.013966991
-0.43094906 0.036249354 0.0077331536 -0.00097636116 0.0047981157 -0.005395006 -0.003397716 -0.0022808944
0.0027477334 0.0004948741 -0.027259354 0.134415 -0.0009504864 0.0019824672 0.0048298533 -0.046448838
-0.00023040353 0.009399777 -0.013353992 -0.16126396 -0.0032887917 0.0024753502 -0.002334278 0.003739739
-0.0023005095 0.082962625 -0.001360361 0.11207903 -0.08714293 0.107250035 -0.18661815 0.0010285755
-0.004338223 0.0020376155 -0.0053116465 0.0043808925 0.00258247 -0.00669693 0.003910123 0.064481266
0.16313522 -0.0063505075 -0.055358555 0.13466801 0.029428655 -0.8290491 0.002572479 0.05343398
0.024938738 -0.077376045 0.009917573 -0.003223333 0.0072707967 0.012146895 -0.033803247 0.15060246
0.15569034 0.02957778 0.09877459 0.16785908 -0.68248767 0.10245741 -0.011366471 -0.0116818985
0.12853621 0.15503757 0.14583507 0.038583618 0.00500936 0.0025704482 -0.101375595 0.2561076
0.10410157 -0.0010990845 0.1887707 0.0010518963 -0.0063718464 0.0070867264 0.06299579 -0.008420479
-0.057304095 -0.058463253 -0.05114407 0.0016536375 0.00643273 -1.294847e-05 -0.0002618101 5.1094878e-05
-3.932525e-06 8.80438e-05 0.004593327 -2.656511e-05 4.140007e-05 1.3276168e-05 1.8314373e-05 -3.2731128e-05
0.00015430023 -6.528085e-05 0.0001511775 -9.4553376e-05 0.19469261 0.026608089 0.0015264296 0.008943218
-0.3647761 -0.0013542913 -0.0010209444 -0.0015736285 0.08709378 8.776122e-05 -0.00030989473 -0.04434141
0.003366967 -0.0045491476 -0.00069544814 0.1799753 0.06458512 0.15235068 0.010631929 -0.4644691
0.05434047 -0.0073069907 0.0050466354 -0.0584686 -0.03807375 -0.08100049 -0.044518303 0.0068750535
-0.005407124 -0.01612657 -0.0021418934 0.026896518 0.08593741 -0.0011539137 -8.1152146e-05 -0.074389845
0.030362036 -0.11428891 0.0013010091 -0.0003478382 -0.003014085 0.00021003728 -0.001981763 -0.011549491
0.0027719338 0.06596414 0.17958711 0.028983986 0.083292805 -0.79461396 0.05284619 -0.036841273
-0.07205471 -0.059919048 -0.018405672 0.020550173 0.006463527 0.0030373388 0.011093507 -0.00588857
0.0023993521 0.00015231135 -0.00029927364 0.0013521919 -0.008184578 -0.0014763136 0.001993306 0.017867038
-0.088478185 -0.0013974211 0.0026029078 -0.00015096279 0.0024707955 -0.06958745 0.12541313 -0.008966862

model_1/dense_12/MatMul f4 [40, 40]
00000000: 9207 56b9 8f80 cb37 1aaf 0eb9 081b 0b3c
00000010: fc12 6637 02b8 05b9 fb6b 91b8 2989 47b8
00000020: 5006 293a e1aa f838 d08d acb8 f0f9 3a36
00000030: 86da 0438 0692 afb9 a357 bfb8 be4c 80b8
00000040: a778 4338 1f4a 5638 9127 6ab8 a80a 8fb8
00000050: 0edf 2bb8 8693 1fb7 2a5e f337 a0ee bcb8
00000060: 083e 88b8 feb1 6237 da70 28ba cd2c e1b8
00000070: 8076 2735 9616 d8b7 ade2 91b8 67f5 6637
00000080: e6c3 42b8 264a 08b9 e9b5 9839 c89e 95b8
00000090: 0ad8 8fbd 50c7 84b7 0d41 0b38 2914 f6b8
000000a0: 8be6 21b7 c08e 8336 e0b5 0038 2905 0837
000000b0: 9e52 ae38 ea9a ccb8 305c 0036 66b7 1bb7
000000c0: 20e2 7038 8a70 f137 e572 29b7 1cca 4338
000000d0: e0d0 0537 877f 09b9 c286 e637 00cb 0337
000000e0: f979 4cb7 86ef 2bb7 40f4 96b7 054d d8b6
000000f0: 8770 45b7 0227 a0b8 5030 bbb6 34bc c737
00000100: 1a29 5238 c4ac 9fb8 25a9 09b7 f76e a037
00000110: f4b1 27b8 c09a 16b5 4d25 f037 576e 7637
00000120: 9092 1c38 fdf4 e3b8 4a29 dcb7 514d 16b7
00000130: 0cde 50b7 2ee1 4eb8 30f2 6335 fb5d 2538
00000140: ee54 0438 a4c0 0637 429d d8b7 1294 df37
00000150: 58a4 70b7 6a5d 9e37 713f 8638 28f6 81b6
00000160: 027c 1237 661e 67b7 b492 0ab8 fee6 a9b8
00000170: 4458 53b7 a84b 77b8 a03f 4037 041d 52b7
00000180: db73 24b8 2c71 1a38 4cf8 deb7 a528 a538
00000190: 89e3 cbb7 8978 b338 580c 91b8 ac59 a936
000001a0: 9c15 30b7 4a9c ce36 3e1d 2e38 147c 6a3d
000001b0: e42a 83b7 3073 bcb7 db4a 56b7 d943 3238
000001c0: b460 84b7 18c1 2e38 3841 b5b6 d05a e2b6
000001d0: 75d1 b9b7 2c20 7938 6202 cc37 58a3 c9b5
000001e0: c81b 7dbd 54e2 893a fe5f ee3a a83e fb36
000001f0: 601e 2fb6 cb63 c43c d0fc 9a3b 6ad3 a1ba
00000200: b479 3cb9 815e e13a 185e f93b 3c99 8f37
00000210: 3e18 003b 8a8a 733b fd30 83ba 3466 963b
00000220: acad e138 b0ba d4b6 f3c6 e13a f66f a43d
00000230: 5bae 9c3a e00f 90b8 c84d bbb7 1406 19be
00000240: df51 feba f07d bd3a 5b8c 03bb ddcd 043d
00000250: 5557 21bd 444f 6a37 0e21 2339 5e44 5eba
00000260: 5368 fe3a 641d df3a f269 3f3b 21c1 bd3a
00000270: 528e 3a3e 4696 a63a d451 263b 11c0 6839
00000280: 1e4f 87ba e861 b439 835d 4d3a 3df7 96b7
00000290: c1ee b739 dc9e 96bb 7ed2 2abb 8782 2fbe
000002a0: 7ada b13d 2232 83bc 5f67 92bb cb18 88b8
000002b0: 5de0 f73a c80f 3bbb 9738 29bc 04f3 97ba
000002c0: bcf1 e5bb fb33 ecb7 6ccd 5cbd 82d8 8fbe
000002d0: d6e6 0e3a 48f1 c4bb 1030 acb5 7111 e3bb
000002e0: 719e 4dbc 880c 7d38 5209 0d3b 5e10 31bc
000002f0: ca5f b1bb f4c4 c937 500f 02b9 8f31 f2bd
00000300: 6240 ec3d b531 70be b949 293e 6cd0 f6bb
00000310: f724 ba3b 8264 a6bd ebff 993a 36ac 793a
00000320: d57a 63b7 00c0 44b2 52ed c738 ae91 0cb8
00000330: b722 ac38 4c15 1638 ba0e 00b7 2f90 0db8
00000340: 1be4 fa37 405b bfb5 5d2c 7d36 6c15 cdb7
00000350: d40c 59b7 bcd7 a637 30f1 9d35 6062 5eb5
00000360: 5458 9b36 1253 7fb8 58fc 64b8 20d4 e636
00000370: 1f82 0f38 b060 f135 7a3b eab7 4143 ab37
00000380: 64a6 38b8 c57f 17b8 d011 4836 1c18 bfb7
00000390: eb9c a937 1050 b4b7 5c50 1b38 4045 09b7
000003a0: 7313 44b7 9c5f f036 a059 97b5 20a9 9536
000003b0: 9efd 1238 c867 b7b7 7eb3 6338 a56d 6d38
000003c0: 6e83 57b8 6423 3a37 2ceb 0638 d5a3 f236
000003d0: 413d adb8 a26d 1bb8 f0b1 18b6 da94 ca37
000003e0: 9e80 f435 d95d e937 dcb7 ae35 94bb b738
000003f0: 01fc c537 3b02 6cb8 6889 f3b7 6d6d 9cb8
-0.0002041145 2.425935e-05 -0.00013607406 0.0084903315 1.3713488e-05 -0.00012752417 -6.934252e-05 -4.7573038e-05
0.0006447779 0.0001185739 -8.228014e-05 2.7861643e-06 3.167477e-05 -0.00033487397 -9.123913e-05 -6.11781e-05
4.660399e-05 5.1090607e-05 -5.5826797e-05 -6.820756e-05 -4.0977313e-05 -9.5114865e-06 2.9011706e-05 -9.008986e-05
-6.4965396e-05 1.3512092e-05 -0.00064255076 -0.00010737181 6.238479e-07 -2.5759724e-05 -6.9563604e-05 1.37662055e-05
-4.643565e-05 -0.00012997593 0.00029127233 -7.134449e-05 -0.07023628 -1.5828438e-05 3.3200766e-05 -0.00011733949
-9.650025e-06 3.9207225e-06 3.0686962e-05 8.107433e-06 8.312355e-05 -9.756333e-05 1.9127147e-06 -9.281421e-06
5.7431054e-05 2.8781844e-05 -1.0099936e-05 4.6679852e-05 7.97605e-06 -0.00013112846 2.7480888e-05 7.855473e-06
-1.21877465e-05 -1.0248163e-05 -1.7995131e-05 -6.446268e-06 -1.1768315e-05 -7.63666e-05 -5.5786586e-06 2.3810288e-05
5.010618e-05 -7.613891e-05 -8.205218e-06 1.9125158e-05 -3.9981634e-05 -5.6104545e-07 2.8627599e-05 1.4688433e-05
3.7329795e-05 -0.00010869836 -2.624527e-05 -8.958698e-06 -1.2449465e-05 -4.9323942e-05 8.491652e-07 3.942659e-05
3.155035e-05 8.031875e-06 -2.5822435e-05 2.6652622e-05 -1.4343379e-05 1.8878567e-05 6.401435e-05 -3.873156e-06
8.731151e-06 -1.3775751e-05 -3.3038392e-05 -8.1015736e-05 -1.2597131e-05 -5.895985e-05 1.1458906e-05 -1.2523731e-05
-3.9208546e-05 3.682186e-05 -2.6580085e-05 7.875384e-05 -2.430544e-05 8.5578366e-05 -6.916438e-05 5.0470317e-06
-1.0495449e-05 6.157473e-06 4.1512067e-05 0.057247236 -1.563639e-05 -2.2464985e-05 -1.2772823e-05 4.2501695e-05
-1.5780657e-05 4.1664665e-05 -5.401813e-06 -6.745897e-06 -2.2151255e-05 5.939619e-05 2.4319805e-05 -1.5023206e-06
-0.061794072 0.0010519722 0.0018186567 7.487677e-06 -2.6094713e-06 0.023973366 0.0047298446 -0.0012346331
-0.00017974415 0.0017194302 0.007610094 1.7118284e-05 0.00195457 0.0037161433 -0.0010009106 0.0045898203
0.00010761185 -6.3398256e-06 0.0017225429 0.08029167 0.0011953817 -6.869412e-05 -2.2328357e-05 -0.14943725
-0.0019403062 0.0014457088 -0.0020072672 0.03242289 -0.039389927 1.3965942e-05 0.00015557205 -0.00084788154
0.0019409753 0.0017022309 0.0029207435 0.0014477113 0.18218353 0.001270958 0.0025378363 0.00022196794
-0.0010323261 0.0003440522 0.0007834064 -1.7996523e-05 0.00035082366 -0.004596574 -0.0026065405 -0.17139636
0.08684249 -0.016015116 -0.004467889 -6.4896034e-05 0.001891147 -0.0028543342 -0.0103284335 -0.001159281
-0.0070173424 -2.8157598e-05 -0.053906843 -0.2809487 0.00054512674 -0.0060102083 -1.2828987e-06 -0.0069295694
-0.012549982 6.033157e-05 0.0021520448 -0.010807125 -0.0054130303 2.405278e-05 -0.0001240347 -0.11825859
0.115357175 -0.23456462 0.16532029 -0.00753217 0.005680676 -0.08124639 0.0011749243 0.00095242576
-1.3558853e-05 -1.1452357e-08 9.533264e-05 -3.3514276e-05 8.208065e-05 3.578262e-05 -7.632823e-06 -3.37513e-05
2.9908542e-05 -1.4257166e-06 3.772576e-06 -2.444788e-05 -1.2937195e-05 1.9889201e-05 1.1767606e-06 -8.28446e-07
4.6296427e-06 -6.0874103e-05 -5.459445e-05 6.8792287e-06 3.421504e-05 1.7984039e-06 -2.792267e-05 2.0416106e-05
-4.4023982e-05 -3.61202e-05 2.981269e-06 -2.2780201e-05 2.021944e-05 -2.1494954e-05 3.702972e-05 -8.18196e-06
-1.1687039e-05 7.1636878e-06 -1.1276461e-06 4.460235e-06 3.5045312e-05 -2.1863627e-05 5.4288183e-05 5.6607318e-05
-5.1382398e-05 1.1094704e-05 3.216711e-05 7.2312346e-06 -8.260692e-05 -3.7056983e-05 -2.2753338e-06 2.414959e-05
1.8216849e-06 2.7819466e-05 1.301752e-06 8.761059e-05 2.3601579e-05 -5.6268862e-05 -2.9031842e-05 -7.459042e-05

model_1/dense_13/MatMul f4 [40, 40]
00000000: 7847 5bb8 88c4 9d39 7bcc 8f38 c93b 0339
00000010: beb5 8db8 c2b3 59b9 9e0d 2f39 2e2d abb9
00000020: b681 2cb9 a2e9 04b8 7c94 9a39 556d 80b8
00000030: 0eff 1738 1d0d 40b9 a06a 5338 f9c5 63b8
00000040: f823 b8b7 4043 5e38 831f fcb9 7de1 88b9
00000050: 0a49 6338 4e89 1ab8 8ca9 dbb6 486c 09b8
00000060: 6914 1b38 14ac 0238 ed88 18b9 de66 0938
00000070: 4094 22b8 0b06 db37 8869 b138 1066 8439
00000080: a287 afb8 a121 a9b7 7db2 4cb8 0e08 0b38
00000090: dfa3 163a 0c8b 1439 50c9 87b7 c078 b7b5
000000a0: cd7e 893a 1055 7ab6 f72b bab7 fcd4 fe3a
000000b0: fe4d 113c dcbc 13b9 5de0 06b9 f081 6c37
000000c0: 7bba ef37 b65e 113b a691 e437 4dd5 7139
000000d0: 6670 8938 0cf2 b036 f2ef 5239 9069 8ab9
000000e0: f854 003a 5c0a af36 8c50 beb9 15a4 1d3b
000000f0: 9a07 8a39 1135 5abb e68f fa38 243b 7b3b
00000100: 0b51 293e fc45 a9be 92be 8138 05a9 b4be
00000110: 38f0 17b7 f408 ac3a 7504 8bb9 113d 1e3b
00000120: 644f 8136 f823 b436 8fd8 1a3e ee0e a63b
00000130: 2aee 6039 7d90 7537 9e4d 7fb8 71da 5abe
00000140: f8b1 4139 4041 0936 fd2f 83b8 7272 d339
00000150: 6c27 263b e2dd 3838 c5d8 8138 dad8 8bb7
00000160: 63fe 50b8 37ef bf3a 1422 dc38 6e3b b03a
00000170: 88a6 3c37 a813 8639 d40f 363a 9d29 6ab9
00000180: 8486 4c39 0487 5037 f865 d138 70c7 1b39
00000190: 2138 4b3a 0ec9 5f3b 3e3e 8d3c 899c 033d
000001a0: c145 d5bd 8c89 5a3e ae39 cfb8 3ef7 bebd
000001b0: 7d9a 1bb8 31b6 453d 2813 bc39 58d1 3bbe
000001c0: c68e 8fb7 d8df 2ab7 db5f c2bc 582a 7c3a
000001d0: ad0f 7a38 9a9f 2eb6 aa36 7137 7505 143e
000001e0: 3cc0 3237 86d0 0838 28b6 84b6 d6ec f136
000001f0: da5f 1538 72ca c5b7 72ef 1d38 4add 9937
00000200: 1e6c 4338 17da 3b3d d396 1238 c440 edb5
00000210: 709d 04b7 5e3f eb37 9258 35b8 efc4 3eb9
00000220: 2d4f 4038 8afe aab5 2a2f 4d37 bacb 01b6
00000230: 7509 fe36 4d9e 5f37 53a2 8737 b8fa 8abd
00000240: b49a d036 bf96 d83c f457 83b8 9bf3 4437
00000250: 3242 b138 9c7e 2cb6 28b9 dcb7 51b1 efb7
00000260: ebf0 55b7 e962 8b38 98cf 84b4 a3a8 543b
00000270: ffa1 71b9 1eb4 5db8 3492 3737 6c17 8d37
00000280: 31a3 02b9 33ae 3438 8aba 6838 025f dc37
00000290: 0364 50b8 f295 a5b8 d9f9 49b9 2c8f 8c36
000002a0: 923e 5eb9 e08b a5b5 c508 c538 844c 3538
000002b0: 3698 1bb9 2059 a6b6 e073 f4b7 b257 2639
000002c0: 205c e8b8 6004 ab36 44e1 0f38 6d54 8eb9
000002d0: 3ed2 2539 643d 2db7 94cf 1ab8 630b 71b8
000002e0: 73d1 1139 ea8d 1a38 06de 40b9 41e2 d1b8
000002f0: 99b9 02b9 f28a 8138 60ee 9338 94df c4b7
00000300: c02a 6db7 3bdb 3038 9850 9936 9c24 6bb9
00000310: 0e87 f738 99af 3ab9 d800 1537 e40e c1b7
00000320: 2082 9a38 707d ec37 5cca 8f39 81c9 3139
00000330: 12c5 75b8 caf1 1f39 8689 ed39 80ee e6b6
00000340: 78fa 67b7 46f9 04b9 1e88 0639 5a3e 1db8
00000350: 6089 ab38 7230 1338 061e b2b8 300e 85b9
00000360: 8098 bb34 1e85 b739 68be 2eb9 f0ba 27b7
00000370: 0a9e 76b9 dc12 8e38 3bd3 a838 dcb6 f0b8
00000380: e253 0bb6 3654 4438 fc70 ed39 cd50 18b9
00000390: 4f1d aa39 2502 82b8 b6ac ffb8 c98f 5339
000003a0: 706e a1b8 cc40 6a38 1048 8c37 ba9f 50b8
000003b0: 0728 fbb8 8e81 8c38 9d62 2439 1c47 64b7
000003c0: 8450 25b9 c426 1fb7 8bf2 50b8 dae5 ad37
000003d0: 1351 deba 3084 38b6 0ebc 5838 260c b6b8
000003e0: e749 2c37 5dc9 90ba 3a14 fc37 43d4 cd3d
000003f0: d08a 2ab7 b93b c339 f99a 453a e3d5 ebb8
-5.228023e-05 0.000300918 6.856859e-05 0.00012515405 -6.757256e-05 -0.00020761698 0.00016694373 -0.00032649323
-0.0001645152 -3.168884e-05 0.00029483798 -6.12388e-05 3.6238744e-05 -0.00018315432 5.0405622e-05 -5.4305394e-05
-2.1951259e-05 5.2991556e-05 -0.00048088664 -0.00026107943 5.418904e-05 -3.6844336e-05 -6.5464465e-06 -3.276419e-05
3.697389e-05 3.1154676e-05 -0.00014546858 3.2759148e-05 -3.876188e-05 2.6109648e-05 8.4596744e-05 0.00025253044
-8.369914e-05 -2.016203e-05 -4.880362e-05 3.3147684e-05 0.00057464646 0.00014166179 -1.6186998e-05 -1.3669705e-06
0.001049006 -3.7302416e-06 -2.21934e-05 0.0019442136 0.008868692 -0.00014089368 -0.00012862818 1.409695e-05
2.8577857e-05 0.0022181696 2.724754e-05 0.00023063012 6.553605e-05 5.2733867e-06 0.00020116547 -0.0002640006
0.0004895474 5.2166124e-06 -0.00036299636 0.00240541 0.00026327075 -0.003329579 0.00011947732 0.003833481
0.16534822 -0.33061206 6.186696e-05 -0.35285202 -9.056232e-06 0.0013125227 -0.00026515467 0.0024145285
3.853742e-06 5.3686053e-06 0.15121673 0.0050676977 0.00021451028 1.4636779e-05 -6.0869024e-05 -0.21372391
0.00018472213 2.0452571e-06 -6.255505e-05 0.00040330325 0.0025353087 4.4075663e-05 6.191576e-05 -1.667107e-05
-4.982798e-05 0.0014643435 0.00010496765 0.0013445446 1.1244447e-05 0.00025573117 0.00069451076 -0.00022331481
0.00019505067 1.2429202e-05 9.98489e-05 0.00014856248 0.00077521993 0.0034146938 0.017241593 0.032131705
-0.10413695 0.21341532 -9.881273e-05 -0.093245015 -3.709876e-05 0.048269454 0.00035872427 -0.18341577
-1.7113412e-05 -1.0184907e-05 -0.023727348 0.0009619347 5.9619244e-05 -2.602092e-06 1.4377447e-05 0.14455207
1.0654385e-05 3.261913e-05 -3.9551123e-06 7.209931e-06 3.5613637e-05 -2.3578501e-05 3.7654718e-05 1.8342067e-05
4.6592315e-05 0.045862284 3.494958e-05 -1.7676725e-06 -7.904469e-06 2.804369e-05 -4.323625e-05 -0.00018193175
4.5850105e-05 -1.2740068e-06 1.2229933e-05 -1.9341082e-06 7.570891e-06 1.3328693e-05 1.6168842e-05 -0.06786102
6.216893e-06 0.026439069 -6.262949e-05 1.1739229e-05 8.4523475e-05 -2.5703694e-06 -2.6312264e-05 -2.857359e-05
-1.2751882e-05 6.64646e-05 -2.473796e-07 0.0032449148 -0.000230439 -5.2858253e-05 1.0941691e-05 1.6819416e-05
-0.0001245856 4.307758e-05 5.548684e-05 2.6270285e-05 -4.9684208e-05 -7.8957426e-05 -0.00019261929 4.1889925e-06
-0.00021194879 -1.2334167e-06 9.3953255e-05 4.3225024e-05 -0.00014838655 -4.957561e-06 -2.9141025e-05 0.00015863663
-0.00011079782 5.0967064e-06 3.430365e-05 -0.00027147253 0.00015813948 -1.0325897e-05 -3.6909783e-05 -5.7469482e-05
0.00013906304 3.684863e-05 -0.00018393257 -0.0001000804 -0.00012466907 6.17708e-05 7.053907e-05 -2.3469132e-05
-1.4136254e-05 4.2165844e-05 4.5691377e-06 -0.00022424984 0.00011803034 -0.00017803758 8.8812885e-06 -2.3014327e-05
7.36753e-05 2.8191804e-05 0.00027425855 0.00016955101 -5.8596088e-05 0.00015253495 0.00045306626 -6.882299e-06
-1.382699e-05 -0.00012681363 0.00012829943 -3.7489786e-05 8.1795035e-05 3.509265e-05 -8.493294e-05 -0.00025378307
3.4942423e-07 0.0003500366 -0.00016664865 -9.9975005e-06 -0.00023519262 6.7746005e-05 8.050209e-05 -0.00011478152
-2.076144e-06 4.680847e-05 0.00045288343 -0.0001452595 0.00032446763 -6.1992825e-05 -0.000121915175 0.00020176092
-7.697649e-05 5.5850294e-05 1.6722857e-05 -4.973982e-05 -0.00011976068 6.699852e-05 0.00015676995 -1.3606415e-05
-0.0001576562 -9.486164e-06 -4.981695e-05 2.073024e-05 -0.0016961418 -2.749508e-06 5.1673553e-05 -8.680699e-05
1.0269206e-05 -0.0011046339 3.005016e-05 0.10050251 -1.0165109e-05 0.00037237795 0.00075380463 -0.00011245513
