3tier-app/learnt_model/gcp_model/model_3tier.tflite (tflite, 142712 bytes, 48 tensors)

dense_9/bias f4 [40]
00000000: 3f8f 4dbd 392d a9bc 2030 993e 443b 953c
00000010: 35b5 7d3b 4d18 8dbc 2c18 43bd 6f76 22bd
00000020: eec0 733d 03ba 15bd 2ca4 873e 636d 0abc
00000030: 8a79 b0ba c50d 92bd d611 c4bc 571f 8bba
00000040: 1f02 a0bc e3b8 35bb fbce f9bc d65b a13d
00000050: 2331 303d a362 4bbd 0f5f f6bb 3a65 43bb
00000060: 39c6 61bd 3c1f 68bb 6de7 acbc 3010 dfbc
00000070: accd f8bc 5f42 80bd 004e 72bd b1c8 8b3b
00000080: 37b4 84bd 3c51 9eba aa27 66bd 8118 f3bc
00000090: 62fa 1abc 4543 33bd e491 ec3d ee95 29bd
-0.05018544 -0.020651447 0.2991953 0.018216737 0.0038712744 -0.017223502 -0.047630474 -0.03966373
0.059510164 -0.036554348 0.2649244 -0.008448931 -0.0013463956 -0.071315326 -0.023934286 -0.0010614198
-0.019532261 -0.002772861 -0.030494204 0.078788444 0.04301561 -0.049654614 -0.007518656 -0.0029814974
-0.05512068 -0.0035419008 -0.021106446 -0.027229398 -0.03037151 -0.06262659 -0.059156418 0.0042658676
-0.06479686 -0.0012078653 -0.05619017 -0.02967477 -0.00945911 -0.043765325 0.11551264 -0.04140275

dense_8/bias f4 [40]
00000000: efea 98bd dd77 3b3b efa7 553b 37aa 673b
00000010: c5d6 76bd 50b8 30bd e931 483c ad20 0abd
00000020: 9330 03bb ac55 18bd 42b7 663c 19ab 6cba
00000030: f7cb 0dbc f8e8 2d3b 1d0c 303b 42e1 98bc
00000040: 5f70 c8bd 367b f93b d219 503e eb0d 8bbd
00000050: 1bb1 d4bc f3e7 1fbd ed29 653b ed98 713b
00000060: e721 5d3e 5b16 ffbb 34e0 133e 673e febc
00000070: 021b f2ba 5715 15bb 9f7c b0b9 8c46 b5bc
00000080: e72d 16bd 6c3c ec3d f92c 20bd 59d4 a5bd
00000090: 3ec4 cbbb 3501 86bd 8a08 8cbc d033 3ebb
-0.07466685 0.002860538 0.0032601317 0.0035349259 -0.060263414 -0.043144524 0.012218931 -0.03372257
-0.0020017966 -0.037191078 0.014081778 -0.0009028181 -0.008654586 0.0026536565 0.0026862689 -0.018662099
-0.09787058 0.007613565 0.2032235 -0.06789764 -0.025963357 -0.039039563 0.0034967617 0.0036864833
0.21594964 -0.0077846474 0.14440995 -0.031035615 -0.0018471184 -0.0022748315 -0.00033662186 -0.022128366
-0.03666487 0.11534962 -0.03910539 -0.08097143 -0.0062184623 -0.06543199 -0.017093915 -0.0029022582

dense_7/bias f4 [40]
00000000: 7446 a0bd e7f2 cf3b 7373 86bc b70e 8dbd
00000010: 5131 373d 5e83 babc 0bef 363d 4461 923c
00000020: 8394 78bd 69b7 bc3b ff9a e83b d855 e9bc
00000030: 81b5 a73b 0530 a83c 9887 8cbd 7f66 df3b
00000040: d24e ca3b 4245 f13b bdef c8bc d868 bd3b
00000050: 66e5 33bc f62e 69bd ecf0 d03b fa3d 0c3c
00000060: ba7f 52bd f0d2 f73c 8848 97bc 9234 b93b
00000070: 486e ff3c c6fe ea3b 5948 8cbc d115 d8bd
00000080: eb44 f53c 25e7 abbc 9380 393c 0f1f de3e
00000090: 35f0 743c f399 7dbc e200 81bc 62a1 c53d
-0.07825938 0.006346095 -0.016412472 -0.06887572 0.044724766 -0.022767719 0.044661563 0.017868645
-0.060688507 0.005759169 0.007098555 -0.028483316 0.0051180725 0.02053071 -0.068618 0.0068176384
0.006173947 0.0073629925 -0.024528379 0.0057803206 -0.010979986 -0.05692955 0.0063763764 0.008559698
-0.05139134 0.03025195 -0.018467203 0.005652019 0.031180516 0.0071714846 -0.017124342 -0.10551036
0.02994009 -0.020984242 0.011322158 0.4338307 0.014949848 -0.015478599 -0.015747491 0.09649922

dense_6/bias f4 [36]
00000000: c8e1 2e3f e263 04bb fc5a 243a 1d4a 4abb
00000010: 8583 013a 764d 0c3b 5bdd 183b 3aea a93a
00000020: 461c 32ba c677 02bc 561b 06ba 4e53 9b3b
00000030: ff89 253f f118 e1bb f442 f13a 8076 72bb
00000040: 9245 783b 53f7 17bc bb41 01bb 5e6e 63b9
00000050: f779 603b b33a d63b d34c 1bbb 0253 8abb
00000060: 9630 613e d6e8 c6ba 5ea6 d5bc 1986 c73a
00000070: f3d1 b53a 9c51 83bb be54 dc3b b05f aebb
00000080: da70 5f3b f807 78bb d4e2 9f3a 33ac d73a
0.68313265 -0.0020201136 0.0006269661 -0.003086693 0.00049405574 0.0021408475 0.0023325298 0.0012963482
-0.0006794374 -0.0079631265 -0.00051157677 0.0047401553 0.6466369 -0.0068694283 0.0018406794 -0.00369969
0.0037883264 -0.009275275 -0.0019723016 -0.00021689522 0.0034252384 0.006537759 -0.0023696914 -0.004221321
0.2199119 -0.0015175592 -0.026080307 0.0015222459 0.0013871774 -0.0040075313 0.0067239692 -0.0053214654
0.0034094364 -0.0037846547 0.0012198337 0.0016454518

dense_5/bias f4 [40]
00000000: 2f0c 0bbb 4a7d b6bb 9996 8ebc c5fe 283c
00000010: d0e7 03bd 9d4d bfbb db30 1d3c ef92 433c
00000020: 6ab9 9ebb d814 debc 3fbf 80bc ca49 173c
00000030: 31a4 69bc 8a85 70bd 5272 68bd ae19 46bd
00000040: a104 8bbd beea a93b 72d3 963c 8ea2 05bd
00000050: 11a8 a2bb 492b 47bd d453 d1bc e03d 6fbd
00000060: a619 8b3d b7d2 33bd 282d 81bc 063e 083c
00000070: 7cda 20bc b033 24bd e94b c6bc 7800 4abc
00000080: b03b 013c a3ba 3dbc b5b7 203c 582c 89bc
00000090: b3f8 b2bc 87aa f23d 869c ddbc bc3e 17bd
-0.0021216979 -0.005569135 -0.017405795 0.010314648 -0.032203496 -0.0058381096 0.009594168 0.011936887
-0.0048438804 -0.027109548 -0.015716193 0.009233901 -0.014260338 -0.058721103 -0.05674965 -0.048364334
-0.06787992 0.005185454 0.018411372 -0.032625727 -0.0049638827 -0.048625264 -0.025552668 -0.058408618
0.067920014 -0.043902125 -0.015768602 0.008315569 -0.009817716 -0.040088356 -0.024206119 -0.012329213
0.007887766 -0.011580142 0.009809424 -0.016744778 -0.021847105 0.11848932 -0.027052175 -0.036925063

dense_4/bias f4 [40]
00000000: c87e f33b 934e 3a3c d444 54bd 24ed b7bc
00000010: 615d aa3e d9b4 8dbd 4f59 bcbc 7cf5 c63b
00000020: 91b7 1d3c 2fb0 b83c a0b6 fc3b 58fb b6ba
00000030: a6b2 1cbd fd38 22bd 47dc 15bd 7590 293d
00000040: f46f b9bc 18e0 003d 086b 163d 8917 a03c
00000050: ebdf 98bd bde7 9ebd eb24 bcbc 0ea7 133c
00000060: 9701 773b 3755 233c 631e e0bd 8662 5d3c
00000070: 3c47 163d 0e1a c5bc bd63 f33b aeaa cdbb
00000080: 7bf5 f8bc 7200 3ebd e652 f13d 583e 193c
00000090: 20a2 10bd 12b7 763e dcd4 6dbd 70fa 07bd
0.007430885 0.011371273 -0.051823452 -0.022451945 0.33274367 -0.069192596 -0.022991804 0.0060717445
0.009626285 0.022544948 0.0077122003 -0.0013960404 -0.03825631 -0.03960513 -0.036587026 0.04139753
-0.022636391 0.031463712 0.036723167 0.019542472 -0.07464584 -0.07759044 -0.022966823 0.009011997
0.0037690157 0.009969047 -0.10943296 0.013512259 0.03668903 -0.024060275 0.007427661 -0.00627645
-0.030390492 -0.046387143 0.1178339 0.009353243 -0.035310864 0.24093273 -0.058064327 -0.03319782

dense_3/bias f4 [40]
00000000: 8874 5dbd 432e dd3e 7746 20bd 0473 ae3d
00000010: d804 0a3c ba79 dcbb ec99 07bd 456d be3d
00000020: b29f d7bc 27fe 923d 0bde 003d eea3 063c
00000030: c194 223d 13ad 933c aa63 1ebd 051d d4bb
00000040: c078 a53b 29b3 e9bc 7695 583d 7596 e03d
00000050: 6a99 293d 472a a2bc 616d f63c f268 183d
00000060: d3a4 8d3d 35ae 333c 4b92 32bc 9179 be3c
00000070: 218f 173d 2ace ef3c fef3 04be 4ddd 563d
00000080: cbaf a8bd 8a0a 1b3c 052c 53bd 26b1 4e3e
00000090: 48d6 c8bc 0744 1cbc 0303 edbc 41ee 333c
-0.05406621 0.43199357 -0.0391297 0.08518031 0.008424006 -0.006728378 -0.033105776 0.09298185
-0.026321266 0.07177382 0.031461757 0.008217795 0.039692644 0.018026864 -0.038669266 -0.006473186
0.005049795 -0.028527813 0.052876912 0.109661974 0.041406073 -0.01979555 0.030081453 0.03720946
0.06916203 0.010966827 -0.010899137 0.023251327 0.037001733 0.029273111 -0.129837 0.052457143
-0.08236655 0.009462962 -0.051555652 0.20184764 -0.02451624 -0.009537703 -0.0289321 0.010982097

dense_22/bias f4 [45]
00000000: 7aea 823e d57a d0ba 6a18 d1bb ccaf 4dbb
00000010: 644f 013c 7e0c 83ba 509a 983b f113 b43a
00000020: 2285 a9ba 222c c2ba c527 b2bb 1b71 373b
00000030: 72f2 5d3f ae1c 7dbe 4bfb 7ebd 2132 ed3e
00000040: 744d abbb 1a8b 94b9 4ff2 a2ba 97a8 d7bb
00000050: 22c2 513b 934d 00bb a82a 11bb f407 cf3b
00000060: 31d8 dc3b 05cf ca3b dfef bb3a 2216 a3be
00000070: 0462 0f3f f29b 87bd a1db 753d d458 e33b
00000080: 4e9f 373b cc52 a5bb 307d 32ba 6e6e 0d3a
00000090: 3701 10bc 1a79 f6ba 9ac8 45bb 8d26 2a3b
000000a0: dce8 533b e5fe 02bc 47bf 5dbd d532 7cbd
000000b0: f27b 453f
0.25569516 -0.0015905747 -0.006381084 -0.00313853 0.007892463 -0.000999823 0.0046570674 0.0013738853
-0.0012933353 -0.0014814178 -0.00543687 0.0027991 0.8669807 -0.24717972 -0.06225137 0.46327308
-0.005227739 -0.00028332399 -0.0012431833 -0.006581377 0.0032006581 -0.0019577488 -0.002215067 0.0063180868
0.006739639 0.0061892294 0.0014338455 -0.31852823 0.56008935 -0.06621541 0.060023908 0.0069380794
0.0028018537 -0.0050452705 -0.00068088155 0.00053951785 -0.008789352 -0.0018804402 -0.0030179382 0.002596292
0.003233484 -0.007995342 -0.054137494 -0.061571915 0.7714225

dense_21/bias f4 [40]
00000000: 5c6c 58bd e14d 603c c719 5abd 8482 33bd
00000010: 0305 403e 191d 423c c956 5f3c 255b d5bc
00000020: 5c5c 5cbc 09b4 92bd a6de d8bc dd35 663e
00000030: 7b35 cfbc 0763 59bd 8bc9 56bc 1eb9 be3b
00000040: 1720 673c 9f51 663c d978 6b3c 2d83 85bc
00000050: 5d73 673c c56e 1dbd d12b 29bc 23e1 d1bb
00000060: 7fa9 643c 47eb bfbd 55dd f2bc 6fa2 693c
00000070: 65db 27bd 820f 6f3c 4090 643c 1af0 65bd
00000080: a4c1 6e3c adfd b1bc 4dbf 673c 84ca a83c
00000090: 1161 663c 7a8b 24bd 6091 fdbc ad06 0abd
-0.052837715 0.013690443 -0.05324724 -0.04382564 0.18751912 0.011847758 0.013631531 -0.026044438
-0.013449755 -0.07163245 -0.026473355 0.22481485 -0.025294056 -0.053072955 -0.013109575 0.0058204075
0.014106772 0.014057546 0.014372074 -0.016297901 0.014126626 -0.038435716 -0.010325388 -0.006405012
0.013956427 -0.093710475 -0.029646555 0.014259919 -0.040980715 0.0145911 0.0139504075 -0.05613718
0.014572535 -0.021727407 0.014144731 0.02060438 0.014061228 -0.040172078 -0.03095311 -0.033697773

dense_20/bias f4 [40]
00000000: dae1 f83c 6801 423e 295b a13c c617 0abd
00000010: 8808 2d3d f7bf 683e 29a7 d7bb 319b 943d
00000020: a4d9 9c3d 06a6 623c 5b6a 6d3e fbea 3d3d
00000030: 1e25 873a dbcf 36bd 972b 2e3c 7c3c 67bd
00000040: 5423 06bd 6513 9ebc 5d5c b33b 8148 883d
00000050: 6946 c13c d44e f23c 143a 0a3d edaa 3cbc
00000060: 7d3b 63bd b8af 803d 2ada 18bd 1843 d73d
00000070: 9581 833c dc4e 2cbd 01d4 f6bc bd02 77bd
00000080: 70ef 6abc ca99 533d 10a6 ea3b 0389 813d
00000090: 9e6f 68bd a8d7 99bc 18d8 8b3d f983 f5bc
0.030381132 0.18945849 0.019696789 -0.03371408 0.042244464 0.22729479 -0.0065812063 0.07256163
0.07658699 0.013833528 0.23185103 0.046366673 0.0010310744 -0.04463182 0.01063051 -0.056454167
-0.032748535 -0.019296357 0.005473657 0.06654454 0.023593144 0.029578604 0.033746794 -0.011515361
-0.055476654 0.06283516 -0.037317432 0.10510844 0.016053 -0.042067394 -0.030130388 -0.060305346
-0.014339313 0.051660337 0.0071609095 0.06324961 -0.05674707 -0.01877959 0.06828326 -0.029970156

dense_2/bias f4 [40]
00000000: f08f a03d 4938 d4bc 495b 453b c635 d63b
00000010: 22a7 2d3e 0cf2 463e e413 e2ba 6d14 4dbc
00000020: 0482 2fbb 2ec6 23bd 0c1d 903c 3df0 3fbd
00000030: 43c7 35bd 2309 9dbc 6ed5 1abd ad25 d93d
00000040: bf40 033e ec3e 9cbc 0467 96bc ed81 2dbd
00000050: bf96 f03d 94f7 9abc 53ec d13d 1ecb 263e
00000060: 4985 db3d 1665 af3d e2c1 673b 3049 193d
00000070: 1cd0 06bd 6393 6fbd c0e2 6cbc 13c6 df3d
00000080: fd42 f7bd bb59 b7bb db8d d73d d4b3 24bd
00000090: e226 993d 728c a33c bd15 133e 2da8 953d
0.07839954 -0.025905745 0.0030114225 0.006537172 0.16958287 0.19428271 -0.001724836 -0.012517077
-0.0026780376 -0.03998392 0.017591976 -0.04685997 -0.044379484 -0.019169396 -0.0378012 0.10602889
0.12817667 -0.019072972 -0.018359669 -0.042360235 0.117475025 -0.018916883 0.102501534 0.1628842
0.107187815 0.085642025 0.0035363366 0.037423313 -0.032913312 -0.05849017 -0.014458358 0.109264515
-0.12073324 -0.0055954135 0.10525104 -0.04021056 0.074781194 0.01996443 0.14363761 0.073074676

dense_19/bias f4 [40]
00000000: 6fb1 2a3e 5a9c da3d 811f 7e3d f1c9 efbc
00000010: 4d51 5c3c 5dbd 45bd 4e95 8e3c 9f5b db3d
00000020: f18d 183e 708f 823d 67f8 4fbc 3fad 2c3d
00000030: f9ce 973d dc9c 09bd 6afc 16bc af3f 883d
00000040: a7c3 eb3b a6ec f33d 3beb a83d ba9b f93c
00000050: a5f2 4cbd d4f9 aebb 299e 783e e97a c53e
00000060: 6683 aa3d d291 09bd 1db5 803e b794 94bd
00000070: 1bb6 103e 45a5 a33e 0137 923e 8235 ab3d
00000080: 0e9d 9d3d 19e1 7e3c 711f 4a3d 6e40 513b
00000090: 4402 b63c 58ef 893d dca9 623d 4e52 93bd
0.16669248 0.10674353 0.062041763 -0.029271098 0.013447118 -0.048276294 0.017405178 0.10710835
0.14897896 0.06375015 -0.012693501 0.042157408 0.07412524 -0.03359686 -0.009215454 0.06652772
0.0071949544 0.119103715 0.08247992 0.030469764 -0.05003609 -0.0053398404 0.24279083 0.38570336
0.083258435 -0.03358633 0.25138178 -0.072549276 0.14131968 0.31962028 0.2855759 0.08359815
0.076959714 0.015556597 0.04934639 0.0031929272 0.022217877 0.06735104 0.05533777 -0.07193433

dense_18/bias f4 [45]
00000000: f68b 913e d0b8 6d3b b92d d73b d6fe bf3a
00000010: b497 c93b 1063 7f38 2d75 12bb d0b4 9638
00000020: b74b d3bb 486c 5abb c67b 2fba 0bee a53b
00000030: 0155 413f 4729 33be c672 973c 81cb d73e
00000040: 439d c6bb c508 d03a ed56 ac3b 5f76 83bb
00000050: ce2a e93a e222 44bb 9833 30ba ed7b 763b
00000060: 127b 5d3b 1f61 ceba 2a6b 29bb ed66 88be
00000070: b0f2 f53e 7d50 803c 8755 f73d 223b 923c
00000080: e55b 36bb 1ab3 a33a e5eb 6c3a f38b ae3b
00000090: 199c c93a 5f0f 4dba af17 4a3b bb5d f23b
000000a0: 02e5 eeba e690 3439 f841 293d cec8 4c3d
000000b0: 4a8f 8d3e
0.28427094 0.0036273487 0.00656673 0.0014648091 0.0061521176 6.0888997e-05 -0.0022347674 7.186236e-05
-0.006448235 -0.00333287 -0.0006694164 0.0050637773 0.7552033 -0.17496215 0.018487345 0.4214745
-0.0060612275 0.0015871754 0.005259386 -0.0040119137 0.0017789246 -0.0029928018 -0.0006721555 0.0037610487
0.003379528 -0.0015745497 -0.0025851228 -0.26641026 0.48036718 0.01566338 0.1207686 0.017850462
-0.002782577 0.001248929 0.00090378366 0.005326742 0.0015381604 -0.000782242 0.003083687 0.0073964274
-0.0018226209 0.00017220117 0.04132268 0.04999619 0.27648383

dense_17/bias f4 [40]
00000000: f1f0 103c 4c73 04bd e88d 05bc 4e33 ffbc
00000010: b52c fabd 4688 52bd fa9e 94bc 9636 a7bc
00000020: 235b 8b3b 123f 09bd 23cd c9bc 19f6 283e
00000030: 64ea 243c 2458 c9bc 583c 41bd 4031 48bd
00000040: 621f 0fbd 008b 2fbd 02aa 7fbb eff0 fe3b
00000050: 0a78 093c bfce 31bc acda f63b 07d8 e5bc
00000060: 29d0 34bd a12f 4abd 79cc 27bd beef 35bd
00000070: d282 973c baca 25bc 98fd 10bd 9634 6ebc
00000080: 68f1 5cbd 44a9 31bd a0a4 19bd 8e5a 913e
00000090: 65ba 14bc d5f7 f2bb 84dd 29bd a16f 59bd
0.008846507 -0.03233652 -0.008151509 -0.031152394 -0.122155584 -0.05139949 -0.018142212 -0.02041177
0.0042528077 -0.033507414 -0.02463395 0.16500129 0.010065649 -0.024578162 -0.04717669 -0.048875093
-0.03494204 -0.04285717 -0.0039011245 0.0077801864 0.008390436 -0.010852515 0.007533392 -0.028057111
-0.04414383 -0.04936183 -0.040966485 -0.04441809 0.018494997 -0.010119135 -0.035398096 -0.014538905
-0.05394116 -0.043374315 -0.037510514 0.283894 -0.009077643 -0.007414798 -0.04147102 -0.053084973

dense_16/bias f4 [40]
00000000: bb80 aebd aded c0bc 6d4b 76bd 4837 fd3b
00000010: ea0a 093c 81f8 f13b 5650 15bd 5c5c ab3d
00000020: 1e25 a9bc c6b9 f93c 7b3d f33b 057d ec3b
00000030: 81ec d6ba bd6c c9ba 8240 053e c46f 33bd
00000040: 0b3c 0dbe ef16 6fbd 4e0f bfbc 25c9 013c
00000050: f561 c03d 5c11 86bb a804 e93b a9bd f03b
00000060: e287 ddbc 955c 083c c2ab 0dbc 3418 723e
00000070: 256c 8cbc ae0a abbd 830b 83bd 7132 1e3e
00000080: 6ed1 16bd 77ce de3b def7 903c 4c36 213e
00000090: c408 173c 1a09 4bbd 4917 333d 2955 c33d
-0.08520647 -0.023550833 -0.060130525 0.0077275373 0.0083644185 0.0073843603 -0.036453567 0.083672255
-0.020647582 0.030484091 0.0074231005 0.007217052 -0.0016397388 -0.001536749 0.13012889 -0.04380776
-0.13792436 -0.05837148 -0.023322728 0.007921492 0.09393684 -0.004091425 0.007111151 0.007346828
-0.027042333 0.0083228545 -0.008646907 0.23642045 -0.017141411 -0.08351646 -0.0639868 0.1544893
-0.03682082 0.006799515 0.017696317 0.15743369 0.0092183985 -0.049569227 0.04372338 0.095377274

dense_15/bias f4 [40]
00000000: 2e89 dd3c d51e 983c d261 aa3c 470f 67bd
00000010: 4ede 6aba 08d7 04bd 7659 a33c f6a2 1b3d
00000020: de44 85bd 79f1 143e 3660 da3c 9ebe 553c
00000030: 82e7 b33e 1930 083d f6ae 1bbc f4f7 d2bd
00000040: e9f2 af3c d161 50bd f9ca c93c 8e3b 38bd
00000050: 88b3 eb3d 9616 2d3c acae 11bd c6fa 313e
00000060: 6c5e 9f3c 1b54 2f3d f75d 54ba 8833 a0bc
00000070: 7ea7 db3d cdba 523d cb0e 06bb 875d e93c
00000080: a833 b03c 2a3e cd3e 438d 473e 7a42 1f3d
00000090: b019 5e3d fd0f 443d 8603 1ebd 1d23 fb3c
0.027042951 0.01856939 0.020798597 -0.056411054 -0.00089595176 -0.032431632 0.01994012 0.03799721
-0.06507276 0.1454524 0.026657205 0.013045935 0.35137564 0.033248994 -0.009502163 -0.103011996
0.021478133 -0.050874535 0.024632918 -0.04497867 0.11508852 0.010564467 -0.03556697 0.17380819
0.019454204 0.04280482 -0.000810116 -0.019555822 0.10725306 0.05144768 -0.0020455595 0.02848698
0.021509007 0.4008649 0.19487481 0.038881756 0.054223716 0.04786681 -0.03857758 0.030656392

dense_14/bias f4 [45]
00000000: 8e26 863e b3f6 3fbc 5be8 7ebb a368 96ba
00000010: abca 883a 1af1 253b 1797 49bc f38a d3bb
00000020: 16d4 77bb ab0c ffbb 6e56 f7ba b79a b23b
00000030: 4f94 583f bd0d 9bbe dda2 a6bc c520 eb3e
00000040: 33bc df3b e08e 503a db41 4e39 96b5 f83a
00000050: 2c71 80bb fc7d a93b ba87 c1ba 881c 1f39
00000060: ecde d63b 4d15 d23a f920 0cbc 4bc4 c0be
00000070: 0dc3 133f 1cbd 62bd 5628 813d 54da c9ba
00000080: fc21 233b 62c2 6a3a c783 843b 5db7 7c3b
00000090: 139f 063c a8b1 7cbb 193c 3bbb e189 653b
000000a0: bd67 cb3a 9011 bdbb fafc a7bc 8c11 66bd
000000b0: 6e8c 383f
0.2620129 -0.0117165325 -0.003889582 -0.0011475276 0.0010436376 0.002532071 -0.012304089 -0.006455773
-0.0037815622 -0.0077834926 -0.0018870363 0.0054505724 0.846013 -0.3028392 -0.020341331 0.4592344
0.006827855 0.00079558603 0.00019670224 0.0018975015 -0.003919741 0.005172489 -0.0014765181 0.0001517405
0.006557336 0.0016028077 -0.008552783 -0.3764976 0.577195 -0.05535613 0.063065216 -0.001540015
0.0024892082 0.0008955357 0.0040440294 0.0038561441 0.008216637 -0.003855804 -0.0028569757 0.003502481
0.0015518587 -0.005769916 -0.02050637 -0.056169078 0.7208928

dense_13/bias f4 [40]
00000000: 4406 bb3b d08a 833e 265a be3b 7d28 ebbc
00000010: 9a70 01bc b07f c33b ed6f 41ba 7a01 ce3b
00000020: 3326 bf3b ff79 13bd b385 bb3b d962 04bc
00000030: 6760 fbbc 21f4 3dbd 922d 34bd ed8e 35bd
00000040: d7c6 41bc ca2a 73bd 3adc be3b 57d9 6abd
00000050: 3b62 36bd 1460 2c3c 05a1 81bc 7bfc 23bd
00000060: d8e0 69bd 0157 7fbd fd0c 3ebd 1927 56bb
00000070: c4a8 823b bd37 d6bc b568 64bc 180d be3b
00000080: c055 46bc 1ce9 c33b fcf1 3ebd d5c0 b8bc
00000090: ce2c e8bc 0173 01bc 0136 e8bc f9fa 26bd
0.005707534 0.25691843 0.0058090864 -0.02870583 -0.007900381 0.0059661493 -0.0007379044 0.006286797
0.005833411 -0.036005016 0.0057227253 -0.008080208 -0.030685617 -0.046375398 -0.04398877 -0.044325758
-0.011827192 -0.05936698 0.005824593 -0.057336178 -0.044527274 0.010520954 -0.01582385 -0.040035706
-0.057099193 -0.062338833 -0.046399105 -0.0032677113 0.0039874036 -0.026149625 -0.01394098 0.0057999007
-0.012105405 0.0059787165 -0.046617493 -0.022552887 -0.028341677 -0.007900954 -0.028346064 -0.04076669

dense_12/bias f4 [40]
00000000: a2fd c23c b7f4 a7bd 3325 613e 0895 7e3c
00000010: bf0e 5cbd 5a65 89bc 6034 6abb 9238 7bbd
00000020: b877 20bd a011 83bd 7e00 f7bc ec17 31bd
00000030: d419 06bd bc90 2a3c 8651 0fbd f56d f5ba
00000040: 5a27 1bbc 7caa 4d3c a290 013d 7775 04bb
00000050: 88ae 9bbc 5b45 90bd c4c3 3b3e 49b7 253c
00000060: 9b0a 44ba 6301 07bd 4d0c ca3c a729 93bd
00000070: 6397 003e 4bda 743b 7ee9 91bc bce3 363e
00000080: a328 773d 4212 0fbd abf1 93bd 8388 363d
00000090: 2c49 043c b1e5 19bd 5b78 18bd 501f 4cbd
0.023802582 -0.082009725 0.21986847 0.0155384615 -0.053725 -0.016771961 -0.0035736784 -0.061333247
-0.039176673 -0.06399846 -0.030151602 -0.043235704 -0.032739475 0.010410484 -0.034989856 -0.0018724786
-0.009469831 0.012552854 0.031632073 -0.0020211616 -0.019004121 -0.070444785 0.18336397 0.010114499
-0.0007478387 -0.032960307 0.024664069 -0.07185679 0.1255775 0.0037361558 -0.017811533 0.17860311
0.06034149 -0.03492952 -0.07223829 0.04456378 0.008074086 -0.037572566 -0.037224155 -0.04983455

dense_11/bias f4 [40]
00000000: de7f 6bbc 373a 86ba 75b1 8a3e 8614 913d
00000010: 6296 b0bd 4580 0f3d b393 1cbd 26a4 61bd
00000020: 7632 8b3e e2f1 7cbd 9e3c a2bc 40c7 67bd
00000030: 42ff 2a3e 9f76 b1bd 0d84 9dbd 0bc2 553e
00000040: 057b a83d 948d a43d 28d6 233d 43f0 41bd
00000050: 84db 933e 047e e33b e793 a63d b2e7 413d
00000060: c1ae b53d 52ec 9d3d e7a7 5b3d c02a 6d3c
00000070: 234a 5ebb 7812 6c3c 9b48 263c 320c a8bc
00000080: 4b10 a93d 00e6 313e 245e e63d 7b0c b5ba
00000090: ff34 04bd 7a85 183d 58ba 003e f266 983d
-0.014373748 -0.0010240738 0.27088514 0.07083993 -0.08622433 0.035034437 -0.038226794 -0.055088185
0.27186936 -0.061754115 -0.019804295 -0.056586504 0.16698936 -0.08665203 -0.07691202 0.20874803
0.08226589 0.080348164 0.039999157 -0.047348272 0.28878415 0.0069425125 0.08133679 0.047340102
0.08871222 0.0771109 0.05362692 0.014475524 -0.00339187 0.0144087 0.010149146 -0.020513628
0.08255061 0.17372894 0.11248425 -0.0013812924 -0.032277104 0.03723667 0.12571084 0.0744151

dense_10/bias f4 [45]
00000000: 4131 953e 48d2 b03d b139 f23c 02a1 53bb
00000010: 508d b138 ebba 41bb fa8a 28bb 2a20 863b
00000020: a462 00ba 4d83 29bc b80c c339 e46c 623b
00000030: b215 e23e ec54 94bc 56d6 d13c 876e a93e
00000040: b647 07bd 56af 9ebb 0003 a0ba a936 edba
00000050: 48a7 00bb 2b46 643b 3c67 21bb d8c4 9d39
00000060: c46e 013c fe29 883a d958 e7bb 948c 86bd
00000070: e9e7 a53e fbe8 df3a 7964 143e 8308 f33d
00000080: b698 91bd ef04 1ebb 2e28 023c ca90 f73b
00000090: 2e9c 183b d2e1 54ba 292c 233b e5bd c1bb
000000a0: b210 663b 355d 44bb 33b0 04bd 78a9 1c3e
000000b0: 622e bf3e
0.2913914 0.08633858 0.029568525 -0.0032292013 8.466339e-05 -0.0029560875 -0.0025717602 0.0040931897
-0.0004897511 -0.010346246 0.00037202775 0.0034549767 0.44157177 -0.0181069 0.025614899 0.33092138
-0.033027373 -0.004842679 -0.0012207925 -0.0018097955 -0.0019630957 0.0034831862 -0.0024628183 0.00030092034
0.007899944 0.0010388491 -0.007060152 -0.06569782 0.32403496 0.0017082983 0.14491452 0.11866858
-0.071092054 -0.0024111827 0.00794415 0.007555102 0.002328645 -0.0008120808 0.0024898148 -0.00591253
0.0035105166 -0.0029962782 -0.0323946 0.15299022 0.37340075

dense_1/bias f4 [40]
00000000: 7715 84bb bb8f 70b9 f6d6 27bc 4485 e1bc
00000010: d59c 5d3e 400a f33b c5ae b2bc 358c 8abb
00000020: 2362 9fbb 98bc 0fbc de11 54bd ba24 b23c
00000030: f316 843b 714d 58bd a157 9eba 941c 133d
00000040: 5895 44bd b259 8cbd f454 bebc ccde 873b
00000050: 79b0 81bd 7452 8ebc 3545 86bc ec54 8cbc
00000060: 3cd5 a03b 23cc 0bbc 0bef 77bd b9f2 4b3b
00000070: 1426 55bc c222 9bbc c4da f43d 4209 b3bc
00000080: 273d 903d 02e7 953b 73ec fdbc 2754 803b
00000090: 2e15 6c3c faed 073c e908 85bb bc52 a1bd
-0.004030879 -0.00022941727 -0.010244122 -0.027529366 0.21641858 0.0074169934 -0.021811852 -0.0042281398
-0.0048639937 -0.008772992 -0.051774852 0.021746028 0.004031056 -0.05280823 -0.0012080559 0.035915926
-0.047993988 -0.068530455 -0.023233868 0.0041464325 -0.063324876 -0.017373301 -0.016390422 -0.017130338
0.004908232 -0.008532557 -0.060530704 0.0031120016 -0.013009567 -0.018937472 0.11955789 -0.021855
0.07042914 0.0045746574 -0.030996537 0.0039162817 0.0144093465 0.008296484 -0.0040599 -0.078771085

dense/bias f4 [40]
00000000: b174 1abd 6042 b1bd d1b9 1bbe 3a70 533c
00000010: b4c4 393e 89f2 46bd 2220 2bbd 2a31 5e3d
00000020: 2133 09bd beb8 e13c 7b4e c5bd 7ae9 3f3c
00000030: abe0 b63e fddb a5bd 718d 763e 1bfe 91bc
00000040: 5cfc 8d3d ee83 fabc 1703 e9bc 5611 f03c
00000050: c526 8abd 91b0 2d3e 6e2b b6bd 348a 93bd
00000060: 9c97 4dbd 7d01 9cbc 0f18 34bd 5c35 b8bd
00000070: 5d11 c3bd 5aae 473d 789f 4ebb 73ba 753d
00000080: 7327 73bd 5831 983d e6de 35bb 96ae d73d
00000090: 862a b1bc 291a 16bd d90e 97bc 7ecb 323c
-0.03770894 -0.08655238 -0.15207602 0.012905175 0.18141443 -0.048571143 -0.04177869 0.054246105
-0.033496026 0.027553912 -0.096341096 0.01171338 0.35718283 -0.080986 0.24077393 -0.017821362
0.06932899 -0.030580487 -0.028443856 0.029305141 -0.06745676 0.16961886 -0.08895002 -0.072040945
-0.050193414 -0.019043678 -0.043968257 -0.089945525 -0.09524796 0.04875026 -0.0031528156 0.059992265
-0.059363794 0.074312866 -0.0027751266 0.105313465 -0.021626722 -0.036646042 -0.018439697 0.010912774

bias/bias f4 [15]
00000000: af5d e6bc 86db 7abd 2ea6 8bbd 6b1c 713e
00000010: 9972 3fbe 9ef2 8abd 5a25 003e 7607 e5bd
00000020: a282 e7bc a32e 203e 4827 e4bd 3f8a 8abd
00000030: 6c0b 433d 6f35 8fbd 45f7 39ba
-0.028120844 -0.06124451 -0.06818806 0.23545997 -0.1869606 -0.06784557 0.12514248 -0.11183064
-0.028260533 0.1564279 -0.11140305 -0.067646496 0.047618315 -0.069926135 -0.0007094036

model_1/dense_11/MatMul f4 [40, 15]
00000000: 80cb 92b4 4009 1ab5 80ef 17b6 fdce 01b8
00000010: 8ddd 26b8 1a24 0439 1ae7 8c37 e240 1bb9
00000020: 5519 91b8 68dd e3b7 fa44 3b38 b529 80b8
00000030: e8d0 18b8 2068 e7b7 b01f b9b7 9edb 1138
00000040: e2e9 efb8 0dbb 7e38 2552 06b8 2895 0639
00000050: b758 88b8 7797 cd38 04be ddb7 2d00 bbb8
00000060: 9198 09b8 4a38 8d38 2adf 4d36 4465 80b8
00000070: 281b af38 565f b638 efd4 23b8 d27d aeb6
00000080: bb23 8fb7 3c15 94b7 c0dc 80b5 d88c a2b7
00000090: 6558 c4b7 b47a 8436 3aac 3937 8fd4 ffb7
000000a0: 441e 8cb6 a008 45b7 7c59 fc36 4cbc 12b8
000000b0: 84bf b7b7 d494 8a38 10ea 2036 e0c1 c8b7
000000c0: 80a8 9a35 4216 cb37 aa17 db37 9e6c a0b8
000000d0: 4db1 8fb7 56cf ceb8 4055 84b7 2394 06b8
000000e0: a8ab 1838 9483 9538 f960 3ab8 4c77 89b8
000000f0: b8b4 82b8 767f 9438 8b1c 19b9 7488 9038
00000100: e421 e537 7082 7f37 ac15 2ab9 84e0 4637
00000110: 3af8 3839 a680 0ab8 1706 9138 9268 f437
00000120: 3a44 9db8 0dbb f6b7 5937 df38 ed2e 4938
00000130: 402e 2236 663c aab8 d661 8438 58e9 8fb8
00000140: 7ffa 11b8 501b 4f36 4085 3937 a975 5c38
00000150: a16f 30b8 f53c 19b8 58d6 6137 80bf 04b5
00000160: af20 45b8 90f0 dd36 7911 8138 f281 6db8
00000170: b44d 9b38 2a3c b238 502d 9b37 4ada d238
00000180: ae79 9db8 9619 5538 45f2 3139 9c47 2db9
00000190: ea25 07b9 de18 f837 8420 2eb8 00f4 5fb5
000001a0: 1a7f b538 ec41 22b8 155e 34b8 c2b2 d238
000001b0: ffeb 0d39 d14d e7b8 eded 3c38 ddb3 6138
000001c0: b0e9 f9b6 ae6c 5db8 65f1 7b38 3ab9 c737
000001d0: 69cd aeb8 c736 29b8 2477 1037 7005 3337
000001e0: 9804 3cb8 8888 bab7 208e 9737 84c0 3cb8
000001f0: 8088 01b6 be70 96b8 9037 deb7 8edc 6638
00000200: 3c5c 51b8 8d5f 27b8 dcb7 2bb7 f472 2c37
00000210: 704a f234 18f8 8436 8c4b c435 77a1 c538
00000220: fa59 30b8 fcda a638 f0b6 9b37 d0b2 7036
00000230: 4d12 a5b7 1ed7 79b8 cad9 f037 3526 07b9
00000240: a488 5637 7021 f3b6 8f91 45b8 2101 41b9
00000250: 3e67 35b9 a296 9937 ca6b 0939 ba09 26b8
00000260: 92e3 1838 e29f 18b9 22bd 94b8 9c9d 0539
00000270: 5c56 c137 3b74 86b8 3499 0d38 815f 8c38
00000280: d05b 73b6 825c 0bb9 70b0 2238 9612 d3b7
00000290: c06a d7b4 001b 18b5 230b 3fb8 a219 98b7
000002a0: a830 6db7 c760 a0b9 8614 b738 ced9 cbb8
000002b0: 1c50 ddb7 2180 d237 4c26 5638 e767 d437
000002c0: b3d7 afb7 6a90 20b8 a55e ee38 fd63 97b8
000002d0: fe0d a138 1c3a 91b7 a6bd 21b7 f252 cd37
000002e0: 36ae 8cb7 62f4 2f37 02f2 8237 7d7c 8c38
000002f0: 6b95 1e38 0c64 8b37 7eda 1ab8 47c4 27b7
00000300: f5c5 f1b7 2897 2bb8 f4e8 ceb7 f2f5 cdb8
00000310: fdf0 9537 068d 6ab8 609e 2236 2cde f6b7
00000320: ccfa 3eb8 be02 e236 9b62 8638 98c0 2737
00000330: 845e d3b7 80f8 c338 94c2 efb5 5694 ca38
00000340: 861f 0239 9261 8a38 6ee3 19b8 79d9 6bb8
00000350: 41d4 3a39 29b2 aeb8 8c48 85b8 bad0 da37
00000360: 428f 5b38 cc21 91b7 6085 fd35 4ee8 f736
00000370: c276 c5b8 57fe 05b8 5827 beb6 1f97 0538
00000380: ba54 b0b7 c896 a0b7 a6b6 68b8 a1ab 0e38
00000390: 8fe7 13b8 c410 84b7 d421 98b7 60d0 5937
000003a0: 98af 64b7 51c3 6d38 74df 6a38 66f0 71b8
000003b0: c0af 98b7 25f7 e437 9097 16b6 fb63 08b8
000003c0: e0f6 35b8 0974 3bb8 b63b 5338 ae51 0a39
000003d0: bab0 3e37 da69 02b8 c154 be37 7b80 9838
000003e0: 0f18 80b8 d4ce 9d37 ba44 1738 3c18 db38
000003f0: 10a7 77b8 6994 6838 e975 3338 2ef2 beb8
-2.7342685e-07 -5.738293e-07 -2.264016e-06 -3.094877e-05 -3.978382e-05 0.0001260195 1.6796916e-05 -0.00014806123
-6.918857e-05 -2.7163609e-05 4.4648514e-05 -6.111284e-05 -3.6434183e-05 -2.7585833e-05 -2.2068474e-05 3.477523e-05
-0.00011439972 6.0732524e-05 -3.2024593e-05 0.00012834801 -6.50151e-05 9.803374e-05 -2.6433736e-05 -8.9168876e-05
-3.2805434e-05 6.7338886e-05 3.067728e-06 -6.122378e-05 8.3497085e-05 8.696194e-05 -3.906054e-05 -5.2002515e-06
-1.7063567e-05 -1.7652863e-05 -9.60099e-07 -1.937749e-05 -2.3406183e-05 3.948191e-06 1.1066959e-05 -3.049735e-05
-4.1758485e-06 -1.1744123e-05 7.5206026e-06 -3.4984478e-05 -2.1904481e-05 6.608074e-05 2.39781e-06 -2.3932138e-05
1.1522934e-06 2.420985e-05 2.6117854e-05 -7.649626e-05 -1.712949e-05 -9.861465e-05 -1.5775324e-05 -3.2086053e-05
3.639949e-05 7.129382e-05 -4.443617e-05 -6.55489e-05 -6.2325445e-05 7.0809314e-05 -0.0001460185 6.8918715e-05
2.7314709e-05 1.5229554e-05 -0.00016220537 1.1853994e-05 0.00017640079 -3.3021577e-05 6.915273e-05 2.9135761e-05
-7.4990516e-05 -2.9412588e-05 0.00010643778 4.7965837e-05 2.4166802e-06 -8.117482e-05 6.312474e-05 -6.862235e-05
-3.4803987e-05 3.0861302e-06 1.1057884e-05 5.2561667e-05 -4.2065632e-05 -3.6534813e-05 1.3460951e-05 -4.94525e-07
-4.69989e-05 6.6143184e-06 6.154454e-05 -5.6626224e-05 7.405449e-05 8.498908e-05 1.849854e-05 0.0001005424
-7.509008e-05 5.0806986e-05 0.00016970288 -0.00016525242 -0.00012888727 2.9575483e-05 -4.1515115e-05 -8.342904e-07
8.654427e-05 -3.8685204e-05 -4.3002965e-05 0.000100468766 0.00013534723 -0.00011029433 4.504428e-05 5.381169e-05
-7.447983e-06 -5.2791722e-05 6.006788e-05 2.3808901e-05 -8.335227e-05 -4.0343755e-05 8.610808e-06 1.0670497e-05
-4.482697e-05 -2.2236505e-05 1.8066785e-05 -4.5001987e-05 -1.9301951e-06 -7.173557e-05 -2.6490336e-05 5.504168e-05
-4.9915383e-05 -3.990489e-05 -1.0235202e-05 1.02787635e-05 4.5130173e-07 3.9627885e-06 1.4625125e-06 9.423767e-05
-4.2045467e-05 7.956286e-05 1.8562627e-05 3.586687e-06 -1.9678055e-05 -5.956657e-05 2.8711645e-05 -0.00012888836
1.2787208e-05 -7.245857e-06 -4.7104022e-05 -0.00018406335 -0.00017299966 1.8309165e-05 0.00013105493 -3.9586543e-05
3.6451565e-05 -0.0001455541 -7.092419e-05 0.00012742582 2.3047607e-05 -6.4112675e-05 3.37597e-05 6.693509e-05
-3.6263264e-06 -0.00013290535 3.878813e-05 -2.5161815e-05 -4.0124542e-07 -5.66637e-07 -4.554832e-05 -1.8131748e-05
-1.41376295e-05 -0.00030589683 8.729943e-05 -9.7203636e-05 -2.6382557e-05 2.5093615e-05 5.1057243e-05 2.5320753e-05
-2.0962068e-05 -3.828147e-05 0.00011366353 -7.218865e-05 7.6796845e-05 -1.7312406e-05 -9.640504e-06 2.4476529e-05
-1.6770424e-05 1.0487713e-05 1.5609901e-05 6.698908e-05 3.7809292e-05 1.661668e-05 -3.6919948e-05 -9.999675e-06
-2.882162e-05 -4.0910352e-05 -2.466559e-05 -9.8209726e-05 1.7874403e-05 -5.5921286e-05 2.4232068e-06 -2.9428942e-05
-4.5533103e-05 6.735644e-06 6.4079846e-05 9.998817e-06 -2.5197172e-05 9.344611e-05 -1.7863517e-06 9.65974e-05
0.0001240951 6.598527e-05 -3.6689853e-05 -5.6230903e-05 0.00017817413 -8.3301515e-05 -6.355447e-05 2.6084821e-05
5.2347088e-05 -1.7301085e-05 1.8888786e-06 7.3882175e-06 -9.4158124e-05 -3.1946543e-05 -5.6670215e-06 3.1850414e-05
-2.1020289e-05 -1.91437e-05 -5.5483215e-05 3.401528e-05 -3.5263187e-05 -1.5743433e-05 -1.8135564e-05 1.2982724e-05
-1.3630743e-05 5.6687106e-05 5.5998054e-05 -5.7682766e-05 -1.8201652e-05 2.7294804e-05 -2.2439963e-06 -3.251804e-05
-4.3383683e-05 -4.469234e-05 5.036193e-05 0.00013191134 1.136603e-05 -3.1092997e-05 2.2689232e-05 7.271856e-05
-6.107997e-05 1.881217e-05 3.6065212e-05 0.00010447248 -5.9044978e-05 5.5451328e-05 4.2786738e-05 -9.1050155e-05

model_1/dense_12/MatMul f4 [40, 40]
00000000: 61aa 70b8 6279 94b8 8e03 5bb8 834d 0c38
00000010: 2038 86b8 a262 f137 7648 1638 e3d2 af38
00000020: c8e0 a6b8 4cbe f1b7 787b 0338 465d 0238
00000030: 3ef1 bc38 a682 b6b8 c00e 5fb8 8024 60b8
00000040: 3ada ef38 1777 46b8 8a4f 4437 39be b6b8
00000050: 82ef b3b7 966c ffb8 f83d fcb6 b623 6b38
00000060: 75bf adb8 5728 6938 1a42 edb8 b6e2 68b8
00000070: 7c08 2eb7 293b f9b7 8f2d edb8 b05a 9d37
00000080: 5cca b9b8 8030 9535 f45c 3cb8 68bd 12b8
00000090: 0c09 b738 509d 22b8 4efa fdb8 ac39 ec38
000000a0: 510b c1b8 e9a7 d238 62f5 3cb9 0488 60b8
000000b0: 3a3f 1239 3ead 0239 4ff1 46b9 e280 6338
000000c0: f0a9 0a37 7ea8 d1b8 2a6f 1ab9 5c70 76b7
000000d0: 85bb 0339 299f b3b9 d017 1339 379a 70b9
000000e0: 5e43 9bb9 8375 5339 d096 1f37 4492 c8b8
000000f0: 88b0 44b8 19a1 74b7 956f a439 cf4b 9238
00000100: 799f ce38 e43b 9138 fbc2 b6b9 0058 cab6
00000110: 50d4 21b9 d89f 7138 1aa8 a439 53b1 deb7
00000120: 30bb 3eb9 0c12 0039 5cd4 1fb8 0a6c dd38
00000130: 9498 4e39 62c2 a238 6407 1039 10d0 2436
00000140: ca02 9638 c73f a438 ccd4 8038 ce03 2837
00000150: 6c4e 60b9 52b1 8436 f626 a438 f0f3 a736
00000160: ffb1 c6b8 601f 71b8 394b 35b8 832e 1f39
00000170: 9477 a5b6 1031 8736 d720 dcb7 ca94 2e39
00000180: f6b4 8938 dd3a b838 5012 b336 d8ad 67b7
00000190: bcc1 2a37 b4e3 7038 fcb3 39b8 c781 af38
000001a0: 08d1 2d39 4c31 eeb8 c7f8 cf38 f214 4db8
000001b0: d0b0 8335 ca40 7ab7 8cb2 a938 071e 93b8
000001c0: 4842 8db8 a082 aeb5 5c76 75b7 3ce9 24b6
000001d0: db48 f137 9aa1 d338 cccf a837 0c21 4839
000001e0: 417d 0f39 47c4 3839 d0ff a5b6 fed7 6a37
000001f0: 120f dab8 dd12 0bb9 3a9d 9139 4ac3 0c38
00000200: 40d6 b234 ca2e 4837 01a2 0ab8 c068 dab7
00000210: f849 2237 4acf d3b7 344d 6ab7 b8d4 d238
00000220: 1dbe d738 e690 a3b8 db03 4f38 62b5 54b9
00000230: 8110 25b8 1562 1a39 ea39 66b8 033e c336
00000240: 3878 5cb7 b94b 0cb8 b6a4 cb37 20cd 1738
00000250: 40d7 cb38 0631 6bb9 c1c1 bd38 5f35 03b8
00000260: d0c8 1037 2450 11b9 680c 5fb7 3426 30b8
00000270: 4d99 2539 fce5 eb36 f2aa 1ab9 f069 c0b7
00000280: 3574 c438 6075 72b5 0a3c 9db7 fc77 0238
00000290: 9fc8 97b8 4381 a9b8 a884 3c37 2ee4 55b9
000002a0: 0eb1 9a38 81b1 0939 30c4 45b6 6874 13b9
000002b0: 0b86 2938 557a 1db8 c4e8 4938 1cf9 3b39
000002c0: 72d1 0b39 ea6a fcb7 be51 01b8 ba2e e438
000002d0: 8af9 2ab8 7ad3 29b9 c8e8 a8b9 e5d0 5338
000002e0: 1864 0c38 10f7 5437 041d 50b8 f02d 12b6
000002f0: 207b e036 8e35 8fb7 0ab7 b5b9 dc0d 4638
00000300: 3b1f 0938 0047 9b37 398c c339 b90c 0038
00000310: f7d4 dfb9 2a2f 0ab9 f359 f338 c72d 5638
00000320: df91 5938 9265 b2b8 648d 8536 6157 81b8
00000330: aaa2 c4b8 2b38 85b8 f90b 7ab8 65dd d0b8
00000340: 2fe0 04b9 56ef 5539 ca7d 3438 1847 2b39
00000350: 04b3 0538 90e3 0db7 17b3 06b9 d8d0 6736
00000360: b8cb b738 4c7e 39b9 6059 1a38 5c5d e8b6
00000370: dee2 3838 ec10 aa38 240d 22b7 2d31 1338
00000380: 8cd4 5038 d422 d4b8 dbcb f6b7 191b 10b9
00000390: 5bdf b7b8 5094 af36 3e14 6fb7 88fa 9c37
000003a0: be25 ccb8 c0fe aab4 c097 7f38 e620 7f38
000003b0: a04c 40b8 5877 1d39 4a04 3eb9 9210 4a39
000003c0: 3ec5 9a38 9cb5 c1b8 7bc0 04b9 4596 32b9
000003d0: 9ea9 82b8 16d1 57b8 c1ff feb8 48b8 e538
000003e0: 5ba2 c9b9 3ed2 ae38 325e 8b37 d6b2 2ab9
000003f0: 326d b438 f02a 8937 86f1 e6b8 2dd2 8237
-5.7379137e-05 -7.079799e-05 -5.221698e-05 3.345079e-05 -6.400072e-05 2.8775368e-05 3.583027e-05 8.383931e-05
-7.9573656e-05 -2.8818053e-05 3.1347823e-05 3.1081283e-05 9.0094734e-05 -8.7027714e-05 -5.318108e-05 -5.3439755e-05
0.00011437056 -4.731779e-05 1.17010295e-05 -8.713868e-05 -2.1449992e-05 -0.00012179573 -7.5173994e-06 5.6061624e-05
-8.2849445e-05 5.55891e-05 -0.00011313353 -5.552425e-05 -1.0373184e-05 -2.9710662e-05 -0.000113095266 1.8758088e-05
-8.85918e-05 1.111548e-06 -4.4909262e-05 -3.498551e-05 8.727805e-05 -3.877032e-05 -0.00012110603 0.00011264099
-9.205065e-05 0.00010044856 -0.0001802049 -5.3532436e-05 0.00013947199 0.00012462304 -0.00018972646 5.424105e-05
8.265008e-06 -9.997281e-05 -0.00014727996 -1.4688903e-05 0.0001256299 -0.00034260124 0.00014027883 -0.00022945633
-0.00029614096 0.00020166305 9.512252e-06 -9.563987e-05 -4.689445e-05 -1.4581042e-05 0.00031363653 6.975943e-05
9.8525496e-05 6.925294e-05 -0.00034859017 -6.0303137e-06 -0.00015433249 5.7607744e-05 0.00031405763 -2.6547035e-05
-0.00018189545 0.00012213754 -3.810633e-05 0.00010558225 0.0001970253 7.7609686e-05 0.00013735663 2.4559013e-06
7.153077e-05 7.832009e-05 6.143152e-05 1.0014466e-05 -0.00021391519 3.9545494e-06 7.8273864e-05 5.005386e-06
-9.47453e-05 -5.7488098e-05 -4.322382e-05 0.00015180749 -4.931304e-06 4.029025e-06 -2.6241336e-05 0.00016649361
6.566376e-05 8.784768e-05 5.3367476e-06 -1.3809149e-05 1.0177897e-05 5.7432524e-05 -4.427506e-05 8.368823e-05
0.00016576436 -0.000113579066 9.9168676e-05 -4.8895316e-05 9.81172e-07 -1.4916246e-05 8.091805e-05 -7.015099e-05
-6.73575e-05 -1.3002027e-06 -1.4630696e-05 -2.4573665e-06 2.8763365e-05 0.00010091365 2.0123924e-05 0.00019085797
0.00013684203 0.00017620726 -4.9471637e-06 1.39977765e-05 -0.00010397857 -0.000132631 0.00027773698 3.356048e-05
3.331097e-07 1.1931823e-05 -3.305264e-05 -2.6036403e-05 9.673175e-06 -2.5249687e-05 -1.3965462e-05 0.00010053202
0.0001028741 -7.799435e-05 4.9356237e-05 -0.00020285466 -3.9354436e-05 0.00014723123 -5.489021e-05 5.818672e-06
-1.31410125e-05 -3.3449123e-05 2.4276185e-05 3.6192243e-05 9.719888e-05 -0.00022429609 9.048312e-05 -3.128254e-05
8.629824e-06 -0.00013858132 -1.3294724e-05 -4.199725e-05 0.00015792735 7.0303195e-06 -0.00014750267 -2.2937515e-05
9.3676535e-05 -9.032283e-07 -1.8743816e-05 3.110616e-05 -7.23761e-05 -8.082625e-05 1.123656e-05 -0.00020398266
7.376271e-05 0.00013131463 -2.9469484e-06 -0.00014062377 4.0417577e-05 -3.7545648e-05 4.8138914e-05 0.0001792651
0.00013334097 -3.0090527e-05 -3.0832125e-05 0.00010880591 -4.076356e-05 -0.00016195877 -0.00032216893 5.050087e-05
3.347182e-05 1.2693708e-05 -4.9618087e-05 -2.1782434e-06 6.690054e-06 -1.7071867e-05 -0.00034659385 4.7219786e-05
3.269243e-05 1.8510502e-05 0.00037297772 3.0529427e-05 -0.00042692546 -0.00013178276 0.00011603897 5.106421e-05
5.1872685e-05 -8.50662e-05 3.980169e-06 -6.167475e-05 -9.376307e-05 -6.352396e-05 -5.9615795e-05 -9.959451e-05
-0.00012672016 0.00020402423 4.3032494e-05 0.00016334315 3.1876392e-05 -8.457238e-06 -0.00012845952 3.4543245e-06
8.7640656e-05 -0.00017690024 3.6799698e-05 -6.9250073e-06 4.4080305e-05 8.1093836e-05 -9.659012e-06 3.509333e-05
4.9789014e-05 -0.00010115435 -2.9420413e-05 -0.00013743005 -8.767723e-05 5.2326723e-06 -1.4250223e-05 1.8713312e-05
-9.734508e-05 -3.1850323e-07 6.0938066e-05 6.0827377e-05 -4.584773e-05 0.00015017146 -0.0001812141 0.00019270394
7.3800315e-05 -9.2367845e-05 -0.00012660206 -0.00017031383 -6.230477e-05 -5.145472e-05 -0.00012159302 0.00010953896
-0.00038458672 8.336127e-05 1.6613954e-05 -0.00016279085 8.603408e-05 1.6351667e-05 -0.00011012242 1.5595078e-05

model_1/dense_13/MatMul f4 [40, 40]
00000000: 2b7e 8db8 0015 1234 d4bc 9737 22bf 0ab8
00000010: bbad 36b9 8ee9 a8b7 f5a1 a438 14d9 14b8
00000020: 724d 2cb8 585f d5b8 0dc8 4fb9 61c4 18b9
00000030: 0085 aa38 3fb5 dbb7 5883 5eb8 1ec6 2039
00000040: 1c40 4cb8 f0d5 0c37 74f3 f337 dba3 9c38
00000050: 1241 e738 b276 0a39 076b 99b6 508c 40b8
00000060: 682b d337 9e09 c037 b0a1 deb5 3c07 05ba
00000070: 5ede a138 fa9c 1f37 d8dc 33b8 4186 6bb8
00000080: 7bdc c7b7 98c2 0e37 3c1e 0b37 d041 4fb7
00000090: c8ba 9838 bcd0 25b8 fa1d beb8 0911 0639
000000a0: dac8 0a38 00d0 99b8 4c21 1ab9 b11a 8439
000000b0: e4f9 6bb8 641b 9db7 4f4d 20b8 d5de 0239
000000c0: 0ae6 9d37 e6a2 b638 5e0e 1d39 101f bc36
000000d0: c4a2 5f37 c064 b7b6 602e 0634 5180 0239
000000e0: 3855 e4b6 4ae8 6c3a 5eff 4136 8d2d 4ab8
000000f0: a4b2 a638 42b1 bbb8 c418 37b9 8a37 72b9
00000100: bda0 b238 6c18 2c39 9cbe c537 befa 2db9
00000110: 42ed 17b9 861e 2d37 8850 d5b8 601b 75b9
00000120: 9431 9438 9263 b0b7 f15b d8b8 c2de c0b7
00000130: 9438 9ab9 5853 a3b8 0086 3db5 6841 133a
00000140: d4b6 1837 20c8 1cb6 faf2 0f38 345d c0b8
00000150: dc57 5138 6f7b ac37 f169 02b9 1b75 c038
00000160: a164 ab38 1ac5 8436 7e2f 6fb9 ddb4 dbb8
00000170: 703b 9a37 15bc f837 8c02 bab8 76b6 44b8
00000180: 123b 2038 de4e 0238 82cc dab7 dde2 a1b9
00000190: ae3c 56b8 00b4 32b5 caf3 3cb7 705a 0337
000001a0: 40b4 6eb8 ca73 8ab8 606d 77b8 4ca4 eeb7
000001b0: a688 9cb8 d5d2 c537 b645 1038 8bbc 7537
000001c0: 56ac 29b8 e803 2f38 6a94 dab7 78fd 8a37
000001d0: 6d86 d438 10f5 b2b6 eea1 86b8 7012 cf37
000001e0: 8cb6 aeb9 cc4b 57b8 ec01 ba36 90b2 5ab5
000001f0: 20a5 59b7 0f16 a7b8 38bc 0a38 3c8e 7eb9
00000200: fcc9 6038 e89b 50b7 a05f 9eb9 2cd8 a739
00000210: 02e8 f4b7 3202 0139 cba0 cfb9 d0d1 4937
00000220: d208 1cb9 805e 6ab7 6217 8cb7 04fa beb8
00000230: 3385 b9b9 d050 0bb8 ce9d d7b7 3828 5837
00000240: bdf1 1739 d8af 5839 8201 3cb9 6330 8339
00000250: 102c a4b9 07c1 0939 8ce2 1cb8 1547 b638
00000260: c2ad 18b8 c4d7 01b8 bd30 0b3a 0aa7 feb8
00000270: c2f1 a239 7a8f f0b9 8012 2938 a714 8a39
00000280: 884e 20b8 d1f3 7b39 acb8 b7b9 dd60 3d39
00000290: 9026 6637 c608 62b9 8a4e 06ba 88a5 9c38
000002a0: 4c0c 7238 aa8d 8238 76d5 ce39 807c 92b5
000002b0: add0 ef38 f2bd c138 0023 21b5 65ee 7cb9
000002c0: a842 e838 6067 a4b6 b901 0439 3c62 1038
000002d0: 5a84 0a3a d6b9 4b38 0e83 b1b8 6286 16ba
000002e0: a49e 69ba d037 4a37 be39 afb9 76d5 81b8
000002f0: 470f 9039 fab2 7ab8 9ba7 e539 3861 3db9
00000300: ca7a 3538 3a6b 96b8 4aaa b8b9 3c49 97b8
00000310: 1043 4337 82ce 55b9 6250 75b9 a1d2 6f39
00000320: 580e 14b7 062d c138 c00c 6ab6 7055 6f36
00000330: b3a9 cfb8 a2ed 14b8 063b 6438 d8f1 7037
00000340: e8b8 feb8 7276 9db8 9a65 58b8 2a7b 48b9
00000350: 7a09 4037 a465 0638 ec0b deb7 ccc9 2237
00000360: 6b40 4539 b076 96b6 3bbd c537 6c2a 2637
00000370: 44a2 fe37 1a59 46b9 36cd a4b7 b378 93b8
00000380: 9cca 32b9 3424 d037 0314 61b8 021d 5738
00000390: 40f9 9337 b7b2 8336 56c7 5538 7507 64b7
000003a0: 5429 4338 c8b6 0a36 2e40 d637 d018 87b5
000003b0: 300b 63b8 1e95 9bb7 96ab 1fb8 b5df 9bb8
000003c0: 4495 02b9 f06e 8f38 14f0 7338 c995 8739
000003d0: f487 12b9 b11b 0838 851e 68b9 584f 1eb7
000003e0: b020 4139 d69d 3339 244b 16b9 4b98 c639
000003f0: 8259 5437 9c4f 1437 e0b2 13b8 785f 1639
-6.7469045e-05 1.360495e-07 1.8088533e-05 -3.307977e-05 -0.00017421592 -2.0135918e-05 7.850296e-05 -3.548812e-05
-4.1080122e-05 -0.000101743906 -0.00019815583 -0.00014569006 8.131005e-05 -2.6191234e-05 -5.3051248e-05 0.00015332593
-4.8697097e-05 8.3944615e-06 2.9081224e-05 7.46918e-05 0.00011027059 0.00013204923 -4.572215e-06 -4.5907043e-05
2.5173373e-05 2.2892662e-05 -1.6587346e-06 -0.00050746254 7.718497e-05 9.5136875e-06 -4.2882602e-05 -5.61534e-05
-2.3825318e-05 8.509167e-06 8.292085e-06 -1.2353485e-05 7.2827155e-05 -3.9533465e-05 -9.0654896e-05 0.00012785582
3.308882e-05 -7.3343515e-05 -0.00014698989 0.0002519689 -5.6261095e-05 -1.8728613e-05 -3.8218972e-05 0.00012480778
1.8822979e-05 8.7087785e-05 0.00014978039 5.6064528e-06 1.3329733e-05 -5.465554e-06 1.2496594e-07 0.00012445568
-6.8048503e-06 0.00090372993 2.8907884e-06 -4.8202975e-05 7.948771e-05 -8.949872e-05 -0.00017461466 -0.00023099608
8.517641e-05 0.00016412296 2.357299e-05 -0.00016591974 -0.00014488868 1.031871e-05 -0.000101716316 -0.00023375219
7.0664246e-05 -2.1027201e-05 -0.00010316808 -2.2991913e-05 -0.00029415323 -7.78797e-05 -7.060298e-07 0.0005617351
9.102474e-06 -2.33623e-06 3.4320146e-05 -9.172634e-05 4.991131e-05 2.0561476e-05 -0.00012437232 9.177086e-05
8.172659e-05 3.956852e-06 -0.00022810508 -0.00010476422 1.8385908e-05 2.9651486e-05 -8.8696455e-05 -4.689997e-05
3.8201986e-05 3.1067866e-05 -2.6082856e-05 -0.0003087734 -5.107809e-05 -6.65721e-07 -1.1262435e-05 7.829265e-06
-5.6911493e-05 -6.60192e-05 -5.8991252e-05 -2.8448318e-05 -7.4641124e-05 2.3582406e-05 3.43972e-05 1.4647037e-05
-4.045324e-05 4.172689e-05 -2.6056736e-05 1.6568913e-05 0.000101339865 -5.3333424e-06 -6.41978e-05 2.4684909e-05
-0.00033323874 -5.1330586e-05 5.5434557e-06 -8.147117e-07 -1.2972654e-05 -7.967289e-05 3.3077056e-05 -0.00024276314
5.3593874e-05 -1.2434066e-05 -0.00030207355 0.00032013783 -2.9195104e-05 0.00012303216 -0.00039601917 1.2029384e-05
-0.00014880605 -1.3969489e-05 -1.6700189e-05 -9.106475e-05 -0.0003538519 -3.3215445e-05 -2.570348e-05 1.2883967e-05
0.00014490537 0.00020664872 -0.00017929639 0.00025022318 -0.00031313347 0.00013137246 -3.7404287e-05 8.691676e-05
-3.640145e-05 -3.0956944e-05 0.0005309692 -0.00012142777 0.00031079171 -0.00045883266 4.030997e-05 0.00026336798
-3.822011e-05 0.00024028054 -0.0003504207 0.00018060529 1.3718047e-05 -0.00021556308 -0.00051233976 7.469492e-05
5.770875e-05 6.22527e-05 0.00039450423 -1.0914082e-06 0.00011435277 9.238337e-05 -6.0028106e-07 -0.00024121402
0.00011075038 -4.8996153e-06 0.00012589143 3.4423763e-05 0.0005284004 4.8572045e-05 -8.4644285e-05 -0.00057420705
-0.0008911884 1.2053133e-05 -0.00033421622 -6.1909595e-05 0.00027477203 -5.977133e-05 0.0004380316 -0.00018060661
4.326812e-05 -7.17253e-05 -0.0003522209 -7.213882e-05 1.163852e-05 -0.00020390193 -0.00023394966 0.00022871282
-8.824827e-06 9.2113434e-05 -3.4876139e-06 3.5663506e-06 -9.902138e-05 -3.5507263e-05 5.4414406e-05 1.4361423e-05
-0.00012146105 -7.5084055e-05 -5.1593037e-05 -0.00019119369 1.1446298e-05 3.204275e-05 -2.6470014e-05 9.702937e-06
0.00018811382 -4.4841654e-06 2.3572347e-05 9.904248e-06 3.035472e-05 -0.00018915944 -1.9645882e-05 -7.031988e-05
-0.0001705088 2.481239e-05 -5.3662818e-05 5.128701e-05 1.7639832e-05 3.9249094e-06 5.0968803e-05 -1.3591595e-05
4.6530113e-05 2.0669995e-06 2.5540674e-05 -1.0065505e-06 -5.4131437e-05 -1.8546878e-05 -3.8068356e-05 -7.4326446e-05
-0.00012453372 6.839435e-05 5.8159305e-05 0.00025860805 -0.00013974292 3.2450716e-05 -0.00022136614 -9.4360075e-06
0.00018418091 0.00017129569 -0.00014333107 0.0003787897 1.2657025e-05 8.840023e-06 -3.521412e-05 0.0001434068
